testingPath/savedModel_776.npz (npz, 636580 bytes, 3 tensors)

imat f8 [1682, 50]
000000 7e 70 c5 94 fc d0 c3 3f ec 34 66 08 96 e8 95 bf
       0.15481526626797754 -0.021395057928704483
000010 fc c1 b2 40 b1 6c d1 3f 3b 25 f9 22 c6 96 d0 bf
       0.27225905721846266 -0.25920251288751545
000020 46 6f b6 67 97 e2 c7 bf 45 4f fa 5a d3 24 c5 bf
       -0.18660252155393148 -0.16518632833742167
000030 88 52 d3 f3 d3 34 bf 3f 1c 14 eb fe e0 95 bd 3f
       0.12189984038134061 0.11556822036352837
000040 14 1a de 7b 21 42 ac 3f b0 99 6b 17 a5 ae 77 bf
       0.055192037935786115 -0.005781788719764355
000050 b0 0a 87 2b 19 48 a2 3f 92 64 81 16 3a 77 c0 bf
       0.03570631653157841 -0.1286385164155815
000060 e8 cd bf 93 6a 7e 80 bf e4 1c 24 3a 98 c0 c9 3f
       -0.008053619989346353 0.20119002188605528
000070 f3 ee 62 3f e7 64 b9 bf d0 ea f7 3e 6f b4 b1 3f
       -0.09919591233750306 0.06915946280779939
000080 94 06 7e 2f 80 22 d2 bf f7 c2 f8 6d 4e 89 c0 bf
       -0.2833557571212648 -0.12919025773728496
000090 24 f2 56 5e a9 c6 83 3f e8 e1 3b b6 4e cf a4 bf
       0.009656260673062418 -0.04064413046393495
0000a0 9a 39 19 b4 f9 94 bf bf 1f bb 17 b6 e6 21 ae bf
       -0.12336693427025694 -0.058852395752060575
0000b0 48 71 f4 7c 0c b9 c1 bf aa a1 64 d8 9f 85 d1 3f
       -0.13845974065123756 0.27378078586709853
0000c0 65 d7 6b 09 3f 30 c7 bf 9e 28 3e 44 4e 76 97 3f
       -0.18115985832235562 0.022912238040171055
0000d0 91 7f 81 32 60 37 90 bf 70 06 8c f7 5d b2 b9 3f
       -0.015836241800911536 0.10037791532161022
0000e0 53 0d 0d f6 6c b7 d1 bf d2 7b 80 5d b9 bf ce 3f
       -0.2768204119531294 0.24022595468065205
0000f0 08 1d d4 77 41 93 c4 3f 1d 52 b8 ea f4 dc bc 3f
       0.16074388838772102 0.11274653177708456
000100 0e 13 12 35 74 af c0 bf e6 ca 96 f4 4f 20 ac bf
       -0.13035442916238832 -0.054934023482379676
000110 a6 b7 d4 53 c1 2d b0 bf 5b 48 a3 df 59 a4 b7 bf
       -0.0631981687226629 -0.09235154828937324
000120 30 a7 8d 84 75 46 dc 3f 70 7b fc ff 43 ad b4 3f
       0.4418004793611656 0.08076882362045779
000130 16 38 ed 00 f0 cf c2 bf 18 86 a9 bb 75 2d a4 bf
       -0.1469707493328662 -0.03940933147238129
000140 42 f8 ec 70 8b b4 bb 3f 14 10 aa d2 76 27 c0 bf
       0.10822364336942861 -0.12620435034125477
000150 06 b8 2b 01 69 45 cd 3f db e5 0c 85 6c 33 c0 3f
       0.22868073041121323 0.1265693330440588
000160 12 9f f3 a6 60 d0 d8 bf a4 16 bf 36 a9 a9 99 3f
       -0.3877183561694305 0.025061267820794556
000170 41 90 99 83 ac c1 cb 3f 6f 4d e3 54 6d f7 d1 bf
       0.21684795785688674 -0.2807267502768899
000180 d5 f9 33 e2 63 f2 94 bf 19 28 21 59 df 0a b3 bf
       -0.02045589511998876 -0.07438465047849298
000190 8f 58 0a 5d ed 7c ad bf 10 c6 00 68 55 05 c0 3f
       -0.0575937439036106 0.12516276911041802
0001a0 4a f7 ff ab 2b 70 d6 3f a6 90 2f 5e 39 84 94 bf
       0.3505963496862604 -0.02003564488758571
0001b0 0a df eb 8e 30 34 ba bf c3 cd 52 cf bd 7e bc bf
       -0.10235885133067427 -0.11130892097099036
0001c0 ea ac 78 4c 3f 3c d3 3f b6 12 88 bb 2e 0c b9 3f
       0.3005522009650138 0.09784214094549779
0001d0 8e 71 b5 79 66 ba 91 bf c6 48 1e de fc b2 9f 3f
       -0.017312623194230485 0.03095622163488867
0001e0 08 2b 22 aa af a7 c7 3f 44 79 43 4a 58 3c b5 3f
       0.18480487639711662 0.08295203984332483
0001f0 9a df df 80 84 9a c0 3f 03 55 74 36 d3 6c a5 bf
       0.1297155026693389 -0.041845894238727886
000200 b0 29 c1 95 33 b5 9f 3f f6 15 0b 10 ce 19 b3 3f
       0.030964666381160633 0.07461250201875899
000210 a5 a6 24 01 d4 28 b1 bf 82 2c 74 bd 93 85 a1 bf
       -0.06702923801335688 -0.03422223746937282
000220 22 24 be 17 84 a1 bf bf 71 09 dc 92 77 ef d1 bf
       -0.12355828838021002 -0.2802409109282485
000230 f9 42 70 51 b5 3a b4 3f a6 8e 12 44 2a 87 c0 3f
       0.07902081716771282 0.12912491153575906
000240 d5 7c 39 26 49 bf b9 3f a0 86 c4 6b 86 0d a6 3f
       0.10057503874985525 0.04307193818591526
000250 03 45 b0 b2 c1 57 d6 bf 18 c1 d0 a2 67 fb b1 3f
       -0.34910623979619987 0.07024238324152454
000260 aa 4c e9 6f cb b4 d5 3f f4 e4 be 83 e5 8d 80 3f
       0.3391598313221019 0.008083146174487223
000270 cc ab 02 69 d6 81 a7 bf 4f e0 2f bf 0b e5 c3 3f
       -0.045912456816345676 0.15542742572120224
000280 d8 5f d4 c7 cd 5a a1 3f 46 f9 64 df 91 ae b0 3f
       0.03389590324712771 0.06516372398343603
000290 da aa c0 86 d8 1c da bf db 3e f6 de 52 8e bf bf
       -0.4080106082862308 -0.12326543754010848
0002a0 35 9b 7b 56 5c e4 92 3f e6 8a 59 a9 dc 90 87 3f
       0.018449251917355986 0.011506771009583482
0002b0 d0 f7 4c f4 72 85 81 bf 5d 1a 1e 2f 39 88 af 3f
       -0.008555315094436994 0.061586176873835476
0002c0 d1 ea 5b 8c 13 6c b5 bf 26 0e 1c 5b 4b 7d 89 bf
       -0.0836803643868891 -0.012446011274284418
0002d0 50 a9 7b 67 c9 fd ab 3f 75 85 58 9c d0 c3 c3 3f
       0.05467061413021901 0.15441329607078172
0002e0 24 21 5f 5a 9c 8f c2 3f 20 bf c6 06 77 f5 8c 3f
       0.14500765240360025 0.01414006223134795
0002f0 c0 eb b0 9e 37 4c 86 3f 27 b1 3a 09 96 2e b4 bf
       0.01088756039654537 -0.07883584714244717
000300 7e ad 2c c6 39 3a 81 3f ba 8a 3a c4 2e 43 cc 3f
       0.008411837921434847 0.22080025273779375
000310 73 98 d1 af 22 e7 d4 3f 2b 06 af 9d 3b 52 bc bf
       0.326607391069394 -0.11062977409076129
000320 6c 8c b4 9f 98 a6 c5 3f d0 17 b4 79 8c c9 d6 bf
       0.16914661214932225 -0.35605155835253033
000330 70 51 7d 10 25 78 b3 3f dc 34 80 49 11 fc c4 3f
       0.07605201389862315 0.16394249047190257
000340 90 49 7d b1 28 14 71 3f 84 80 5f 3e e2 e5 bc 3f
       0.00416961570575082 0.11288274786739022
000350 18 ca c7 73 fd 36 b8 bf 3e 6d 9c c4 8f e0 a7 bf
       -0.09458908154173462 -0.04663514399563916
000360 08 f3 7e ac 17 23 a3 3f 42 15 bb a2 54 1e c6 3f
       0.0373771093431739 0.17280061670150287
000370 1c 57 d8 56 e1 0c ba 3f 17 e3 8d e2 a9 31 ca bf
       0.10175903673402015 -0.2046406131956011
000380 56 45 d1 f4 50 65 a2 bf 89 71 5d e8 63 c2 c0 3f
       -0.03592923153395115 0.1309323200793069
000390 96 bd 02 fd ab 65 d1 3f c8 8c ea 64 ec e4 b3 3f
       0.2718305559928579 0.07771184409880327
0003a0 3f f4 24 3c c6 63 d8 bf 6d 7f a0 1b 10 d3 b2 bf
       -0.38108974336120477 -0.07353306459890314
0003b0 28 2c 7d 6e 9e 33 d9 3f fc 24 0c c2 41 df d0 3f
       0.3937755660051061 0.2636265177721524
0003c0 b7 99 f8 62 0c 0d 83 bf e8 8e 7e bd d3 8b ca bf
       -0.00930223156963171 -0.2073921847596616
0003d0 8e 6a 87 29 cf 0f c1 bf 7a 76 22 cb 9f 2f ae 3f
       -0.13329495933324548 0.05895709376021059
0003e0 5a 8c 17 95 23 27 b8 bf 00 69 2b 2e 65 ab 4e bf
       -0.09434721364918755 -0.000935959248035162
0003f0 2f 01 2a 9b 95 8d ca 3f 08 2a 6f 3c 7a 25 c9 3f
       0.20744581295367356 0.1964562220658339
000400 03 27 97 4f c7 b0 ca bf 80 f5 7a 1c fb 4f cb bf
       -0.2085198534608069 -0.21337832346572938
000410 ab 69 db 8f 36 1d b7 3f 40 44 2c 54 95 32 c1 3f
       0.09028950702796716 0.13435618028646168
000420 ec 7c 0c ab a6 2c c7 3f 94 f8 34 15 f8 66 d5 3f
       0.18105014183036106 0.33440973349559866
000430 84 b1 bb ce df ff bc 3f 30 23 71 c0 db 8c a8 bf
       0.11327933118054118 -0.04794966434616865
000440 f4 cc 6e 77 43 c0 96 3f 22 a1 7b 99 45 25 c7 bf
       0.022217802204704776 -0.18082494730266158
000450 62 d3 0c 8d fd 19 c9 3f c4 d6 66 cf ab b3 b8 3f
       0.1961056650849527 0.09649156392591879
000460 38 a7 68 61 61 ab ae bf f2 c4 c4 42 1c d8 cc 3f
       -0.05990127862999234 0.2253451658266737
000470 b6 e0 5f 8c 3b 48 a8 3f 7a 74 de bb c5 5a bc 3f
       0.047426091085016095 0.11076007687229775
000480 d0 9b 0d dc 82 73 96 bf 43 14 76 d0 90 43 be bf
       -0.021925015145281723 -0.1182184704722014
000490 1f 7a 65 8e fa 3b c8 3f 2d e7 c6 33 a3 1c 98 bf
       0.18933040574025115 -0.023546743426528117
0004a0 88 4e 97 11 59 ca 87 bf a0 8d 1c bb f5 47 cf 3f
       -0.011616416787467956 0.24438354145341368
0004b0 1e 8d 0f 86 38 12 71 3f 32 29 6d a7 df 84 bc 3f
       0.0041677673297926526 0.11140249097403368
0004c0 27 bc e1 ea 7a 5b c4 bf d0 90 ac bc da b6 82 bf
       -0.15904175251805094 -0.009137829668880576
0004d0 60 d4 f5 39 d6 71 d4 bf 06 58 7c 66 5c 7c b4 3f
       -0.3194480482118873 0.08002259733288505
0004e0 5b 79 a6 37 6b 07 c2 bf be d3 12 80 30 d2 d2 bf
       -0.14085140435504226 -0.2940789461820791
0004f0 1c 5a 09 74 34 83 c7 3f 4c 97 06 60 cc 4f b9 bf
       0.18369155565115214 -0.09887387604120795
000500 6c fb b7 4b a2 5d bb 3f cb b6 49 a2 ea 3a b0 bf
       0.10689749096489515 -0.06339899503810924
000510 27 bb 5f 77 14 40 bf 3f 88 4c 4a e9 01 0d b2 3f
       0.122071532386809 0.07051097817957175
000520 e0 fd cd 3e 66 86 a8 3f 50 2b 9c a0 4a 09 b5 bf
       0.04790038601549518 -0.08217302724021391
000530 e8 b3 ca 20 da 8b ca 3f 02 98 d7 c5 76 31 ca bf
       0.20739294625437243 -0.2046345201517284
000540 57 35 52 c3 74 2c d4 3f 66 6a e4 8e a3 4f 96 3f
       0.3152133853371501 0.02178817329068252
000550 c0 ff ff 84 09 4c 5e bf cf 91 24 be 3c fa a4 3f
       -0.0018491833652660578 0.04097165890769682
000560 89 00 d1 95 25 a6 73 3f b4 2e 55 7a cd d0 b4 bf
       0.004797121827380243 -0.08131107555999045
000570 ed 7b 50 f3 e5 b9 de 3f e2 39 3b 37 9e 2b ca bf
       0.4800963283650493 -0.20445611664622648
000580 4c 8d ec 70 01 fd c5 bf 37 ca 78 f1 b2 39 ca bf
       -0.1717836190592642 -0.20488583365075083
000590 98 cd e8 f8 5a cf da bf 65 90 75 98 67 40 d9 3f
       -0.4189059668308004 0.3945559491023743
0005a0 ec 8b 0e fa 08 9d bd bf e5 b9 12 ad c7 81 c5 3f
       -0.11567741494086164 0.16802307082021098
0005b0 30 13 52 5d d5 12 b5 3f e8 65 ae 3a c1 19 6c bf
       0.08231862572035875 -0.0034302495964311126
0005c0 8d 96 cd 7d 90 d1 e0 3f 1c 82 22 23 61 7a 9d 3f
       0.5255815941897751 0.02878715302415645
0005d0 8b 56 31 5a bf c8 d3 3f b7 fd b4 ac 4f fb aa 3f
       0.3091276531971309 0.05269860251655294
0005e0 4e 2f 38 f5 c0 1c cd bf 90 a5 00 8d a6 7b c2 3f
       -0.22743999456030867 0.14439851651085833
0005f0 95 eb 55 9a f7 6d c4 bf d4 f9 75 ea 47 b5 d3 3f
       -0.1596059325782703 0.30793950935904246
000600 f8 51 9a b2 e3 22 99 bf 34 23 a8 9c 64 c2 ba bf
       -0.024547155166674245 -0.10452870201710313
000610 3d f7 c3 f2 c5 0f b3 bf 42 14 1d 87 f3 12 aa bf
       -0.07445943047420385 -0.050925836795194815
000620 90 b0 87 8c f5 2f 66 3f 2a 80 35 4d 29 54 94 bf
       0.0027084155919877076 -0.019852300012075975
000630 39 be 8e 08 f4 fe c2 3f 66 1a b6 c6 7b bc cb 3f
       0.1484055558953388 0.21668955996229328
000640 da 5d f4 ba c3 9b d6 bf ee bd d9 09 72 8f a5 bf
       -0.3532571149566742 -0.0421100270294764
000650 8e 2e 07 80 5c 39 d9 3f 40 2c 75 e0 51 95 50 3f
       0.39412605765094433 0.0010121631219870558
000660 37 bc 6c c0 c7 e6 c0 bf d4 04 9c fe 73 3b c4 3f
       -0.13204285522212597 0.15806436473943697
000670 0e 59 38 dd bd 4e d0 3f e4 65 28 94 1f 56 cd 3f
       0.25480600932623154 0.22919077619808015
000680 9c 9a b5 81 77 20 bf bf 1e e0 a4 84 62 d5 df bf
       -0.12158915440304913 -0.4973989768363952
000690 79 bc de d0 2e 0b cd 3f c8 30 e4 a0 d7 1e 86 bf
       0.22690377424939692 -0.010801014516367849
0006a0 c6 41 27 42 98 13 b1 bf 58 f3 9b d6 44 d4 af 3f
       -0.06670524230071981 0.06216635818234434
0006b0 a8 04 54 f3 3e d5 d2 bf 8a de 60 2a 0c 47 c9 3f
       -0.2942654968501963 0.1974806982923279
0006c0 d6 cf 10 0a a6 78 c4 bf 0a d6 fa 47 d5 f2 d7 bf
       -0.1599319028042589 -0.3741963580062878
0006d0 ac f6 eb 51 43 c9 b2 bf 1f d5 69 43 74 a7 bc bf
       -0.0733835291866522 -0.11193014760813867
0006e0 ce 7b 25 07 f5 85 c5 3f 7b 2f a8 0f 87 40 d1 3f
       0.16815054749437625 0.2695634510898725
0006f0 ab 66 0e 0d f3 0f ba 3f 58 6d b1 cb 6a e8 b7 bf
       0.10180586880451396 -0.09339015458083588
000700 f0 bd 79 24 a4 3d ad bf 3f 70 e0 00 a7 a6 b4 3f
       -0.057110909893591244 0.08066791316417808
000710 6c 96 a0 61 e4 56 99 bf 06 c6 77 39 b4 e5 e0 bf
       -0.024745529612252445 -0.5280400392932172
000720 18 d0 ca ba 80 70 c4 3f 4a bf 46 c3 73 c1 b6 3f
       0.1596833145209764 0.0888893462895314
000730 1f be b9 e3 91 0c c6 3f a6 80 2a 97 55 fb c5 3f
       0.172258602327461 0.17173261529115286
000740 c6 a6 77 54 28 cf cc bf ca 55 38 6f b7 60 b2 3f
       -0.2250719463766499 0.07178827729543183
000750 6e 9b 81 f7 da bf b0 3f 8d 27 3e 9d ca 50 bb bf
       0.06542748015054453 -0.10670152987418487
000760 8f 17 ac 20 dc 49 bc 3f f1 d2 68 5c 62 86 c2 bf
       0.11050201223051047 -0.14472608101063814
000770 22 b0 b7 f0 a0 0f c7 bf 00 96 f6 f2 6f 08 ad 3f
       -0.18016444925103864 0.05670499649867722
000780 01 0d e1 64 d9 66 d5 3f ba 4e e3 eb 2a 65 ca bf
       0.33440241672015253 -0.20621239202465863
000790 a0 8e d9 47 ac 63 d6 3f b8 f7 ba a8 0b d7 d0 3f
       0.3498335553797265 0.263125338340497
0007a0 e8 be 97 35 86 36 c0 3f 4d 57 a0 9b 8a f1 c2 bf
       0.1266639482196219 -0.14799625967924115
0007b0 a0 c2 0c 11 57 14 b9 3f 0e 5b a1 80 09 8e cc bf
       0.09796661535507178 -0.223084628875505
0007c0 b0 20 fd 6b 99 83 d0 bf a3 f4 c5 4b 7f 60 d0 bf
       -0.2580321840837412 -0.2558897247288973
0007d0 38 42 7b 00 60 47 6e 3f 90 05 f5 82 bd f4 b3 3f
       0.00369614363066997 0.07795319029994219
0007e0 c1 17 3b 59 70 c1 a3 3f de 2d ec 36 05 52 93 bf
       0.038585196392474604 -0.018867570378501834
0007f0 8a 2a a8 7b b7 97 be 3f 24 ef c6 2c 85 64 a2 3f
       0.1195025135895468 0.0359231583747415

gbias f8 []
000000 92 81 80 a0 4f 3d 0c 40
       3.5299370326249084

ibias f8 [1682]
000000 d6 c5 b4 b2 94 53 dc 3f f0 37 63 bd 27 e5 e3 3f
       0.4426013703515229 0.6217230509735128
000010 db 59 3a b3 90 cd ef bf 5a 29 1b 92 0c a3 b1 bf
       -0.9938434124513223 -0.06889418189090205
000020 66 8b 40 7d e0 cd bb 3f 55 54 34 8e 33 be e6 3f
       0.10861018236077555 0.7107179429464262
000030 0f 2d a8 17 4a e2 d4 3f f6 23 9d 2b 0b d0 a0 3f
       0.3263116103195935 0.03283724696536432
000040 ec da a5 5c 56 bd c6 bf 2a b0 02 2c bf 65 d9 3f
       -0.17765311740705358 0.3968351297178311
000050 2d b2 79 67 f9 30 cb 3f 2f 88 3a be 99 8a dc bf
       0.21243207504757447 -0.44595950676932977
000060 45 ca e8 8e 2a 75 c0 3f 45 16 e9 03 eb af e2 bf
       0.12857562997813168 -0.5839743687035442
000070 e1 1f e8 8f c5 76 ea bf 4a c5 bd fd a8 55 d5 bf
       -0.8269985018423506 -0.3333532789175321
000080 79 60 be 99 c3 45 c1 bf 0e 7b fd 65 96 de 9d bf
       -0.13494153029455783 -0.029169416403756414
000090 1b dc b5 39 05 05 d5 bf 2f 04 ac 56 d4 f8 e5 bf
       -0.3284314216211343 -0.6866246884166055
0000a0 1c b0 4b 88 7f 0d 8b 3f 86 9e 03 59 2e b1 cf 3f
       0.013209339472688035 0.24759463640588225
0000b0 93 73 29 3f 3d 7a d5 3f db 3a b3 d4 13 d1 d3 bf
       0.33558589141994694 -0.30963607570167334
0000c0 3b 2d c1 10 6f 0d d6 3f 80 ba 18 a1 cd 48 df bf
       0.34456993709746414 -0.48881855709161215
0000d0 6c 46 b0 65 0e 5b d1 3f 6b 0b 50 b7 1c 73 da bf
       0.2711826317837225 -0.41327588941219656
0000e0 f8 27 54 7c 55 29 af bf 27 15 b1 9a 57 d1 ce 3f
       -0.06086222784695389 0.24076361707026558
0000f0 1a e4 17 02 f1 f2 d8 3f a1 eb cd df 5e 07 e8 3f
       0.38982796863962366 0.7508997317485077
000100 b8 cd a7 a4 2a 61 d8 3f ab 80 2a 58 c9 f2 83 3f
       0.3809305770839404 0.009740422251809674
000110 47 63 ef b5 d8 6e e0 3f a7 cc ee 64 af b7 de bf
       0.5135310700817194 -0.4799612508460975
000120 49 33 05 c4 7e cd ea 3f df 87 1c ac d1 18 d9 bf
       0.8375848606607202 -0.3921398335243093
000130 6b 65 75 75 1a 5e cf 3f 61 22 32 cf ee 6c d2 bf
       0.2450593064811913 -0.2878987334629866
000140 96 c7 c2 e2 15 a5 7b 3f c3 57 50 30 fa 79 d2 bf
       0.006749234668108081 -0.28869490354679445
000150 a4 da d8 5e 76 27 f4 bf 2f 9b c3 d1 ae 03 c3 bf
       -1.259634371277266 -0.14854989282977146
000160 41 3b 75 8f 74 5e 89 bf 74 52 04 af 9d 86 d9 3f
       -0.012387190464009048 0.39884130565159315
000170 ad 6e 7a 20 43 b1 90 3f 5a 3d 82 63 15 c1 9b 3f
       0.01630120168429865 0.027103742788822195
000180 02 ad 62 70 21 eb b0 bf eb fe 42 9a 26 e5 e3 3f
       -0.0660878085497423 0.6217225087093231
000190 7a c2 ad 2b 50 e2 cd 3f 37 22 4b 16 de b3 db bf
       0.23346902973891642 -0.4328532426557418
0001a0 75 6f df ae 77 6a de 3f 8c 07 10 6d 17 3f d8 3f
       0.47524826123639424 0.3788508000435449
0001b0 aa b9 fa dc 72 8b dd bf 68 d5 5b 18 75 4c e6 bf
       -0.46163627223986714 -0.6968331790691709
0001c0 29 22 74 76 6c 85 cd 3f 56 9b 08 11 5b 19 d3 3f
       0.23063426765317388 0.2984225908607433
0001d0 5d f2 b5 cb bc 0b e5 3f 2f 64 30 4e 41 1d bb bf
       0.6576827982640442 -0.10591514738952477
0001e0 5e f8 43 ea d4 6c b6 bf ce 14 c6 2d a8 f8 d5 bf
       -0.08759813994763152 -0.3433018157014204
0001f0 7a b2 b0 35 d7 7f d2 3f cb 5c 6a d7 c8 d7 cf 3f
       0.28905277484117387 0.24877272146543414
000200 b2 d9 22 b3 e7 a8 b2 bf c4 10 c5 da 0c a3 d3 bf
       -0.07288978694382456 -0.30682679523694056
000210 b5 9b 21 73 bf be e7 3f 7d f4 b1 08 6c a8 db 3f
       0.742034649720941 0.4321546635545202
000220 69 17 10 66 33 3d cf 3f af 7c ce e3 80 ee ea bf
       0.24405519946611356 -0.8416141938540899
000230 4e 0f 91 ed 28 a3 a5 bf 3a e0 5a bb c9 32 e1 3f
       -0.04226043605788608 0.5374497088696508
000240 fb 16 f6 d5 0a d3 b1 bf 00 4b c0 53 61 01 c2 3f
       -0.06962650035537969 0.14066711987887714
000250 a0 ef 96 d1 26 c2 ea bf 61 fe 7a 45 92 88 cb bf
       -0.8362001508280521 -0.21510532753562742
000260 07 92 cf 76 19 0b da bf b1 f3 48 01 ca de c6 3f
       -0.40692745783442813 0.1786739832185993
000270 91 a3 9c 73 b9 80 e7 3f db 98 74 30 69 ae d1 bf
       0.734463430218158 -0.276270196265967
000280 3b b4 2e 4c ce ec c5 bf 26 f1 6d af 7d 82 bd 3f
       -0.17128924102635942 0.11527238400407622
000290 5e dc 05 d4 4d 7f b9 bf 7b 3f 0e 87 d0 71 a6 bf
       -0.09959875513401203 -0.043837086187635564
0002a0 6e 87 a6 36 9c 35 c8 bf a4 40 e7 95 78 68 ea bf
       -0.18913605373841896 -0.825252812175695
0002b0 db 0e 4c b1 b4 b5 b5 bf 99 01 83 98 3c 4f b1 bf
       -0.08480386093657037 -0.06761530612403134
0002c0 86 5b 45 3e 11 06 cb 3f fe 63 d8 95 80 3c de 3f
       0.21112266102383276 0.472442766507413
0002d0 e5 a4 19 c4 17 cd a6 bf 23 de 14 2a 1d 45 e4 3f
       -0.04453348416138584 0.6334367582230168
0002e0 65 8f 8e 83 02 28 b1 3f 7e bc e5 f2 aa 67 d7 3f
       0.06701675140226156 0.3657023784680361
0002f0 98 98 60 24 8f 67 e2 3f f0 43 36 b0 d3 c0 d7 bf
       0.5751414976591773 -0.37114422043037987
000300 32 fb 41 48 87 ea d9 3f 89 44 86 8c cf 7d c5 bf
       0.4049394803659424 -0.1679019390253738
000310 e8 db fe 42 74 bc ba bf 0e 4a 4e ae 1a 85 e2 3f
       -0.10443808208115934 0.5787480739984987
000320 1d a4 b7 ba 28 2a e1 3f 0a 6f a3 91 58 dd e6 3f
       0.5363963743994905 0.7145197720051055
000330 ba 1b 2b 13 85 cb dd 3f 0c 7e 1b 0c 9c 32 ba 3f
       0.46554686424172653 0.10233474059668185
000340 9e 7f 87 39 73 e3 8b bf 77 3b 7c aa cb c5 dd 3f
       -0.013617420380739816 0.4651974835295997
000350 83 e0 bc bf 40 32 e7 bf 07 2b f8 56 62 ab e9 bf
       -0.7248843903426095 -0.8021709154721471
000360 77 2c bf 3b 5e bc d7 3f ef f3 93 bb 8b 9b a4 3f
       0.3708720763649533 0.040249220512101995
000370 e0 79 e4 8b 97 9a d1 3f 2b 63 83 72 23 3b d7 3f
       0.2750605455529733 0.36298452551777655
000380 13 42 8f fe d1 68 d9 3f fc ff 38 c5 79 b3 d2 3f
       0.3970227228101361 0.29220432529473306
000390 4c 16 2c 3d e7 47 a0 3f da 82 c8 29 dd fc d3 3f
       0.03179857846957343 0.3123085887946623
0003a0 cd ab e4 b3 f9 76 e7 bf f9 a4 b6 a1 95 6e da bf
       -0.7332733644046755 -0.4129995421631772
0003b0 25 3d 55 33 2a 93 db 3f 2f 26 a4 cb 7f 45 bc 3f
       0.4308572293566207 0.11043547364911242
0003c0 6b a0 88 fa 26 d0 b3 3f b4 cd 33 95 68 04 bb bf
       0.07739490143342358 -0.10553601877818758
0003d0 94 0b 3a 93 92 bd d2 bf e3 f5 98 53 65 b7 df bf
       -0.2928205907593846 -0.49556859172648
0003e0 05 bb b0 8d 8d 3e d2 bf f9 1d 70 0f 98 75 e6 3f
       -0.2850679286665783 0.7018547345659832
0003f0 95 fb 87 5b 97 69 f6 bf 97 41 de 92 f7 77 b4 bf
       -1.4007791114270038 -0.07995555244111184
000400 d0 c2 b9 36 3c 39 c8 bf 27 d2 6c 9e 78 b0 c9 3f
       -0.18924667999410483 0.20069797263717357
000410 01 e3 f3 92 45 e8 e6 3f 1c 6c 0f e5 c2 72 e3 bf
       0.7158534879846173 -0.6077589486916426
000420 97 2e 5b e9 09 a8 cb bf 17 68 c9 96 83 91 db 3f
       -0.21606563467354498 0.43075647092121144
000430 bf e1 af d5 9f 49 bc bf a6 f5 c9 f6 3a 40 c8 3f
       -0.11049841849297247 0.18946015405883293
000440 73 17 aa 3f f4 3f cb bf df e5 60 1a 21 d0 d1 3f
       -0.2128892241345813 0.2783282048800099
000450 e7 cc 2e e7 d6 ed ae 3f 83 c0 8d 1c 97 75 d0 3f
       0.06040832111411892 0.2571771410794172
000460 94 4f 6c 7e 6d 9d c4 3f 79 e1 c0 86 bd d0 a3 3f
       0.16105431244852453 0.03870193738879641
000470 69 e4 7a 87 42 74 d5 bf 21 46 d3 41 88 39 bc 3f
       -0.3352209399268476 0.11025287253439632
000480 44 aa 57 96 a2 b3 e2 bf e4 58 9e 37 1b 76 d4 3f
       -0.5844281135917488 0.3197086375379412
000490 26 a1 11 81 56 2d ea bf a5 22 c0 c5 92 f6 d3 bf
       -0.8180344124676011 -0.3119246417195803
0004a0 71 3e 6b b4 80 5f d7 3f 8e 79 cd a2 e1 73 f2 bf
       0.3652040254500895 -1.153291355083272
0004b0 72 6c 53 6c 87 5b b1 3f 82 9a 2c 50 6b e4 d7 bf
       0.06780287165331503 -0.3733166010810366
0004c0 88 8b 76 b0 bf 9a ba 3f 12 12 b9 d6 29 b6 cd 3f
       0.10392377908878647 0.2321216867877785
0004d0 9a e7 7f 0e 96 4d d1 3f 2c 0f 97 b6 f9 f2 d5 bf
       0.27036048332194584 -0.3429550440889553
0004e0 62 55 4e 21 a5 3a e0 3f 02 df 38 96 bf 30 d1 3f
       0.5071588182933449 0.26860036535389054
0004f0 fb 86 3a 76 af ff d0 bf e3 d5 11 4c 41 74 ca bf
       -0.26560579820407754 -0.2066728230890212
000500 49 5a 2a 58 d5 dc 79 bf db 0d 1d 6d ec 4e e5 3f
       -0.006314118744418958 0.6658842211840538
000510 a3 e2 de 7e d4 aa e2 bf ef 9b e3 6e d3 76 ee bf
       -0.5833532789175319 -0.9520051160624216
000520 ad 76 1e 40 0e 74 dd bf 2d 4b 65 83 e9 fe e8 bf
       -0.46020847570057805 -0.7811172071763842
000530 40 89 f8 bf 9b e9 d7 3f b3 fd 2e 02 d7 82 f2 bf
       0.3736333250727917 -1.1569433293624172
000540 04 84 17 92 e3 ad e9 bf 71 44 4c c0 d4 bb d3 3f
       -0.802476678214703 0.30833929804891286
000550 d5 cb 4d 98 8f 4f e1 3f 04 55 f4 9e 95 27 cc bf
       0.5409620260892277 -0.21995802174993895
000560 be 4c 6a c9 40 32 cf bf 62 c3 c2 e1 7d b9 df bf
       -0.24372110209205816 -0.49569651648476143
000570 3c 04 be 44 b3 0f ed 3f ab 03 3b eb aa 9c d9 bf
       0.9081665365812408 -0.4001872346089452
000580 57 b2 73 7e 95 c9 c3 bf c3 0c e8 55 62 14 c5 bf
       -0.15458935427104123 -0.16468457407618162
000590 90 c7 4d b1 6a a7 d4 bf a3 ff a8 77 6a 78 cd 3f
       -0.3227183085901908 0.2302373012807922
0005a0 6b 0b b8 3f 22 71 ed 3f 39 ca bc b8 32 55 e5 bf
       0.920060276461624 -0.6666501625207452
0005b0 90 12 22 23 e6 e9 d1 3f ff ee 80 19 ea 5c c2 3f
       0.27990106039968854 0.14346052403731588
0005c0 a3 52 48 d1 55 16 8e bf ca 40 31 b6 4f 0c e9 3f
       -0.01469103856019533 0.7827528532452785
0005d0 06 5f f9 b9 fc df e1 3f ce d3 44 4f 50 44 f8 bf
       0.558592189055134 -1.516678151744816
0005e0 79 04 a5 81 63 45 d2 3f 06 c4 5e 94 ab d1 e7 3f
       0.28548514996152324 0.7443445108275462
0005f0 af d6 9c a8 f3 35 e3 bf 55 7d 9d 17 79 c2 d4 3f
       -0.6003359120574795 0.32436969095393425
000600 8b a0 43 fe 0f 62 de bf 42 9d d6 ef cd 77 e2 bf
       -0.4747352583931465 -0.5771245655386468
000610 47 d0 21 ff 07 31 e7 bf f5 4f ba eb e6 f4 c5 bf
       -0.7247352583931467 -0.17153631696839935
000620 92 cc e5 b1 3c 4c de bf 47 2c 34 e5 98 25 e6 bf
       -0.47340314266984607 -0.6920895077358943
000630 46 67 a5 e7 5a 72 b8 bf b0 63 7a 46 bc 56 d6 3f
       -0.095494920305467 0.3490439117682014
000640 ce 0a e8 19 42 79 ed 3f fb d9 26 e3 53 3e be 3f
       0.9210520273193994 0.11813854499528269
000650 98 6a 63 7b d9 9d d4 bf 51 f6 a5 51 28 0b 82 3f
       -0.3221343712772664 0.008810343734462796
000660 2d 5b 64 db d0 b9 b1 3f 73 87 bf 9c 4d d6 e5 bf
       0.06924157482386013 -0.6824100553023825
000670 c2 51 07 d6 6b c5 cf bf 25 39 ab ce 07 23 c1 3f
       -0.24821231794943627 0.13388154593708027
000680 00 29 ac 81 ae a5 bb bf 21 e9 9e be be ef d0 3f
       -0.1079968515952352 0.2646328794031821
000690 ed 03 2d 72 50 f4 d2 bf 34 02 27 7e f1 5a b2 bf
       -0.29616175794586647 -0.07170018510715509
0006a0 2f 11 99 67 77 36 e1 bf bd 04 c1 76 fa 3f c4 bf
       -0.5378987334629864 -0.15820246504339322
0006b0 df c0 8a 35 cf 3d bd 3f 25 2b 29 89 17 1a f0 bf
       0.1142243867605006 -1.0063701017231292
0006c0 8c 9e 51 5a c9 b3 e0 3f 7f 13 40 8c 80 21 e3 3f
       0.521946598438221 0.5978396167052863
0006d0 82 65 82 17 37 aa 9c bf 2e cd a5 0b 23 e1 de bf
       -0.027993069467446847 -0.48249126565424916
0006e0 4e 85 8d fd b7 3a d5 3f 7b e7 5b 3e 13 7b d0 3f
       0.33170890580193635 0.25751191224809816
0006f0 f8 93 82 00 b3 52 d5 3f ff 51 55 b7 6f dc d8 bf
       0.3331725602131992 -0.38845436957970486
000700 2d 04 ac 56 d4 f8 e5 bf a5 3e 96 b6 6d 70 d1 3f
       -0.6866246884166053 0.2724870951724177
000710 3c 2c 4d 6a 56 af b1 bf 0f cd 03 8d ac d0 c9 bf
       -0.06908168883562466 -0.20168072591295824
000720 53 0f 73 7a a0 e4 d9 bf 3a 97 16 a7 53 e6 d3 3f
       -0.4045792766375957 0.31093303029262
000730 53 4b 5f 57 0d af e1 3f b4 18 85 5e be c5 c7 3f
       0.5526186663140414 0.18572215666990177
000740 93 20 df 0e a1 ba a0 bf d6 49 4f 34 20 1c de bf
       -0.03267386728799795 -0.4704666624867547
000750 da 7a e6 82 e8 0c dc bf b8 fb 7f b0 e8 6d dd 3f
       -0.4382878568957672 0.45983330951997514
000760 20 d6 49 e1 3c 23 e1 3f 50 64 61 f9 9a a8 ed bf
       0.5355514907993815 -0.9268317099296244
000770 7f 5c 27 8e f3 92 dc 3f 40 1f 95 05 e7 c7 ec 3f
       0.4464692009182229 0.8994021519692765
000780 59 85 48 c3 95 f4 e7 3f 1c ab 67 bf 6d 01 e5 3f
       0.7486065687300353 0.6564244020822545
000790 cf b7 9d 3a 39 71 ad 3f 41 1d 79 de d5 53 c3 3f
       0.05750445213821786 0.15099595416016068
0007a0 26 b8 b5 9b d7 08 c6 3f b2 1d 5f 91 1f 9a d4 bf
       0.17214484313029849 -0.32190694042625545
0007b0 e5 fe b2 2f 4a a1 e8 bf c5 c0 38 5c 59 2c d3 3f
       -0.769688695108894 0.29958185201668314
0007c0 55 2e 81 76 64 e4 e1 bf ec 52 fb c3 12 95 b2 bf
       -0.5591299356978633 -0.07258717808447174
0007d0 c2 03 d9 d1 e2 96 af bf 32 2e cd 78 bd 2a d9 bf
       -0.06169804393403623 -0.3932336501791013
0007e0 05 e4 db 21 54 17 da bf 61 40 cd 2c 0b 17 cf bf
       -0.4076738672879972 -0.24289073646150697
0007f0 a7 70 99 52 90 ea e3 3f a8 a5 d6 93 4b fa d4 bf
       0.6223832715291068 -0.32777680814123267
