testingPath/savedModel_777.npz (npz, 632798 bytes, 3 tensors)

imat f8 [1682, 50]
0	0x3fa1fbbc30537b47	0.0351237114898511
1	0xbfa2dc15a493aff6	-0.03683536180491835
2	0xbfc21ba9941d14eb	-0.14146918995007893
3	0x3fd17939bd7fb15a	0.273024020249769
4	0x3fb6368e511d65d3	0.08676995735495234
5	0x3fb99935fe3d9a68	0.09999406296774682
6	0xbfbed4a58847d612	-0.12043222977794013
7	0x3fbf0fa869a5b4f5	0.12133267001418686
8	0x3f8a536b276f0210	0.012854420796316851
9	0xbf53df856d59ef38	-0.0012129595756098076
10	0x3fd47acf914dc025	0.31999577703300225
11	0xbfc494aac417d3bd	-0.1607869584546772
12	0x3fb62874cb62df57	0.08655481305583855
13	0x3f62822457050a60	0.0022593221439433514
14	0xbfc0a3aca5f258b3	-0.12999494650711582
15	0xbf964165f9041348	-0.02173384983418039
16	0xbfc1c000aa16a643	-0.13867195420361797
17	0xbfd757205d624a49	-0.36469277495885827
18	0x3fc1f5bbe189fead	0.14031170380257177
19	0x3fd3b46aca4a063b	0.3078867888908438
20	0x3f758dcf1e6bdcf8	0.0052621927813938305
21	0xbfc14b6272340df2	-0.13511305404982427
22	0x3fa53f2f48e2918b	0.04149768604955558
23	0x3faef27f4567e128	0.06044385645140188
24	0xbfb0393fbf8ea7b6	-0.06337355066958036
25	0xbfd0e484be938af8	-0.26394766436548833
26	0xbf989dc96356ac00	-0.02403940838636842
27	0x3fb5785381c7bc8e	0.08386728208982872
28	0x3fcd2d03311a7150	0.2279361715089956
29	0x3fa069df2a142243	0.03205773724227303
30	0xbfc8cb9d068e3553	-0.19371378727047758
31	0x3fc580453e320d66	0.1679770044030235
32	0x3fc4474797f9b05f	0.15842528267546904
33	0x3fa53ab312fbf192	0.04146346670856639
34	0x3fd2b1f013e3d37b	0.2921104616391898
35	0x3fc408d92b6ff730	0.15652002926793207
36	0xbfa1ca9151ecbaf6	-0.03474859356935227
37	0x3f9f3c1109fdfbb2	0.030502573237295834
38	0xbfadecdbed5e48d0	-0.05844771645128477
39	0xbfc93371561091c4	-0.1968824072111045
40	0x3fdc3d30fb3763cb	0.4412348225865201
41	0xbfbcbbb4773b3b47	-0.11223915015146445
42	0xbfd16e882bfa3f80	-0.2723713330715256
43	0x3fb15506292a0d85	0.06770361428248435
44	0xbf9f87a10aebe0bc	-0.03079082135352061
45	0xbf85635b19cc89f0	-0.01044341251833189
46	0x3fc9640d05508cf1	0.1983658100080912
47	0xbfc6b63d24e6b3be	-0.17743648816886365
48	0xbfcc5ed86b40dd56	-0.22164445149403872
49	0xbfc79e6a60fdfd64	-0.18452195869393073
50	0x3fdbd13f8d6d4bf9	0.43464649974083575
51	0xbfc196c5c3bba40b	-0.13741371209405914
52	0xbf7e44be5a9d8c07	-0.007389777727300212
53	0xbf9506bc11f50e65	-0.020533503147147764
54	0x3faf671304ef352a	0.06133326945528446
55	0x3fd014e06220841c	0.25127420027462377
56	0xbfbc02a48744f674	-0.10941532423472627
57	0x3fcdcc2c6d8e0090	0.23279338216162104
58	0xbf508fdb6b90d01c	-0.001010860707777012
59	0x3fd2db8a3362c56c	0.2946496488394448
60	0xbfaa6b0cb0ed4c98	-0.051597973439720224
61	0x3fd8c836eaec7f0d	0.38722012464312244
62	0xbfa2f7b8d2600d16	-0.03704621856743466
63	0x3fae699a87cf05f4	0.05939944179364068
64	0x3fad904775dd9294	0.05774138749874172
65	0x3fc418939b61851a	0.1570000179954512
66	0x3fa35ab650a74cf7	0.03780145391979233
67	0x3fa73afb8c681a92	0.04537187661121779
68	0x3f7ff476d9f39c5a	0.007801498664071616
69	0xbfc5bb64c65c68b0	-0.16978130040735584
70	0x3fc5d3b2f53b2805	0.17052304243253516
71	0xbf855358704ed8a7	-0.010412875106208764
72	0x3f8a0043e23b82ce	0.01269581827313129
73	0x3fc427c598a46b64	0.1574637408565095
74	0xbfa2625e2140286a	-0.035906735953248184
75	0xbfa4598f0c1c0cb2	-0.03974577925512203
76	0x3fb1c79911a406c7	0.06945187264139029
77	0x3fb824961c588980	0.09430826370274836
78	0x3fb8b2325d55fa88	0.09646906641681074
79	0xbfc16602aca35d6f	-0.13592561177822968
80	0x3f9c6d62a27defc4	0.027761021774025854
81	0xbfac7be4fdd87f41	-0.05563274000837604
82	0xbf8f6b14dbe1dbd6	-0.015340960464738911
83	0x3fa63f5fa9e43beb	0.0434522528540738
84	0x3fc18d0e66393aa0	0.13711719504722897
85	0x3fb1043cdb134097	0.06647091244235735
86	0x3fd01d574a72bf7c	0.2517908312829531
87	0x3fa711e8b4115900	0.045058509808471925
88	0xbfaae26be96788a1	-0.05250870918440965
89	0xbfb6feb6ae82cf1f	-0.08982412109872627
90	0x3fd44347383d37fa	0.31660633556464257
91	0xbf5fbd0cbdd0e220	-0.0019371628216174955
92	0xbfd22fc8433fd004	-0.28416639869033156
93	0x3fc3fbae5645fc25	0.1561181946999294
94	0x3fbd0182c053e7fd	0.11330430217267913
95	0x3fc75c3a4d1ea9f6	0.1825020672379904
96	0x3fb1a95c072a432b	0.06899047064713375
97	0xbfc1a68ae80aa463	-0.1378949769034846
98	0xbfb40c5a19e76c10	-0.07831347591802307
99	0xbf93809bb184b51a	-0.019045288762915204
100	0xbfcf8d49275726cc	-0.24649919911308016
101	0xbfc37c32a5d43b62	-0.15222771737213764
102	0x3fce12feea529c64	0.23495470468080548
103	0x3fd1da987b560230	0.2789670185520974
104	0xbfc43ea92aa717dc	-0.1581622560753989
105	0xbf9ebbd3d05d5c18	-0.030013379662104794
106	0xbfb656ff116285dc	-0.08726495909151971
107	0xbfcb88d898c6fafe	-0.21511371097400195
108	0xbfb31f2c022ca21b	-0.07469439557156259
109	0xbf8359d3ef8aa300	-0.009448676822402913
110	0xbfce0b02fbdc4448	-0.23471104905960005
111	0xbfc9841e2c2874b8	-0.19934441715387208
112	0x3fbfb895c843afac	0.12391029490726052
113	0x3f86f53e7fb48008	0.011209953567743028
114	0x3fd2ca5980e4bcbb	0.2936004408574708
115	0xbfc44ad423ddcb48	-0.15853358985222088
116	0x3fa9391c6aeb0aca	0.04926384740021701
117	0xbfd0d2e6bb69f96f	-0.26287239362854725
118	0xbfd2347caa2b1443	-0.2844535505103673
119	0x3fc474cd2954a0f5	0.15981449621290947
120	0xbfbc8cb4ac281d58	-0.11152199938816432
121	0xbfc93550d88a9c90	-0.1969395692187601
122	0x3fd40114dce3d1e4	0.31256600924760236
123	0xbfb9916d7c38d084	-0.09987530024301533
124	0x3fc1ad0c414442f5	0.13809350191925032
125	0x3faaa445cdc11750	0.052034551016318376
126	0x3fc3934521b60892	0.15293182512329345
127	0x3fb5bc61245be372	0.08490569245976845
128	0xbfc83067c1e3eb21	-0.18897721259403347
129	0x3f8b9beec998d178	0.01348101189351135
130	0xbfb72971891b17ae	-0.09047612759886078
131	0x3fcbab2be5b8fc4c	0.2161612388317472
132	0x3fc24e1a3779b008	0.14300849636799762
133	0x3fb0b6ed15b98e38	0.06529123096839207
134	0x3fc62c2ba84687b6	0.1732229777963405
135	0xbf91dd8af79e5d10	-0.01744668136924782
136	0x3fa01da0d5edae4e	0.03147604571753658
137	0xbfb3481b04f624af	-0.07531899329309753
138	0xbfd2e523cd49a16e	-0.29523558662051286
139	0xbfcb671c6143a189	-0.21408419369914736
140	0xbf9ff5466edfe8c0	-0.031209087865115448
141	0x3f93ca82bc9f3f70	0.01932720447786046
142	0xbfc4311bac18232e	-0.15774866011659
143	0xbfc6d038c03b0d94	-0.17822942148459886
144	0xbfa5c8d82500109f	-0.042547945515282175
145	0xbfbec47e79fd9590	-0.1201857612446331
146	0x3fa58da15196d89c	0.042096177301048615
147	0x3fb890b43a09c2cc	0.09595800797411441
148	0xbfbc873c1bab35ba	-0.11143851924426587
149	0x3fda79f86f30f67c	0.4136944852687987
150	0x3facc3ca7a182b56	0.056181266216376244
151	0xbf8012539cd31ff8	-0.00784745523777984
152	0x3fc160c173b14c92	0.13576524876643653
153	0x3fd5e817132bb92e	0.3422906577315129
154	0xbfa98561c3ee75e8	-0.049845748107354926
155	0x3f78922b4bc78288	0.005998772740412613
156	0x3fa0cec924d9525b	0.03282764983001548
157	0xbfb86d4d426a6234	-0.09541781302903801
158	0xbfb94bf5427855f3	-0.09881527779392467
159	0x3fa1790319831ad0	0.03412637411525099
160	0x3fd76e527b4f69e1	0.36610853235256796
161	0x3fc1b3610e61f726	0.13828671648291752
162	0xbfcd8233e11fa1e8	-0.23053596966134582
163	0xbf90e8eb8ef6412e	-0.01651351985998522
164	0xbfd565911dc6276e	-0.3343241492044545
165	0x3fa113bd143dfbe7	0.03335371849151852
166	0xbfd3003945706d43	-0.29688865452927277
167	0xbfc60cbf8f1cba20	-0.17226404655362249
168	0xbfa783368011b89d	-0.04592294991822252
169	0x3fba94e06ff26972	0.10383417828635347
170	0x3fcb116e659afecc	0.2114694591637004
171	0xbfcedb770c6fb7b2	-0.24107254130598005
172	0xbf4eebd6b0c55330	-0.0009436414998541306
173	0xbfcf0d239ecef7dc	-0.24258847479171564
174	0x3fba8227cf649edb	0.10354851544672831
175	0x3fc36171926895a3	0.15141124390463032
176	0x3fd0a90b52f3eb0f	0.26031764126644047
177	0xbfd1e6a44aeebf32	-0.2797022563708992
178	0xbfad1875c357ec71	-0.05682724008144014
179	0xbfba2a1e953eb90f	-0.1022051920287803
180	0xbfab45c343031606	-0.053266622476751777
181	0xbfb5846abce70e1f	-0.08405177223090064
182	0x3f506bd71639a520	0.0010022736031721283
183	0xbfc6d2b08e283886	-0.17830473843827493
184	0x3fcca34e30097735	0.22373368592791967
185	0x3fcb8ad272562e1b	0.2151740129742031
186	0xbfd39086f9d2e2d2	-0.30569624325611955
187	0xbfd619af0366a10e	-0.34531760532492306
188	0x3fb28aab953fc09f	0.07242844003462999
189	0xbfc6d9a0e5c535b8	-0.17851649493461053
190	0xbfb45a4c83176989	-0.07950285149073556
191	0x3fc9e7fb523c633b	0.20239202037262224
192	0x3fcad4b775768382	0.20961659656043358
193	0xbfc152acb10b65ce	-0.13533552784683284
194	0xbfa0c762da0c73ba	-0.03277119552351544
195	0xbfd0c23b2f230e8a	-0.26185493090836387
196	0x3fc0c640eae1aece	0.13105021923853716
197	0xbfc2b7e29c873770	-0.14623673098543177
198	0x3fe11c13b918dab7	0.5346773734261977
199	0x3fc82033718af76a	0.18848269504627108
200	0x3fd1f6a76b0d3ac0	0.28067956403985406
201	0xbfbab6a43cdda476	-0.1043493889425394
202	0xbfc4fc976334162c	-0.1639584764854346
203	0xbf6a1637e3c0e840	-0.003184422645088808
204	0xbfc493f8da18b99c	-0.1607657494473188
205	0xbfc125daea96bbc4	-0.13396774725467087
206	0xbfd439dba4c20ed0	-0.31603137101795387
207	0x3fbeea1f6bc2ff58	0.12075992947484104
208	0xbf83814399fc0c7e	-0.009523895394073497
209	0x3fad0cdb73acb8b2	0.056738717909284545
210	0x3fcdb9b663aac17f	0.23222999445489376
211	0x3fbdab106902cc4c	0.11589148105376629
212	0xbfc88b798d84ebfd	-0.19175643358343555
213	0x3fc45225332c88c4	0.15875687597969634
214	0x3fb1f204b8515ca4	0.07009915828654073
215	0xbfc7358dd9a002b3	-0.1813218414900085
216	0xbfaacb1fe5d29b7a	-0.05233096771671959
217	0x3f9d55f58d542e86	0.028648220778491516
218	0x3f73d793241dcdd6	0.00484425999626433
219	0x3fd8ec6243451edc	0.38942772454582353
220	0x3fd05696910ea7f1	0.25528492131945685
221	0x3fc6799fa8c760d9	0.17558665982392688
222	0xbfc8465bedd7c40a	-0.18964718926829988
223	0x3fb7985f8d691c43	0.09216878130347177
224	0xbfdc4282f43b8a71	-0.44155954218709953
225	0x3fd2adfbe3026665	0.29186913651356
226	0xbfdb5b1a720159ab	-0.4274355042774924
227	0x3fc522c4c3815252	0.16512355371618753
228	0x3fe25558646c2acc	0.5729181252839566
229	0xbfbbec59ab06b721	-0.10907516885228265
230	0xbf9693832bd3f9d8	-0.02204709010129044
231	0xbfa4e93a72088092	-0.04084189073569279
232	0x3fa556d266f502f0	0.04167802340317006
233	0x3fd331733a458987	0.2998931950625309
234	0x3fd74b8fecc5322c	0.36398695108508394
235	0x3fb92d139d85e2f8	0.09834406467224344
236	0x3fb83a06779468c7	0.0946353952353177
237	0xbfd7d0c13dd9258a	-0.3721163848864185
238	0xbf7b660b8b4bf120	-0.006689114660499734
239	0xbfc2b19892ac8a15	-0.14604479944053197
240	0xbfc368fe87913f46	-0.15164167041302273
241	0x3fb52b5409222bb0	0.08269238684640245
242	0xbfd4fed4e60a8116	-0.3280536886686759
243	0x3f909fbda6041bfa	0.016234362848106067
244	0x3fbb5c31ef34e8ec	0.10687553491598906
245	0x3fc6c0d02232e510	0.1777591864572874
246	0xbfb541f8ee516851	-0.08303790872869966
247	0x3fa0258de8c40c5e	0.03153651682262003
248	0x3f669d1c1386f280	0.0027604626049806957
249	0xbfd5b8d1feb8f2ec	-0.3394055354618064
250	0xbfbada11561ee3b2	-0.10488994934611531
251	0xbf65979c3fcf331e	-0.0026357700103062506
252	0xbfba5faa96356ec2	-0.10302225272374257
253	0x3fc69240ea3ad1f2	0.17633830487251562
254	0x3fa0aaeb44cef6d4	0.0325540086264319
255	0x3fa7778d6460cb5e	0.045833986762224596

gbias f8 []
0	0x400c3d273d5bab22	3.52986

ibias f8 [1682]
0	0x3fdc54ca8df95cff	0.4426752459016398
1	0x3fe3e1a9745a5cfa	0.6212966225165524
2	0xbfefcd1c06970ad0	-0.9937877777777775
3	0xbfb19e4b511e31bf	-0.06882162790697686
4	0x3fbbd2bb8de51300	0.10868427480916054
5	0x3fe68bbe765cca44	0.704558592964823
6	0x3fd4e3863a32750b	0.32638698275862116
7	0x3fa0d9945b6c374b	0.03290999999999985
8	0xbfc6bae2a0cfb161	-0.1775782857142856
9	0x3fd966f7d8fed9c3	0.3969096774193554
10	0x3fcb33751c492aa0	0.21250785714285758
11	0xbfdc896654476b11	-0.4458862135922326
12	0x3fc077a805b89b1f	0.12865162162162222
13	0xbfe2af567e8ae8eb	-0.5839035483870963
14	0xbfea762acd009ca7	-0.8269247058823525
15	0xbfd5548a9bcfd4bc	-0.33328499999999983
16	0xbfc1436b8f9b131d	-0.13487000000000018
17	0xbf9dcae9612bfc4a	-0.02909435897435867
18	0xbfd503f314dad732	-0.32836606060606066
19	0xbfe5f868a39f1daf	-0.6865733333333334
20	0x3f8b331e8408ead9	0.013281095890410754
21	0x3fcfb385b7e73d21	0.24766608695652173
22	0x3fd57b79d4b5910c	0.3356613709677425
23	0xbfd3cfd6275a7e2b	-0.3095603355704692
24	0x3fd60eaea0f2a85b	0.34464612691465896
25	0xbfdf4790c4b971fa	-0.48874301158301103
26	0x3fd1b3facdce7343	0.2766100892857148
27	0xbfda71f5f5b379a1	-0.4132056140350873
28	0xbfaf1fe6c05b563b	-0.060790263157894896
29	0x3fced3d276c73b8b	0.24083929824561454
30	0x3fd8f427954ef3de	0.3899020155038765
31	0x3fe8022b58daaa6d	0.7502648101265784
32	0x3fd80644b5ab1074	0.3753825925925931
33	0x3f841a3f5a1a8dcf	0.009815688073394306
34	0x3fe08f516b22250d	0.517494878048781
35	0xbfdeb6e8908836cf	-0.4799138461538463
36	0x3feace1c8a521dfa	0.8376600934579408
37	0xbfd917b5f9ee0fba	-0.3920721951219509
38	0x3fcf607b15f3e139	0.2451318604651165
39	0xbfd26bd06d4431d3	-0.28783045454545436
40	0x3f7bf33cccf4040d	0.006823766233766027
41	0xbfd278df7a4e7ab3	-0.28862749999999976
42	0xbff42732378ab0c7	-1.2595693749999997
43	0xbfc3013a92a30544	-0.14847499999999958
44	0xbf8938375ef6749e	-0.012314255319149144
45	0x3fd7c8216c61522d	0.37159000000000014
46	0x3f90c4b25aa02d3c	0.01637533834586445
47	0x3f9461795d67a63e	0.019903084112149687
48	0xbfb0e640b53bcdc0	-0.06601337837837828
49	0x3fe3d36293329775	0.6195538401559434
50	0x3fcde4c45122798c	0.2335439106145255
51	0xbfdbb2a23bb28057	-0.4327779372197304
52	0x3fde4b8d25edcfe9	0.47336128906249414
53	0x3fd8405436b8f9bb	0.37892632812500054
54	0xbfdd8a3e30612e2e	-0.4615626785714281
55	0xbfe64bde76257757	-0.696761351351351
56	0x3fcd87e46d013d96	0.23070960352422948
57	0x3fd31a98de3b43bc	0.2984983606557383
58	0x3fe50c5a6c7c6690	0.6577579611650481
59	0xbfbb1888d5850aa0	-0.1058431168831171
60	0xbfb667d5e6a2d156	-0.08752190476190455
61	0xbfd5f77301d8387e	-0.3432281034482755
62	0x3fd2810dc8e7c23f	0.28912682170542675
63	0x3fcfda2f0c4c0321	0.24884594059405976
64	0xbfb2a42e27081f77	-0.07281769230769251
65	0xbfd3a1d8ff2eae2f	-0.3067533962264148
66	0x3fe7d9fd66e73985	0.7453600892857116
67	0x3fdba995136e4f31	0.4322254838709681
68	0x3fcf3faec0c19088	0.2441309395973159
69	0xbfeaedfa43fe5c8f	-0.8415499999999997
70	0xbfa599cb720294df	-0.04218898550724658
71	0x3fe1335f9313c7e0	0.5375211594202902
72	0xbfb1ce26d4801f6b	-0.06955187499999986
73	0x3fc203d3f1229f5d	0.14074181818181844
74	0xbfeac1a6ecf79de8	-0.8361391666666664
75	0xbfcb862f94890d91	-0.21503252747252735
76	0xbfda09df8b770f37	-0.4068526136363632
77	0x3fc6e147e5490541	0.17875002570694146
78	0x3fe781569c5e129a	0.7345383695652175
79	0xbfd1ad34e97c4b89	-0.27619669724770596
80	0xbfc5ea863c415c0f	-0.17121961538461547
81	0x3fbd8745557dc9fb	0.11534531914893613
82	0xbfb97a60cdd23b23	-0.09952359223300937
83	0xbfa667e665fbcd1d	-0.043761444043321364
84	0xbfc8333b279b5e42	-0.1890634482758618
85	0xbfea67df7350e8db	-0.8251797916666662
86	0xbfb5b0bdfbe91ccc	-0.08472812080536868
87	0xbfb14a5db5a58a2d	-0.06754098591549314
88	0x3fcb088563ba1299	0.21119754189944187
89	0x3fde3dbdc41a840b	0.4725183882783887
90	0xbfa6c5197a248965	-0.04447250000000017
91	0x3fe445b9919196f4	0.6335113375796184
92	0x3fafb72a263567e4	0.06194431034482742
93	0x3fd7719f11fbe409	0.36630989795918417
94	0x3fe2682c5f29812e	0.5752164705882359
95	0xbfd7a373517af5a3	-0.36935122448979935
96	0x3fd9ebc28003d61f	0.40501463414634203
97	0xbfc57b5d4bf8e24b	-0.16782728395061705
98	0xbfbab77d6899d59b	-0.10436233333333293
99	0x3fe285b8ceaeca18	0.5788234745762706
100	0x3fe12ac70f74eed9	0.5364718725099592
101	0x3fe6d941f38dcf13	0.7140207058823499
102	0x3fde039ef0f16f41	0.46897099999999986
103	0x3fb9ba654dd9b953	0.10050042296072563
104	0xbf8bbc1bef2dfe9f	-0.013542383419689328
105	0x3fddc6f853aae99c	0.46526916666666707
106	0xbfe731a84690b9d3	-0.7248116853932579
107	0xbfe9aadeb504d86b	-0.8021081481481479
108	0x3fd7bd98996849ea	0.37094702702702753
109	0x3fa4a4abfb4954a0	0.040318846153845955
110	0x3fd19bce37c4c403	0.27513461538461587
111	0x3fd74cbcd38cb253	0.3640586915887855
112	0x3fd96a0fd0304eef	0.39709849673202674
113	0x3fd274de81d42e90	0.2883831279620859
114	0x3fa051c359653edd	0.03187380281690164
115	0x3fd3fe13bcff929f	0.31238263565891516
116	0xbfe80139c80b43c4	-0.750149622641509
117	0xbfda6d592095f4f8	-0.4129240816326525
118	0x3fdb94672df27b1b	0.4309328030303036
119	0x3fbc4993a6beb8e0	0.11049769230769213
120	0x3fb446f4ad4a5fde	0.07920769911504474
121	0xbfbaffa91e347fc6	-0.10546357142857152
122	0xbfd2bc67f4392f60	-0.2927493939393937
123	0xbfdfb643e2664a6b	-0.49549958333333305
124	0xbfd23d58434a0ad1	-0.2849941880341876
125	0x3fe6763538318d0e	0.7019296739130441
126	0xbff66951cd3a5163	-1.4007127777777775
127	0xbfb474674bda64e2	-0.07990117647058839
128	0xbfc83701280a3236	-0.1891786046511627
129	0x3fc9b2969710d5f6	0.20076258064516112
130	0x3fe6def7ee9044c6	0.7147178325123142
131	0xbfe372276b3e3e14	-0.6076848120300746
132	0xbfcba63736cdf26c	-0.21601000000000015
133	0x3fdb3f04e6467f25	0.4257213829787239
134	0xbfbc450b1b95304d	-0.11042851851851872
135	0x3fc842af813f36dd	0.1895350819672136
136	0xbfcb3d774f5dcc13	-0.2128132951289393
137	0x3fd1d1577b1b3da4	0.2784022047244099
138	0x3faef70cf4135b38	0.060478596491228165
139	0x3fd076d3ff113f5b	0.25725269230769293
140	0x3fc49feb411cf6bc	0.16113033942558797
141	0x3fa3da9da0e23a0d	0.03877728070175488
142	0xbfd5730acec3868e	-0.3351466197183094
143	0x3fbc3e15f1e66e5d	0.11032235294117627
144	0xbfe2b30455c7524f	-0.5843526530612254
145	0x3fd47752f055b6bf	0.3197829577464794
146	0xbfea2cba732df501	-0.8179599999999995
147	0xbfd3f55b8d8626af	-0.31185044117647015
148	0x3fd70d6645fd4de1	0.36019284090909137
149	0xbff273abc947064e	-1.1532399999999998
150	0x3fad8266e54df952	0.05763551282051317
151	0xbfd7e332e9de7ec0	-0.3732421192052975
152	0x3fba9efba1be9325	0.10398838709677401
153	0x3fcdb89fcc95e51e	0.23219678391959858
154	0x3fd14ecf7b358aff	0.27043520958083883
155	0xbfd5f1ccbeb92556	-0.34288328767123255
156	0x3fe03b444f7aecd1	0.5072347214076222
157	0x3fd1584ba0629052	0.2710141245136174
158	0xbfd0fe77222eb754	-0.2655313333333329
159	0xbfca71db17302f8d	-0.2065996039603956
160	0xbf79907f39ec4044	-0.006241318681318889
161	0x3fe54b3bdc516fc4	0.665433817204296
162	0xbfe2aa454de7ea5c	-0.5832849999999996
163	0xbfee7649a429b144	-0.9519394117647058
164	0xbfdd72f5aa46f5be	-0.4601415789473683
165	0xbfe8fe51778f510b	-0.7810447058823525
166	0x3fd7f0346815ea74	0.3740359322033904
167	0xbff2828e4fb97bb6	-1.1568739999999997
168	0xbfe9ad4d65f37fe9	-0.8024050704225348
169	0x3fd3bcfe9b7bf1eb	0.3084103125000001
170	0x3fe1502a85f0176b	0.5410359016393448
171	0xbfcc25e6d2c0bb04	-0.2199066666666668
172	0xbfcf2fcf4d3ceab0	-0.24364653846153805
173	0xbfdfb84493119906	-0.4956218181818176
174	0x3fed10518f8412a0	0.9082420161290266
175	0xbfd99b6cda72397c	-0.4001114018691607
176	0xbfc3c73ccde3a1ea	-0.154517746478873
177	0xbfc511ee64a9d9d9	-0.16460971751412393
178	0xbfd4a6398b53e525	-0.32264555555555524
179	0x3fcd7ae553bf25f9	0.23031298245614076
180	0x3fed71bce4eb639f	0.9201340170940177
181	0xbfe55494cf9dc45d	-0.6665748648648663
182	0x3fd1eb22bf60abdd	0.2799765461847395
183	0x3fc25f2b8d4360d3	0.14352936170212746
184	0xbf92aedf66cfd960	-0.01824521126760581
185	0x3fe90ceb0c2165f2	0.7828269230769236
186	0x3fe1e096dd7585af	0.558665688073395
187	0xbff84407c702ab7f	-1.5166089795918365
188	0x3fd246956b28faae	0.28555808510638314
189	0x3fe7d24b323ff859	0.7444206220095665
190	0xbfe3355cbcdd4993	-0.6002639473684205
191	0x3fd46685cafec88d	0.3187574846625772
192	0xbfde60ee8d10f513	-0.47466624999999957
193	0xbfe27737c3b29927	-0.5770529577464786
194	0xbfe7307746887a8b	-0.7246662499999997
195	0xbfc5f27be01c4356	-0.17146252100840326
196	0xbfde4b0427ca66d6	-0.4733286274509799
197	0xbfe624fee52db068	-0.6920160747663546
198	0xbfb86d7e60d7717f	-0.09542074074074057
199	0x3fd4a01e55744a98	0.32227285714285747
200	0x3fed79e0fc07bef0	0.9211277887788736
201	0x3fbd8e891b2f6bfd	0.11545617021276651
202	0xbfd49cc8de2ac324	-0.3220693750000001
203	0x3f8231dcaa48cc51	0.0088841666666665
204	0x3fb1beb9f04edd9a	0.0693165027322408
205	0xbfe5d5b6090c3015	-0.6823377777777774
206	0xbfcfc323c619f996	-0.24814269230769231
207	0x3fc0760893ebcce1	0.1286020967741939
208	0xbfbba0d09a3d99a9	-0.10792258992805749
209	0x3fd0f978245861d4	0.26522639798488723
210	0xbfd2f339027a3f2b	-0.296095135135135
211	0xbfb25609d0c4f726	-0.07162534090909087
212	0xbfe135e836a218e8	-0.5378304545454542
213	0xbfc43da317dd6621	-0.1581310144927537
214	0x3fbd426fe718a85f	0.1142949999999998
215	0xbff019cc87e4c177	-1.006298571428571
216	0x3fe0c7e03236f675	0.5243988972431014
217	0x3fe31e622fdd5bf8	0.5974589285714265
218	0xbf9c975534d4ff46	-0.027921038961039167
219	0xbfdedff06e8e22d6	-0.4824181632653056
220	0x3fd53bf1e8e60811	0.33178375000000054
221	0x3fd0081984764840	0.2504943650793656
222	0x3fd553db9de50ec9	0.3332432786885247
223	0xbfd8db4efd741914	-0.3883855319148932
224	0xbfe5f868a39f1dad	-0.6865733333333331
225	0x3fd171a120895bc3	0.27256038834951485
226	0xbfb1aa6ef2a0d926	-0.06900685714285668
227	0xbfc9ce552e202e73	-0.20160927536231874
228	0xbfd9e374cb014006	-0.40450782608695623
229	0x3fd3e7900c32ede2	0.311008464730291
230	0x3fe1afa8a0fad33d	0.5526927131782952
231	0x3fc7eb3f6cd8365c	0.1868666917293237
232	0xbfa0b0ed3d859cab	-0.03259984375000021
233	0xbfde1aee1c7b775d	-0.4703936842105259
234	0xbfdc0bff299fdcc4	-0.43823222222222236
235	0x3fdd6f1f8c93c392	0.4599074242424247
236	0x3fe123d30d6dda3b	0.5356230985915497
237	0xbfeda82be8bc169c	-0.92677875
238	0x3fdc942b46deba5a	0.4465435211267611
239	0x3fecc885c429780c	0.8994778472222165
240	0x3fe7ecb8c117aa44	0.7476466914498094
241	0x3fe50209a5f2496b	0.6564987412587419
242	0x3fb062557333ad4e	0.06400045454545486
243	0x3fc35644d23064ed	0.1510702158273384
244	0x3fc50a493afe1aa2	0.16437640552995442
245	0xbfd498f95152ba39	-0.3218367857142855
246	0xbfe8a0bd593faa16	-0.7696215384615381
247	0x3fd3357621d165e7	0.30013802816901464
248	0xbfe1e40639d5e4a5	-0.5590850000000002
249	0xbfb29045b9a457ce	-0.07251392156862765
250	0xbfaf8d78ae7322bb	-0.06162621621621641
251	0xbfd8d839b972f0ee	-0.3881973563218385
252	0xbfdaa4a6cdea9908	-0.4162995348837204
253	0xbfcf14987138280c	-0.24281602409638514
254	0x3fe3e6be34498061	0.6219168683274
255	0xbfd4f94eb7ce9ebe	-0.3277165217391306
