data_dummy/MFmodel.npz (npz, 965674 bytes, 5 tensors)

imat f8 [1674, 50]
00000000: d4b8 ed55 c46f b1bf 1299 0ba4 b9cf cb3f
00000010: fee8 dcc4 c876 9abf d86b 87a4 6cf3 d0bf
00000020: 32e9 bc3e 0ee5 d5bf d800 9cec a3f0 843f
00000030: a4d3 16af ddd4 d33f b111 bd62 ce8f b53f
00000040: 9251 6c62 5e03 b33f f45a f452 db96 b5bf
00000050: 2e8f a30a f697 b03f 2fc3 9668 dbf8 c43f
00000060: a59d aaf6 6466 b5bf c88e fa82 154c cebf
00000070: e813 5fa3 c068 c1bf 4290 b4b6 c45a 8a3f
00000080: dc2e f26b 88ef b4bf b448 e70d 3260 ba3f
00000090: 1ab6 ae21 6ee2 b1bf f369 7185 fce5 c8bf
000000a0: b459 5b49 a6d5 b2bf 6caf ae11 1b03 96bf
000000b0: bae7 028e aadf cf3f 17ee 5b6c 0412 d3bf
000000c0: e295 5e95 92ee ae3f 5ccf 7804 b2cf d7bf
000000d0: 7ccd 5251 e3d0 b7bf 40fa 4af9 4d0f 51bf
000000e0: 30e6 e614 90f5 cf3f 4011 4be4 c105 c53f
000000f0: 9e8a 73f7 0b57 b7bf 8acc 59ba 0ede ccbf
00000100: 5256 3439 1c03 d03f aa95 fd16 73e0 bc3f
00000110: b4d0 5147 acf5 babf 3c05 e0b1 e666 c7bf
00000120: 0341 2571 b6e9 b8bf e006 8720 73b7 b4bf
00000130: d8e9 3264 93ec 8a3f 14aa e07f bc4d acbf
00000140: 1a43 bf74 550e a5bf 3a17 7d1e fdc4 cb3f
00000150: a867 17a1 156c ce3f ecbb 2242 83ea a03f
00000160: e845 c1d7 b552 b93f 42c3 b2fa db05 9c3f
00000170: 0e64 70d8 09fb a83f 0ddd 97cf ee42 babf
00000180: 3088 9a58 41f0 c6bf ccc1 da7f abc0 d93f
00000190: b6ee 0c67 b8cd 963f 5a9a 7f42 6358 c9bf
000001a0: 32e4 b83d e9fa a13f 1230 5e2c 309f a9bf
000001b0: a767 2ef1 842a bfbf 2429 bbf5 c1e4 c53f
000001c0: 30d9 277e 556d 57bf dc50 cef9 4e4b 913f
000001d0: acd5 6b7d 1986 ad3f c708 43dc f2a0 d03f
000001e0: 4057 a22b d26f bcbf 6a7a cf97 cfd7 9e3f
000001f0: 3ef9 fef2 3c85 b9bf cb4c aa67 1c78 ccbf
00000200: 7e76 6f9a 1cfa c7bf e8d8 61c7 6bb3 ccbf
00000210: 5349 7653 02f4 863f defd 0f3a 9080 a63f
00000220: b3b4 5206 157b a73f e449 c708 27de d2bf
00000230: 4848 e804 fd4d a3bf bc95 2ccd 0b33 b73f
00000240: a0af 1fd6 63c4 cebf c4c1 eb40 8aad b0bf
00000250: ce66 6e55 97d5 a73f 2862 6e2c 7de3 bfbf
00000260: b5a0 0c44 4d4a b03f fc76 02a8 4acf b83f
00000270: 480f 25c2 64ff d13f 965d b65a b8f0 b4bf
00000280: 5cda c9c5 816b 733f 7c0c c81d cc61 c33f
00000290: 982f 6f78 0dbe 6cbf 5a2a 21bb 7b0f b03f
000002a0: 5f24 d4ba b5db c13f 8468 0ad3 46b7 66bf
000002b0: 609d 771c d908 ccbf eaff eef7 bf25 c83f
000002c0: ea71 a557 6bfa d13f 4ca8 9c68 686f cbbf
000002d0: 7207 b01c 5e9b abbf b6ad 8391 de5e b63f
000002e0: 8941 c6ba cc90 cf3f 01ac 4b3b 2c60 d1bf
000002f0: 6a7b 15ce a9d6 b3bf 9524 8f94 815b c9bf
00000300: 09a9 7f46 cb9f c73f 5c93 61fe 170f c4bf
00000310: 9945 6082 2ea4 b6bf ceff e2e9 47bd c63f
00000320: 1fef ebb6 b953 c3bf 6c4e 467e d0e2 ba3f
00000330: 7404 538f 3b65 ab3f 5e8e 7c98 611e ccbf
00000340: fed4 93c7 9311 b03f d923 b6ba cb20 d33f
00000350: ac3c 7873 5fc5 c63f 19c9 3de0 e615 c43f
00000360: 2e0c 01eb 73ad c23f baf8 396b feae d5bf
00000370: b39c 66b4 a6d9 be3f c0ae 022e 9e71 d73f
00000380: 9813 a61c 1d6a c93f 80f5 8615 6f80 8fbf
00000390: 0c57 1b6b de44 c4bf 2c5f a814 9d3a cd3f
000003a0: ca0d 6ef3 a44c bb3f 0ec2 e82e e983 d0bf
000003b0: 60ec 6565 eb70 963f 9e19 c850 2b1f bcbf
000003c0: 924b 330a 213a d63f 86ff 5c65 bf0e a4bf
000003d0: 185e 834b 6fe0 be3f 8821 1a10 b589 b8bf
000003e0: 128c 70da d054 ca3f 5a90 f0b1 b0b2 cd3f
000003f0: 8b26 5d94 f1d5 a73f cf23 478a 56fc c93f
00000400: 8831 7327 9da9 ad3f a67c 1c16 59e2 b1bf
00000410: 30d1 a874 73fe bebf b468 67f4 b168 cbbf
00000420: 72b7 5909 2f10 c33f c6a2 5d1f 9228 b23f
00000430: c28c 7568 1f52 b9bf 9ce3 c1a6 25c2 923f
00000440: fef2 ade6 3dba c23f 2088 c2ef f699 7fbf
00000450: 98fa 212d 1939 c8bf 3c15 d180 0a9e 993f
00000460: d886 72a7 c9d1 85bf ea43 3ab0 2596 d8bf
00000470: 9025 679b d030 8fbf 9ecc 8a27 a05b cc3f
00000480: 2287 fdcc 098c c63f 1b5b 3218 a67f c8bf
00000490: b8a5 3989 58fe 85bf e4e7 0a2e 3a49 b6bf
000004a0: 178c 719d 9456 c13f 8267 cb30 9ae6 b0bf
000004b0: 1ef7 bf9e a2fd afbf 0ed7 691a c213 bfbf
000004c0: c798 931d 0b81 c5bf 6026 e803 0cde d03f
000004d0: 8cae ec79 1b68 d2bf 74b9 def9 ad2b d2bf
000004e0: 5954 db1a e830 b5bf 25ce 4660 586b aa3f
000004f0: ea66 d98c f43b cb3f e527 521a ec2b c3bf
00000500: 6b96 cd13 bb1c b83f 5731 42ca 735a a13f
00000510: efb2 b4c9 a664 d63f 803b 1d3b afed cabf
00000520: abc5 1706 8586 953f 38bf 6fee b5d5 8c3f
00000530: f09f cc2b 3bed cd3f eb90 be1c 5718 b5bf
00000540: 7711 fc3d e0d3 c03f 336f 246e 273c cbbf
00000550: 9e3d 7502 f2bc a13f 5ed9 55e2 3c60 bf3f
00000560: 53be 0795 344b d13f 6eb3 3c7a 2d07 c13f
00000570: 3643 a29d 64a0 cebf 318b 473e a6aa cebf
00000580: 942e ab4b dae3 ae3f bc15 3875 e1e9 cd3f
00000590: 9a6f 8034 6116 d6bf 7b3a 5a08 2fe8 b53f
000005a0: ab77 8cb4 cb49 cabf c633 e228 86be d0bf
000005b0: eb7b 71ff ff41 c0bf 0733 d462 c19a c3bf
000005c0: c888 7c89 ed55 8a3f 20c6 0320 cc2c c2bf
000005d0: 5fa2 ae1a 3905 b23f d257 00b0 83cf c4bf
000005e0: 283b 8eff 3487 9ebf 200b 04a1 7ae8 abbf
000005f0: 2e5d a36b d4e9 c1bf 766c 2051 1bbb c3bf
00000600: 34e8 e628 ea60 bdbf eaac 761d 79bb b8bf
00000610: 0ef5 30a5 4396 afbf ea8f 75cf f859 bebf
00000620: 7631 f040 2b7f d83f 6e6d 3863 b3f6 83bf
00000630: c269 ebd7 5e63 c8bf c17e 3881 0c08 9e3f
00000640: e0d7 b119 0e22 cdbf 41bb 8ebd e373 d03f
00000650: 0232 3487 6fcf d13f 3e48 2583 882d c1bf
00000660: 10e8 17ce 625d b43f 7c50 0248 9443 c33f
00000670: a171 e58c b541 cbbf 246d ebd8 2967 ddbf
00000680: df63 ed1f d66a dc3f ac7b 2ccf 310c 9e3f
00000690: ef1c 715f 88e7 b0bf 2ec4 5f9a 9f2a cc3f
000006a0: 2e92 c448 2cd2 cdbf 4c1b a22d 69af a5bf
000006b0: fbc4 17fd de1f d13f d455 ed09 6ccf c0bf
000006c0: abdd 20e0 fcb0 b73f 7f93 3563 262d bf3f
000006d0: 4e69 95ae 06af 9a3f 49d9 3b73 b6d9 c93f
000006e0: 5d69 2305 ae41 d4bf ced9 65da 632a aabf
000006f0: 64aa 53f2 8c1c 9e3f fc2b 7405 28ef a83f
00000700: 2d3c f4e2 9d6f 95bf bc3c 6cbb b164 d6bf
00000710: f6b4 4f4a aeff d6bf df87 a05c 8991 c93f
00000720: 2aac 8b46 75f3 c93f babb 650f 42a0 a3bf
00000730: 9e8e 2231 92bb cbbf 245e 757e 1f0d a6bf
00000740: 7472 97c3 fab5 a0bf becd 9726 9397 bebf
00000750: eb7a 93eb d91d cbbf 0445 01cd 77a5 8f3f
00000760: e856 2023 5821 95bf 97a3 538a 1e1c d1bf
00000770: 8566 3105 26df d83f 5a99 7c43 f0e1 c1bf
00000780: b7fc fc2f 3cdb b7bf 5ebe d1eb 9430 bc3f
00000790: c0ab bf7b afcb d83f 4b98 044f 2ceb dcbf
000007a0: b4ef 5cdd 4b39 a73f d81d ce1f d15a 793f
000007b0: 95b6 8b0f f62c c93f 4c74 4db9 ed51 c0bf
000007c0: 7a55 6a4f d8b8 c53f 4a99 a7f5 f350 d83f
000007d0: 3094 8241 6609 c6bf 78e8 ae5a e44f 87bf
000007e0: 3090 569b e294 b4bf eed9 a707 e483 b7bf
000007f0: a2dd c889 0fad c0bf 9194 9f5d a966 b53f
-0.06811167810312507 0.21727676877998953 -0.025843750968513206 -0.2648574454048549 -0.34210544707061097 0.010224610002751808 0.30986730669547513 0.08422555838212166
0.07427015211971469 -0.08433314109093343 0.064818742368115 0.16384451491242077 -0.08359366438036504 -0.2366969003243098 -0.13600929238432902 0.01286843950817496
-0.08177998195077002 0.1030303272193887 -0.06986130068136057 -0.19451862827084163 -0.07357253352106491 -0.02149622245239817 0.24901325163028593 -0.297974687404094
0.06041391442640155 -0.3720517200156246 -0.09303112731395474 -0.0010412465536969867 0.2496814825115492 0.16423820159082858 -0.09117197791378337 -0.22552665805014654
0.2501898344647532 0.1127998286370572 -0.1053111719246001 -0.18282779393488535 -0.09731617224065663 -0.08092422050597348 0.013146544928862733 -0.055280581102426535
-0.041124983311993726 0.21694911946013368 0.2376734768466211 0.033039190123751755 0.09891830937819857 0.027366101433190744 0.04879027144506419 -0.10258381431764381
-0.17920700861310612 0.40238463865082674 0.02226913575144237 -0.19800987956041888 0.03511742475934233 -0.05004263440704916 -0.12174254310812548 0.17104362963284203
-0.001429875840242522 0.016888841626113357 0.057663723526199945 0.2598235274309783 -0.11108125272070613 0.030120128289008376 -0.09968930180091193 -0.22241549550799386
-0.18732030430594543 -0.2242254947229363 0.011207597896632981 0.04394961079378466 0.04586091711221609 -0.2948091111876734 -0.03770437893776141 0.09062265166411171
-0.24036834674131757 -0.06514801106437235 0.046551446131343974 -0.12456495604272588 0.06363375579224136 0.09691301919744072 0.281212987513062 -0.08179809775025712
0.004741198467505283 0.15142203764125728 -0.003508592900720541 0.06273625677673902 0.13951751348966732 -0.0027729399956344953 -0.21902002229692652 0.18865203481800502
0.2809093814774132 -0.21433739765172033 -0.053919735910325964 0.08738509228321942 0.24660643691869336 -0.2714949206408051 -0.07749425202699248 -0.198105046785973
0.18456402723615664 -0.15671062394099067 -0.0884427135754521 0.17765139503717225 -0.15099259788245775 0.10502341349484262 0.053506718869820086 -0.21967716165191836
0.06276820776459499 0.29887669786017806 0.1778983415428902 0.15691839169773728 0.1459183595162314 -0.3388057753690067 0.12050859360043624 0.3663096856423458
0.19855083369125448 -0.015381687015969758 -0.15835170965026923 0.22835124500920168 0.10663824980843298 -0.25805120068528786 0.02191512876877899 -0.10985060426910428
0.34729791637544694 -0.03917501556725171 0.12061210244734644 -0.09585124629132313 0.20571337381360927 0.23201569260084193 0.046554135666679285 0.2030132460770617
0.0579346762329776 -0.06986004628969286 -0.12107011411791713 -0.21413254197870446 0.148931388440754 0.07093156114354845 -0.09890934276841093 0.01831873731905241
0.1463086487164204 -0.0077151914557891665 -0.18924250320192892 0.025016941177701243 -0.010654044554317663 -0.3841642590496678 -0.015229825727959306 0.22154619150896776
0.17614862927717306 -0.19139553243140814 -0.01073903244760542 -0.08705485939108787 0.13545472800896682 -0.06601871196053646 -0.06248195827354962 -0.12139523644313163
-0.16800059265296438 0.26355266934897337 -0.28760420710271073 -0.2839159908425224 -0.08277750640566363 0.05160022902728326 0.21276718976405756 -0.14977790150834305
0.09418839677308603 0.033893221320883064 0.34989328096234734 -0.2103785551684858 0.021020964142683656 0.014079495753292912 0.2338022197593541 -0.08240265323417233
0.13146594072908233 -0.21277325513880782 0.03464466362003836 0.12256222272649128 0.2702151732800974 0.13303154438599613 -0.23926980683293103 -0.2395828060244525
0.06033212827386794 0.23369997237766238 -0.345115948935694 0.08557409242551188 -0.20537706676344433 -0.26162866585292155 -0.127014159897015 -0.15316026044492778
0.012859206922773217 -0.14199210704059428 0.07039219762249037 -0.16258283704581672 -0.02981264886653459 -0.054508049159286864 -0.13994841819542486 -0.15414754353773547
-0.11476005076011192 -0.09661061257672868 -0.061693300166078754 -0.1185603624813322 0.38276177732111394 -0.009747888055292999 -0.1905325464529835 0.02932757891369309
-0.2276017785513309 0.2570733405254267 0.2782858677244634 -0.13420206454844846 0.07954995662285591 0.15049985424105106 -0.21294278506946987 -0.4594215982776453
0.4440207778730478 0.029343393583186092 -0.0660329087269138 0.22005076444432475 -0.2329764705001635 -0.0423539035992265 0.2675702544793947 -0.1313300178978084
0.09254436942943893 0.12178268358327492 0.026058296590556744 0.20195656420373556 -0.3165087747744531 -0.05110466042508542 0.029405786791281932 0.04869961802076969
-0.0209335965892558 -0.34989589026458723 -0.35935551888435613 0.19975392363363562 0.20274225182160538 -0.03833204687077037 -0.2166617145459115 -0.043068870722603486
-0.03263839376061109 -0.11950034801684858 -0.21184848788012486 0.015452323859934676 -0.02063501085657196 -0.26734126575916534 0.3886199045860866 -0.13970759673356775
-0.09318901225650476 0.11011629826838873 0.3874319752200641 -0.45185382572743 0.045359011432509005 0.006190125361974684 0.19668460616178565 -0.1275002627179752
0.1697035205622049 0.3799409769984733 -0.1721618480561644 -0.011382850663597774 -0.0803968075984478 -0.09185624300867065 -0.1302813933159373 0.08359774146772937

gbias f8 []
00000000: e4f3 f5ce f334 0c40
3.525855652695542

ibias f8 [1674]
00000000: 1697 d306 d2b2 de3f eea0 f732 6785 e43f
00000010: 1ca4 8d00 6bb5 efbf f9b9 6ced 1670 9c3f
00000020: 00a9 928d 8fed b93f d797 95be 63ec e63f
00000030: 11cd c744 d186 d43f 6bce 273f 0b2b 8a3f
00000040: 3847 94ae 72eb babf 30d4 88f4 0464 db3f
00000050: 144f fefa ac45 c93f 4a8d 2848 bb49 debf
00000060: 6514 0c8b d85b c03f e928 dbf6 7d17 e2bf
00000070: 8056 8415 a287 e9bf 6db7 8d8e e2be d5bf
00000080: 797b a98f b09a c1bf 0650 7ca4 ddd6 a2bf
00000090: 461a 8bd8 c37d cebf e2f5 fa9a baa9 e6bf
000000a0: 88b0 037e 3c3c 8a3f 4577 1c04 00e0 cd3f
000000b0: ad95 8e7f 6886 d43f 6be9 8a73 07d9 d4bf
000000c0: e287 7274 7e49 d63f 7bd9 4450 f795 dfbf
000000d0: 1b61 6de8 0ef9 d03f f8d7 e646 5f4d dabf
000000e0: 4b6c 60fe b242 babf c9b4 78b3 1524 d03f
000000f0: e1bd 55e1 0def db3f a973 8d0a 93be e73f
00000100: 4702 fd32 9941 d93f c73b ccf1 d188 753f
00000110: 88ce c1a1 6bb4 e03f 76ff 30e7 888e debf
00000120: 4812 c2d6 5aed ea3f 4ca5 ac59 1a30 d6bf
00000130: 1044 64d0 7714 ce3f 2325 d59d 091f d3bf
00000140: c91f d8a4 9753 9d3f f037 8ff1 5b88 d5bf
00000150: ceeb 9903 4158 f4bf 2e80 cc46 4925 c8bf
00000160: 60f0 c621 a07b a2bf 65fb 429c a649 d93f
00000170: 3970 ff1f b14a 863f df80 d875 a83e a83f
00000180: 9a95 f235 10e9 91bf b425 bb8b 8f10 e43f
00000190: 7ac2 60cc 9010 d03f 80ba d408 ce2e dbbf
000001a0: 2a47 d262 0320 df3f a493 9044 4706 d93f
000001b0: 240c 5acb e8ab dbbf c720 f242 2857 e6bf
000001c0: be5a ffae aa62 c93f 6e26 8f89 ce63 d23f
000001d0: 75d7 85a9 3369 e43f e04f 9747 6dd2 963f
000001e0: 1c5f 08be 88dc babf 42ca 6f11 a393 d1bf
000001f0: 9f30 a504 3ae6 d03f 6a3f 2c4e eded c63f
00000200: 1de7 44d6 5093 b4bf 2324 c936 8e91 d2bf
00000210: 4a91 3b00 a63b e73f 85d0 2b2e 4011 d93f
00000220: e9e7 ac70 48c2 ce3f a2b3 4c3a 6a89 ebbf
00000230: 189c 56e7 0071 acbf ac16 0f47 1b24 e13f
00000240: 94be afb8 47c7 acbf dd67 8227 de8c c23f
00000250: ec4e 550b c300 edbf 5545 646d a734 d0bf
00000260: a6fa b6b2 fb27 dabf c56a a492 20a5 c43f
00000270: e4ab 5228 ac19 e73f 48d8 cd76 d2ea d0bf
00000280: 3928 0793 ed41 c5bf 1d7c 74a9 0845 bc3f
00000290: ffee 2dc3 a847 b1bf 21ce 42b2 2d9b aabf
000002a0: bb72 c378 7bb4 c8bf 231e 6f49 cccd eabf
000002b0: 5e20 cc40 946f b2bf a30b 0b1c 495c b3bf
000002c0: 29e8 625a 745f ce3f c86c e314 36b7 dd3f
000002d0: c634 6c12 a5dd a5bf 8786 7e39 6242 e53f
000002e0: 72f7 2df3 45d5 a13f 93d2 b6ab 81c1 dc3f
000002f0: 3178 45fb 59e9 e23f e984 10fc 9a90 d8bf
00000300: 93f6 6299 cd10 da3f 1d7b 56e3 79de c3bf
00000310: 50ef 39dc 441f aebf 23fc 3006 e4b4 e13f
00000320: 7248 8a39 76d2 e13f 1ed7 e88e d13b e63f
00000330: 8c70 3ee9 7541 de3f 98bc 3d60 43f3 b73f
00000340: 1a5a 078a bf4e 983f e03d 07b1 effa dd3f
00000350: 5f6d 3fb0 eeb6 e5bf f6f7 641b 5efb e8bf
00000360: b001 b57c 81a1 d63f a997 c580 56fe ac3f
00000370: 16ca c6c3 3709 d13f cad7 4e91 6c56 d53f
00000380: 5130 d294 bced d73f 8cb5 843c 0d07 d53f
00000390: 6944 298d 966d b13f 4cbc 9629 a761 d43f
000003a0: 08af 2223 f203 e7bf 2f21 df5b 4ee7 d8bf
000003b0: 974b 57a0 a8e6 dc3f 719b c8df 891d bd3f
000003c0: 4c40 ac03 04f0 b63f 0c7b 24f5 bbb5 b8bf
000003d0: 386d 3464 ea98 d4bf a51b 9cf8 53ea ddbf
000003e0: 1a00 43b4 3288 d2bf 1ccb d51b de51 e63f
000003f0: 8c0b 3f6d 5b19 f7bf f166 77d9 28bb b3bf
00000400: d403 92ea 90d9 c2bf b9c3 f15f e9fe ca3f
00000410: 295c 8c3a 055f e73f df39 1227 1cbf e5bf
00000420: 88c2 ca7b a3ec c8bf cfcb 4164 8f89 db3f
00000430: 3928 0793 ed41 c5bf 2c99 ab73 ec19 c43f
00000440: 3005 571e 4a5b cebf c33a 8000 e647 d03f
00000450: 8c4a 3614 c3f0 be3f 64cb a97b 6c95 d23f
00000460: 42ef 2817 a529 c93f 0ad8 68ca a434 a43f
00000470: 4469 dc8a 7cf2 d3bf 9b24 95af 57b1 bb3f
00000480: e1b0 6986 3894 e2bf 2b20 491b 7afb d23f
00000490: 4f2a b49f 22cc e8bf 75c8 c93e b751 d4bf
000004a0: 21cb 21d7 694d d93f fd11 6a8b bc68 f2bf
000004b0: dd1d 1355 8a17 b43f 5969 8c41 749f dbbf
000004c0: 689d b62c ab23 ab3f 2fe9 c8ce 1637 cf3f
000004d0: 0293 18b4 dc4e d13f 9424 20c5 722c d8bf
000004e0: 6ae3 88b3 57e3 de3f f531 1d61 9970 d13f
000004f0: 346d 21f5 cf97 d1bf 20bc 8ee4 219a cdbf
00000500: 735d 588c 553f a8bf 791e 0663 717c e43f
00000510: c326 c21f e3d2 e2bf 1c17 7eda b632 edbf
00000520: 0487 a4c2 bc9d dabf 4b7d 7e83 4898 e9bf
00000530: cfd5 1ba4 2dd7 d93f b3a4 3f63 6a8c f0bf
00000540: 11ea edc0 2a2b e8bf fa1a 55bb ccf9 cc3f
00000550: e450 0fee d681 e03f e05e 06e3 14fc c8bf
00000560: 9ce9 b8ff 07d0 cebf 365c ad84 80e9 e0bf
00000570: 23a7 40e9 1a41 ee3f 815b 3b85 7df3 d9bf
00000580: 63cd ab2c 0c0d cabf 1851 474d 88ea c4bf
00000590: ac5a d8ca 705f d3bf 2318 741d b728 cf3f
000005a0: 9db0 c585 d73f ed3f 4b76 ee66 11b5 e4bf
000005b0: 1248 8af0 c0b3 cf3f 15c3 7c29 f698 b53f
000005c0: 2b9f 133d 1fff a8bf efa5 c888 7bac e83f
000005d0: c103 70d4 f604 e23f 3886 6844 ea8a f8bf
000005e0: 6849 8171 9129 d23f 3063 7497 6e34 e73f
000005f0: 514f ac2b cbe2 e4bf 9d0c 2a1e 1c3f d53f
00000600: 9650 5ffb f69a dcbf afc7 b070 f16f e2bf
00000610: b1d4 8ff9 ce86 e6bf 8c42 cc96 8e74 c3bf
00000620: 2243 ba3d dfeb dfbf b855 dc12 83b2 e5bf
00000630: 0698 61f4 2f98 b5bf 3bec 5a44 59b0 da3f
00000640: 60fc d965 c0f1 ec3f 8d05 d1c3 44f0 bf3f
00000650: 432e fcb4 6d65 d4bf 2bec f945 d0e5 9a3f
00000660: 20b6 37b9 8637 b03f dc78 3495 7872 e4bf
00000670: eabf d9ce 9279 d1bf 5a86 0a02 7c35 c63f
00000680: 9a3a 8a7e d2c0 bfbf 0bc5 0932 2346 d03f
00000690: 8cda 2475 5269 d1bf af16 c290 e101 b7bf
000006a0: 6917 ea19 ae21 e1bf 77b2 ea58 f28d c6bf
000006b0: 1545 e1e9 d1ef c13f 574d 4176 74c7 efbf
000006c0: 0192 4a11 9130 e13f 055d cf42 ac49 e23f
000006d0: 157a e12e a9bf 9fbf 2fbb 0316 d7a6 ddbf
000006e0: ac09 d5ab 23a5 d63f bf08 8e98 36ee d03f
000006f0: 05ed 809c ed70 d33f e4a9 7f31 e2cd d6bf
00000700: b897 c138 053f e6bf e33e ab3c b63e d03f
00000710: e354 8edc a9a9 babf 6a3d b1ae 2c8b c3bf
00000720: eda6 e7e9 f895 d3bf 4842 d34f 4c29 d43f
00000730: 0d40 6498 988d e13f 15b5 ae08 0dc7 c93f
00000740: 9fd7 4308 f264 a3bf 9877 d29d 0de9 dbbf
00000750: 5370 f4cc 6085 dbbf a8d9 4a37 9361 da3f
00000760: 98b6 fd79 8f77 e03f 9339 3c53 f0fa f1bf
00000770: 75cf ab9c a829 de3f acbc 0bdc 2c39 ec3f
00000780: c467 e2b9 2e9d e73f 999e 7edc 7694 e63f
00000790: b93c b113 9278 b03f 6c4c 5567 00ba c63f
000007a0: 7bfa a66d c869 c53f 4a58 8f07 a80f d3bf
000007b0: 9b2b 4fe5 0e61 e7bf 8a96 5534 c124 d43f
000007c0: 09b7 7566 e5e7 e1bf b2b8 35b6 b3b5 acbf
000007d0: ce08 96ff 57e4 a3bf 69d0 4b89 8512 d7bf
000007e0: 4198 5058 fc1a d9bf 71d8 8172 f4f4 c6bf
000007f0: 7e67 53d0 5320 e33f 1830 9e36 1798 d6bf
0.47966433207180736 0.6412845607237878 -0.990895749169002 0.027771337739233435 0.10128113943452277 0.7163561556196737 0.32072860447733925 0.012777412285664277
-0.10515515100658213 0.4279796970398051 0.19743883376633475 -0.47325021788329436 0.1278029135648097 -0.5653676816375796 -0.7978067798855619 -0.3397756950497442
-0.13753325476406156 -0.03679554589157878 -0.23821304391295167 -0.7082188631972566 0.012810204120306659 0.2333984394144243 0.32070362526641355 -0.32574640544375794
0.34823571559729605 -0.4935282024265672 0.2652013082311144 -0.4109724228286491 -0.10258024893157473 0.25220243956102856 0.43646571164478415 0.7420134740929046
0.39462881068542227 0.005257434936324529 0.5220239791219266 -0.47744963242802585 0.8414739794248556 -0.34668596989884715 0.23499963450788686 -0.29876938260402336
0.02863919204358448 -0.3364477023104646 -1.2715463772462843 -0.18863788563703693 -0.03609943783109837 0.39512028942038163 0.010884650982852505 0.047353042970145635
-0.017490628521633057 0.6270215729829745 0.2510110851172055 -0.42473173963927735 0.48632893229033647 0.39100820251251833 -0.43236751421517483 -0.6981393153701213
0.19832356972502468 0.28734172280801473 0.6378420172684246 0.022287089819499672 -0.1049275840708756 -0.2746360464363172 0.26405191854133564 0.17913595501931506
-0.08037286025219399 -0.2901340041176487 0.7260313038391726 0.39167789944554726 0.24030404569367583 -0.8605242861427664 -0.05554964851335614 0.5356575382108608
-0.056207886976946814 0.1449239437977771 -0.9063430043556457 -0.25321374590665374 -0.40869038059819685 0.16128928337351148 0.7218838489110309 -0.26433240510903433
-0.1660744636449765 0.1104283727367918 -0.06749968304751162 -0.051965168009157965 -0.19300788303998737 -0.8376218256243572 -0.07201506216017736 -0.07562691626212241
0.2372880402888893 0.46430732765084004 -0.04270664071928247 0.6643534777578716 0.03483027070522739 0.44931070107421894 0.5909852893489697 -0.38382601371456687
0.4072755811610957 -0.15522693253020572 -0.05883231342610762 0.5533313866543533 0.5569411395865826 0.6948020735933118 0.47274539735531884 0.09355565166127844
0.023737900542835623 0.46844093597334613 -0.6785806124056925 -0.7806845221564334 0.3536075322954515 0.056627944201678666 0.26618761175919425 0.3333999079726452
0.3738852933245243 0.32855540189742594 0.06807843157118189 0.3184602647915582 -0.7192316709747226 -0.38911780330501505 0.45157828958797935 0.11373197282283144
0.08959984864873255 -0.09652304396557215 -0.3218332270204942 -0.4674272468404815 -0.28956287006076453 0.6974936050085918 -1.4436907069618625 -0.07707457837332378
-0.1472645898211612 0.21090428528580477 0.7303491729279631 -0.6795788539037025 -0.1947216371968532 0.4302710036346839 -0.1660744636449765 0.15704112670864256
-0.23716093522492931 0.2543883328334397 0.12086123698672163 0.2903701026581784 0.1965834010205701 0.03946413966006908 -0.31167520104067514 0.10817478214916536
-0.5805933594943121 0.2965989366971395 -0.7749188536848325 -0.3174875367323076 0.39534994133934914 -1.1505704351303614 0.07848419739740771 -0.43160730744570724
0.053006505211039834 0.24386868569292505 0.2704383620023664 -0.3777129101804999 0.48262589008986956 0.2724975059871036 -0.27489088953526 -0.23126624736821189
-0.047358201391200526 0.6401907857952686 -0.5882430668145492 -0.912440706961863 -0.4158775234992478 -0.7998392647022369 0.40375844026797564 -1.0342811467074113
-0.7552694099570677 0.22637328288165987 0.5158495568853394 -0.1951929195899913 -0.24072360979500906 -0.5285036650992712 0.9454474025453447 -0.4054864693729812
-0.2035231798287028 -0.16340736173027248 -0.3027002316388614 0.2434300321403394 0.9140431988467018 -0.6471030245190347 0.24767314667821033 0.08436525833964155
-0.04882142658772034 0.7710549995001069 0.5631059788867036 -1.533914820880808 0.2837871178100131 0.72515039044365 -0.6526847699155757 0.33197691865661644
-0.4469582991416784 -0.5761649323451276 -0.703956115174739 -0.151994537002356 -0.4987714865501848 -0.6780410164234842 -0.08435344425524258 0.41701347041425024
0.9045106877600908 0.12475995808292435 -0.3186907069618636 0.026267294188510853 0.06334726354517572 -0.6389735139998964 -0.27304525566341786 0.1735072145429964
-0.1240359839377824 0.25428085218943924 -0.27205335082855053 -0.08987245353827221 -0.5353613382473955 -0.17620686856880116 0.14013122482223453 -0.9930975255651145
0.5371785485954775 0.5714932732470578 -0.031004565702796045 -0.46330811643467745 0.35382930546270575 0.2645393838685201 0.30376758845859825 -0.3563161357293707
-0.6951929195899913 0.253827628371239 -0.10415135988872097 -0.15268476991557672 -0.30602858392977234 0.31502063556130055 0.5485346771620258 0.20138705181072028
-0.03787952757731649 -0.4360994378310976 -0.430015754843912 0.41220550918242305 0.514594782127193 -1.12376434816142 0.4712926416389032 0.8819793985147917
0.7379373198084456 0.7056230837378791 0.06433976155061573 0.1775513176495197 0.16729073862184748 -0.2978305887057827 -0.730597923154494 0.31474332915090797
-0.559557628743023 -0.056073776237881914 -0.03885149950930754 -0.3605054703505233 -0.3922720777940221 -0.17935042945072469 0.5976962155211678 -0.35303287824422247

umat f8 [849, 50]
00000000: 7387 ab2d ee1b d03f 0096 e3ca 76d8 c23f
00000010: 1daa 6f42 daae ccbf 2f98 2858 a424 983f
00000020: 6a0e 7614 8b80 da3f 4c83 fb2c 3547 9d3f
00000030: 9980 c62c ec70 cdbf 322d 169f ca7b c33f
00000040: b4f5 0fcf 232e cbbf 56d5 f7da b778 933f
00000050: 3dbe 7282 ba38 af3f d0b0 887e ec84 d9bf
00000060: 3918 9f34 d3e0 c33f e82e 3f98 ab2b cd3f
00000070: 656c bc02 edf0 b4bf 7c7a f2ce 57c2 c73f
00000080: 7409 6dc8 586c ad3f 28e0 9601 7ef0 963f
00000090: 181a 6e76 c472 bc3f f6cf f502 cf0b b23f
000000a0: 48e3 8336 e734 b0bf 7690 c7b6 3e96 b6bf
000000b0: b47f b9bf 53d2 d93f eb06 6ec0 d335 c7bf
000000c0: d21a 7bbb e73c c13f 9007 6b1a 531c c43f
000000d0: 4a8e e3d7 5e50 b4bf 931f 77f5 0c56 c13f
000000e0: d125 f851 4999 bb3f d23c dfcc 02a7 c8bf
000000f0: c46a 8507 606e 873f bff8 f915 5d7c c93f
00000100: af87 ce7f d72f dfbf 4dc4 cfdb 2cbd db3f
00000110: 5dc6 7f6d 4579 843f a6c8 978d b067 cf3f
00000120: 2048 3ec6 621f cfbf c522 1682 e272 c83f
00000130: 7088 1354 589d c03f 3322 2f93 ba41 c43f
00000140: 2875 a6ef 076d cc3f f1ee 1e81 17d3 d03f
00000150: ce99 40ef df88 d1bf 1a0d 2c05 50a6 9abf
00000160: cbe8 bfaf 245c cb3f 4cb5 4e5a c8fc b93f
00000170: 26f4 e206 bf5c bbbf 30a5 0b9a 64fb ac3f
00000180: 483b a8c9 5ed5 cabf b34d 3aab bd52 d1bf
00000190: d5a3 c93d c78d b13f 8404 bc2b 8c00 8a3f
000001a0: ee46 1356 cfba babf 57e9 c6f3 2336 d4bf
000001b0: a655 4a68 e07f e13f e087 8d10 dda2 ccbf
000001c0: 263b 8df4 8664 c93f 98d4 2bb5 60fb b2bf
000001d0: a117 21c6 18e2 c9bf 5282 a09e 9344 d0bf
000001e0: 98b7 086d 9306 dd3f 9ff7 29c5 62f9 b1bf
000001f0: ba21 6874 383a cb3f 68bb d405 1134 be3f
00000200: 7662 ff6b c544 d23f 34cd f995 3779 d6bf
00000210: 39c9 2df1 2d3b c0bf 0a94 dd5a c2e6 c9bf
00000220: a4f8 dd01 f637 c53f f28d 8224 05df a73f
00000230: 3867 251b 83d0 913f 1515 255a d232 a6bf
00000240: f40b ffb5 8d9d babf c843 f5ed dd33 d73f
00000250: 327d 1e99 aa86 d4bf 5b14 2dc2 9834 b63f
00000260: 87e7 2a0f 3a7f bcbf ec7c d21a dc96 a2bf
00000270: 8e0b 9fa0 1167 adbf 731d 1fd8 47cf b93f
00000280: 87f7 a089 295e c13f 0013 d05d c31b d0bf
00000290: 0086 e2c4 d275 7bbf ec07 71a5 e271 d43f
000002a0: 1722 b2f2 7981 dbbf f6b1 eeb6 979e c33f
000002b0: ccd4 36ce 5a71 a7bf 36a3 dd3b 10f4 d8bf
000002c0: 2525 4e76 4cea c8bf c223 5f47 c857 adbf
000002d0: f0fc 6a5c 0a95 de3f 8c1c 1894 b33e babf
000002e0: c865 7d7a 27e2 833f 4f71 9fdd 73f1 d33f
000002f0: 4253 6c1e 1e2b cf3f ec39 a30d e44f c7bf
00000300: 1285 aeb2 b0bc a4bf 17d2 281e 0b4f c0bf
00000310: 4f8c 35a6 18a3 e5bf c82e 3f3d 1207 8cbf
00000320: a8a6 16ff 6a00 c83f e1f4 7060 7d92 a1bf
00000330: 4c3e b51b 9ed0 a93f ed2d 6cd3 582f d73f
00000340: 577b cff1 91ce b1bf a95c b4ef f593 c2bf
00000350: 3ce8 d21b 37d0 be3f 7c94 7044 1c2b e1bf
00000360: dc36 8257 0acf 8d3f 977c dde4 2c60 d63f
00000370: 12f3 d1b6 174d a33f 2878 8e47 2a47 e1bf
00000380: da0c 3297 e6fa aabf 0f5e d635 e83a b13f
00000390: becc 2893 6001 cc3f 0821 ce79 8a0e d8bf
000003a0: 7408 54df f6b3 d43f 4651 e3cf 547f cf3f
000003b0: d304 4438 46d0 b03f ed78 5c83 7e92 c9bf
000003c0: 6c73 79b2 f4fd c8bf 0e24 805b 3730 b63f
000003d0: 3a23 dbe6 203d d3bf 982d c1aa 90c2 a23f
000003e0: 9c66 006e 310e d3bf aaa2 a412 3857 9a3f
000003f0: f474 3b83 a9ef c13f 0c50 15dc da59 ccbf
00000400: fd32 cee6 7943 d33f 62d8 0929 733f d23f
00000410: e88d cda0 cdbe cf3f 8cba cc1f 9532 a1bf
00000420: 80d5 e15d f773 b0bf 72d5 d667 c6cc cabf
00000430: 5bc3 ede9 2a7c ce3f 9094 9790 92a3 d1bf
00000440: cac5 884e 1ec2 d3bf c215 30aa 4702 bcbf
00000450: 24d1 9a8f 8b30 ce3f dfaa 53b7 bf1a c9bf
00000460: 0cb5 3e8c 8ca0 b0bf 403f 5038 db50 d83f
00000470: 886a e826 3a61 d2bf 2de7 4e96 4f9a c6bf
00000480: 1823 726c 1239 8b3f 3073 d7bf 4076 b3bf
00000490: b471 2de4 e195 b83f e6d3 1086 6cba c73f
000004a0: 672f 6a3b fb6f b23f fb91 8233 9e2c c83f
000004b0: 40d2 9ffa 23bb d7bf 1988 d2b8 10d6 cd3f
000004c0: 45d5 16c3 5a73 c73f c099 a3d1 4bfd 84bf
000004d0: 3119 46fa 11c6 8abf 7e88 640c 2cd9 ba3f
000004e0: 3680 f5f9 97bd b1bf 2438 174a 6afd 92bf
000004f0: 6f42 21d6 76d5 bfbf bc5b 3c64 f4b8 c8bf
00000500: 2c76 3ab7 f93f d33f 6eb1 0362 a939 adbf
00000510: f22f a94d eb05 953f 2cb2 613e 807c a03f
00000520: be26 41eb 6087 853f b708 d3be 875a c33f
00000530: 3472 b241 e0b8 953f 76f7 9ce4 4540 e43f
00000540: a338 19b3 dbca c2bf 70f7 adbb 8045 a23f
00000550: 083e 24b8 33cb d0bf 777a 7c10 b84d c4bf
00000560: e793 c344 bd8f de3f 32d6 f612 53b0 a63f
00000570: 6853 a8b8 2125 ba3f 1a0c efd7 78ca a63f
00000580: 8d6d b19b fd3c ccbf e8a6 98d2 0004 dbbf
00000590: 2c1e 77b7 f054 bbbf 149e f07e 5ac7 cc3f
000005a0: 0ee1 75aa 0e3c b33f abcd 34f6 e837 c43f
000005b0: 86e9 6952 3e62 b63f 856d 281f 62ce c23f
000005c0: 126f d166 3c18 cc3f 6289 ab8a 1b0b c3bf
000005d0: 2390 ecd4 20cf a6bf 9751 521d 38da c33f
000005e0: d19d e756 2896 c6bf 9cb2 e614 cd9b 90bf
000005f0: 06d7 9636 c2af 95bf 84db 9fae 76f0 c13f
00000600: 8a4a 5a06 d265 a6bf 2a30 63c3 b47c a03f
00000610: 1252 593d 5ad5 b7bf 487f bd04 1d79 ad3f
00000620: 57a8 ea16 425c bfbf c885 4e9c bd49 b33f
00000630: 444e 1db4 c0e6 973f 5d83 8ade 01bd c5bf
00000640: b24c 22be ef26 b0bf baa8 2b24 e609 cebf
00000650: 58eb 3863 f6a6 bdbf 5901 e79c 2a8a adbf
00000660: 8a84 e2d2 e9d6 b73f e6ae ed4a 6214 d7bf
00000670: 0e29 a4cf ea67 d33f 91a4 852c c6fa ca3f
00000680: 6ce7 85f4 7dcb dbbf e489 0391 5b51 bbbf
00000690: d8b7 a0ba 36d5 b33f 978e 754c 6e7d dabf
000006a0: c821 624f 743c c13f d9d6 4743 5a19 d03f
000006b0: 9c7b bbb3 352d a6bf 045a b520 bfaa d7bf
000006c0: 7c58 163e 94a2 c93f f4a3 1e8a bf24 e4bf
000006d0: d0ff 653d 5aff d2bf c268 d9b3 bd41 dcbf
000006e0: 8edf 3dde b032 d63f a9db 1543 9f2c b0bf
000006f0: 269c bfe1 bc90 d7bf 9e3f b022 6e21 d63f
00000700: 7458 4af1 b9ab cdbf 621e 2b8a c728 e13f
00000710: a470 27dc cd26 e43f 10f2 70ac 7381 a5bf
00000720: c028 d49a b0ad ccbf 4445 883e 55ef d7bf
00000730: 4256 b2df 435d d93f 90b0 13a8 27d8 b3bf
00000740: d944 0e61 c737 db3f 23ce 6a3b 647f b0bf
00000750: b141 4218 aeb1 bbbf 23a2 1801 53cc c9bf
00000760: 64f9 4b7d e7fd d1bf b06d 8cc9 c678 923f
00000770: 2062 8957 0747 d0bf 14cf e196 c6a9 973f
00000780: b8af 5f52 5023 c63f 4501 f3eb 1c9f ddbf
00000790: 42e4 3813 4da2 d8bf 72b1 2a87 4414 e23f
000007a0: e374 d9da 2ade cdbf 9661 3a5c 5f48 b1bf
000007b0: c0b0 d506 cc3a d33f d865 6150 bee5 aabf
000007c0: 00d1 e14e afbf 983f 0e0a 60f6 3bbf cbbf
000007d0: 90c5 2ace 85e7 8e3f aadf 1b3b 4128 8ebf
000007e0: 401e 4673 8e4c abbf 4483 b198 fcf7 a4bf
000007f0: fa03 5234 432e 6a3f 2cf4 f255 c487 74bf
0.25170473537411125 0.14723095804872344 -0.22408607715563358 0.023577278023502565 0.41409565923843294 0.028591948385727137 -0.23000862299250427 0.15221531646634784
-0.21234557733980142 0.01901519082999433 0.06097967951188508 -0.39873802525359014 0.15529861516387358 0.22789521154333348 -0.08180123631284315 0.18561837773173184
0.057467245546393736 0.022401779982573228 0.11112621203765405 0.07049268553038232 -0.06330723839699914 -0.0882300564040309 0.40346235011201803 -0.18133017440782537
0.13467117933597322 0.15711439886041179 -0.07935135622715808 0.1354385565339241 0.10780771495060228 -0.1925967693664235 0.011440992574241256 0.19910777638501106
-0.4872950313675756 0.4334213396642255 0.00999693146147534 0.24535185731617054 -0.24314531974647569 0.19100600578192065 0.12980178933418385 0.15825588404392618
0.2220773620764842 0.2628840218492164 -0.2739791714142513 -0.02602505714004364 0.21374949056173018 0.10151340679904769 -0.10688394468429915 0.056605476192837734
-0.20963654371777296 -0.2706751033922174 0.06856961496818255 0.01269635685412341 -0.10441299296806125 -0.31580447012278995 0.5468599354668882 -0.22372020061726428
0.1983803457355517 -0.074148220282796 -0.20221242594032865 -0.2541855858890233 0.4535263600145014 -0.0702115756375563 0.2127142494575887 0.11798197166784308
0.2854474596656823 -0.35114850660393704 -0.12680601383505932 -0.20235471188348725 0.16577029315152914 0.046623383242401575 0.01739697316347774 -0.04335648870850598
-0.10396657651203595 0.36254070509044967 -0.3207193846992197 0.08674006214740031 -0.11131632681181546 -0.03630721881313001 -0.05742697797497619 0.10081910158543454
0.13568610401301504 -0.25169452821164384 -0.00670416194603396 0.31945100933455595 -0.429777609832429 0.15327736313101042 -0.0457867027975368 -0.3898964485766102
-0.19465022827743286 -0.057310351097448656 0.4778467085379381 -0.10251924863415435 0.009708698678582275 0.3116120971951845 0.24350334630494258 -0.18212557474039615
-0.04050209218190494 -0.12741221401815103 -0.6761592146180052 -0.013685362333397136 0.18751275496952258 -0.03432075311909855 0.05041975105507088 0.36226483008132854
-0.06955825952125615 -0.1451404018814391 0.12036461285870897 -0.5365125023569273 0.014555054469635058 0.3496200785647913 0.037697545115383715 -0.5399371526325512
-0.05269547076843546 0.06730510057820303 0.21879203019634547 -0.3758875073913406 0.32348415192985347 0.24607334280757182 0.0656780135505131 -0.1997831479465683
-0.19525011744090237 0.08667322143459463 -0.30060598892719137 0.03664066395193827 -0.29774127714481735 0.025723339212307884 0.1401264086515891 -0.22149215456249782
0.30099341907116167 0.28512267120038903 0.248010352627815 -0.03358903897457308 -0.0642695049480917 -0.209374237730724 0.23816429540922965 -0.2756086742431956
-0.30872304601060974 -0.10940978913284652 0.23585648071242205 -0.19612881137376 -0.06494978355359055 0.37993507861482456 -0.2871842746696207 -0.17658419455784138
0.01329244988871063 -0.07602314647324415 0.09603702374210493 0.18537670656374344 0.07202120018535894 0.18886163249148055 -0.37079715228108867 0.23309525513201448
0.18320784116591873 -0.01024874909894613 -0.013073101473093903 0.10487628271633473 -0.06929921963228555 -0.018544827243936038 -0.12435095527440308 -0.1931443681175703
0.30077975171465954 -0.05708054849114573 0.020530392279667305 0.03219986688131757 0.010512120417973999 0.15120026414485263 0.021213058481054328 0.6328458275890927
-0.1468157410149092 0.035686514768697886 -0.26240246756148666 -0.1586217957019078 0.47752315249664296 0.04431399923798231 0.10212908514251995 0.04451348911199933
-0.2206112871379954 -0.42211933675808533 -0.10676483611234094 0.22483378599393744 0.07513515149719671 0.15795623800077627 0.08743657600454044 0.14692331811316364
0.21948962231078234 -0.14877647658347387 -0.0445490131299098 0.15509702140537904 -0.17645744555851064 -0.016219334030824414 -0.0211782785242667 0.14015086676201005
-0.043745578074909267 0.032201432085998086 -0.09309925077224815 0.05756464655746513 -0.12250149783599916 0.07534394327242133 0.023341189378085284 -0.16983054510367426
-0.06309412376349391 -0.23467709318294344 -0.11582889482899128 -0.05769475140869202 0.09312306784205951 -0.3606191379283089 0.30321760442224466 0.2107780187027726
-0.4342951667709858 -0.10671016970039876 0.07747213417380239 -0.4139056917831367 0.13465741993083058 0.2515473992383313 -0.043313673200592734 -0.36979654497318415
0.20027401954274981 -0.629485864415186 -0.29683547969761737 -0.44151251376537115 0.34684392646112705 -0.06318087947680219 -0.36820909543752334 0.34579041850610703
-0.23180317193754585 0.5362279604532427 0.6297368335613283 -0.04200326423640288 -0.22405059394833948 -0.3739827261607227 0.39631745190976997 -0.07751701215210205
0.42527946928119104 -0.0644438405095618 -0.1081799325204489 -0.2015479808190018 -0.28112208591473675 0.018038850833460962 -0.25433524654866524 0.023108580550299143
0.17295269033581717 -0.46283648530881677 -0.3849060714451903 0.5649740829444865 -0.233342511043623 -0.06751056672727027 0.3004636828179734 -0.05253405314642706
0.024168719472485556 -0.2167735054973296 0.015090031961650735 -0.014725217453346168 -0.05331845433380211 -0.04095448841031282 0.00319588781218316 -0.005012289940336461

ubias f8 [849]
00000000: 1dd5 8ea6 2ec4 863f e70a b208 c150 b23f
00000010: 2dee ddd1 2263 8abf 736c 7d35 3218 c83f
00000020: 5a2f efff 3b36 d13f 9d2e 278e 6634 d03f
00000030: a459 7f23 3dfc c33f d5b5 1672 a557 c93f
00000040: 375f bbfd 60fe d5bf 6f5b a2c2 8660 c7bf
00000050: e509 88dd de55 d1bf 6eba 2cf8 c045 d13f
00000060: 350e ab5c c7d1 e33f b960 20bf 11f0 d73f
00000070: 1d0b 9a74 c986 dabf db4d 646d ba4a 853f
00000080: b6b3 a4e0 bc27 d03f 92ce de37 1f6d e3bf
00000090: e538 65e0 7e12 d83f b677 d171 811c e0bf
000000a0: 2f0d 029a b165 dc3f 22c6 41c0 8747 c7bf
000000b0: 3c9a cb17 208f c7bf c087 0a7f 795c ba3f
000000c0: 8573 0e9c 10fa b8bf 3f44 50dd 589a dc3f
000000d0: 0acf ff02 a33c e9bf 6b57 3218 d4cf d6bf
000000e0: 0c7e 683b d2df d03f 9fe3 32ef 7be7 9e3f
000000f0: 0dd7 21c6 aef8 ac3f 0f5d 75ad 9e0d df3f
00000100: 73aa 4aa0 574e c6bf b7c5 6476 bbbe c93f
00000110: 565f e476 f891 d33f ccc1 a5f6 71b6 f9bf
00000120: 23b3 2e7a b07b d83f a3aa 60d9 da19 bc3f
00000130: 0812 82ad d001 db3f 48d2 80aa 2802 d93f
00000140: 0e48 1e42 8c68 b43f 44fa 86f3 d0ba dfbf
00000150: d587 8cbd 0084 e03f 4ad7 bc15 6ee3 d9bf
00000160: 9135 44bb d936 e73f d683 8831 4d6a db3f
00000170: 33fd 1ae9 d1f3 bb3f 4d36 4c34 d137 c23f
00000180: 622d 8299 8970 c33f 421c e589 96e7 c2bf
00000190: c9c7 e798 bc9d e13f 1d25 11c9 b221 c53f
000001a0: b428 9cc5 6497 d43f 17c0 a4fd 7134 b43f
000001b0: 579e a300 dda6 d73f 364b b413 0e57 c63f
000001c0: 2f31 4461 170d da3f e71f 8b70 1e02 debf
000001d0: 4391 4f70 ef04 d3bf 8ec8 e286 52be d43f
000001e0: ed3d df4c e144 d33f 67b4 01d8 4bde c13f
000001f0: c665 dd8f d761 d0bf ffbe bf94 ae1c cc3f
00000200: 44b0 3a2d 5480 b2bf 7b22 3858 db29 c1bf
00000210: d0fc 495c 29f7 a9bf dc94 99a5 8754 d6bf
00000220: 1b14 f7ed 3738 e0bf fa4e e3bb 8094 e43f
00000230: 9638 e264 fb55 d1bf 1824 acce ebd7 db3f
00000240: 7259 52a7 5b71 b0bf 085c 76d8 c906 cb3f
00000250: e929 0b28 7731 ae3f 17c6 fb3f 30af a9bf
00000260: 81ee c8c1 0c41 ac3f 95d4 b923 55d6 c13f
00000270: f1a0 5120 8c9d b6bf e8a3 3399 2f15 c6bf
00000280: eadd e564 03c5 dd3f f254 bd6e 252b c63f
00000290: 247b c08f cb21 cd3f 9177 a530 2163 bbbf
000002a0: 63df 7222 f46d be3f 5e17 b6f7 36cd d7bf
000002b0: 8aed a6e3 36b0 833f 1a6a 0f88 26fb cdbf
000002c0: 056f 17d7 1dbd b63f 6a24 04ba 2f58 b43f
000002d0: 191d dda3 a601 c53f ec35 db80 1545 6b3f
000002e0: c41d 2867 a06c 933f bfd2 f231 be5f e13f
000002f0: 5474 9e99 03f2 bfbf ac06 7da4 7afe ddbf
00000300: 0992 c731 9410 d6bf 2218 d249 5aa7 ce3f
00000310: e4ef c561 4023 c53f c21d 700f ad36 d23f
00000320: 5426 33ca 77dc e1bf cdbb 91f1 9320 c93f
00000330: 861a 9312 1d3b c6bf 8f82 6da7 607b e03f
00000340: 376b 5122 6457 bdbf 472f 8449 7dfd e5bf
00000350: bfc1 434e d956 e0bf f807 8452 579d dabf
00000360: 1fe2 8c3e cfd1 e1bf bfa9 3d7e 93bc b4bf
00000370: 38f9 d0a9 0286 dbbf ec5f 5ffc 1a1a dbbf
00000380: 6e25 2045 3502 b3bf d534 f058 1968 a6bf
00000390: 5d95 26e9 2658 bb3f dac0 cd57 187b dcbf
000003a0: 9359 b33f 3c69 e53f 2493 7402 9466 e53f
000003b0: 330c 50ee 1bb5 b03f 8f8a fe9b 0c3d ca3f
000003c0: 9669 f77b 04d5 dfbf dcc3 d6b8 9b95 d5bf
000003d0: 9ba6 fd8a 58a0 9b3f c05f f226 7fca e13f
000003e0: c6aa 5176 e9a2 f2bf f3e8 fbf5 775f c23f
000003f0: 9c48 52a1 ba1f 9dbf 9bcb 184d ecd0 bd3f
00000400: ae7d 48d0 bca1 d63f 6d9e e039 e216 d23f
00000410: 2fe2 5b6b 718c d13f cf5b e2ef e334 e33f
00000420: 47f9 3f8c 96d0 bc3f 8346 3974 a657 c93f
00000430: 6aa1 d44b 19b6 e5bf 7d13 1ff2 0a6c df3f
00000440: cd65 bd45 12cf b2bf 2162 bd61 3020 d03f
00000450: 8ad6 a4fc d22c e53f ed26 f909 2d50 df3f
00000460: ef3a a3c6 88a1 b03f 1b45 e8f1 5da1 803f
00000470: 77db 4822 8022 d4bf cd0d bfad f906 bc3f
00000480: 121e 306b 1d62 ccbf 649b 7220 e846 ccbf
00000490: b25a 7e34 5f69 d13f 7459 8481 d949 ddbf
000004a0: d8a0 f10c 3690 b73f cd35 cdba 8443 c5bf
000004b0: ac45 c067 14af a1bf c5fa 4d80 dccd ce3f
000004c0: b272 d059 0dc5 e2bf 1b6f 0aa1 dba0 b3bf
000004d0: d35a 4802 3bea d93f bc60 fbe7 8368 d43f
000004e0: f9f7 f4e2 b6b1 b63f d567 7397 512a cebf
000004f0: e9f6 ddb6 b3d2 ea3f 86e6 58f1 a4b9 c73f
00000500: 84ee 0b1e 2b63 e03f 77cb 5e16 e656 d2bf
00000510: 9e39 e7d5 72a3 953f c0e7 56c3 5567 cb3f
00000520: b848 2a94 f009 cdbf afff 25f0 e5c4 96bf
00000530: d4c7 1aa4 db43 c53f f251 68d1 0e2d e7bf
00000540: 92b3 70ba 06ac d23f 2700 c311 ee6c 87bf
00000550: 9a67 96c5 dbfe 91bf d1a0 4d75 ee92 d3bf
00000560: 2ed3 ef50 5351 963f 80a9 9cc5 ee54 adbf
00000570: 1db1 1c48 5e4e aabf 8a1f 9f21 c16c d9bf
00000580: 33c6 5a4e d8c4 c0bf de67 7551 3012 c63f
00000590: 33be 925a 273d d13f 1e46 4a38 b8db cfbf
000005a0: d11b 3a41 5fcb ce3f 407e 9eb9 02aa 9b3f
000005b0: a272 6ba4 0389 b7bf 990c dd66 8c24 d3bf
000005c0: 6bcb 5444 f9b8 d53f 015f 9e87 909f dd3f
000005d0: 5e70 1cf3 6dd9 c43f 40cb 7637 aa61 ea3f
000005e0: b2b1 98e8 5ef1 d43f 5c03 1aee 0506 c2bf
000005f0: 7dff 18c3 727d bd3f 9df3 08f6 5ddf d13f
00000600: 36e8 e0ef f9a6 ddbf a2e3 4892 c583 b6bf
00000610: 2c99 06b4 339c c23f 83a0 c767 cee6 c03f
00000620: 65ad d9f0 ff02 e83f 9a4f 0b02 4d00 99bf
00000630: c8b9 8a91 24d9 b03f dc4c cfba 90fa e8bf
00000640: ede5 9dc6 2c4d d03f 3040 185d 25e0 cf3f
00000650: 30e4 3dae e7ac c23f 338d b1bb 0d8f c33f
00000660: 27a3 175b ed83 bb3f 257a d295 8dc8 c33f
00000670: 462d 8eb1 b583 a63f 39d4 2e0d 5459 ea3f
00000680: d1e4 c371 5f28 d6bf fa1f 491c 0f2a d43f
00000690: f1e5 3972 b4fe 96bf 5faa b900 127e 7f3f
000006a0: 9e15 f215 3ba4 c03f 28c7 e012 cc9e b33f
000006b0: b4eb 6b0b 05c1 ed3f 7554 7356 4417 e03f
000006c0: 6ac0 96a5 b308 c7bf ce7b 536a c69b d7bf
000006d0: b685 1e6f 2f79 99bf 4541 d601 7930 c83f
000006e0: 3b2a 2965 9148 e93f e7e1 e4e2 df6f c63f
000006f0: 6430 4111 dc32 cb3f 09fa cf49 b47d e03f
00000700: ddca c1a8 8c1c bf3f ed8f c099 548e 87bf
00000710: 7918 6a10 6a67 c63f e536 8699 3e95 cb3f
00000720: 36d3 7906 2313 ad3f 9fe8 cc3c 4fa8 b53f
00000730: 2f48 e979 e7de ddbf 988e 51c1 ed66 cabf
00000740: 0607 eb98 20e8 9bbf cee8 714a f510 d03f
00000750: 68a7 7128 8b56 b73f 58fb 124f faf0 b63f
00000760: 15d1 4d57 7715 cabf 180f ba92 501d c63f
00000770: 00f3 6941 874d c63f d9d7 de19 469e babf
00000780: fd22 80a0 9406 763f 64e9 dada c64c c23f
00000790: 5906 0621 6ab4 e1bf 8357 bfa3 21b8 d93f
000007a0: f4f8 f931 a567 ba3f a95b d051 5179 b5bf
000007b0: fbcc 0616 2815 e13f 7109 aa04 5074 debf
000007c0: b964 58b4 4f52 a6bf 15ae 3b2a 811c c53f
000007d0: 5177 bbe6 af11 d6bf 4ce7 3621 943e dfbf
000007e0: 6e2e 9e28 e325 c73f 161b c14c 0150 663f
000007f0: cd2a 9510 2e61 e03f 897f de5a 9ae4 b8bf
0.011116375406212737 0.07154470884601559 -0.01288439944231986 0.18823840724767002 0.26893520349107336 0.25319827921041754 0.15613521798395624 0.1979872519563474
-0.34365105417736025 -0.1826332521784155 -0.27086612352300526 0.2698824332791564 0.6193577585149287 0.3740276686162463 -0.41447674166572473 0.010396439040539931
0.2524254030020602 -0.6070705500810212 0.3761288825379679 -0.5034796927463876 0.4437068943008908 -0.18187043082757365 -0.18405533944970098 0.1029735503348368
-0.09756568727466515 0.44692060101175807 -0.788651948793331 -0.35643484461740255 0.26366096307353426 0.03017991683438803 0.05658479851346785 0.4852062887125194
-0.17426581694356322 0.2011331871122317 0.30578433619074497 -1.6070422777812494 0.3825493996799187 0.10976951415129092 0.421985787812702 0.3907567658491513
0.07972027410713187 -0.4957773569293844 0.5161136343124278 -0.4045062267572247 0.7254456193492606 0.4283631309245356 0.10918914738703193 0.14232840589140708
0.1518718719056365 -0.14769250615265334 0.5505049692567293 0.1650908929607703 0.3217403344903105 0.07892525141210203 0.36955952703872214 0.17453170740244567
0.4070490312449406 -0.4688793276841338 -0.29717622726299825 0.3241163556332446 0.3010791063979628 0.1395964436264052 -0.2559718041353246 0.21962530387053644
-0.07227064232091701 -0.1340898686178383 -0.050713818088291895 -0.3489092938601297 -0.5068626067883345 0.6431277913747799 -0.2708729252998493 0.4350537794385345
-0.06422970614435089 0.21114466733408244 0.05897114147008493 -0.0501647070031021 0.05518379083193015 0.1393534111445304 -0.0883414820579025 -0.17252154331734393
0.4651497350054955 0.17319171817022255 0.22759384650358883 -0.1069813483968274 0.1188652595618556 -0.3719003123336416 0.009613446066274251 -0.23422700542035174
0.08882318974741217 0.07947061816607151 0.16411288262518367 0.003328840254517065 0.018969064994988974 0.5429373717839424 -0.12478659153426125 -0.4686571699458948
-0.34476189481054625 0.2394821987583678 0.16513829015809656 0.2845871592293997 -0.5581625889983095 0.19630669875502207 -0.17367900282825505 0.5150607366632175
-0.1146147331032069 -0.6871935306421414 -0.5106016663176475 -0.4158533387964094 -0.5568615171133081 -0.08100244361927532 -0.4300543459284145 -0.42346834798581656
-0.07425244271884932 -0.043762962443091226 0.10681384269863288 -0.44501312803823867 0.6690961116935789 0.6687717483478974 0.06526350563221754 0.20498807541760697
-0.4973765574083243 -0.33725636530567527 0.02697885845501578 0.5559688339881106 -1.1647734281383904 0.14353847037256848 -0.02844134912135897 0.11646916277167778
0.3536216768279371 0.2826467099389223 0.2741969631602243 0.6002063451040786 0.1125578014761902 0.19798737215983317 -0.678478859049432 0.49096940655390836
-0.07347215845711404 0.2519646601190591 0.6617217001391549 0.48926855062437263 0.06496481751967641 0.008120283074307502 -0.3146057448206458 0.10948143474438794
-0.22174422963892987 -0.22091390213355588 0.2720563900597127 -0.4576324238600116 0.09204423728954525 -0.16612300034687025 -0.034538877167629906 0.24065738930581496
-0.5865542177376339 -0.07667324716242911 0.4049212953845373 0.3188791051338844 0.08864920655193477 -0.23566646475847955 0.8382204600927398 0.1853529146626906
0.5121055209014718 -0.2865538805446514 0.02113131933747924 0.2140910342985176 -0.22686583742740196 -0.02223548200845443 0.16613336098595133 -0.7242502298345797
0.29174965102247896 -0.011438236157459937 -0.01757377046087747 -0.3058429856814771 0.02179460698603746 -0.05728861009841335 -0.05137915258669266 -0.3972628429732984
-0.13100723100574072 0.1724300763842725 0.2693575272087145 -0.24889281033078786 0.24058142361556503 0.02701572664193308 -0.09193442119744558 -0.29910574002514917
0.3394148986146123 0.46286404842383894 0.16288542147310897 0.8244219859392174 0.32723210062502084 -0.14080881238990173 0.11519543898702796 0.2792582419095256
-0.4633164255679988 -0.08794817754177456 0.1453919056923011 0.13204364840862945 0.7503661827189886 -0.02441521000839906 0.06581333688038804 -0.7805865906360867
0.25471038242503036 0.24902789159432492 0.14590164192102995 0.1528031507942643 0.10748179887708585 0.15455789390121413 0.04397361557411243 0.8234043366889018
-0.3462141619671231 0.3150670791842455 -0.022455996963321515 0.007688589404646422 0.13001192637981956 0.07664180241479512 0.9298119757726142 0.5028402031408762
-0.1799530561961576 -0.36888275512131663 -0.024876347691707067 0.18897926892942443 0.790108392314614 0.17528914049923047 0.2124896129847712 0.5153447572373021
0.12152938003581988 -0.011501942579407365 0.17503095437513475 0.21549208160688874 0.056786627331268866 0.08459944948563923 -0.46672999291797884 -0.20626613559135332
-0.027252683003786714 0.25103504438415036 0.09116430032159217 0.08961452894707855 -0.20378009570016134 0.17276961483377629 0.17424097723041854 -0.10397756702045004
0.005377369474452773 0.14296804128918972 -0.5532732624998956 0.4018634890647876 0.10314400167587562 -0.08388241050157198 0.533832591076503 -0.475849155955209
-0.04359673572998574 0.16493238985218342 -0.34482953579378256 -0.4881944965705898 0.18084372981353475 0.002723696268762575 0.5118627857094339 -0.09723820417866426
