offline_resampled_model_testing/model_2.npz (npz, 969237 bytes, 5 tensors)

imat f8 [1581, 50]
00000000: a293 ef8d 99ab a73f 18a5 9a80 ad24 d1bf
00000010: fa87 4ccc fffe da3f 9b62 28b6 91ad c8bf
00000020: e051 c4c3 47fa 823f 888d 13f4 2b78 a3bf
00000030: 48d2 4b90 b86b c8bf 456b d6e4 2e6e d0bf
00000040: 7e07 2f19 6193 d1bf da30 a594 5567 d33f
00000050: e9e8 b649 1ee9 cfbf 0ca9 c713 b76a b9bf
00000060: 76cd 8553 b381 b4bf 791f 93e6 eb1e a93f
00000070: ed9b 5846 bfdd d73f b7b6 a614 3e7f c9bf
00000080: c142 0c80 2689 c2bf 2348 72d4 ce23 b6bf
00000090: c99a 1ed4 f035 c83f 9865 3699 63b7 933f
000000a0: 0c33 7c4c 9686 cebf 1a97 2d4c 4bbe bd3f
000000b0: 3f5c a841 6f26 c13f b141 4ac3 f394 d03f
000000c0: b8c1 a8b3 86c7 b4bf 5007 4b2e 6ac0 b43f
000000d0: c8b5 efb9 fbd6 b43f 4456 27e1 e565 783f
000000e0: 929a 8792 6621 b93f 49d5 6e4e b4a6 a93f
000000f0: f910 9c14 3890 b8bf af90 783c 8784 d13f
00000100: f20d 4ef6 e5c5 d5bf b0af 456e cdf8 e0bf
00000110: 8aec 2a62 0c39 c23f 05a0 e74e eb86 d53f
00000120: 2cb8 6b11 4e9b d5bf abe5 3846 2e08 9c3f
00000130: 6291 1d46 78a4 c33f 78f7 3681 0177 a0bf
00000140: 61cc ea70 5b47 cebf 6f3b d50b 2673 cc3f
00000150: dfbe d8e5 d53b b33f c2e4 494e 7bdd c63f
00000160: f25e dddd bb1e ca3f 1020 2458 dcac 653f
00000170: 4582 4946 ebdf ca3f 0bc5 c061 b827 c63f
00000180: 50f4 6a6e 52fb c2bf 6db1 1f34 8447 a93f
00000190: ac1d ca15 4d82 d9bf 74d9 d514 31be 90bf
000001a0: bd72 2720 b254 a53f 8261 62b1 2f34 993f
000001b0: b686 083b 7c0d afbf 0505 17a9 ecef c53f
000001c0: 5bc1 7bee c529 cc3f 4145 d0e0 8ab5 a73f
000001d0: 704e 5872 8867 cd3f 5667 199d c110 a93f
000001e0: 1379 93e9 3b14 cd3f 134c 67c9 d153 b0bf
000001f0: 689a b1e6 3375 c43f bfd6 4c82 7b6d c3bf
00000200: 19a8 73c3 2f9f c6bf 3019 2545 76c9 b43f
00000210: 1f94 8391 85b3 d0bf 92e4 6dde 15de be3f
00000220: 1144 daad db63 c6bf 7344 b139 e9cd b8bf
00000230: 36ef 98d7 cd6b 943f 56f0 2b69 a5df ad3f
00000240: 20ef 90d1 aea7 c3bf 7e94 8b5e 5aa6 c2bf
00000250: ca78 6aee 7568 bebf 6825 b7c4 8ceb a83f
00000260: 681a d37b 9be8 d1bf de2b 00b7 afd0 c4bf
00000270: b2c4 6bb0 6de2 babf 30ad add7 8395 9c3f
00000280: 6244 a66c c1c4 e13f 9974 51cc 8805 b4bf
00000290: f032 ca16 d3ff 91bf 0351 52fd a5fd c2bf
000002a0: 8b52 3e7b ca2a a13f 412e 5612 fca0 d23f
000002b0: c099 2c2a 6722 92bf 78d7 761b 6ab3 d03f
000002c0: a907 9993 6c0d c13f 8c3f 1eb0 3650 bfbf
000002d0: 7474 2c37 af93 ce3f 7c6c c20b d770 91bf
000002e0: 44e1 4f0a 9526 c9bf a2cd 2b8c 6cf8 c63f
000002f0: 5ac9 cad5 17e7 cfbf 964e be65 4042 cf3f
00000300: e027 4e2e a118 cdbf aa55 dba0 ed46 c23f
00000310: f57c e827 4373 b83f 987a 06e2 1328 bdbf
00000320: b8e9 f6b3 7f78 8dbf e237 820f 6f62 a73f
00000330: 4b38 6b93 0ebf b43f 4807 f85a 78a2 aabf
00000340: 61bc 215a 009e c1bf a0d7 de81 53c9 cf3f
00000350: 5c5b 7380 68f6 82bf 80ca c8d5 7d59 213f
00000360: d4de 8e88 ca67 d6bf 3444 a20f de24 b63f
00000370: c7e3 cdf0 145d cb3f e37f 9107 81ca c9bf
00000380: fa91 d79e 05fb c63f 2d88 d294 66fb b1bf
00000390: 1251 70fc 5cc1 b0bf c44d fffb 3887 c23f
000003a0: b68c f004 ed1f d7bf 2a88 36bf 3c9b be3f
000003b0: 8bf2 8211 8531 cabf 503a 0e55 13b1 8a3f
000003c0: 8d24 5ade b7c3 c8bf 1afb e925 2cc1 bd3f
000003d0: 98d7 4290 fa9f c9bf 103c c65d ec87 a33f
000003e0: d485 9655 3424 af3f 3675 affa 9521 a7bf
000003f0: e4e9 26c8 42c0 ba3f 253a d191 edca c73f
00000400: 152d 07e7 f39c 80bf f6dd 9ede 8e71 bfbf
00000410: 3b42 6495 0fb2 c23f 51a9 e404 96e5 a23f
00000420: 7e2b f76d 0eb0 d0bf ac11 56c7 2d71 a5bf
00000430: 0a28 d4f9 cc4d 873f a4a8 0f21 659f b63f
00000440: b64c e027 3aac acbf 2587 18f3 67ef bd3f
00000450: 1e1a c319 42a2 bc3f 7ab4 0cdf 83df b1bf
00000460: 7e4e 444c 2506 a0bf b893 8705 257f c1bf
00000470: efe9 1fbc 96b3 9abf a81f 4aa5 9dec ccbf
00000480: 3e11 10d9 b749 d5bf ce3a f76b 0260 a8bf
00000490: e09a 4c52 36ad bebf c227 3042 a86b afbf
000004a0: fa81 2e9b ea3c d0bf a8fa e41b d510 c2bf
000004b0: c335 6268 fc0b cbbf 581f 27df 109f a0bf
000004c0: 0203 cad9 aed0 c7bf 4c61 1c47 eb1e db3f
000004d0: f758 ec6a cd76 a23f 76ba 8783 ec1a bdbf
000004e0: c4c3 51d6 a423 b7bf a808 df22 e0ef d1bf
000004f0: 0b77 db4e e669 b83f 3e0d bc2c 3cec ce3f
00000500: 58d2 5724 6aac 72bf a0b1 ed97 11c6 c9bf
00000510: 74c0 ffaf 7616 813f df5f e9d7 ff0c c63f
00000520: 9471 0d09 1abe bcbf 4b2f 05a2 9d2f c1bf
00000530: 62b3 3c84 a64b e1bf 0d5d b6ad 7f4d ca3f
00000540: fe8e e9b8 4165 d8bf cfa7 0d0c 99e8 d43f
00000550: ad99 e113 df9f c3bf 2ffa e4e5 0979 9cbf
00000560: cebe 667b 6308 abbf 650a bfe7 d908 953f
00000570: b202 e828 6691 c43f 41a6 8423 0b20 a43f
00000580: 4877 af43 ad6f a3bf fee2 2981 985f ce3f
00000590: afd0 839f f1c2 9c3f 2d43 5dff f50e c0bf
000005a0: 5c78 490a 6fde bebf c238 6a70 8037 c0bf
000005b0: fa98 191e c175 aabf 5c10 2063 f4a6 c1bf
000005c0: 27f0 8c02 a12c a93f c851 a0e2 08fc c93f
000005d0: e744 4830 0e2f c5bf e377 da7a 806b b6bf
000005e0: 16bc dd0e 3949 bd3f 2a6f dbb6 421b ae3f
000005f0: 2598 4a88 103b b23f 9648 b364 8c6c cdbf
00000600: ebba edfa 2637 9b3f 5537 6ca9 7337 dabf
00000610: a448 9382 e9b7 c73f 0a78 b76e 3a9a ca3f
00000620: c4ed 4e7c d34b d6bf f5d9 8da2 e2b1 d9bf
00000630: 005f d6eb a689 653f 2d29 ab63 655b bbbf
00000640: a82e 867a b818 cd3f 9c5c 2868 72b4 91bf
00000650: b493 3c07 4d2e 6bbf 305f d081 ed7e a0bf
00000660: 6d68 a4a3 1241 c4bf a69f f1ae 23e5 d13f
00000670: f08e 0234 4695 aa3f 65e9 642d dbee c03f
00000680: ed4a 7789 329b adbf d247 8fdb 1e3c 9a3f
00000690: 0a8e 9a75 5dae d3bf 80c4 ff16 5e6e 933f
000006a0: 5a3b b6fe e017 d73f 2a42 a5cf 42f8 d33f
000006b0: 93b5 9007 8386 c5bf 508f d7ec 797b 983f
000006c0: e28f 54b8 37dd d8bf 220c 3d50 3a4a d0bf
000006d0: fb22 b6df d391 d03f 2e22 3710 8154 babf
000006e0: c252 d5e9 1939 90bf e0c0 0111 064a a1bf
000006f0: 757d abf9 b640 c2bf 41bf 5fab 9f92 c13f
00000700: 6f44 a3b4 3375 9e3f 5c56 e602 197b dbbf
00000710: c853 9bc8 e962 d03f 3597 342d 905c d43f
00000720: 84cf 15bd 70ec d3bf 5a17 67c1 ac59 a7bf
00000730: d203 a842 343c bc3f 76c4 e6c6 8d0f d03f
00000740: fe17 60c3 fe6d c9bf 664a cc4e caaf b9bf
00000750: 3c8a 1de0 aae8 bebf f503 dbf5 7c96 ccbf
00000760: 16a7 8d0f c807 89bf a238 c972 efbd c2bf
00000770: dad1 87dd 7b09 b7bf 0783 359a a1d4 b8bf
00000780: 00f8 a86c 2ad9 c73f 8863 39e8 f85d 8bbf
00000790: a285 41ab 0efa 90bf 6cc1 a0aa eaaf c2bf
000007a0: afa7 6cf8 8e6e d4bf f04e 1d3b b046 b03f
000007b0: f895 f542 0be7 d0bf befc 995e 6b03 ba3f
000007c0: faf5 c348 ac45 b4bf 7e68 0700 b672 be3f
000007d0: 744d 033d a200 ca3f 10ba ef16 51bb d1bf
000007e0: e818 e686 7064 5f3f 73da 5e12 82fa d03f
000007f0: 3843 c466 af7c d7bf a8f4 ccf2 3410 da3f
0.04623107774367631 -0.267863631811069 0.42181391669339485 -0.19279691118642436 0.009266434346991426 -0.038026212257842806 -0.19078738256179606 -0.25672504756373754
-0.2746203180250787 0.3031820251096754 -0.2493017063077965 -0.09928459389599115 -0.08010407246711346 0.049064037224126396 0.3729093729947966 -0.1991956330143034
-0.1448104977830749 -0.08648388563804636 0.1891461406459796 0.019254261232708098 -0.23848227247835785 0.11618490800682615 0.13398543077411948 0.2590913207177677
-0.08116952787600595 0.08106101637079388 0.08140538491689775 0.0059565524738523536 0.09816590382943449 0.05009997804101347 -0.09595060828366177 0.2737138834511467
-0.34020375302517813 -0.5303713945154325 0.14236597817748403 0.3363598127893968 -0.33760406209228466 0.027374957119013093 0.1534567205773199 -0.0321579427941136
-0.23655264867338402 0.22226405694751913 0.07513176785937102 0.1786340839642318 0.20406292279471178 0.0026459029769547796 0.2099584668349214 0.17308716557594325
-0.1482947386884086 0.049373751986283 -0.39857794883615827 -0.016350523850144197 0.04166180269723927 0.024613137437513817 -0.060649759489263586 0.17138441330283896
0.22002481598566245 0.04630693430238831 0.22972207625626906 0.0489559654494786 0.22717999367791517 -0.06377898375585316 0.15982674373954642 -0.15177863943397615
-0.1767329887728131 0.0811990660487012 -0.260957138160224 0.12057625465776514 -0.17492242802521266 -0.0968919530726156 0.01994248989488697 0.05834690960725257
-0.15355477555009944 -0.1457016908308652 -0.11878144331646748 0.04867210294066632 -0.2798222264504262 -0.16261860309199866 -0.10501752431061354 0.027914104498831083
0.5552680131969618 -0.07820944774853657 -0.01757745577428954 -0.14836573476043932 0.03352959398686036 0.2910757235592634 -0.017709361981496974 0.2609505909161878
0.13322217184946553 -0.12231771278152176 0.23888197130228017 -0.017032013027897794 -0.1964899349548067 0.17945629925052936 -0.2492399019152554 0.24420933692873764
-0.2273141361332014 0.14278955797514686 0.09550876354522926 -0.1138927866763687 -0.014389989547329715 0.045672865527293785 0.0810402974995849 -0.052020798782918265
-0.13763431931463102 0.24833148804981153 -0.009259048862458812 0.00013236676285684548 -0.35008490882635823 0.08650005227743024 0.21377813108463625 -0.20149243230389322
0.1795355821224261 -0.07024232037886753 -0.06545048869185546 0.14475166611246781 -0.3613235996474019 0.11955623310362343 -0.20463622431806913 0.013033057244482255
-0.19347284657513733 0.11622882772097079 -0.20019466442107325 0.038146387526573844 0.060823092887641345 -0.04517811474918647 0.10449616800807565 0.18588037128434212
-0.008111863601604466 -0.12282650885651222 0.1460589866114946 0.036907852265658854 -0.2607456277734669 -0.041879110892327404 0.01137886178414151 0.08836967522771261
-0.05600148903627071 0.11693429646450378 0.11185086373289052 -0.06981682010219173 -0.031296887931742554 -0.136692645740508 -0.026075701935022563 -0.22597094126490203
-0.33262439916167696 -0.047607494048511265 -0.11983050832041497 -0.06136823471031462 -0.25371804384670293 -0.14113868581803968 -0.21130328270775864 -0.032463576546034545
-0.1860560000823384 0.42376214928073774 0.0360626404782795 -0.11369207583605054 -0.09038763267905298 -0.2802658405818286 0.09536590028025331 0.2415843218260338
-0.004558958642054543 -0.20135707777388934 0.008343627210678252 0.17227170984801796 -0.1122757217503419 -0.134265617476894 -0.5404846747165772 0.2054900739865179
-0.38118022020192643 0.32669664551815186 -0.15331638785137383 -0.027805475861209124 -0.052798374951974134 0.02054157711951134 0.16068722722413536 0.039306972585404505
-0.037961401474361056 0.23729234988038422 0.028087401734368352 -0.12545657128296153 -0.12058156968257222 -0.12669377793321784 -0.051679644512477155 -0.13790755119419174
0.04916861683020129 0.20300398889288673 -0.16549851758512732 -0.08757784842825304 0.11439854252761025 0.05880173189299705 0.07121375396181458 -0.2298751346302807
0.026577576699703547 -0.4096345095175498 0.18530005336521527 0.20783167272651354 -0.3483780588100809 -0.4014822566454364 0.0026291141682114327 -0.10686334307971342
0.2273169134390305 -0.017289912802962534 -0.0033179764231072387 -0.032218381973676435 -0.158235864547183 0.27961055836066817 0.051920122002483526 0.13228931156647686
-0.057824687271610255 0.02561996665082928 -0.3075173996423649 0.018975706247094326 0.3608324515743583 0.3120276477612004 -0.1681674754085348 0.023908524590196933
-0.38850205422408923 -0.254530504567983 0.2589006123239838 -0.10285193105585996 -0.01584282388405956 -0.03376788098910466 -0.1425999373522974 0.13728710048553164
0.029743965053800666 -0.42938828738383505 0.2560371836710229 0.31814960875123016 -0.3113061758551725 -0.045606039627769504 0.11029364230490948 0.2509493296048001
-0.19866928615391538 -0.10033859657077357 -0.12073772403304245 -0.22334253315605648 -0.012221873259210574 -0.14642136673723366 -0.08998846205196945 -0.09699449553364668
0.18631487184205753 -0.013362831675452616 -0.01657889290107096 -0.14599355060046137 -0.31924795398901556 0.06357861941551923 -0.26410180605884603 0.10161467609030958
-0.07918812538624556 0.11893785000521181 0.20314434031625306 -0.2770579074848749 0.0019160365005475525 0.2652898005866639 -0.36698517833524447 0.4072391863918008

gbias f8 []
00000000: ea4f b342 9f37 0c40
3.5271592341396074

ibias f8 [1581]
00000000: 5020 64c6 7255 dabf b0d2 ba64 8db5 cf3f
00000010: 371d caa6 757b d93f 8994 1aa0 bdd3 bebf
00000020: 1861 c278 7928 e23f 40ba fff9 8d45 d33f
00000030: a5eb 1b63 c6ed d63f dc53 d27a 607a c53f
00000040: 60f6 2941 73a7 e63f 6ff2 3851 a948 a53f
00000050: 9d70 0955 fd18 e1bf 174d eb6d 4623 d93f
00000060: eb58 50e2 fc98 d63f 200f b924 82c2 893f
00000070: 2ac2 94ae 04f2 b7bf 7f57 032d f261 d2bf
00000080: 2567 8b0f 7cc2 a73f 633f 722e 5b85 ae3f
00000090: a8a2 b00c d85c dabf d918 6c00 e0a5 60bf
000000a0: acc3 526b 49f9 e53f 26a0 43b0 b687 8e3f
000000b0: e8a0 692b 93ac dabf ef8f 4eab 6751 d6bf
000000c0: 77af 1aa2 4392 da3f a42d 9538 a956 ce3f
000000d0: 4ea0 ff76 42f1 e13f 7ed1 bc2e 979f d6bf
000000e0: e158 13f7 65be c6bf 7b1a 5549 6886 da3f
000000f0: 8fbf bec4 a042 dabf ed05 7c09 745f e0bf
00000100: 77ba f7f0 c881 e4bf a2ea b60a 8d96 e33f
00000110: f446 9816 2ed9 c6bf 7acf fb55 9a9a e53f
00000120: e474 9bd7 23b1 d43f 2e72 fb72 e981 d7bf
00000130: 035e 79f6 1a97 e7bf 4822 24a3 098c c2bf
00000140: 0106 1741 01bc c53f 4cca 45b5 dbce a43f
00000150: ee68 3ae8 966e e13f e56d 0c19 de1d 853f
00000160: bf7b 4e53 e986 cd3f a632 15de 94fd dabf
00000170: 5834 f23f 5d5b d4bf bf56 5214 a195 e3bf
00000180: 0089 e506 e5d4 c5bf a169 1d1b 3389 d03f
00000190: af30 a71a ee89 c73f 4123 387a 2296 6c3f
000001a0: 89d7 77f8 507c d2bf 06ee cc1c 7a0f 8ebf
000001b0: 3f28 d09c 2518 9abf 2566 7949 cf89 c43f
000001c0: 386a b2c6 3e14 dc3f a81e c4de c14f dbbf
000001d0: e7da d323 cc78 e53f 360c c96a 89df cbbf
000001e0: 6379 5f11 401d cfbf 3b11 ef7a c5e2 e03f
000001f0: 1cde 68bb afc7 bcbf d8c9 47a3 e720 cc3f
00000200: be02 bd1d 279f b53f 0633 4859 6ebb da3f
00000210: 4db6 7e0d 6728 e3bf 8229 1cc0 2767 c1bf
00000220: 2459 51aa e2d0 c2bf 076e e1b5 2a2e e8bf
00000230: 99d5 345e 7e2a cbbf f4ab d2e6 0e76 e7bf
00000240: 04bf 9ba2 0de9 85bf cc47 f1cb 08b7 e83f
00000250: e3db 74b8 4a1f de3f c1c3 8851 227c d0bf
00000260: b95c df01 d418 c6bf b427 209e a11a d43f
00000270: 200f b924 82c2 893f 360a 72ce 1c89 e4bf
00000280: b5f7 e5bc 0ec3 ec3f f7b2 663a 3172 eebf
00000290: c1b5 4fe8 6ffc e53f ea45 99b4 c52a cc3f
000002a0: 2b29 342c 61bd afbf 4e89 df52 0a75 c9bf
000002b0: 9b5c e2ab d5de b73f 19c6 c39f 1258 cabf
000002c0: 4a72 79cb cf2c e4bf 8a19 189b 5a56 ab3f
000002d0: d64e 8e58 35d7 e83f a378 3f57 855b c03f
000002e0: 1c53 60cc 756d 613f c877 c93e d534 813f
000002f0: d5ae dfe8 8830 b3bf be7b 6eb3 521e d0bf
00000300: 169f 4fde b48a e9bf a45f 38d0 9fe2 e43f
00000310: bba0 9b3a d4a1 edbf 806f b445 ca2f c03f
00000320: 435b 31d1 91c5 dbbf 5a84 47a2 1b2a d43f
00000330: e50b 9084 f6b7 c23f 1909 4aeb 77d6 d93f
00000340: 93cc f845 60dc d33f 97c0 83de 5766 d03f
00000350: e46a 535f b4d1 a0bf 9285 694d efcc dfbf
00000360: 6447 5250 4593 ebbf 0eee a0d4 88d0 ad3f
00000370: 1358 edc6 d7e2 cabf cfb0 37d2 5eaf d9bf
00000380: 058c f439 16db eebf a560 326c c512 d13f
00000390: 2a6a 9dec 97a9 b53f 1afe d9cf 1329 edbf
000003a0: 2d17 c508 9e23 e13f ac92 fca9 d798 e9bf
000003b0: 6f4c 94ed 17c9 f5bf f21b 8e8c dc44 e63f
000003c0: 5784 a8f4 746a efbf 857a 10ea 8edd d3bf
000003d0: 2b06 3685 0dec 6d3f 6e42 7478 6bc4 db3f
000003e0: e4bb 850c b487 cf3f 00a7 c432 6508 cabf
000003f0: c974 ef6a 61b1 923f c501 05ed 7cf5 b63f
00000400: 2683 b140 b851 e0bf cd57 22af d7f6 d6bf
00000410: 0371 9e46 8b28 db3f c10b 7608 743f c53f
00000420: 63a6 353c e8a5 d73f a538 ebc1 b0fb debf
00000430: e07f 4e29 5821 afbf 2ce6 996d 64a5 e1bf
00000440: ea58 50e2 fc98 d63f f1c4 b2f7 e6d7 e03f
00000450: 6cfa 3714 5393 dfbf 26db bd06 cced d33f
00000460: 3726 4aee 1083 c53f 5c0a e13f 8c00 d6bf
00000470: 4a7b e49a 4d8a dd3f c4a7 25a4 c4c4 aa3f
00000480: 0a90 8850 c8d6 823f 534f 94ae f7f8 e3bf
00000490: 7529 4df5 0dd3 c3bf 1776 c149 89c7 dd3f
000004a0: 5919 b686 f6d5 c03f 4a6b eee8 7d43 c43f
000004b0: df6a 5424 dc54 e53f c0b8 1d70 1179 dbbf
000004c0: ce86 9d89 bee4 aa3f 8799 0ca3 2eb9 d4bf
000004d0: e720 e0e2 657c e2bf b27f 49d4 b649 c83f
000004e0: 33c6 e226 bc7b c03f c043 3535 6ad6 cd3f
000004f0: 045b cfe6 f3be e23f 6513 7b5e cf28 ce3f
00000500: 3ca7 8d2f 8ae5 da3f da90 e563 2154 ce3f
00000510: c72e 9574 1445 da3f 9449 df4c e115 c0bf
00000520: f7ad b0c0 7612 e5bf 987e 8ee9 aa48 d0bf
00000530: e52e b28e 847b e1bf 9198 bf39 d57d a1bf
00000540: 74ac b371 2777 dd3f a5ec e34b b86a c03f
00000550: 9fd7 b45c efe2 c03f 1a78 7e9d a4ab d13f
00000560: 16a7 c42d 7e5b d93f 57ff 1fc6 10f2 d6bf
00000570: 4ff9 bc4c cfe4 c8bf a4d0 8178 0ba7 ad3f
00000580: 3285 d1cc b6ab d23f 2f13 92f1 4b1c f3bf
00000590: 0a4b c15d d576 93bf 7583 dc10 c1ae c43f
000005a0: 8e18 454a 8293 d2bf ae97 7369 adc2 e2bf
000005b0: 47be ecc6 653b dcbf cbd3 6e39 93fa d5bf
000005c0: 20ab 439c ae2c b43f 6015 4533 41bb d33f
000005d0: cfd8 d64d d7b8 923f bf7d a661 4c85 df3f
000005e0: 09e7 d1bd 2c06 9c3f 35f5 874b 09d3 df3f
000005f0: e5a5 5992 858c d63f 1409 4aeb 77d6 d93f
00000600: 6d01 f3fb dee5 d93f 452c 4278 b8f1 bb3f
00000610: cfb0 37d2 5eaf d9bf 29cd 6b17 607d d13f
00000620: de5d d40b 2df3 c63f a978 3f57 855b c03f
00000630: 0722 6a4c 3f9f e73f 7914 b27c 055a 833f
00000640: da1a 1dd9 3d12 c03f 10bb 347f 8c6f cbbf
00000650: f6c7 0549 ec2c da3f 5b19 0b37 bb09 cc3f
00000660: 0fec 9e6a bdc8 c5bf b677 5e98 6433 cb3f
00000670: 4f68 418b 5a8c dc3f 18f4 2a07 9de2 8cbf
00000680: e421 9744 5038 b33f 8a01 1602 ff4f d9bf
00000690: c96f a6cd 4ce2 e23f ae2b 9698 a955 833f
000006a0: 374a b6fa ed8c ebbf eba4 258c 227b e7bf
000006b0: 249c 0eb2 32e0 c23f 3d72 802b bfd3 b6bf
000006c0: 293d 7bac d455 e1bf c8e6 26a3 2c35 bc3f
000006d0: ec85 a641 928c c6bf b2f7 c208 04a9 cdbf
000006e0: 1aaa ef66 897d dbbf ceff e273 47c8 d2bf
000006f0: 0215 94df ffcf d63f b18c 2ae9 5048 e73f
00000700: 4e16 131f 249f d73f d6da 0c44 89d8 bc3f
00000710: 8a37 2015 f3d7 e43f 4d5d 85c1 0409 c0bf
00000720: dd5c 507d 2eff d3bf 61ff 294b 0742 d4bf
00000730: 1d66 d73b 974b eabf 3e06 cfba 8ff4 bb3f
00000740: 959c 37e5 43dc d93f d2e7 e209 3a93 e7bf
00000750: 42cb ad69 c5e9 80bf 261d da78 ca0a c9bf
00000760: 5586 b034 5402 c93f b48b 79de 58f2 f0bf
00000770: a2b5 a4a9 4ee7 e9bf 07e3 b924 c698 b2bf
00000780: b53e 4fe1 a3c0 edbf 845c c984 f7b8 e33f
00000790: 51d7 2b17 8982 dd3f 2679 5091 0530 d13f
000007a0: cd0f 4d46 1ed7 e9bf 2be6 996d 64a5 e1bf
000007b0: ddaa 3d9a 79ba c3bf 6dfe 5f0d 4a51 e63f
000007c0: acf0 7211 0540 dbbf 9557 fbcd d02e c0bf
000007d0: dff7 0ce4 6e53 e6bf 3815 ef58 d4f4 dabf
000007e0: cf1c 51e2 4765 d73f 84e3 53bb 9f93 c7bf
000007f0: 0e6f 136c c732 d4bf bc37 974f e6cf f0bf
-0.4114653527653944 0.24772803705640944 0.39816037452733916 -0.1204184070471276 0.5674407347278558 0.30112027563055577 0.35826263121242113 0.16779714581630756
0.7079406998379447 0.04156998745427109 -0.5343004856945474 0.3927780221394683 0.35308763600313736 0.012578026529019903 -0.09353665601953112 -0.28722814937406577
0.046405674836661505 0.05961117689105213 -0.4119167446065526 -0.0020322203666892466 0.6866805168302696 0.014907290701060626 -0.41678313483727303 -0.3487185643118655
0.41517725782863785 0.2370196844370699 0.5607006382169943 -0.35349063457694985 -0.17768549503552492 0.414453574765879 -0.41031665051831906 -0.5116520104640451
-0.6408428865814376 0.6121278008716511 -0.1785028086019832 0.6751224212043632 0.32331176810641993 -0.36730419377070944 -0.7371954740473828 -0.144898609789623
0.16979995420665264 0.040640703084950575 0.5447496925073929 0.010310874118252886 0.23067967002586262 -0.4217273873116859 -0.31807643170106337 -0.6120152851969677
-0.17055952870129687 0.25837400100649616 0.1838967924253487 0.0034895585429279012 -0.28883766426530905 -0.014677957538530084 -0.025482738205063745 0.16045561874015948
0.43873567012784376 -0.42674299959660766 0.6709957790143023 -0.21775930132034355 -0.24308014725006463 0.5276820565273178 -0.1124219734709801 0.2197541758792585
0.08445972896607665 0.4176898834128199 -0.5986819518636338 -0.13596054916736128 -0.14699967685982884 -0.7556356003146342 -0.21223430251999956 -0.7331614025364375
-0.010698420071519894 0.7723430617572773 0.47065990460708756 -0.25757654154136495 -0.17263269511633952 0.3141254467196817 0.012578026529019903 -0.6417373687875798
0.8988107385082375 -0.9514394894264048 0.6870650803882016 0.22005530660912537 -0.06199172653767201 -0.1988842873243563 0.09324393698112703 -0.2058127670384671
-0.6304701780423525 0.05339320319403658 0.7762705545050845 0.12779299507287076 0.002127389979259665 0.008401552179915131 -0.07495933232683723 -0.25185077211966334
-0.7981819479000218 0.6526640955735172 -0.9260045189557994 0.12645843890720343 -0.4339336913011957 0.31507006499857015 0.1462391040114134 0.40371511437855784
0.3103256877249773 0.2562465355868055 -0.032849918972450515 -0.49688322601112944 -0.8617273873116855 0.0582316169315754 -0.2100476952861646 -0.40132875947052765
-0.9642439968050672 0.2667707020386934 0.08461904074412332 -0.9112643298721566 0.5355978175436796 -0.7999075241137539 -1.3615950851861063 0.6959059472291058
-0.9817452219468902 -0.31039784295891365 0.0036525978154606973 0.4338635135946224 0.24632883655019022 -0.20338120440401752 0.01825477805310952 0.08968334948168095
-0.5099755538504709 -0.3588160715383964 0.424349612201482 0.16599893963947746 0.3695011699661334 -0.48411196648965876 -0.06080127243262701 -0.551439489426405
0.3530876360031373 0.5263552511079564 -0.49336697554091447 0.31138897570001445 0.16806232104527094 -0.34378343809308887 0.4615663540479785 0.05228247169254943
0.009198727567373072 -0.6241415414574284 -0.1548783729325113 0.46530372812944293 0.13152963235570317 0.15830968736266932 0.666608878094248 -0.4292644114383499
0.05252643041491255 -0.32380262301230583 -0.5776853018915319 0.1897495781477097 0.12877609156343936 0.23310592268037844 0.5858096607215377 0.23562042344397152
0.4202599968326586 0.23694245698710042 0.4104663027289743 -0.1256677270271892 -0.6585038913230495 -0.25443527992499915 -0.5463278567344473 -0.03416315393387593
0.4603975878114348 0.12825683312971595 0.13192550684624124 0.27610125904345895 0.39620928258465093 -0.35852450702804134 -0.1944827198694363 0.05791507574113666
0.2917305946521821 -1.1944083629943625 -0.019008001181940272 0.16158307383832562 -0.2902532315532732 -0.5862643298721559 -0.44112533975837603 -0.3434188900822021
0.07880679431006543 0.3083041191751672 0.0182832375773721 0.4925108865372429 0.02736730488366049 0.49725563407976675 0.352326767845254 0.40371511437855756
0.4046552143518259 0.10915711341856234 -0.40132875947052765 0.2732773045274422 0.17929614141097167 0.12779299507287092 0.7381893627617168 0.009449046008976435
0.12555668927435343 -0.2143416997073122 0.4089918816672474 0.21904697597183084 -0.17018859582989918 0.21250588836568135 0.44606650923890795 -0.014104105740779402
0.0750780265290199 -0.39550757602412345 0.5901245133022651 0.009440731972764595 -0.860953321144115 -0.7337811219450975 0.14746698087876198 -0.08916849910787845
-0.5417273873116858 0.11018637641145823 -0.1761648960646619 -0.23172045162021743 -0.42953715374338375 -0.2934740668970307 0.35644528230507444 0.7275776437785649
0.36908820185303604 0.1126790801180094 0.6513610279669007 -0.12527522515550019 -0.31245004880606847 -0.3165300592445331 -0.8217273873116856 0.10920046149024018
0.4040689218949834 -0.7367220109074373 -0.008258383071483192 -0.19564181233384054 0.19538357327205583 -1.059166783373013 -0.8094857514712894 -0.07264364620813178
-0.9297656441285286 0.6163289636123328 0.46109225523774905 0.26855601492742875 -0.8075095532481044 -0.5514394894264049 -0.1541282656792963 0.6974230061750412
-0.425782458343529 -0.1264287000437291 -0.6976847128023528 -0.42119320568993457 0.36555668927435375 -0.18419262549266702 -0.31559930376327905 -1.0507567509662143

umat f8 [942, 50]
00000000: bd30 e9df 3b57 c4bf 1801 fdae 3c3f ab3f
00000010: cd19 276f 7b01 af3f 7250 5409 d523 c03f
00000020: 349c 2f98 c64a b63f 20cb 612b bdc4 adbf
00000030: fdd8 b7d4 0cb1 963f e89b 9d62 db34 b43f
00000040: 90b1 9d64 9ac5 cabf 94e4 e677 a69d d73f
00000050: 2751 4bf1 0db6 d0bf 46e0 48b0 bbcb cc3f
00000060: af6b 5304 15b8 c1bf c059 dc83 ea3c b43f
00000070: e0a5 fcfe c2c4 5c3f 382f de52 40e5 d0bf
00000080: c458 729a 1566 de3f 9007 6813 14fc a73f
00000090: 103d 6e19 ec35 d73f e442 84cd 58f4 c9bf
000000a0: 6b25 93a8 aaba 9e3f ef83 2bd6 9913 c2bf
000000b0: 3669 ac06 adb5 c0bf 5475 82b6 cc2d b8bf
000000c0: 4af3 426f de20 adbf bf5d b2a5 7dca b8bf
000000d0: 48f9 2c5b 95f4 b9bf e42c a0b1 3973 b23f
000000e0: b49a 3e19 3b66 bb3f 7e79 b6ba ecde b4bf
000000f0: 34dd f88f 7cc2 c4bf bf01 db90 bfd1 983f
00000100: 6c04 6320 2e3f a2bf 7ed0 05e7 3486 da3f
00000110: d0ab 3d03 adc4 ce3f f07e bb81 14ce 553f
00000120: 1ce8 689d edef bcbf 4ec0 e076 1d47 b0bf
00000130: 2059 6ac5 64e2 a53f 2026 277f b163 a7bf
00000140: aff5 f17e 9eba d03f da39 c1ec 621b cbbf
00000150: 5421 75d5 39ec bdbf 8a6f b641 d9cc b53f
00000160: 88ed 502f 44f8 a23f d414 18c4 bbcc 83bf
00000170: f44d 3249 8203 b13f e86f 2ecd ebd2 d3bf
00000180: f50b 28d8 f13a cebf e690 a1cd 3136 cbbf
00000190: 2ec3 9208 3397 b43f fdad bb66 e3e6 bbbf
000001a0: b826 8101 a3bc b03f 993f 4009 c957 c1bf
000001b0: e923 6786 f205 d63f 426c ce20 f5a1 bcbf
000001c0: 3088 f8c5 8d14 c8bf 427a e85e 56a6 9a3f
000001d0: cd1f e83a 0734 c7bf 926d 38be 29fe c2bf
000001e0: 7a7b b395 0d87 d13f ac44 d63e 84f4 ac3f
000001f0: a069 ff93 d69f d23f b85c 5fbd 47bc 9f3f
00000200: f878 4f84 2fa7 b03f 842e 88f9 45d7 af3f
00000210: 79b4 3231 46f4 b6bf 203e 0bf0 e819 6d3f
00000220: 14df 031f ce53 c03f 505f 8fa7 0d7d bfbf
00000230: d959 03af dc9f c0bf 712b 05aa b1af afbf
00000240: 491f 991a 1988 b5bf 0041 aceb 0742 b13f
00000250: 567f 50a0 0ad5 cd3f a022 fa84 14c0 bd3f
00000260: de15 3cf5 e767 d0bf 7004 88aa 83a4 c5bf
00000270: d665 9622 51d8 a93f 7656 1da0 5138 cf3f
00000280: f72c ddb1 a0fd d73f d093 d308 fb5e b63f
00000290: 7a3a 8417 131c b53f 452e 3d19 f41e be3f
000002a0: fa13 0cb5 5f7e 91bf 00e7 4c4b 5e5d 423f
000002b0: 36a4 8db7 281b d03f ff1f 47a1 90d9 cb3f
000002c0: d4d7 03c3 22b8 823f 4ec5 d980 74bc 9ebf
000002d0: b054 6b6f cb30 8c3f 3c08 e32f baa5 b53f
000002e0: 373f dcbf 5041 cb3f 0a98 dcd6 f751 c93f
000002f0: 3aad 142a 6094 b1bf 4f07 22ff 09ef c43f
00000300: fff9 9745 1037 a0bf 8acc 08f8 53da babf
00000310: 648d 12ae 6074 b1bf 2295 b089 1ff4 afbf
00000320: 980e 741d 4bc4 a33f 8057 c558 e1dc bbbf
00000330: 85a1 1082 8480 a53f 8479 4cc3 ca03 aabf
00000340: f8e0 08eb f162 b83f b762 697a 6d00 cf3f
00000350: 0eb4 a5ce 4f8b c33f 5a4b 24f0 ca76 bc3f
00000360: 380c 4c5d ceba a03f 7120 0d1a 4172 c03f
00000370: 5184 6d51 26b0 c33f 8676 f02d 12c3 ba3f
00000380: 907e 57fe de7b 75bf fe44 f199 a8b3 c2bf
00000390: 9425 0957 e5d0 aebf ddc6 e32d 7be8 c33f
000003a0: 4613 f4c9 1f5c af3f 293d 9edb 8c54 d2bf
000003b0: a805 d5b4 3fb2 c1bf e766 0505 16c2 a0bf
000003c0: bc49 a7fd 128a c7bf df0e 54d2 dc63 a63f
000003d0: b3c6 a2d4 5068 c2bf 1f4b c77d 7308 be3f
000003e0: c878 9ba7 ac4e 793f b0aa 8c2c 64b1 aa3f
000003f0: e7b0 52d0 c80f db3f 22d9 9f03 71fb d03f
00000400: f418 78e5 a18b c63f 5ed4 381a 28c6 b73f
00000410: 1f21 e236 4a8b c63f 14ec 7c75 12a8 d43f
00000420: 157f 9f09 5abd d8bf 44af 9d25 d425 d6bf
00000430: 1777 cb7d 7c8e b63f b805 caf5 713c c0bf
00000440: bdcc e92d 942f bf3f b386 5a67 e009 a83f
00000450: 74ee 10df 9798 a13f d0b2 e874 5e4d b8bf
00000460: 0adb 1576 3738 9fbf 50c6 5ed3 218e b53f
00000470: 9c14 8e3e 63eb c0bf 60c9 72bb 0ca6 853f
00000480: 2ad1 6353 59ba c8bf 4d52 043d e8e8 b0bf
00000490: 92e4 c510 2745 b1bf 661e 029c 9f30 91bf
000004a0: 4800 5ef6 55d8 cbbf 4ed2 4cdc 1de7 60bf
000004b0: 5ac7 ee97 efbb c43f a808 c191 07d9 8c3f
000004c0: 98d9 7864 13ab d4bf 427e a0a1 0639 92bf
000004d0: f1b5 6871 ee31 d6bf 9c04 bb6e 5b97 e13f
000004e0: 3c30 61a8 2b30 cbbf 38de 1a7e 3741 c93f
000004f0: a325 b5a8 6110 cd3f 34d6 5172 3d78 c5bf
00000500: f7d7 946b 4664 b7bf e8f0 7690 54c1 cc3f
00000510: 1687 98f3 07bb a2bf 020e 171c e0de d1bf
00000520: efa1 fb6c 7221 c8bf 9b95 e99a 11f3 c53f
00000530: a68e 6301 09bc acbf 5665 70cb d9ed cdbf
00000540: f039 2c98 035d e13f b7da ad9b 1189 c0bf
00000550: 052f 34d7 352f cf3f e199 f00f 69fa d23f
00000560: b482 9543 32ef 9e3f eced 5fe5 cbbe c93f
00000570: 8e68 ded3 12fb b9bf 862a cab1 01d0 a73f
00000580: 20f2 4658 a0eb d63f f20d 1956 0470 d03f
00000590: b8bf 375b 8bc3 aa3f a9af 6ab2 f24f a3bf
000005a0: 72d5 cc8e 521c c03f 801c 0eae 723c adbf
000005b0: 9b52 ce76 25d6 d23f e67a fe5e f957 c3bf
000005c0: 5691 887b d7ea c0bf 59d1 8074 e473 b93f
000005d0: f068 46be a7e1 de3f 095c b8b9 79b0 d53f
000005e0: 70da d9a4 106d c13f 28e3 64ec 0dae 97bf
000005f0: 4bdb c430 39c5 b83f 179a a3b1 7d9f c3bf
00000600: 26ba 0f02 ccbc c3bf fdc4 7815 fe2d dd3f
00000610: a5bb 74df fb2c e0bf ac7d 6431 b520 c13f
00000620: e672 af89 246e ce3f 423b 214b ff65 c3bf
00000630: f047 1097 b530 a03f 2157 ff3b 9ae1 c03f
00000640: aa21 940c 2d79 cf3f eb5a 7900 7685 b43f
00000650: 9c71 d0e8 6f30 d0bf f2f7 6ef1 cac8 c63f
00000660: 0b50 fbd2 e89e c2bf c7aa 5599 9a59 d23f
00000670: 9af6 1110 d6fd d23f aea9 0f6c 5b01 ca3f
00000680: e810 6b2e d13c cbbf ac6c 440d 10be ab3f
00000690: d8c0 308d 150c ba3f f40f d97e 4118 cf3f
000006a0: cea8 cafd d530 cd3f dcf6 98af 2289 923f
000006b0: 7a1a 1c56 381d b33f 0473 60bc 9f9f b4bf
000006c0: bc4e ab8a bf27 903f be66 0e88 31cd d23f
000006d0: c135 890b 8876 b9bf ea57 fd8c 84f0 b13f
000006e0: 47e2 7862 f3e6 b7bf 520e 1769 d372 b63f
000006f0: 6d12 91c7 225e b13f 7479 e494 db68 b4bf
00000700: 6889 284e 39cf a6bf ecfd a578 7f36 dfbf
00000710: 6ade f636 d35c c0bf 86d1 a77a 5fe5 c03f
00000720: d8ca a871 b82b ba3f 2035 8244 a371 553f
00000730: 0473 9419 a15a a3bf 80d0 8ddc 81f5 64bf
00000740: e9a5 a5c4 3973 c33f 46f5 db15 64e8 b23f
00000750: f2da ae95 24ec e1bf beb1 a684 2c47 d6bf
00000760: fcb8 37a4 82d3 ddbf 76e7 9c8f ec02 cabf
00000770: 309e 5c80 69e3 50bf b67c 1c20 ea23 c8bf
00000780: cfc0 0e57 9a7d da3f e3b0 a37a af44 b23f
00000790: 8c98 9f89 ce5d d43f 82bf abe4 0a51 d93f
000007a0: f8a3 17a1 3459 afbf c446 d6aa 0e9b e2bf
000007b0: 69a8 d405 7b3f e03f 08d9 6434 cc62 d0bf
000007c0: a416 1c1d ff63 d3bf a028 f774 1ab2 db3f
000007d0: df69 e5a2 525c b93f a605 0d4b e549 dfbf
000007e0: 073d fee5 135b d03f 884c 88ac b24a db3f
000007f0: d8f5 5310 4291 a53f aee2 3c77 a81a b8bf
-0.1589121669115964 0.05321683536613103 0.06055818302006664 0.1260935111573676 0.08707848754384956 -0.05814162401738643 0.022159767611776172 0.07893153340920345
-0.20915536797418754 0.36899720868275065 -0.26111172260177046 0.22496744258546836 -0.13843023978446697 0.07905450553184945 0.001755896020720342 -0.26399238674706593
0.47498073656732864 0.04684508072752103 0.36266615375002775 -0.20276937518112625 0.0300089517011534 -0.14122317273634574 -0.13054430795529876 -0.09444884734917497
-0.056891394693116284 -0.09683976455050124 -0.1013882968518135 0.07207069956364226 0.10702866903612113 -0.08152656134050137 -0.1621852591503995 0.024237626282003207
-0.035638276532616725 0.41444132386028076 0.2403770700287553 0.0013308716069601566 -0.11303601353657239 -0.06358513023656195 0.042742871378481206 -0.045682474872205114
0.2613903274248867 -0.2117732673672908 -0.11688577138295858 0.0851569924765824 0.03705037190999422 -0.009667841836753878 0.06645979201339697 -0.30974860226865397
-0.23617384962571433 -0.21259138622838875 0.08043211898144584 -0.1089918256581583 0.0653783682511414 -0.1354914946718935 0.3441129982498397 -0.11184627581535359
-0.1881272522596773 0.026025151770335826 -0.18127527595811302 -0.14838144100290812 0.27386798495529485 0.05655301348736805 0.2910057492532818 0.030991669591313026
0.06505104999766675 0.062189280233806904 -0.08966482831120172 0.003552393871679063 0.1275575305405644 -0.12300191250630843 -0.12987860246239682 -0.06188731384698699
-0.08410794162147996 0.0674138021825037 0.2330640108857504 0.11621216055403716 -0.2563419241781427 -0.16908307863926408 0.050478492233377345 0.24390621488662462
0.37485520715263426 0.08738678899278729 0.08245963405736659 0.11765981308160985 -0.017083640504115018 0.0005604467793098589 0.2516576569092338 0.21757705569166316
0.009140273643861642 -0.030015774120731913 0.013764943444963457 0.08456004780876553 0.21293076866322178 0.1978139685754175 -0.06867028262484079 0.1635448928610068
-0.03167010163814509 -0.10489392095114361 -0.06818203210655366 -0.062409387166818556 0.03860697493112503 -0.10883911530740242 0.04199613654810989 -0.050810180988480474
0.09525978077079233 0.24220055081493339 0.15268895712088731 0.11118763315998362 0.0326752175224318 0.12848676464114164 0.1538131616207772 0.10453904744687223
-0.005245085781524175 -0.14610774533006315 -0.06018749892661926 0.15553226223669628 0.061249726679341296 -0.28641053626138785 -0.13825222329800835 -0.032730758774688166
-0.18390118966506275 0.04373064105496182 -0.1438084638844451 0.11731645413173596 0.006178545410618415 0.05213463825051201 0.42283840507549403 0.2653467688936805
0.1761362429098835 0.09286738052544893 0.17612579040383822 0.3227583072036293 -0.3865571111655169 -0.34605888055260814 0.08811166831170812 -0.12684463979171112
0.12181974526338286 0.04695035230294078 0.034367319087746845 -0.09493055681441409 -0.030487886984214042 0.08420001421361545 -0.13218346170848327 0.010570620985480061
-0.19318691798947302 -0.06605388154668752 -0.06746143493173154 -0.01678704633425667 -0.2175395443882755 -0.002063330003148323 0.16198534887876798 0.014085826049385311
-0.32294163524366004 -0.017795661559033123 -0.34679757189846244 0.549726215620598 -0.21240754815733165 0.19730275781124518 0.2270624231116872 -0.1677319343759095
-0.09137382627963563 0.22464997343002513 -0.036583183751885226 -0.2792282366101234 -0.18852072068626977 0.17148037017902315 -0.05612209455446519 -0.2338211291651457
0.5426042530178261 -0.12918300725478613 0.2436282444763195 0.29653383785844595 0.030209336638452114 0.20113514614045813 -0.10148732826783854 0.04650883956226885
0.35813149090589214 0.25683697135920547 0.05227313507555159 -0.03771933010042911 0.12586433384573642 -0.057101806399310284 0.2943204555715881 -0.1511222566450307
-0.132166800803257 0.09942462772671003 0.4825229032663989 0.3388962091134436 0.13614090012898172 -0.02312490229926137 0.09675939026497564 -0.15330477880270685
-0.15419912434249844 0.4559321603474727 -0.5054911960959215 0.13381066238160366 0.23773628924290974 -0.1515502087445047 0.03162162274396951 0.13188484124719316
0.24588549722853986 0.08016145240376786 -0.25295636878743166 0.1780027083277101 -0.1454745321449312 0.28671898817144065 0.296742931073689 0.20316641594338364
-0.21279349104418732 0.05418443834261075 0.1017468900397519 0.24292772954697706 0.2280528535096153 0.01810125538599193 0.07466461279191519 -0.0805606684593379
0.015776627386755435 0.2937740162538879 -0.09946489602699328 0.07007626001481496 -0.09336777834040176 0.08768960300135945 0.06784264919503764 -0.07972500214643735
-0.04454974249917393 -0.4877012899596298 -0.12783279594235647 0.13199990738906936 0.10222962164770466 0.001308831635501058 -0.03780082165960688 -0.0025584732397253007
0.15195390798480382 0.07385850461647178 -0.560076038694062 -0.34809411005224067 -0.46603456532365306 -0.20321423542355505 -0.0010307817733038564 -0.1885960251611089
0.4139161920711673 0.07136055702330028 0.3182255119303441 0.3955714448084039 -0.06122745958766268 -0.5814278923664564 0.5077490915184742 -0.2560301314982927
-0.3029783043169607 0.4327455656281334 0.09906498410183627 -0.48888523415743135 0.2555589433695364 0.4264342007529156 0.042123856061134723 -0.09415676985816887

ubias f8 [942]
00000000: 4372 539b c8df c03f 7d72 9f0c a636 e03f
00000010: b7ff 136f c6e1 c3bf 8aa5 96ee 8add 91bf
00000020: 0cf4 ac51 5c8f b43f c02f 98b0 7e04 c3bf
00000030: 9ad8 f09b 8b64 ccbf 02e6 043a ce2b d63f
00000040: a2ab 3cd3 843e bbbf f536 7fa1 b8d5 f13f
00000050: e3b9 6032 6be9 c13f 46ed f8fd 3add 9c3f
00000060: 6be7 9ec7 cf29 9b3f 163a 4976 d14f d8bf
00000070: 1abc 1cd6 e1a1 a83f a47e a85e 46dd d43f
00000080: 790a 8573 9627 da3f bda4 9f2c 854c dc3f
00000090: 8d42 5ef0 d1fd e03f 2ef9 f8c8 8ddb aabf
000000a0: f2f7 85bb 2cc1 bf3f ecd6 3e8d 9e67 d03f
000000b0: c54d 458c 2404 873f 6990 bd35 fd96 c0bf
000000c0: dddd e5a7 1be5 d83f 6599 6e3e d1a9 81bf
000000d0: 285c 5220 652d c73f a73b f95a a3c8 b3bf
000000e0: 7573 ca8c a703 b73f a882 e33b 2d73 cc3f
000000f0: 474d f49d 6f37 cabf 1b74 0869 7213 e23f
00000100: 0858 ec9d c7ea b4bf a888 65fa 5139 b1bf
00000110: 497a eedb a19c c9bf 4452 7dc5 1f15 d73f
00000120: e171 4b17 6f87 dc3f 8a9c 308f f8ed e2bf
00000130: 3479 dee7 7b3c c03f 2cc7 d3e4 3ae2 bf3f
00000140: 0239 38c9 386f e1bf 2313 c298 569c e1bf
00000150: 67aa b414 a562 c9bf 8fec fca8 4cbc d13f
00000160: b40e 3b78 2bd0 da3f ffdd ab5f 0a6d bc3f
00000170: 1752 4ecc 93f8 b13f 4c56 d227 d63c d53f
00000180: 59d7 e67e 6d16 ba3f 6491 c09d 2cea f7bf
00000190: b3b0 1994 b928 cf3f 4fec 9b45 c597 c63f
000001a0: 18f5 4e6f 85f9 dbbf 46e3 0aec c6c0 bdbf
000001b0: 848a 7536 44c4 7cbf 9c00 c8d4 d3ef ae3f
000001c0: b804 559b ecc7 c2bf 401a faaf 0773 d6bf
000001d0: dda3 6a3c 1d0f ce3f f510 1961 6a16 a93f
000001e0: 807f 6639 5ec1 c6bf 41e0 1e9e fbae d6bf
000001f0: f7db 452b 00d1 e7bf 1fb7 4b63 76cf b73f
00000200: 1321 cb76 a7e2 d2bf 83bf dc80 80be d6bf
00000210: 2a71 fadc 0b27 d93f 2efb cae0 114f cd3f
00000220: 5913 029d 98bd d5bf a86b bfcf e0fa 97bf
00000230: 3d93 fc78 193b e6bf 6b54 e67e f20e d7bf
00000240: b20b f804 dddf 903f d7a3 d937 b7a0 d53f
00000250: 8079 dd99 9f63 bc3f bf24 0740 9ab9 c33f
00000260: d8cc 893d 0be7 e1bf 0ba1 60eb 2c56 c1bf
00000270: 1c73 f4ea b959 dd3f 969d c2ab d487 9c3f
00000280: f296 a8b6 57ab d03f 1dd4 e523 579c e8bf
00000290: dc36 22cc 80f4 be3f 9646 82c5 59b4 b83f
000002a0: 67e4 97bc 08f1 bdbf 8651 e6c5 5d0b 94bf
000002b0: 8e8c 76af 53e2 98bf 730e a651 6fca 85bf
000002c0: 51bc d2d9 bc64 e0bf 8914 8131 eed5 d03f
000002d0: 45a6 bdb5 8fb6 e43f 497e 8177 fa4e d43f
000002e0: badc a201 0db0 cebf 11f7 1d70 9e8f d03f
000002f0: 90ad a851 81d9 b73f 63a4 3ed2 2c6e d6bf
00000300: f0c4 57ba 513f d53f 0e25 ec75 c902 d93f
00000310: 1962 ce76 b0b5 babf 7f4f d8b1 d5c2 ac3f
00000320: 45e3 1f2f 8b15 bfbf cd36 6246 d86f d43f
00000330: 49c1 436e 2bbd c4bf f670 3dff 32b1 d63f
00000340: 6023 4507 6af6 b2bf 77c5 c576 59a7 ce3f
00000350: f00e 4868 9a72 c6bf ee8a 7056 e243 dcbf
00000360: 66db e3cf 51e8 c03f 9a83 c916 cdb6 c5bf
00000370: a643 6562 fa48 c53f 7618 be84 30f5 d53f
00000380: 4f41 cdff 5981 7ebf 0ae4 537f 365b ea3f
00000390: f0f8 c294 2551 c2bf 495a f20d be38 d8bf
000003a0: 42b6 20fb be2d d3bf f2d2 07c2 0224 933f
000003b0: 5493 4dc9 8406 d83f 790b 77cd 691d b23f
000003c0: db83 dad1 126f d7bf 2a74 d572 89dd ddbf
000003d0: c35f 776b a9f6 c53f 2b39 d775 1900 cdbf
000003e0: 4296 5a3e c709 9b3f 8a1e c854 ac46 cd3f
000003f0: 183d f095 f985 e33f 404c cd2d 8c2a b0bf
00000400: f464 87b4 e050 c0bf a2e2 338c d85f d83f
00000410: daed 6bb8 ab6f b9bf 506a 7027 cd72 c03f
00000420: 0065 16d9 456c cabf f787 4e5b 3833 c5bf
00000430: da31 025b 782f c0bf 28c6 303a 2afe d73f
00000440: dced 8ec5 b2c5 debf 0154 5df0 8ab1 bb3f
00000450: f5e1 faff 6f0e ccbf 3944 d60a 268b bb3f
00000460: 3742 9762 d994 d3bf 8079 9548 a161 923f
00000470: 70fa 62d1 62e2 dc3f 07f2 8dd8 0853 babf
00000480: 12b8 8a22 e8d2 c13f 9056 93fa a3fe adbf
00000490: 3cef f6b2 0f99 b1bf 1abf 4702 566b a73f
000004a0: a361 7269 668d e23f 761c a0c2 2e56 d1bf
000004b0: 95bf 1480 0613 c2bf b1bc e43c a9bb d23f
000004c0: 3c64 3b4d 563a e23f 8528 3638 bc38 ef3f
000004d0: 35bb 482f e8d3 c9bf 6805 5bab 99d1 ba3f
000004e0: 1a41 6198 79cd b7bf 1cb7 6913 71ca d4bf
000004f0: 0dc8 5b2f 9473 d1bf 6485 a736 a0da d53f
00000500: 4636 7965 7401 c4bf 6e9c ab5a eb6d bd3f
00000510: 81c6 6728 963a d1bf d1c2 3f6b 13af b83f
00000520: b379 d110 7c7b d2bf fd60 f645 b108 c0bf
00000530: 4361 6743 cf76 963f c9c4 b9f8 9d46 b6bf
00000540: 7800 8d07 0af9 b4bf 9b59 5da0 4d43 e13f
00000550: ea43 5f11 e430 b23f 76d9 1adc fb0c e13f
00000560: 409d 8d6b b457 c7bf 923f 7929 b5eb b23f
00000570: 0183 d7d1 45b4 c5bf b120 7b11 87f1 df3f
00000580: ef6d 7fd1 124b b8bf 0ac8 a81f 42eb a33f
00000590: 69ca 58af 4c5e b5bf 1a4c 1291 145d ddbf
000005a0: 4da0 b3f2 a241 d43f 32f6 cd26 786f 77bf
000005b0: 2455 18a0 0b9a e13f f505 0bed 6f1e d1bf
000005c0: 3f29 ff25 b4a3 c8bf 0348 a688 d0b7 dbbf
000005d0: 29c4 fc9f cea3 b33f ef8e dc9d fa69 d13f
000005e0: d152 9541 ba0b bebf 5120 7b0c ac19 863f
000005f0: e37d 57a2 7a1f d0bf 173d 86e5 2a86 89bf
00000600: eb08 68d0 df33 d0bf 1eb6 af80 b89e e0bf
00000610: 9b0c 74d2 ddcf d33f 23b5 ab38 4666 d03f
00000620: 5b98 5c60 c734 b7bf 4fb9 c8fb 33fe c4bf
00000630: db0b 1c09 cb1a c3bf e4dd 8e48 65b8 aebf
00000640: 2e43 a10f d776 e2bf 05fe 10d2 f069 bfbf
00000650: a11e 8f7c 778e a4bf 632e 58a6 e4b9 b9bf
00000660: 9759 7278 57b2 d0bf 9fcc f08e 028e d43f
00000670: 46fc f74e a774 ebbf fa1b b519 a8d7 d6bf
00000680: 32b1 b1f9 7b32 dbbf f4d2 da96 9335 d73f
00000690: 01de dedb df4a dd3f 9ef6 484f 1452 cbbf
000006a0: 7e3f 6077 4bde bb3f 1ca2 f07d 0e19 e0bf
000006b0: 2c9e e804 5f60 d3bf 3608 19d4 4c8a d1bf
000006c0: 0a96 3b8c 553a ccbf e331 98eb 3870 da3f
000006d0: 2af1 e63a 6582 c53f beb4 4279 a36a ddbf
000006e0: d38b b988 6e9d e6bf 742c 3ef4 1e97 cc3f
000006f0: bd9c 8ee0 a750 cbbf 1ce1 d33d 66ea e1bf
00000700: 3602 8f7b 3087 debf 4ad9 903a f455 ecbf
00000710: 0ed3 ee60 b8ae a53f 5a94 e7d0 8b74 d2bf
00000720: 0693 346a dc84 d03f 57f0 be2b 801d e63f
00000730: 4270 cf1a a85a a5bf 9b88 9b5b b535 b1bf
00000740: aaf7 c044 fd51 ebbf 2bd4 6df2 31dd c03f
00000750: 8a72 7ece 0b30 a3bf 84e3 f17a 9f8c e1bf
00000760: 8a32 b804 978e abbf b79a 2106 07b2 cc3f
00000770: 834e a378 e432 d03f b966 f1bf 32e3 e23f
00000780: 4306 7382 c67c e1bf e6db 8944 7295 82bf
00000790: c4bb 2ef5 c86d dd3f 5168 841c b43c c13f
000007a0: 65b2 3ff4 a9bb d33f 8778 cc66 7329 b0bf
000007b0: 60c9 ee5b 179a b2bf c402 3b38 f465 c53f
000007c0: 3eaa 6bf8 8094 d8bf b1ef 826d 3175 b03f
000007d0: 14ca b0e6 ce73 c1bf 3f77 3924 6602 dcbf
000007e0: e9ee c16a 0b84 da3f c67b 4fc3 1f65 9f3f
000007f0: af5c dc02 99de e8bf f8e6 05d7 ad62 7a3f
0.1318293341090727 0.5066709753551347 -0.1553276102422367 -0.017446680843624253 0.08031250947983909 -0.14857467291619564 -0.2218184005193436 0.3464236799805748
-0.1064227119174306 1.114678030822174 0.1399358745561151 0.028187677146189992 0.026526686247712854 -0.37987171698924393 0.048110062968014414 0.32600554698908923
0.4086662414667113 0.4421704231049935 0.5309838957492318 -0.052456312926084755 0.12404136255460665 0.25632442277434 0.011238370447847932 -0.12960782169386967
0.3889836444500057 -0.008624682157301231 0.18107284620484276 -0.07728024455103243 0.08989951312328322 0.2222649137902597 -0.20481677258121975 0.5648738910127834
-0.08170745473429986 -0.06728088725279469 -0.20009253729672796 0.36066431318366576 0.4457662322509162 -0.5915491863896858 0.12684582540254896 0.12454574667551971
-0.5448268823691083 -0.5503342612797478 -0.1983229018308805 0.2771178865693366 0.41895567647246 0.11103882632948368 0.07019923913896552 0.33183816803771005
0.10190471981226547 -1.494671455592731 0.24343032580816767 0.17650667094116776 -0.43710456724132163 -0.11622279417759981 -0.007023111778240779 0.060423488353991334
-0.14672620377135615 -0.350770875790122 0.2348362488749264 0.04899914202954562 -0.177776124980479 -0.3544301075121475 -0.7442627759145343 0.0930093758031174
-0.2950838718502535 -0.35537731727799143 0.3930081995001894 0.22897551990714632 -0.33969703038046856 -0.02341796176902347 -0.6947142947215991 -0.36028730766822176
0.016478970936087918 0.3379343076144869 0.11089513308022525 0.15410163999903223 -0.5594536020202225 -0.13544236653366 0.4586014551621689 0.027861903174792944
0.2604579242491659 -0.7690845204475668 0.12091832145435027 0.09650193283075689 -0.11695913891152686 -0.019574608997190455 -0.02430086859170593 -0.010640020064563082
-0.5122970823630429 0.2630572780074734 0.6472853231072767 0.31732045813075566 -0.2397476442326701 0.2587658018963888 0.09316261523843239 -0.3504745534106119
0.3319897002939589 0.3907951022707302 -0.10433485889951334 0.056173971137609684 -0.12142248058797829 0.31932646630671685 -0.16202299961106295 0.3545653812959836
-0.07407248189441651 0.2394821004814209 -0.17537241069668807 -0.4416433185707963 0.1320898308838096 -0.1696411477342082 0.16628961376639245 0.3430901809991903
-0.007447578010058755 0.8236343848103627 -0.14310140384436165 -0.37846328126889667 -0.2996671154422509 0.018692057697950078 0.37539786966799693 0.0707613112090665
-0.3661543893195451 -0.4666465398239007 0.171590020631582 -0.2265655351060983 0.026404488735940264 0.22871927394611574 0.610104363296986 -0.06314922445498983
-0.12746819319617197 0.38084996883075395 -0.09936021091919348 0.12850346017588032 -0.20642922496771376 -0.16562561472261425 -0.12644867366579043 0.37488799746197055
-0.48081654827885045 0.10817783706927743 -0.21919059752487127 0.10759198917936964 -0.3059600317765531 0.01795055394665601 0.4513175053397509 -0.10282950674986334
0.13924886404623799 -0.05858337816031878 -0.06874178046467433 0.04574078348002626 0.5797607478626116 -0.2708851719511992 -0.14120560888249814 0.2927039236701133
0.5696212299764123 0.9756756875879239 -0.2017793875579287 0.10476074632153642 -0.09297904939854043 -0.3248560609416573 -0.272679373024517 0.34146886193601333
-0.15629439310798626 0.11495848621017199 -0.26920083947980095 0.0964214455450574 -0.2887869037857868 -0.12526527324803985 0.021937597741130032 -0.08701503107456
-0.08192503628106518 0.5394657261011163 0.07105851577877301 0.5328349398539973 -0.18236403705234672 0.07390911352672294 -0.1695639872187016 0.49911667544484845
-0.09489553084079437 0.03890425335374921 -0.08347014695099521 -0.45880617301117044 0.3165061349996037 -0.005721539823637255 0.5500543715340069 -0.2674827399133329
-0.19249584060009714 -0.4330941519230011 0.07671824842397314 0.27209344307105615 -0.1173664484134165 0.010791153078926781 -0.2519213281029506 -0.012462935571220286
-0.2531661544054617 -0.5193750871091571 0.3095621638496568 0.25624232801676977 -0.09064909079151688 -0.16400766176361478 -0.14925516075899634 -0.06000057707518261
-0.5770068459770294 -0.12271027687619813 -0.04014943500038482 -0.10049275456565847 -0.2608851124035935 0.32116760214848655 -0.8579899351460731 -0.35691263685697516
-0.4249563158434909 0.3626450513068413 0.45769497367606965 -0.21344236251200227 0.10886069931461681 -0.5030586681141958 -0.3027570293365638 -0.2740661689059637
-0.2205302176218285 0.41309950835491643 0.16804185272293043 -0.4596337017236002 -0.7067177458196688 0.22336184431000883 -0.21339891876889353 -0.5598632056781159
-0.47700130525848594 -0.8854924339164338 0.04234863456023251 -0.28836341286507194 0.2581091916238595 0.6911011557017542 -0.04170728041910411 -0.06722577559006242
-0.8537584631774184 0.1317503389106219 -0.03747593780210419 -0.5484158898608347 -0.05382224972354262 0.22418296622637054 0.2531062296013504 0.590234160317059
-0.5464813754881067 -0.009074108807210334 0.45982574409111643 0.134665025638983 0.3083290944330542 -0.06313248882040244 -0.07266374582721857 0.1671738886416475
-0.3840639520628065 0.06428822444553252 -0.13634668602169653 -0.4376464227442404 0.41430936265508805 0.030659195228391466 -0.7771725707888403 0.006441763937226723
