offline_resampled_model_testing/model_20.npz (npz, 966614 bytes, 5 tensors)

imat f8 [1574, 50]
0	0xbfad503c9cfff464	-0.057252782979028166
1	0xbfac963044604f82	-0.055833347651200974
2	0x3fa1007e3a59c040	0.033206886885523534
3	0x3fab0f38d0048398	0.05285050906446215
4	0xbfd6f1b10c1eab43	-0.358501684032195
5	0xbfab3a99e02e0907	-0.05318146573610432
6	0xbfb7d591dde64215	-0.09310256640879573
7	0x3fbe538a314c8fb1	0.11846221641150013
8	0x3fa309c85d847ed4	0.03718401090213566
9	0x3fbda9a91effa853	0.11587006575396801
10	0x3fcf46cc703985e8	0.2443481014225164
11	0x3fced17415abe908	0.2407670121973029
12	0x3fc4a0cc24411f65	0.16115714807733209
13	0xbfc16505bf2a8646	-0.13589546045573025
14	0xbfa77887a2d46de8	-0.045841444613156146
15	0x3fd428a73e45cf34	0.31498128014867466
16	0x3fd01341b2e9a722	0.25117533180183405
17	0xbfce58d0070dafa4	-0.23708534569175044
18	0xbfbf87b0499f94a8	-0.12316419408269275
19	0x3fa8aa665f98a758	0.04817504803607048
20	0xbfb84a4b8b0bb016	-0.09488365311307265
21	0xbfc893028cfb681e	-0.19198638805284046
22	0xbfd0a54c0084c106	-0.26008892107621795
23	0x3fc7402223c80992	0.18164469477785566
24	0x3fc4ccfb200505ff	0.162505522379476
25	0xbfb936e4d04eb1fa	-0.09849386296873056
26	0xbfccc93383c0fd2e	-0.22489017422956564
27	0x3fbe129f15f83e58	0.11747164045686398
28	0x3fa16e0ca443f476	0.034042735149321254
29	0xbfbf6020e1de5dc8	-0.12256055368776864
30	0x3f83c311a5b02968	0.009649408215427882
31	0x3f94da46b43ee260	0.020363907576867013
32	0xbfcd9db6849debe9	-0.23137551761087075
33	0xbfab51034c355ab4	-0.0533524542358256
34	0xbfb1a36b264b5cae	-0.06889981923028429
35	0x3fadf5510ec71d08	0.05851224236863045
36	0x3f5ef6ee6897fe60	0.0018899276932414985
37	0x3fc325310a746bce	0.14957249651419463
38	0x3fc21da51cce14a8	0.1415296927117755
39	0xbf6d1cfd7c986180	-0.0035538626587021116
40	0x3fcdcd8bf1797f54	0.23283528605224524
41	0xbf8a2de0b92262e8	-0.012782817506648184
42	0xbfa768b393eebcb8	-0.04572068386857481
43	0xbfa5a4ec3a5be0bf	-0.0422738858450784
44	0x3fb074943d3b9f89	0.06427885527557299
45	0xbfab4dc856ac4058	-0.05332780893343231
46	0xbf9ed9ea813f7e45	-0.030128158701584935
47	0x3fa5fef6edb6905d	0.042960850255696605
48	0xbfd771aa133a386a	-0.36631252172163065
49	0x3fb08b3d1920e122	0.06462461341368855
50	0xbfd239b511cec356	-0.2847721742537507
51	0xbfabc6c2b3ac2724	-0.05425079768435939
52	0xbfb419ba638f1418	-0.07851757937085357
53	0x3fb97ddddf074ed8	0.09957682318718797
54	0xbfc32d39f09da560	-0.14981769799059474
55	0xbfdcba5a4f43c2c4	-0.4488740705556149
56	0x3fcd8d6cf8484d9c	0.23087846873441442
57	0x3fc9acbd968214d4	0.2005841240790348
58	0xbfb75831634bb518	-0.09118946718418319
59	0xbfd748f2f1b6ca04	-0.363827453659866
60	0xbf9c4f4f29ee0ea0	-0.02764629071636071
61	0x3fc7fd99dcd37cb4	0.1874267891171023
62	0xbfcfc3e41422b9d0	-0.24816561682878424
63	0xbfa9e52c4c0a7000	-0.05057657650215219
64	0x3fc7d39f00276fa0	0.1861456633331473
65	0xbfc58cc5aef55651	-0.16835852663887121
66	0x3fd6e3ccbfab2210	0.3576537963640769
67	0xbfa499c0619ff1e0	-0.04023553077420039
68	0x3f8e085f11422100	0.014664404596502312
69	0xbf6164fef0823a00	-0.002123353890119306
70	0x3fd5287f73f366b4	0.33059679339713033
71	0x3fb9ac82ddd61b3f	0.10028856197287171
72	0x3fa542fc98b35df0	0.04152669300099976
73	0x3fcd29ca9fc7e6a0	0.22783787538337652
74	0x3f9f9a4fdf1b5838	0.03086209105716639
75	0xbfd4afe740b33dfa	-0.3232362872922462
76	0x3fad06d15bc07334	0.05669264073387695
77	0x3f8038e90175a170	0.007921047551193466
78	0xbfb2ba4734b28526	-0.07315487896496062
79	0xbfb0202d74298af4	-0.0629909905051525
80	0xbfc15a6d2372881c	-0.135572092350288
81	0xbfb4e9d3b6c90b08	-0.08169291698963488
82	0x3fa0c09d70bbcca8	0.03271953583853221
83	0x3fd308e0b7b48f45	0.2974168581006221
84	0x3f93f64057e27ea8	0.0194940618172256
85	0x3fc09d9a8a875fd8	0.12980968250371805
86	0xbfbcec476cd640f0	-0.11298033148910114
87	0xbfc994eb4db963a4	-0.19985715193868459
88	0x3fd69bceaa648fbc	0.3532597221367231
89	0x3fc1ac8bb6cbb4b8	0.13807817864964078
90	0x3fc890ede55445de	0.19192289064134987
91	0x3fa596a0d418cc5f	0.04216482724259473
92	0xbfce63d984de9ebc	-0.23742217052244097
93	0x3fb5a2b47df8c4b0	0.08451393199426849
94	0xbfd8ebb00b2fcf24	-0.38938523380714885
95	0xbfcdc6bb3cad4390	-0.23262730086073846
96	0xbfc8970515672bc8	-0.19210876030987678
97	0x3fc8066a164773ae	0.1876957520279609
98	0x3f7de09a9084f880	0.007294276969615265
99	0xbf9e6570a8185f04	-0.02968383813831023
100	0x3fbc98f24ce473b0	0.11170877816444036
101	0x3fb6adee76693dfc	0.08859148398300215
102	0xbfc4350197cc689e	-0.15786762153658612
103	0x3f9f45461b5bcffc	0.03053769628509427
104	0x3fb44c44ebecd1ce	0.07928877601518211
105	0x3fa483b14f3da360	0.0400672349194966
106	0x3fc4766d913e552e	0.15986413566558028
107	0xbfc62602b0fe7fff	-0.17303498880664844
108	0xbfcfb75ba0d847c2	-0.24778313974144167
109	0x3fb74ec696e24d08	0.09104577239695655
110	0x3fd7fbf8ed1bbea4	0.37475417285075197
111	0x3f9240b20d4a2d60	0.01782491880525805
112	0x3fc94868d3b75707	0.19752226197913833
113	0xbfbe4d63a2abef04	-0.11836836549258228
114	0xbfcad3dffe72fd15	-0.20959091114307485
115	0x3fe07da9e42b0386	0.5153397995382967
116	0xbfc7f3cfbccb1914	-0.18712803572106707
117	0x3fb93cd91c6b5b3a	0.09858471816856432
118	0x3fd5c87d9edf7ded	0.34036198153441327
119	0x3f3cd6d821700600	0.0004400518095622752
120	0x3fc3260c0b06428b	0.14959860361388552
121	0xbfc92f87c054b1ae	-0.19676300898698912
122	0x3fc8148ec883378e	0.18812737265255602
123	0x3fa3d2624a00b7e2	0.03871447709421695
124	0xbfcfdd5728f7e0f8	-0.2489422750511563
125	0xbfc453263ad3cb7e	-0.15878751633098526
126	0xbfc325a6e6fb34da	-0.14958654669172838
127	0xbf83922d3c50ca30	-0.00955615368193205
128	0xbfd6a711dfcdcc8c	-0.3539471326432213
129	0xbfd2c2ce6d2e539c	-0.29314003622249074
130	0xbfa9495c46034c66	-0.0493878207650134
131	0xbfd04662103c48dd	-0.2542958410787273
132	0x3fd0c93037b8d5e8	0.26227956239321637
133	0x3fd5d096e5ac8cd5	0.3408562891874685
134	0xbfca407ac914e124	-0.20509276216922345
135	0x3fab18baf169af12	0.05292305180486613
136	0xbfdc0c050b52b4e0	-0.4382336245133285
137	0xbfcecd732b5a7b61	-0.2406448327719444
138	0xbfbb78926a92083e	-0.10730853177850094
139	0xbfc8724928a4524b	-0.1909877251097377
140	0xbfbc422a986b2c22	-0.11038461896093613
141	0x3fd26d6a2ad6642e	0.287928144296134
142	0x3fdb6c8499487a66	0.4284984108834692
143	0x3fac62da79537331	0.05544169169454561
144	0xbfc9d1d07db8bc49	-0.20171552790404437
145	0x3fb16ed6872e0de8	0.06809750366487999
146	0x3fb91efa83729749	0.09812894543810304
147	0xbfd6e27acb580d3e	-0.35757322175796336
148	0x3fcc1e161e7bfcfd	0.21966816414349202
149	0x3fd8cca1b003107a	0.38748972119015657
150	0xbfd7d255c093a558	-0.3722128277427905
151	0x3fbbd9df3d4b526a	0.10879321333352157
152	0xbfd5796f541ab47e	-0.33553679669677894
153	0xbfbe81ee81b514e2	-0.1191700998943648
154	0x3fd396bb27a9e199	0.30607489465139676
155	0xbfc5a6e3caff2a0f	-0.1691555730051992
156	0xbfb9cd7d5109d867	-0.10079177120664583
157	0x3f97ba0f98df0eca	0.02317070360710608
158	0x3fcd9615b7296d12	0.2311427254051997
159	0xbfd9d71bec87079b	-0.40375421617874857
160	0xbfcf6851fdcd3d0a	-0.24537110226308584
161	0x3fa6aa21b99493c4	0.044266752151350924
162	0xbfb80139e15baff7	-0.09376870872409869
163	0x3fcf7064982e30e1	0.24561746054349157
164	0x3fd0c8acb3aa8601	0.26224820657270703
165	0xbfc0ffc3861af7b9	-0.1328052906810038
166	0x3fb5a64276a50884	0.084568170515043
167	0x3fc171b3fc2e9190	0.1362824422223068
168	0xbfb876c9ce00c474	-0.09556256560678539
169	0x3fca5b28771c0ca2	0.20590692344567169
170	0xbf7851451e1de624	-0.005936880102916518
171	0x3fcb54df1a8629f0	0.21352757258530586
172	0xbfc9e2755a649a84	-0.20222346223564014
173	0x3faaf25df61b9b9c	0.05263036374326832
174	0x3fc1bded843de7c1	0.13860863644714352
175	0x3f829f10f36fb450	0.009092457226836853
176	0xbfcdf691a21482b6	-0.23408718504017195
177	0xbfaa012c1079de11	-0.050790192614780356
178	0xbf9e02ed786031be	-0.029308042976525554
179	0xbfd203c0687c6460	-0.28147897914602105
180	0xbf994a959a00eb05	-0.024698579334862653
181	0xbfc247dc238e2f89	-0.14281799064735548
182	0x3faee24dd18edcfa	0.06032031233865527
183	0x3fa68e2a2b25bfaf	0.04405338074400277
184	0xbfbdfd9252ca2bea	-0.11715044518693643
185	0xbfb4e409ea7ee5b8	-0.08160459494583605
186	0xbf790c8e9b8aa060	-0.006115490971446119
187	0x3fc9a264597ccb96	0.2002683102560609
188	0x3f6bdd2601c58eb0	0.0034013502428694373
189	0xbfced56bcaf86ab3	-0.24088809405005449
190	0x3f79e1254082ff14	0.006318231120701307
191	0x3fc53a73d4f197fe	0.16584632775919766
192	0xbfab2d20ac4afa54	-0.053078671485753987
193	0x3f9562494912f512	0.02088274487026804
194	0x3fc10e839b3eb8ef	0.13325543480227206
195	0x3fc729f517b6d96a	0.18096793802187544
196	0xbfb9da00909d32ae	-0.1009826996862084
197	0xbfa6c412015ada4e	-0.04446464792765835
198	0xbfafc2d0d8faf0b4	-0.06203320168194307
199	0xbf99b3a210fbd5ca	-0.02509930828724353
200	0xbfa8d0837c217c40	-0.04846583261746007
201	0xbfc198c366e4e9b0	-0.13747446560030374
202	0x3fae85f37b2d638e	0.05961571577672152
203	0x3fa0a524dd05125a	0.032509948711354666
204	0xbf701a1de9ccd8b1	-0.003931156967885639
205	0x3fc47797371e3c3a	0.1598996180659656
206	0xbfb789c3f55f0290	-0.0919458841372125
207	0xbfc194eb3348611b	-0.1373571396259273
208	0xbfc50a318ca09f9e	-0.16437358252119066
209	0xbfd7b64f00a16868	-0.3705022340924473
210	0x3fc8399861b82b2a	0.18925766726928234
211	0xbfbf23eba8eda808	-0.12164185404040506
212	0x3fd16a65e15d4e47	0.27211901672601296
213	0x3fc76e09ab71cc7f	0.18304558631243492
214	0x3fbd01db2bcc806c	0.11330957240397915
215	0xbfa5a51215ed9898	-0.04227501409222717
216	0xbfd66cfff4555c33	-0.35040282116591753
217	0xbfc0459ceb41504b	-0.12712441908900227
218	0x3fbf580d6953f868	0.12243732282147024
219	0xbfce2aa169098f90	-0.23567597988869382
220	0x3fb0ace38ddd4ac9	0.06513807500349879
221	0x3fd39ca55ce8095e	0.3064359099663728
222	0x3fe06761fb056c2a	0.5126199629552322
223	0x3f953879e9e361f6	0.02072325220146528
224	0xbfc201c785e906aa	-0.1406793025835687
225	0x3fc0de5c6c3c8de3	0.13178591999995523
226	0x3fb07cae843ca242	0.06440249184073202
227	0x3fb8ce4576fa8556	0.09689745096922783
228	0xbfaf53d3a98e3974	-0.061186422774983124
229	0xbfba105779742a8a	-0.10181185450725586
230	0x3fc98b82d0e36132	0.19957003783816557
231	0x3fd2c47d4db469a9	0.29324276531556365
232	0xbfb5036f933727ee	-0.08208367675902625
233	0xbfd08a08728f5977	-0.25842486560340866
234	0xbfb01ab2f32d97f4	-0.06290739476170853
235	0x3fce0aa7362e5c84	0.23470010896264537
236	0x3fc5a2c98b864a61	0.16903037369464172
237	0x3faa227b793cfa66	0.051044329213699766
238	0x3f2b0031905640c0	0.00020599942233135403
239	0x3f8906ad5f478cfe	0.012219767065238415
240	0x3faa99058f760754	0.051948713075957414
241	0xbfa6fc5bb8ba5349	-0.04489409093836245
242	0x3fb6045c9010291e	0.08600405232588001
243	0xbfb770d8fad10cfe	-0.09156566737606295
244	0x3fc0e596472d2ac7	0.1320064399281675
245	0x3fc53d598d86fd06	0.16593474779617895
246	0xbfbac929e9e1d369	-0.10463201484692565
247	0x3f92e2a4cc70ceb4	0.01844270227247931
248	0xbfa2708466bc3db9	-0.036014688054020146
249	0xbfb5558446e9bdb3	-0.08333613139415412
250	0x3f9fb55af2f1dad0	0.030965252950830913
251	0xbfd9738b22aba3f8	-0.39767721544063717
252	0xbfcf87cb00a65744	-0.2463315728352261
253	0x3fa224dadbf85020	0.03543743071728067
254	0x3fd71ad89dc17bdc	0.3610135593971202
255	0x3f82879b4f861d40	0.009047711719871843

gbias f8 []
0	0x400c3e0e15b4b87c	3.530300302102715

ibias f8 [1574]
0	0xbfe612741163b855	-0.6897526111258779
1	0xbfd8549a8d432506	-0.3801638011469354
2	0x3fbf3145da1dbe65	0.12184559416868408
3	0x3fd9ea31ce269c41	0.40491910106579004
4	0x3fe98d9fa3cbf048	0.7985380362656622
5	0x3fcf8c368fefc7a2	0.24646646526485677
6	0x3fe5aad8c58379f9	0.6771053178488834
7	0xbf99ad8d654382c2	-0.025076112085005382
8	0x3fe0df10ff350b90	0.5272297844424987
9	0x3fca160390605805	0.20379681157709242
10	0xbfd36f5f3e94216c	-0.3036726103896601
11	0xbfc702804934ee0d	-0.17976382803486537
12	0x3fd736f6bfe09245	0.3627297281075566
13	0x3fec57d6e33ab39d	0.8857225835869148
14	0x3fec917d67431ec3	0.8927599922980892
15	0xbfc0675d12f120cd	-0.1281544058313159
16	0x3fc3a5691eff3146	0.15348543180005886
17	0x3fed39ade375f8ad	0.9132909243196728
18	0x3fbaacd4f96a3d90	0.1041997059748978
19	0x3fb8fd2d8c328a9b	0.09761318848408466
20	0x3fca2ea21258393e	0.2045481290410382
21	0xbfdc3d43b7b0c4f8	-0.4412392896511643
22	0x3fd8772fc483a116	0.3822745722850568
23	0xbfd2ac4d63a4f17d	-0.291766497906586
24	0x3fd6e4038d02da89	0.35766686220760185
25	0x3fd9394ce2c8ac49	0.39412233492720766
26	0x3fe05eb8ae49c979	0.5115626720492364
27	0xbfe04651152733bf	-0.5085835850855956
28	0x3fdc457da5d4dd0e	0.4417413825462554
29	0xbf81bae1a1594800	-0.00865722917220424
30	0xbfdd9ff1c9e03f02	-0.4628872367329536
31	0xbfaa3fef784e590b	-0.051269038615986494
32	0x3fbc1cbe0e036d77	0.10981357423900372
33	0x3fa44b726c1be5d5	0.03963811464013715
34	0xbfdafd681cf0f5fb	-0.42171671701711916
35	0x3feba8f4a5ef46d0	0.8643744698440177
36	0x3fcd7aa761cafbb2	0.2303055980209741
37	0x3fc54a20fab73c0a	0.16632473222713912
38	0x3fc0973e13ae11fb	0.12961555443702352
39	0x3fe201e1c656af84	0.5627297281075561
40	0xbfc75ba39c1c9098	-0.1824841034186917
41	0xbfe9fa4475dec16d	-0.8118002226020004
42	0x3fe01d0210f30c41	0.5035410243075448
43	0x3fca8b4f1d821496	0.20737637463404174
44	0x3fb7094f7ed6614a	0.08998581740013836
45	0x3fe38093519facaf	0.6094452470982982
46	0x3fcf66d9bf39f5f3	0.24532625043131837
47	0x3f4aea11e830a60e	0.0008213603435979781
48	0xbf95e6da7c04e078	-0.021388448543092825
49	0x3fda667fa3f9eaf0	0.41250601781182095
50	0x3fd6624e6c9ddea4	0.34975014311883457
51	0x3fe10027fe8d7a5f	0.5312690707904258
52	0xbfe8ced99dafbc4b	-0.7752502517522627
53	0x3fd41e997c27e3c9	0.31436764835922
54	0x3fd8c548dc375a06	0.3870412970112799
55	0xbfddb61cb3e0c5a9	-0.4642402416821719
56	0xbfe05b3f1ce10c04	-0.5111384929699629
57	0xbfcd2037ec98721a	-0.22754572918428623
58	0x3fd2243eaeebcee4	0.2834622104848974
59	0x3fcc9eda0c8de239	0.22359777081489243
60	0xbfdcfa4527b5d177	-0.45277527692748926
61	0xbfdbfb8de878811b	-0.4372286577436328
62	0xbfe166061ebe0542	-0.5437040901598851
63	0x3fe29cf532ae84e6	0.581659888255811
64	0x3fcca99baee64161	0.22392602958690147
65	0xbfdb77b257fd7c80	-0.42918070404807196
66	0x3fc061894727b919	0.12797656988500064
67	0xbfeac481ef66f2e0	-0.8364877391646495
68	0xbfbf9863fd73ea20	-0.12341904580890928
69	0x3fe6870d1545d80b	0.7039857306942862
70	0x3fe78093519facaf	0.7344452470982982
71	0xbfe0328cb885e781	-0.506170616528138
72	0x3fc612fb469ac11a	0.1724542708157138
73	0xbfee8245d3883baf	-0.953402436398269
74	0xbfdd4e6af7d7e547	-0.45791124537898437
75	0x3fcd072ae419f73d	0.2267812360550411
76	0x3fe194f92e4fd44a	0.5494352249649037
77	0x3fce4c7c5b345991	0.2367091603598053
78	0x3fdff4c033ffe8a4	0.4993134029206294
79	0x3fd14c756dfcc5e3	0.2702916692824983
80	0xbfc2118c71e699ef	-0.1411605411678489
81	0x3fdde6c68bc111aa	0.4672104229723809
82	0xbfd449a7e014d098	-0.31699559100094055
83	0x3fe1199017aabcba	0.5343704664463964
84	0xbfcd45be2507ba8a	-0.22869087989916564
85	0xbfda0521400e02e1	-0.40656310324997774
86	0xbfd4b38eee11731f	-0.3234593701252368
87	0x3fd3effe1c0b4f89	0.3115229867810219
88	0x3fb3ed8ca80594ab	0.07784346677870484
89	0xbfec90676de8a177	-0.8926274439482275
90	0x3fe186d382b26939	0.5477082779573613
91	0x3fe8b667451dc110	0.7722660398413002
92	0xbfcf79748c73a99c	-0.24589402063368204
93	0x3fb3bc9daf8e368b	0.0770968011476844
94	0x3fc6468f4b58dc1a	0.1740283124833873
95	0x3fe20d9ee4439dbe	0.5641626795085626
96	0xbfe5aaa6bbb0fb55	-0.6770814576956165
97	0x3fc63da46e21c964	0.17375617387331055
98	0x3fb61fc028da3f39	0.08642197606445458
99	0x3fe3d8a2fc1ea3f5	0.6201949047291452
100	0xbfe54abff670316c	-0.6653747380492354
101	0xbfd4ba2a411e2974	-0.32386261328851806
102	0xbfe14c300dd1fcf5	-0.5405502576758453
103	0x3fa8013e7af31611	0.046884491451731354
104	0x3fd53ae5571a313f	0.3317197180374655
105	0xbfe280d9c620a11f	-0.5782288427044796
106	0x3fa6b63dbfd53894	0.04435914007864131
107	0x3fab90432cd19485	0.053835009785680156
108	0xbfd9cf0a4379b39e	-0.40326172437090146
109	0x3fb9d42da274d64e	0.10089383331509191
110	0xbfee4f615f7f9ca8	-0.9471899857716339
111	0x3fe1a03149ddc6b5	0.5508047526074821
112	0xbfd3cc41baa0b243	-0.30934184289325034
113	0x3fea3b155278aabc	0.819712315632692
114	0x3fdf300d404e0a79	0.48730784683008427
115	0xbfe421d4d8980277	-0.6291298132274069
116	0x3fa01ff615fe8eb5	0.03149384516225721
117	0x3fe45c5638b081e0	0.6362715823379936
118	0xbfbb3d3267a8cdbd	-0.1064025405001336
119	0x3fda85b859cc3a08	0.4144116284304862
120	0xbfe8ced99dafbc4d	-0.7752502517522629
121	0xbfc658c7bf774f99	-0.1745843586819518
122	0xbfe8a4d3f00a6852	-0.7701205910009412
123	0xbfda7f2f64bdd83a	-0.414012764339876
124	0x3fe4917011d30fff	0.642753634274868
125	0xbfd04a6f35c148cf	-0.2545431160880413
126	0x3fc00c180b090333	0.12536907709911702
127	0x3fe69b8ebfce2978	0.7064889665792142
128	0xbfda0e53483c57b4	-0.40712434820431587
129	0x3fbc612fafb34f75	0.11085794486581142
130	0x3fccc49989410ee0	0.22474974824773764
131	0x3f949a907596ccd4	0.020120865990702466
132	0xbfea038ff75b8f20	-0.8129348593906549
133	0x3fd71224f5ff2aff	0.36048244498367404
134	0x3fb4f78ef361ad68	0.08190244142467906
135	0xbfd4ba2a411e2974	-0.32386261328851806
136	0xbfaff3dd29534c12	-0.062407408995248784
137	0x3fa33ca8908db390	0.03757216229028082
138	0x3fc6d7920d7972c5	0.17845369012765935
139	0xbfc057d59e8a4359	-0.12768049470153178
140	0x3fc89b00292aa658	0.19223024377906728
141	0xbfc49430fad2fe7c	-0.16077244040751626
142	0x3fd8794cc35ea417	0.38240355567046563
143	0x3faba18ab9dc0d35	0.05396684187692317
144	0xbfc945be2507ba8a	-0.19744087989916564
145	0xbfdade5934233b11	-0.41982107249798256
146	0xbfda8fa61897fd78	-0.41501762773255946
147	0xbfc19212803edb74	-0.13727027189244334
148	0x3fd4fb632a01651d	0.3278434667787041
149	0x3fca8746e2b8d07e	0.20725332327276996
150	0x3f5ed52d6c911cc6	0.0018818801493283729
151	0x3fb07c44a0df57d7	0.0643961804156271
152	0xbfa5034c5fc9fca2	-0.04104078931140377
153	0xbfb51a70acc5fe27	-0.08243469446278394
154	0x3fdc66add9340519	0.4437670346379306
155	0xbfb33074868a4151	-0.07495811733884251
156	0x3fd563c4022e9832	0.3342142125424089
157	0xbfad56fdfb5bbec8	-0.05730432217921827
158	0x3fd9ef70557a34e8	0.4052391848316135
159	0x3fb468b69a68be7e	0.07972279805903246
160	0xbfc47d9a800ed3bc	-0.1600831151278309
161	0xbfad5287719f44dc	-0.05727027189244335
162	0x3fe221a2dce31594	0.5666059793663174
163	0xbfc949538ea9501b	-0.1975502440060389
164	0xbfa7be5c02087f9a	-0.046374202011292456
165	0x3fd6e748a044c018	0.3578664364931696
166	0xbfc6e533d5b9edc9	-0.1788697045884489
167	0x3fa38262807eae93	0.03810413187542596
168	0xbfb71a42f543dc48	-0.09024446952740661
169	0xbfafb008cb0c8ca2	-0.061889910494096215
170	0x3f9f086e418b10f1	0.03030559802097427
171	0x3f979170d42a8622	0.023015749883262278
172	0x3fd23be2866d9b54	0.284905082013599
173	0x3fd74f7887d9cd18	0.3642255140941457
174	0x3fd01c2d052eac26	0.25171971803746584
175	0xbfb7312cccd92bbb	-0.09059410096339963
176	0xbfded49c57e03622	-0.48172672826408036
177	0x3fcfe40ef4c5f76d	0.2491472907240068
178	0xbfe8b9197caf9d41	-0.7725951609872156
179	0x3fd76fd0f2698389	0.3661997191721232
180	0x3fcb39d92ef334aa	0.21270289223176536
181	0x3fc16d5aa0412dd5	0.1361497194760505
182	0xbfcdce1f50be6407	-0.23285285418094778
183	0x3fabdd7dbd4ebf98	0.05442421852001117
184	0x3fc7f24abcd29a91	0.1870816633210848
185	0x3fca85f9ab4d4c98	0.2072136007724097
186	0xbfdd8903decde5bc	-0.46148773916464925
187	0xbfeb319043f2f39c	-0.8498002364282118
188	0x3fd29448c30f73a5	0.29030055092681045
189	0xbfa8c1c8ef2ea952	-0.04835346145348986
190	0x3fd665090bca7a0e	0.34991670752961646
191	0xbfeb01280b9ba874	-0.8438911654204859
192	0x3fe551a1848eb38e	0.6662147130024196
193	0xbfcf07ae2571c183	-0.24242188289964525
194	0xbfbd2108566baae3	-0.1137852869975791
195	0xbfe9e620dd505921	-0.8093418428932503
196	0x3fe92c505556e5ed	0.7866593996797612
197	0x3fd2a69108e4cbb4	0.2914164149144043
198	0xbff20e6f96af89a6	-1.1285243879470754
199	0xbfd6e8afc2b6f6f7	-0.357952060843544
200	0x3fd362c051027ba8	0.30290229712584926
201	0x3fadaf98e425362c	0.05798032555558694
202	0xbfb835b533973338	-0.09456951627289534
203	0xbfaf8e11fbcac141	-0.06163078497536612
204	0x3fbdf40fd17674ce	0.1170053373702615
205	0xbfe08d7a629f130d	-0.5172702718924441
206	0x3fd689ff69d1801c	0.35217271169494935
207	0xbfd406ed046b0dee	-0.31292272025549905
208	0x3fc286d0818f4002	0.1447392113318529
209	0x3fdd679fe45c061b	0.459449742324155
210	0xbfd9a41a2290d679	-0.40064099669994097
211	0x3fb2018231ea5cea	0.0703355190147367
212	0x3fa8b927e1f62bd9	0.04828762658424752
213	0xbfb0adae2818548d	-0.06515015105135742
214	0x3fd1f5ea997e4551	0.28063454618048406
215	0x3fd2704c500fd5cf	0.2881041318754258
216	0xbfeba5469d3e9b04	-0.8639252730543778
217	0xbfef9430ed157367	-0.9868397360365692
218	0x3fc16093650b417b	0.13575975831782813
219	0xbfb219b8eca3db0c	-0.07070499207825892
220	0xbfbf91841d3af804	-0.12331414903289334
221	0xbfd50a1207b36fe5	-0.3287396502689702
222	0xbfde58097cd80790	-0.47412335578712206
223	0x3fd48e0ec333700e	0.3211705118426388
224	0x3fb8ff37aed94e72	0.09764431017657119
225	0xbfd749a7e014d09e	-0.3638705910009409
226	0xbfd23fbe2fcf964e	-0.2851405589011379
227	0xbfdc38458929f169	-0.4409345473757385
228	0x3fe1c926b189ace5	0.5558045833144233
229	0xbfc81c6fe04152d0	-0.18836782884559122
230	0x3fe65465d2310a6f	0.6978024583152783
231	0x3fa470827adb3c99	0.039920880791776976
232	0xbf9bfc50103f1ed3	-0.0273296842495075
233	0x3fd8331e808c9d10	0.3781200652469616
234	0x3fc2ffcb36a3c273	0.14843120735124024
235	0x3fdcb0dd5801cdad	0.4482949599689288
236	0x3fc168e57fb15868	0.1360136865138799
237	0xbfd0564e2b77ebcd	-0.25526766056981104
238	0xbfe08907cdc79518	-0.5167273539670161
239	0x3fd624f5482e9f01	0.34600574540171186
240	0x3fc4719e58c1f2ac	0.15971736272685655
241	0xbfc75c510c5d45fd	-0.18250477889755237
242	0x3fc37cdc06bc1aa5	0.15224790886732822
243	0x3fd950badae017f1	0.39555236219928164
244	0x3fd54931676275e0	0.3325923452010482
245	0x3fe7c64e30778261	0.7429572054498516
246	0x3fd0d090597a2bdf	0.2627297281075566
247	0x3fdbe86dd565e335	0.43606134261749513
248	0xbf7fa0eff0ac2afb	-0.007721841112252599
249	0xbfea5d15208f14ba	-0.8238626132885181
250	0x3fdd7b47816a1b15	0.46064937246448895
251	0x3fc72f51dc5ce88f	0.18113158473881127
252	0x3fe09c02d1a32662	0.5190443129042246
253	0xbfe22e866056856b	-0.5681793099976579
254	0xbfbc0d4edbe9efb0	-0.10957806462277975
255	0xbfe0328cb885e781	-0.506170616528138

umat f8 [942, 50]
0	0xbfc3a721ddd10e6f	-0.153537972744846
1	0xbfc3d424ce7e5193	-0.1549116142529213
2	0xbfc43a1fa84805b1	-0.15802379338133002
3	0x3fb3031d9f19dd96	0.07426629194548293
4	0xbfe0b0992697a12b	-0.521557402968971
5	0xbfbfd0250b0966f4	-0.12426978606654498
6	0xbfa223b91d6eb50c	-0.03542879566462362
7	0x3fc5ea15450c54f4	0.1712061488293909
8	0xbfd15b6687d15ebf	-0.2712036444040499
9	0x3f99f3ad8c84c4ce	0.02534362001569406
10	0xbfcbcb37d6b570dc	-0.21713922485185477
11	0x3fce3bcf39f65f22	0.23620024042315274
12	0x3fb18104f3258c22	0.06837492881963717
13	0xbfb531be16617d62	-0.08279026075751042
14	0x3fb713a00a386c1f	0.09014320611497383
15	0x3fba41bf455046f8	0.10256572191454072
16	0x3fb395dde3030266	0.07650553505210098
17	0xbfaf93856647a610	-0.06167237161191619
18	0xbfac36e6c4d618e2	-0.05510636475359988
19	0xbf930036e7063e64	-0.018555505610093795
20	0x3fbaedfc7248ff43	0.10519387998737977
21	0xbfc9a8f335adaa6f	-0.20046844597830524
22	0x3fd1eb20cb0d396a	0.2799760802198735
23	0xbfb03c3effef9454	-0.06341928242143641
24	0x3fc35b1918effeac	0.15121759145403268
25	0xbfabd5c1607da49e	-0.05436519911638381
26	0x3fa4c9f6dca99d10	0.040603365360590726
27	0x3fb1d826685e0480	0.0697044377138969
28	0xbfc3e9bd93df0f81	-0.15557069511680413
29	0xbfbbdb6f08b9ff4f	-0.10881704295206628
30	0xbfc407e987de4398	-0.15649146207991005
31	0xbfd911f0ec2dcbae	-0.3917200380739655
32	0xbfcd8318c5ff0e6a	-0.23056325595654253
33	0xbfabfd7bb6a50df9	-0.05466829876470664
34	0x3f7f02c04f370bb0	0.007570983132100403
35	0xbfa70a284370bab7	-0.044999368889297946
36	0x3fa86c962de528c4	0.047703450300632194
37	0xbfcab1e0119f8e80	-0.2085533224154581
38	0x3fc87e38d4e6ed02	0.19135198970420936
39	0x3f9499b48a43d67e	0.020117588938737267
40	0xbfb5b2230dcd0c8b	-0.08474940382898148
41	0xbfb590ba060b31b2	-0.08423960349609308
42	0xbfa10af9fd5818f2	-0.03328686921672554
43	0x3f89955dde821166	0.012491925576121953
44	0xbfa23a0d54722900	-0.0355991521438046
45	0xbfcd2fff4423950c	-0.22802725627040166
46	0xbfc4c2530c955e2c	-0.16218031038691672
47	0x3fc01aad891bcb6e	0.12581414408449682
48	0x3fa5a10f1174c1a5	0.04224440658652221
49	0xbfc0a73fcb9bd3fe	-0.13010404054480768
50	0x3fb01d1ae116a1cb	0.06294410701105517
51	0x3fd226b8a0301e45	0.28361335414271976
52	0x3fc1583380c2824c	0.13550418650722162
53	0xbfce9b3fd60a2b68	-0.2391128344646305
54	0x3fc528b9d674f544	0.16530535670782787
55	0x3fd13cd0f3f1ae46	0.2693369276300682
56	0xbf94b3c5fbdb3502	-0.020217030999266868
57	0x3fba125ed63affcb	0.10184281091915108
58	0x3f9ecec97ef420b7	0.030085705159792222
59	0x3facd8691cddb4fe	0.05633858182305039
60	0x3fa0740eb989a5a0	0.03213544859756756
61	0xbfbd3775cddd51e6	-0.11412750507344746
62	0xbfd4a0df75bba3a7	-0.32231890199050856
63	0x3f9fa3a51a326efe	0.030897693370760308
64	0x3f9425ba728b4465	0.019675172082149212
65	0x3fb6dea21c2a1750	0.08933461368186824
66	0x3fc996a6ea7758ec	0.19991003464264823
67	0x3fd377878b4c2974	0.30417049983284206
68	0x3fb8e640e846a3dd	0.09726339026259674
69	0x3fc9a317fee2a2a5	0.2002897257382489
70	0x3f95adca423ce9ea	0.02117076901707008
71	0xbfa64a3769f294cf	-0.04353497665696581
72	0x3fbeee12cad0ee28	0.12082021190229197
73	0x3fc64c392a7a1932	0.1742011506468742
74	0xbfa604b231a5e6d9	-0.04300457817130416
75	0x3fd8ca2e928e064e	0.38734020530691715
76	0xbf91f16f5355fab8	-0.017522563420693443
77	0xbf978fa08a86c549	-0.023008831458075894
78	0xbfc7fa3d421c5796	-0.1873241970831116
79	0x3fa2a58d72061b40	0.03641931549923649
80	0x3f91997382cea2c6	0.017186932429157385
81	0xbfa23e74022367e0	-0.03563272977926579
82	0x3fa97b54af7a56b0	0.0497690643507388
83	0xbfc412381dbbd50e	-0.15680600597230704
84	0xbf90eef4b6dedb2c	-0.016536544477015955
85	0xbfb53303d50179d6	-0.08280967665039127
86	0x3fc1dd519db7e662	0.13956661416141275
87	0xbfd1da4ffd4eff9a	-0.27894973504225506
88	0xbfd26b7af65df5cc	-0.28781007823257876
89	0xbfc7ace81e374288	-0.18496419406303155
90	0xbfa29558f45c5abe	-0.03629568083686284
91	0xbfcc2822b707206f	-0.21997484146982368
92	0x3fc191ddcee57d4b	0.13726399042477974
93	0x3fd1974a6cc2e011	0.27485905286039364
94	0x3fc9bd09a28acf43	0.20108147083885272
95	0x3f7609ff8d4a618c	0.005380628823921884
96	0xbf5bbd92aa20a1e0	-0.0016931469222162196
97	0xbfbe8bbcd18cd1f8	-0.11931972614258501
98	0x3fc80e78e5248e84	0.18794165791142714
99	0xbfd1a0134d66da7a	-0.27539522703901975
100	0x3fcd0879ac1c4be1	0.22682114509424792
101	0x3fbc740255b17c5c	0.11114515869256664
102	0xbfbbf7c0d2ae0b8c	-0.10924916404296264
103	0xbfd27997d7b20d5c	-0.28867145599379795
104	0x3fb096ceb6f79b00	0.06480113951657174
105	0x3f9e3e978765fc40	0.02953564418703203
106	0x3fd681dd3742b2f4	0.3516762771276227
107	0x3fc8e459046e5f93	0.1944686195026831
108	0xbf98aa2c84d0e91d	-0.02408666191716079
109	0xbfd3a5701580a3c5	-0.30697252368787203
110	0x3fcac08eadd51f8f	0.2090013836661879
111	0x3fb86645f56b0024	0.09531056634568863
112	0x3fa592443199762c	0.04213154893362189
113	0x3fc009e9b02dd2e1	0.1253025160073298
114	0x3fc477ae8271bcef	0.15990239495611244
115	0x3fc99b918672901f	0.2000600725633612
116	0xbfb469a8ce560e9d	-0.07973723447326582
117	0xbfa657c40c414b59	-0.04363835000608302
118	0xbfd46104a0cbad74	-0.31842151358315296
119	0x3fbaa465834598b5	0.10407099203948429
120	0xbfbe0bb5c6d9669c	-0.11736618141858418
121	0xbfc6475869fdd6cb	-0.17405228782052115
122	0x3fcfb5317a2b8519	0.2477170797856523
123	0x3fc1118bea527a3b	0.13334797803413942
124	0xbfcdc7511ccf0317	-0.23264516741439742
125	0x3fd3c9afbe1a5de8	0.3091849667048039
126	0xbfd5b8e3ff5c5c8a	-0.3394098275907217
127	0x3fd1852e06365616	0.27375364882149833
128	0x3f97d6f43be35cfb	0.02328092208412345
129	0x3fad8d7ec767728d	0.0577201479352186
130	0xbfbb7800911cd75a	-0.10729983847417426
131	0x3fd5e27c3bbb500e	0.3419485648457802
132	0xbfc818272087f393	-0.18823708618574794
133	0xbfd1f740d912a2d6	-0.28071614454760885
134	0xbf8fde9de407b150	-0.015561326524185987
135	0x3fa3c95930175ed7	0.03864554130603686
136	0xbfd17611ff2d970c	-0.2728314392064568
137	0xbfbe9f3482832858	-0.11961677728973663
138	0xbfc3c427680c8372	-0.1544236429263282
139	0xbfc7d7a02ff1abbb	-0.1862678751088803
140	0xbf9b9ab6af246e6a	-0.02695737308486771
141	0x3fcf4a3334a692ec	0.2444519049724002
142	0xbfc2e9cc53fc52da	-0.14775995350705423
143	0x3fd055ccd367dec2	0.25523682255832736
144	0x3fba8a520896e682	0.10367310247138486
145	0x3fcee16309d3acbb	0.2412532613737762
146	0x3fd7c502b844d0f1	0.3713995742321137
147	0xbfc3f280646d6555	-0.15583805946043108
148	0x3fc148e234f57990	0.13503673158534157
149	0xbfd46a3b9ed0c41c	-0.31898394116712026
150	0x3fb3ef9fe0f292f2	0.07787513009914074
151	0xbf96d953c345efc9	-0.022313412469415348
152	0xbf7cfa59195abee8	-0.007074687998894304
153	0xbfd370fff54b653e	-0.30377196268598883
154	0x3fcaa169bfa5dcfc	0.20805093629653715
155	0x3fc138a02387c56a	0.13454057440643946
156	0xbf82b2bc39360d16	-0.009129972930856083
157	0xbfc5cd7da2618edd	-0.17033358029140447
158	0x3fc604596511883e	0.17200772700295092
159	0x3fa9f09ba9b88ce0	0.05066381880558324
160	0xbfccc650d8a18b43	-0.22480211808859893
161	0xbfa78062d66ad089	-0.04590138308904652
162	0xbf4ccac58ae48ec0	-0.0008786644519073947
163	0x3fc573aeca5a4058	0.1675928581285031
164	0xbfb15f6156291fe3	-0.06786163667231863
165	0x3fd1c6825ee7335c	0.2777410437382082
166	0xbfbdae1993f6da6c	-0.11593780386361069
167	0xbfa5d2038962a6bb	-0.04261790325229017
168	0x3fbad4606dbc379c	0.10480311087687116
169	0x3fa3216a773768e9	0.037364317944325105
170	0xbfceb72bd9cdc20c	-0.23996494421909664
171	0x3fb7e5465f4aae6a	0.09334220720728018
172	0xbfc79edeba8ace8b	-0.18453582867151783
173	0x3fb1feaa18f30465	0.07029212102044509
174	0xbf9b077bce2f6c0a	-0.026395735225246887
175	0xbfad715aa5509e86	-0.057505448036235626
176	0x3fa888a747d4bc2a	0.04791758300631728
177	0xbfa1c748c9a25f60	-0.03472354375224884
178	0x3fc188870e2d826c	0.1369789904811286
179	0xbfd4f28dfd041655	-0.32730436047163397
180	0xbfa2f7c2e1d48feb	-0.03704651838987146
181	0xbf60ca4eb708fd30	-0.002049592724034398
182	0xbfbb122ccf942060	-0.10574607913815859
183	0xbf73e602e2238b50	-0.004858027709107329
184	0x3fbcfcb7431e4a36	0.11323113812094551
185	0xbfcff0080c6b5135	-0.24951267820746073
186	0x3f9c86e8920552c5	0.0278583850025196
187	0xbfb1c14971488390	-0.06935557380394486
188	0x3f97b7594d2fe66e	0.023160357795836743
189	0xbfb7b8997c9e88a4	-0.09266051571333606
190	0xbfaa1605201bc294	-0.050949249429213556
191	0xbfb9c19162d2beef	-0.10060986197163023
192	0x3fa6c1375d800b3e	0.044442873157115134
193	0x3fb22d359ff9cae2	0.0710023418012429
194	0x3f9cd1e805969f18	0.028144479123198257
195	0x3fb68c9dab8f2f06	0.0880831283422446
196	0xbfca3e06e0dfb1bd	-0.2050179098145132
197	0xbfc1d5722da4230a	-0.13932635525295495
198	0x3f8cb32655fd5d80	0.014013576029966002
199	0x3f7552554153581e	0.005205472019232741
200	0x3fd67ded521f4738	0.3514359762167376
201	0xbf9bd8adab93924b	-0.027193749997325416
202	0x3fb26c339a5d9fd9	0.07196352499670357
203	0xbfd2821c4c13143b	-0.2891913168826396
204	0x3fbcf3bc792398f4	0.11309411962028887
205	0x3fbacb1125086074	0.10466105608100112
206	0xbf9b0b3e579b17ce	-0.026410078141246456
207	0xbfb01cc931c1f870	-0.0629392382124665
208	0xbfb9e50147e61474	-0.10115058904018942
209	0xbfca0ae4399247a8	-0.20345738230804256
210	0xbfb257d7d2becb5b	-0.07165287871502583
211	0xbfb163ce96b01c72	-0.0679291837587799
212	0x3fb99c8a529b5580	0.10004486576811722
213	0x3fd63466d78b8d38	0.3469483475621078
214	0xbfc56a54935fcc04	-0.1673074454880351
215	0x3fa2b9d7ba212fca	0.03657411715593602
216	0xbfb942bb16211e69	-0.09867448129909352
217	0xbfbc29af06868917	-0.11001104268374139
218	0xbfcaa597c7875bf8	-0.2081784939061604
219	0xbfb3b005403aea68	-0.07690460985296854
220	0xbfcf049ba7d5e41a	-0.24232812590688085
221	0x3fbba0e465e0bf89	0.10792376982931108
222	0xbfce19938f3f65de	-0.2351555299235732
223	0x3fc9006de449af38	0.19532560011736577
224	0x3fb1e1dfc3c49909	0.06985281495562758
225	0xbfd483f91b799001	-0.32055499728289766
226	0xbfcef2caccf2f440	-0.2417844296195728
227	0x3fc64e61ded52459	0.17426703815934522
228	0x3fb048868c67846b	0.06360665252533841
229	0xbfc231360f6bce6a	-0.14212680581077858
230	0xbfa7ece1ed6e7ea0	-0.046729145272590644
231	0x3fa23c0baecab212	0.035614361845862544
232	0xbfd134a696b1b95e	-0.2688385459540735
233	0x3fbf7008c89f0688	0.1228032579229198
234	0x3fce29f20fb82e19	0.2356550766711372
235	0x3f793b442dac9400	0.00616003639405438
236	0x3fbbb59a8413caf6	0.10823980068725433
237	0xbfdbc7de799831ad	-0.4340740382620208
238	0xbf91db9a9a8e8fd4	-0.017439284976390315
239	0x3fb81eb913426d1f	0.094218795015355
240	0xbfc6fbdb6f489e74	-0.17956107076428263
241	0x3fa63b884bbbd1ef	0.043422946209748285
242	0xbfcaf6d2426251b6	-0.21065738908204218
243	0xbfa000c3d82eab4f	-0.0312558366197978
244	0x3fc218a83adbc58e	0.14137747644376158
245	0xbf956e13a191be72	-0.020927721725853173
246	0xbf8aae009d949e40	-0.013027195748306686
247	0xbf78f0151d2648e0	-0.006088335491215541
248	0x3fa1f35a027adc3e	0.03505975036880969
249	0x3fc45f58195e9dc5	0.15915967215299368
250	0x3f9e6fadb8b26cd4	0.029722895048149692
251	0x3f97329caa39c5fe	0.022654006852865997
252	0xbfb723d18c9d465c	-0.0903902977272763
253	0x3fa49ab380b3f943	0.040242776356523645
254	0x3fb0ff2455a00cc8	0.06639315691431869
255	0xbfd4918258eb1810	-0.32138117488318674

ubias f8 [942]
0	0xbfd053d101d6f625	-0.2551157491651302
1	0xbfdbe60e437bffdc	-0.4359164866473273
2	0x3fbbd2009ec0f5db	0.10867313266586313
3	0x3fd50fd9ded16490	0.32909247169079325
4	0xbf97d63872833a0d	-0.02327812384538146
5	0x3fcf0d5e451ec5c2	0.24259546637544643
6	0x3fd637a5c05a19c6	0.34714645180102044
7	0x3fd1fdf79beca807	0.28112592913623796
8	0x3fb242404139cc61	0.07132340996194976
9	0x3fd10e9a5a14e630	0.2665162925437441
10	0xbfd2b10cf5003641	-0.292056311854001
11	0x3fc68701b4493657	0.1759950762083686
12	0x3fb9b30923526e6d	0.10038811790803388
13	0xbfd90f8bcfbd4b48	-0.39157386099866587
14	0x3fca7d20c9ef4c6e	0.2069436059960909
15	0x3fcf150cecf1e991	0.24282990998819945
16	0xbfc7a2ad65ba5c0d	-0.1846520182341184
17	0x3fc9bad76412541a	0.20101444612797154
18	0x3fc0539674238669	0.12755089445913662
19	0x3fc324741fb3138e	0.14954997585132584
20	0xbfb731af18ea7f9a	-0.09060186727810873
21	0xbfb393444a93627c	-0.07646586247154546
22	0xbfc4f56b136564dd	-0.163739571066606
23	0x3fa186a742ed1eb5	0.034230448646267154
24	0x3fcd03146ec6ef9e	0.2266564885047701
25	0x3f9e7e89f2d04480	0.029779582448160813
26	0x3fb599cc0c55e8e6	0.08437800694619887
27	0xbfbbe4e002b89eb9	-0.1089611059802519
28	0x3fd60873fb65ba84	0.3442659335186493
29	0xbfe15db04e0ca88c	-0.5426866077807673
30	0xbfc3571dce2677eb	-0.15109608236247082
31	0xbf520019f169d6f8	-0.0010986569738213308
32	0x3fd58c3107d9d5e7	0.33668161169711514
33	0x3fe634df80e14d55	0.6939542309941468
34	0xbffa54294d6d129d	-1.6455472015815424
35	0xbfdcfe858ee1d825	-0.45303477242794293
36	0xbfdd4414fc338c97	-0.45728039387740566
37	0xbfb40b4d53a8b61e	-0.07829745571572075
38	0xbfe24e09cfe01b13	-0.5720261631075537
39	0x3fd51a8ea92f301f	0.3297459270659164
40	0x3fd8fdb637e46d85	0.3904853387664036
41	0x3fe4a130ba5e3cbc	0.6446765556337577
42	0x3fd31313dbcfd1fd	0.2980394026374425
43	0x3fd035a1c6e64f17	0.2532734339122142
44	0xbfe3fa4735ad660f	-0.6243015335450667
45	0x3fb520b79bc3ce8a	0.0825304751668289
46	0x3f9e6a5f34271d0c	0.029702651556161405
47	0x3fb7d199dcc312ac	0.09304200782487254
48	0xbfc1999e6489093e	-0.13750057133626997
49	0x3f7db017f1c3e987	0.007248014004512255
50	0x3fda4b998f5d4f66	0.41086424827994106
51	0xbfc3f59118854241	-0.1559316034058771
52	0xbfc3a65e3488f983	-0.15351464810551016
53	0xbfb10090d4a13ebd	-0.06641488257559565
54	0x3fc522b8a94af1c2	0.1651221109986079
55	0xbfd10e9a5eb34436	-0.2665162968451712
56	0xbfdc0634415ac54e	-0.4378786695698026
57	0x3fc120ce233531f7	0.13381363600855398
58	0xbfd2c0bcc7135474	-0.2930137580963852
59	0x3fcb4159011ff6d4	0.2129317527286988
60	0xbfa915fd9389e406	-0.048995899448478084
61	0x3fe75f9290537b6b	0.7304165667409114
62	0xbfd146cb3e1aafe2	-0.26994591774814414
63	0xbfc0e7c026202268	-0.1320724664840498
64	0x3fc5026326a088a8	0.16413535486305375
65	0xbfd0d9f12ac59d75	-0.26330212761828103
66	0x3fb60991b627cae6	0.08608351418642321
67	0x3fd728dee1b021bb	0.36186954536290344
68	0xbf79116e060036bd	-0.006120137957635383
69	0xbfba956e20804f8e	-0.10384262364851635
70	0xbfddbb919a90faa0	-0.46457328886382676
71	0x3fe461b8f4ddf8dd	0.6369290144500855
72	0xbfdce6bc06ce4ef6	-0.4515829149688523
73	0xbfc594912b69700c	-0.16859640712471025
74	0xbfdb89394857726b	-0.4302504736386143
75	0xbfe50993ad4cc21c	-0.6574190506708564
76	0x3fcece7824b5d9b8	0.2406759433030865
77	0x3fd61e7db3f3bc8d	0.34561102460333687
78	0xbfacf89f77dbb622	-0.056584342366346144
79	0xbfd199c057c5b3d2	-0.2750092370177387
80	0xbfca56c011f04f20	-0.2057724082557053
81	0x3fd736a3fb943332	0.3627099949670082
82	0x3fd6915c7f1a4faf	0.35262215053921414
83	0x3fc7f511882ed2b3	0.18716639661365306
84	0x3fcda90cb2bad544	0.23172148444215612
85	0xbfde69506ffac68d	-0.4751778691817002
86	0x3fc750dc74192e43	0.18215518635621394
87	0x3fe2014f0f491901	0.5626597689195308
88	0xbfe3f81947b6ae91	-0.6240354920059464
89	0x3fd4d298b1cf7ac1	0.3253537880354252
90	0xbfce285d583f5a7a	-0.2356068306823607
91	0xbfb9ffa54ed531ba	-0.10155709433201468
92	0x3fcbcf9004e17edb	0.21727180708238944
93	0xbfc089d0b7f130bb	-0.12920578939008984
94	0x3fadd1dcd7555218	0.05824175003605009
95	0x3fe25b8f44204d4d	0.5736767130460209
96	0x3f852fd772156aa4	0.01034515683084198
97	0x3fb7441869decdd6	0.09088280281758129
98	0x3fdca48e9301b05e	0.4475437579737952
99	0x3fcacd0ef4013a99	0.20938288606926816
100	0x3fd9f6cce9b05e8e	0.4056885034674246
101	0x3fe51f6d8b1acfb8	0.6600864140404985
102	0xbfe6d69cda00520c	-0.7136978395306541
103	0xbfe1a746102509d3	-0.5516691508603863
104	0x3f910035a667c0c4	0.016602361947605684
105	0x3fd2295c0ec83b0c	0.28377438968247826
106	0x3f9e71376d133169	0.02972876170388031
107	0xbfea798da3a4724b	-0.8273380466594714
108	0xbfb47023ed3c43f5	-0.0798361257732408
109	0xbfdd46e2c1e8fb65	-0.45745152412921747
110	0xbfe0c4237a73a846	-0.5239426986347631
111	0xbfd1bc3afda14404	-0.2771136738638804
112	0x3fb4d0e6545b0d8b	0.08131255683388454
113	0xbfdd0b654fc3cb04	-0.45382054128201355
114	0xbfe3098c595c6d71	-0.5949155564625653
115	0xbff738582660b350	-1.4512559413080517
116	0xbfca41f8fad1867d	-0.2051383232783798
117	0xbf80c4caafa3a972	-0.008187850461088362
118	0xbfdf3fb7e27ef021	-0.4882640563844252
119	0x3fcae9a2b3d8e789	0.21025499135594952
120	0x3fc8b51f3f66bf5c	0.19302740665215878
121	0xbfe055bb0d8e5f7d	-0.5104651703613708
122	0x3f9dd32fb9f0aeaf	0.029125924800765087
123	0x3fcd917ddea0bea9	0.23100255365851766
124	0x3fe57df7ccbf70ab	0.6716269492130967
125	0x3fb0be591e185024	0.06540448174229191
126	0x3fb6fa49ab81549b	0.08975658833635906
127	0x3f9671fcecaeb54f	0.021919204660368504
128	0xbfe2124cbe523913	-0.5647338597498525
129	0x3fd80ad5e1be2689	0.3756613449591915
130	0xbfb1d5c740e811f0	-0.0696682485068505
131	0xbfc85a808ed6cf09	-0.1902619073349501
132	0xbfcecc6b705175d6	-0.24061339363372153
133	0x3fc5b12f8efcca73	0.1694697807484605
134	0x3fe81dacfd0b324a	0.7536225263843985
135	0x3fd947389cdc6492	0.39497199362228586
136	0xbf618326121b00f9	-0.0021377318924750113
137	0xbf905e49d4315a1c	-0.015984681678981358
138	0x3fb5b071a534b30d	0.08472357066484566
139	0xbfcc5968b759a813	-0.22147854759833815
140	0xbfdc94e89bd4424d	-0.4465886613625443
141	0x3fd2c8db2a1a6378	0.29350928413037236
142	0x3fe1359ad49c79ea	0.5377935555041493
143	0x3fcf9618b75beba7	0.24676808312491724
144	0xbfcd5d1a4f38f89c	-0.2294037710980249
145	0xbfa8cc1459d6b537	-0.04843200298942423
146	0x3fb3249286f7b561	0.07477680010898304
147	0xbfe35c2dc7f9db77	-0.6050022989064548
148	0xbfcfca2a9ae5c15e	-0.2483571297011719
149	0xbfb97df7f6aaa46b	-0.09957837841160859
150	0x3fc20ef143b0ceb8	0.14108100705344895
151	0x3fe046fe6f6f2d58	0.5086662460757152
152	0xbfd7209518c24f7b	-0.3613636724269253
153	0xbfcaa302e433fe24	-0.20809970991830185
154	0xbfe0ea1741d04188	-0.5285755429668351
155	0xbfd6d26a1a603dd3	-0.35659267974639625
156	0x3fe42744f2d1075a	0.629793619395268
157	0x3fb0baea01f9582c	0.06535208271211052
158	0xbfb4041a1f1da41d	-0.07818759212172251
159	0xbfd6a5bb63530a12	-0.35386547755857223
160	0x3fb7e921354820d1	0.09340102721046441
161	0x3fd5330116a9928c	0.3312380524933267
162	0x3fb2d37771d1f4fa	0.07353922394573323
163	0x3fa4433fffd2f4eb	0.039575576761743246
164	0x3fad23332477f231	0.05690917797253226
165	0xbfd30d5290c65ede	-0.297688142186855
166	0x3fabbb88fdf03386	0.05416515445549579
167	0x3fd4820f1db137f1	0.3204381742442584
168	0x3fcb6b51c15db25c	0.2142126268548904
169	0xbfd5c544cd31ae41	-0.34016532934649396
170	0x3f661f7a48e2f335	0.002700556599931759
171	0x3fd29249606dd3a4	0.29017862717528886
172	0x3fd0cf2037622781	0.26264195831810616
173	0xbfbb3fd724c2d4b0	-0.10644287726866497
174	0x3fccb463bb3596a5	0.22425505295830309
175	0x3fd981acbdb5f1b2	0.39853971983373093
176	0x3fc9a8a9ee213a18	0.2004597103827599
177	0xbfb38ad1085d7d76	-0.07633692220905694
178	0xbfd6b1e567f1caae	-0.3546079173167226
179	0x3fb5c39317b5e6e3	0.0850154812705131
180	0x3fd3d1b22fc8d936	0.3096738306661736
181	0x3fe5a2d45b3be49c	0.6761266500390266
182	0xbfcfc6daed156c58	-0.24825607849456577
183	0x3fb6a445a70855a0	0.08844409301703715
184	0x3fc64dd2932513ae	0.17424995598608234
185	0xbfd38fdac675d779	-0.3056551874245695
186	0xbfe26513d253fd4f	-0.5748385532350911
187	0x3fd9db757fc12961	0.4040197131731898
188	0xbfe3d6c4cab0fca9	-0.6199668845000775
189	0xbfe2d738e7175888	-0.5887722505092521
190	0xbfe3b86bb3b47689	-0.6162622938024508
191	0x3fd4a9acdc44944e	0.322856154542312
192	0xbfdd5b0fcd5fe5d0	-0.45868296676743814
193	0xbfe007f94487c757	-0.5009733522876826
194	0x3fb95ce018a0fa06	0.09907341576852255
195	0xbfc22e308d2d2fb6	-0.14203459638008348
196	0x3faaba2a8b313565	0.052201585284459985
197	0x3fe350bc654ee9da	0.6036054590870734
198	0x3fabe89e0652df0d	0.05450910403436469
199	0xbfcf7e37d8e629b4	-0.24603937235617723
200	0x3fce9f3372e11d85	0.2392334280905112
201	0x3fd533a1e9417664	0.3312763955962963
202	0xbf97368993b7050e	-0.022668981209567333
203	0x3fe82fa677ac7703	0.7558166825653817
204	0x3fce6f1454ccbf1d	0.23776487484564593
205	0x3fa71ae7a1f0c0dc	0.04512714244663282
206	0x3fa7c4b5dc1dc4fc	0.04642265617338556
207	0x3fd3d54da3b9bda9	0.3098939989931418
208	0xbfe73f23501fe812	-0.7264572682317996
209	0xbfafa63803ef7211	-0.061815023880374416
210	0xbfdea590773093a3	-0.47885524406074803
211	0xbfdf3936f99bfabd	-0.4878671109762925
212	0x3fd739d7c2dc2f64	0.3629054453783651
213	0xbfd6810b48228ab3	-0.3516262249415078
214	0xbfd4d07ac28726f6	-0.3252245807349107
215	0x3fd10c71ad07f7f6	0.2663845243222335
216	0xbfbf5f4746d2f54c	-0.12254758338072697
217	0x3fdac2b1a0527c45	0.41813316971269315
218	0xbfcebd5ce3e717e6	-0.24015389564573225
219	0x3fd625717242dde1	0.3460353484947217
220	0x3fd6390b79073a3f	0.3472317392269452
221	0x3fe2d7b65921b966	0.5888320675710872
222	0x3fcab60b63fb9295	0.20868055707901037
223	0xbfddee4e3a3422c6	-0.4676700180430483
224	0xbfd3e95b6e8b8dec	-0.31111799045012734
225	0xbfd7a2bb19e12d01	-0.36930730368904113
226	0xbfc9194995dd8a04	-0.19608421151777133
227	0x3fc680061257d790	0.17578197379742422
228	0xbfa47e77b0ad77ed	-0.0400273707552826
229	0x3fde978e12fab46a	0.4780001817078473
230	0xbfd7cec64a21accc	-0.3719955181065415
231	0x3f9c908655909022	0.027895068142370978
232	0xbfd55998e0ab2b29	-0.33359357776923787
233	0x3fce1b5364158f54	0.23520891558575363
234	0x3fd25c0b03f65c40	0.2868678606695916
235	0x3fa079d2ed7ceb34	0.032179442873220415
236	0x3fd45454d4aa99d2	0.31764717834667267
237	0x3fc40237d2ac0a4d	0.156317689768985
238	0xbfd6d999b36cf666	-0.35703127405199664
239	0xbfe2f9780dc7b7c5	-0.5929527539390099
240	0xbfe1c8f7571f8d6c	-0.5557820035577783
241	0xbfd165b861f25def	-0.2718335110198202
242	0x3fd2cd1b7e6baa0f	0.29376876207121055
243	0x3fd25aa7f83cddf2	0.2867832111546412
244	0xbfd847d9bcf3e0ca	-0.37938540890128236
245	0xbfc2d01cc3316c76	-0.1469760850039596
246	0x3fcb085d6f2219ca	0.21119277883936
247	0x3fc298b2f86836e1	0.14528500680210413
248	0xbfd0697d52ab4186	-0.25643857072011433
249	0x3fb95d385690da14	0.09907867539809728
250	0x3fd687fdd53fc6be	0.35205026459798805
251	0x3fc98126a2581f69	0.19925387312855072
252	0x3fe17cd4a2ecf2f2	0.5464881117000842
253	0x3fb0d0c7bd72f92f	0.06568573355886963
254	0x3feb168d904bbdff	0.846503049686305
255	0x3fa31e0a70a77763	0.0373385679738323
