offline_resampled_model_testing/model_18.npz (npz, 968553 bytes, 5 tensors)

imat f8 [1569, 50]
000000 8c 5e 23 c0 22 66 a4 3f ac 53 ec 66 b0 f6 c3 3f
       0.03984173388897458 0.15596585298103827
000010 5c 0e 6e 53 d5 b7 c3 bf b0 62 fd f5 f7 6e d0 3f
       -0.15404764722562703 0.25677298567237994
000020 2c db fa 0a 8a 23 c8 3f 20 fb 8f 8f f6 0e 92 bf
       0.18858457122925054 -0.017635204803805427
000030 a8 80 aa 7e c4 ea a4 bf 6c 28 70 a9 18 5b d0 bf
       -0.04085363432136663 -0.2555600790661916
000040 b2 23 e2 e3 3f f5 d3 bf af bf 93 0c b6 39 bb bf
       -0.3118438458846483 -0.10634935195025606
000050 b8 b1 95 13 0f ee d5 bf 6b 7d ac 7c 1f b9 d6 3f
       -0.3426549617058998 0.35504901099371605
000060 72 a2 64 91 78 95 c7 bf a2 9f 58 97 a7 d5 c7 3f
       -0.18424899195931094 0.1862077225680397
000070 50 f2 b9 a2 73 cd db 3f 7e 44 6b 0d ce ff ad bf
       0.4344147767185733 -0.05859226144605943
000080 d6 90 94 09 90 91 cb 3f 40 13 63 1a e4 83 ca bf
       0.21537971942701145 -0.20714999473980278
000090 8c b2 43 90 68 13 d2 bf 42 34 82 2e 78 22 c1 bf
       -0.2824345978577092 -0.13386442442825525
0000a0 a6 ce 18 1f d5 69 d1 bf c0 cd ab 03 3f 92 bf 3f
       -0.2720845035248466 0.12332528915049235
0000b0 f3 b7 55 4c 3a 93 be bf 75 e9 b9 0a e2 a5 bb bf
       -0.11943401683467396 -0.1079999233424241
0000c0 04 69 1d 7b 02 5b ac 3f 82 54 d0 2a 04 55 d1 3f
       0.05538184883944733 0.27081398182901506
0000d0 15 0c 03 7f 57 54 bc bf 60 07 e9 ab 25 23 ce bf
       -0.11066195345760861 -0.23544760603004544
0000e0 7e 17 43 29 2b 72 d5 3f 90 9a 5b 1e 1b 91 82 3f
       0.33509329823970535 0.009065830100962985
0000f0 ee 23 58 c6 0a e2 aa 3f 7c 46 27 e3 5e 31 91 bf
       0.05250581427760169 -0.01678989659723705
000100 88 f7 55 d8 81 83 b4 bf 92 84 bf 8c b6 8f dd bf
       -0.08013164073596901 -0.4618965506070448
000110 7d 6b 1c 71 9e 41 c4 3f 20 6d 87 1b bd 47 cc 3f
       0.15825253031729494 0.2209392914217938
000120 9c 7b 96 2c 6e cf bd 3f 64 79 19 e6 17 38 d0 bf
       0.11644638622827447 -0.25342366667418603
000130 fa 5c 35 f7 b8 38 a9 3f d7 e5 e0 e5 0b 50 c0 bf
       0.049260883499920596 -0.1274428245977066
000140 a2 5d a2 02 c6 5b 9f bf a6 d6 5f d2 b1 c1 ba 3f
       -0.030623525534421277 0.10451804529278749
000150 1f 1b 08 83 fa 5a c1 bf ca d7 42 7e 2a 6c cc 3f
       -0.13558894537001095 0.2220509640225699
000160 1d ce 56 9d 9a 28 ba 3f bc 7a 1b bd 64 91 d5 bf
       0.10218206731115527 -0.33699911563409635
000170 ac e1 83 90 ad 97 d5 bf aa 8b f2 6b d5 36 cf bf
       -0.33738268959816753 -0.24386089106436987
000180 50 17 8a 34 03 f8 d0 3f 02 ea a6 2f 15 ea d4 bf
       0.26513748293688355 -0.3267872777320521
000190 d8 a6 39 83 66 a0 b0 bf 22 8c 24 d4 f4 1e c1 bf
       -0.06494751647701535 -0.13375721319707262
0001a0 40 9a 13 30 f1 f4 c8 bf 4e 2b f9 3b 3b bf a7 bf
       -0.19497504088868034 -0.04638085467430263
0001b0 ae 83 1a b7 1d 60 c3 3f 0f 6f c6 df c5 57 96 bf
       0.15137072983364191 -0.021819202216291574
0001c0 e6 ac de 6f bf 01 a3 bf 9c 55 47 45 99 09 9b bf
       -0.037122709661469064 -0.026403803685601454
0001d0 69 82 60 e4 c3 ca be 3f 8c 4e 56 16 42 67 b4 3f
       0.12028145146951776 0.07970059438076244
0001e0 b7 a2 8d fb 75 83 c3 3f 4b f0 d4 b9 b8 85 c3 3f
       0.15244936735986922 0.15251835893457363
0001f0 1d c1 76 f1 44 4c d4 bf 15 4c ff db 94 6a c3 3f
       -0.3171551092191452 0.15169010870030833
000200 40 fa 3c ab ec 43 c3 bf a2 49 37 28 c0 49 c1 3f
       -0.1505103908657066 0.13506319011373785
000210 71 1e 3e 3b 08 4e b3 bf 82 20 11 4d 56 ba cf bf
       -0.075409426177538 -0.2478740574172243
000220 b2 94 68 7e 58 51 b1 bf 78 49 bd 3d 0a 1c a3 3f
       -0.06764748655457956 0.037323303257511264
000230 14 52 af f6 46 6f ce bf ba cf 53 fc b8 b0 d4 bf
       -0.23777091069372658 -0.3232862915167477
000240 88 d0 12 8a e1 33 bf 3f 2e 68 06 1c 07 85 b3 bf
       0.12188539143500254 -0.07624859270291104
000250 3e c6 9e 46 1a a6 c4 bf 49 b3 46 09 7c 34 b8 bf
       -0.16131905029537735 -0.09455085016697952
000260 1c bc e0 d9 35 56 a7 3f 60 5a 80 5f 40 f8 af 3f
       0.04557960781709644 0.062440883310206585
000270 2f 87 f0 75 77 11 b7 3f 8c 65 0b b5 3a 89 c0 3f
       0.09011026982673508 0.12918790664734237
000280 5d 99 31 4a c9 96 d3 bf 5f 49 62 11 5f 5f d4 bf
       -0.3060782646702103 -0.318321005798813
000290 14 ae 1c a9 39 d8 bb 3f b8 d8 ba 83 5d 5e c9 3f
       0.10876808527671528 0.19819230014917877
0002a0 b8 d5 9a 34 43 23 d3 3f 24 8b 6f 4e 3e e2 c5 bf
       0.29902725350560955 -0.17096690015667904
0002b0 40 2a f7 2c 8d 90 df 3f 44 13 0d 92 36 ce d3 3f
       0.4931977213970278 0.3094612528114349
0002c0 e4 df b4 9c fd 68 a8 bf 13 1e 7c 9e ca 97 c0 3f
       -0.047676015261856525 0.12963230837361603
0002d0 6e 68 e5 39 80 c5 bf 3f 6a bb 17 07 7d be ce 3f
       0.12410737431983573 0.24018824430774127
0002e0 10 35 52 14 74 87 65 bf 7c 73 f7 48 b2 be 9d bf
       -0.0026280657935503562 -0.02904776163437671
0002f0 a6 c4 e2 43 72 82 c7 3f 58 26 65 22 1f 82 96 bf
       0.18366840662705392 -0.021980749582587528
000300 54 18 6a 4f 96 bf bd 3f 8c 26 e9 a0 51 05 d2 bf
       0.11620463789776753 -0.281574637545966
000310 48 88 6e 92 15 d9 c1 bf 46 0c cc 8d 93 ef b8 bf
       -0.13943738603581068 -0.09740564548342076
000320 ae 42 ed de 52 ab b1 bf ca 41 d5 cc e6 f6 ca bf
       -0.06902044241474911 -0.2106598377381615
000330 83 a7 75 ee 6f e2 c5 3f 35 bb 60 c7 0b e9 ca bf
       0.17097281592878852 -0.2102369998478594
000340 4f ec 64 63 72 6e 9f bf 51 a7 f6 77 22 82 cb 3f
       -0.03069475871710053 0.21490889413444816
000350 2e d6 2a 91 bc a0 c8 3f 5d 29 65 80 f3 02 c0 3f
       0.1924052914452416 0.12509006280226745
000360 5c 0b 14 ca 1e 21 87 3f 20 7e 99 7e 71 38 c9 bf
       0.011293640653553254 -0.197035013977243
000370 d5 ca 52 5f e9 d8 d7 3f f6 fb f8 4e c3 a9 dc bf
       0.37261423405577193 -0.44786150657813495
000380 64 36 c7 38 72 a8 c5 bf df 8d 96 e2 b4 8c d1 3f
       -0.16920306942340624 0.2742130482458531
000390 87 0a 2e 97 93 7d a6 3f 08 ea 5c 21 a2 4f b3 bf
       0.043926822857447916 -0.07543385805630731
0003a0 24 82 49 3a e4 6d dc 3f ca 66 53 c3 a3 b1 e0 bf
       0.44420724575141635 -0.5216845335919171
0003b0 0f cf 49 2b 78 27 ce bf fe c7 22 21 fa ed a7 bf
       -0.23557951081931391 -0.04673749594202546
0003c0 cb 75 ec 19 0d c3 c5 3f 70 56 e5 3f fd 6e d1 3f
       0.1700149895267898 0.2723992465956604
0003d0 42 6a ab 65 2f ab b8 bf 16 f5 d8 ba 6c 6d cd bf
       -0.09636207801978805 -0.22990187762653908
0003e0 70 44 4b c2 29 15 cb 3f ec 05 f0 53 0d 10 ba 3f
       0.2115833471966968 0.10180743502862527
0003f0 2f ba 6d 66 40 1d c7 3f 10 fc a4 dc 06 bc 7b bf
       0.18058018685720031 -0.006771113209025806
000400 5a 67 85 2d 60 61 b4 bf f3 50 75 20 35 ae c9 bf
       -0.07961083518366988 -0.20062889180065432
000410 76 98 6a ae c3 69 ab bf 60 95 28 e2 d3 3f b9 bf
       -0.05354129318338689 -0.09863018294762105
000420 61 98 06 81 7d 93 c4 3f 29 1a 16 fe 62 f3 ad bf
       0.16075104522787156 -0.0584975180782304
000430 a4 b1 94 c2 6d 90 ae bf c2 76 a1 d9 7a aa c3 3f
       -0.059695653917830854 0.15364013315677566
000440 e2 85 f9 ec e8 4f b5 3f 79 e2 7a 10 95 3b b8 bf
       0.08325057778849712 -0.09465915348381228
000450 86 e6 ae 45 a0 e5 b4 bf 74 ca 60 25 26 b9 c0 3f
       -0.08162881566286204 0.13065029931165706
000460 6c 88 d6 6c 5c cb b3 bf fc eb bf 50 66 4e 87 3f
       -0.07732179314783288 0.011380004252705682
000470 e6 ef 0f 28 fe 46 d2 bf 2d e2 fa a9 95 d2 ce bf
       -0.2855830565674736 -0.24080153274350505
000480 26 9b 2c 76 cf 95 8d 3f 4f 60 1e 09 2b 97 c5 3f
       0.01444589690579574 0.16867578454253127
000490 61 85 de 9f ea 29 d3 3f 9c 1e fc 24 81 41 cb bf
       0.29943338024357585 -0.21293653779888622
0004a0 ed 91 61 b4 d4 1c c2 3f df e3 65 37 b1 88 93 bf
       0.14150484855339532 -0.019076127058244793
0004b0 35 80 5e 6c c9 86 ae 3f 9c e0 7b 44 69 59 bf 3f
       0.059622091749816176 0.1224580566594135
0004c0 ec eb 0b e6 93 51 ba bf 30 99 70 4d a2 33 ae 3f
       -0.10280727735873513 0.058987686112504156
0004d0 83 c0 61 20 2b 48 a2 bf 3f 42 fa 1a 5a 1f d0 3f
       -0.03570685167585543 0.2519135726406922
0004e0 ea 37 c4 08 0b b0 be bf b0 5a da 08 5a c6 90 3f
       -0.11987370456719729 0.01638165167841049
0004f0 cf b8 e4 4c 1f 65 b0 3f 5b bb 89 d2 ef 1e 98 3f
       0.06404300334245082 0.02355551455041947
000500 40 ad c5 85 dd ff be bf 30 b9 fd 65 02 32 95 3f
       -0.12109169498369443 0.02069858310226741
000510 ce fe d7 a8 12 ed d3 bf 7a 6f d2 63 f9 80 ce 3f
       -0.3113447808136528 0.23831097959634545
000520 e5 be cb 96 d3 4b d2 3f 72 9b db 09 a5 90 c1 3f
       0.2858780834785491 0.13722670537319065
000530 b4 4f d7 0b 55 f2 89 bf 2e 0e 34 33 f0 06 a0 bf
       -0.012669243263111564 -0.03130293488541401
000540 a8 2c c8 c7 7f 5b d0 3f 3f 75 cb 13 83 08 b1 3f
       0.2555846644397186 0.06653613312979177
000550 da 62 6f ab 99 10 d5 bf 0c 08 1d 1f 16 de b6 bf
       -0.3291382002039832 -0.08932626971821395
000560 3f 5c 96 a0 27 38 b4 bf b0 2b 41 c4 75 55 9c 3f
       -0.07898185415830115 0.027669754126957435
000570 1c c9 e4 97 23 3c d0 bf e4 a0 1d e4 b3 ea ac bf
       -0.2536705954872944 -0.056478139492186746
000580 fc fa e0 9a 3f 4a d1 3f c8 6c 39 70 29 36 9f bf
       0.27015676617513384 -0.030480048632267637
000590 f1 10 d1 b9 59 1f bc bf 5e 7a 82 ad 3f bf ba 3f
       -0.10985337053813617 0.10448072420192875
0005a0 34 3b 6a 16 91 fa b1 3f 3c 0e 71 51 a1 1b c7 bf
       0.07022959515800836 -0.1805307052292039
0005b0 4c cc c2 bf 10 b7 da 3f e4 45 69 36 dc 71 80 3f
       0.4174234268822985 0.008029671106814136
0005c0 5a 90 a0 15 80 e1 9c bf 50 d3 9b ae 07 83 c8 bf
       -0.028203965492267315 -0.19149871850791067
0005d0 68 7d 69 b2 25 b1 9f bf cc 94 c1 11 6c ca b6 bf
       -0.03094920064392906 -0.0890262168264428
0005e0 0c 08 94 ec 2c d4 d3 bf cf b8 94 4e 8d e6 90 3f
       -0.3098251638731433 0.01650448600883508
0005f0 85 1f 71 af 85 fb b5 bf 7f a5 2d b4 09 e8 d3 bf
       -0.08586917432069015 -0.31103746982133623
000600 9a 47 84 92 3b 30 c0 bf c0 38 ba a5 06 e5 a3 bf
       -0.1264719453252468 -0.03885670445480249
000610 e2 6c 37 0c 53 85 d5 bf bb 04 13 f6 3b 76 d0 bf
       -0.3362624759008225 -0.25721644430820917
000620 50 b2 7c c4 dc 77 bf bf d8 10 3c 21 5e d7 d8 bf
       -0.12292270466850508 -0.3881450008923486
000630 6c 51 4c 6c 08 2d ba 3f 46 39 bc 64 60 4a c1 bf
       0.10224964756009108 -0.13508229178155257
000640 d0 1b c0 0e db 38 a0 bf 30 b9 d2 d7 85 84 ac 3f
       -0.03168377451952831 0.05569856891212266
000650 e9 13 35 94 5f ae d0 3f 86 03 67 b3 b2 6e cd bf
       0.2606429049813515 -0.2299407363880414
000660 73 2c 5e 1d 50 c3 d5 bf 2c a5 56 d2 de 67 ab bf
       -0.34004595630603446 -0.05352684323890808
000670 16 0c ce 4c e2 1a d1 bf 37 26 ba ba c1 ce cb 3f
       -0.267265868191488 0.2172472154382363
000680 b3 b2 1c be 77 e7 a2 bf 30 54 62 53 aa 11 ac 3f
       -0.03692220874504439 0.05482227580902366
000690 c0 58 0a 53 23 cb 6f bf 81 2f b0 86 3a 6c dd 3f
       -0.0038810434273940098 0.45973075059077223
0006a0 7f 7d b9 36 ac f5 92 3f 85 11 00 42 eb e4 ca bf
       0.01851529201519275 -0.21011105272931388
0006b0 3b 3b c1 15 67 69 d2 bf 40 07 69 89 5e 9b cd 3f
       -0.28768326878064315 0.23130399426923454
0006c0 de 84 60 2a a6 45 d4 3f ef 01 da fc e0 ea d8 bf
       0.3167510427320631 -0.3893358678106144
0006d0 4d 6f 31 20 da a5 e0 bf 4c 63 4a 53 f3 53 c6 3f
       -0.5202456120273183 0.17443696562693345
0006e0 e4 49 22 6c c7 d2 c0 bf ce 5b df b3 69 5c c9 bf
       -0.1314324644086603 -0.1981327179225602
0006f0 c2 44 7b 84 c5 75 9a bf e5 f9 5a 49 be 66 dc 3f
       -0.025839887820272585 0.44377095378504655
000700 b2 b9 53 4c 17 3a bb 3f a0 8f b8 11 69 1e ce bf
       0.10635514844373153 -0.23530305257110928
000710 90 dd da 54 bc a3 ba 3f 04 4c 07 8e d2 82 c6 3f
       0.10406090804723633 0.1758673852442315
000720 94 c5 1d 2a 6e 0c b7 3f 7e d3 af b0 79 ea cd 3f
       0.09003342178563961 0.2337181198814981
000730 18 42 98 78 08 f1 d2 bf c7 33 e5 5b c4 ff b5 3f
       -0.2959614923175038 0.08593394511736029
000740 9a c3 91 1a 3e b0 b3 3f 2d 94 39 83 3a e3 d9 bf
       0.07690799854914446 -0.40449393095906566
000750 48 cc 78 49 fd 57 c4 bf d6 64 e7 04 a3 0a d5 3f
       -0.15893522346013556 0.3287742183579899
000760 c4 71 f8 1e 1c d3 c7 3f ca 53 25 36 bf 1b c9 3f
       0.18613006126623877 0.19615926879728668
000770 bf f5 a8 d3 28 68 b0 bf ce b0 ca cb 21 d5 d3 3f
       -0.064089347529225 0.30988354589022726
000780 7d 66 28 1d 9f 89 ba 3f 0e 6b f1 cd d7 3c d7 3f
       0.10366243802891435 0.36308856116890886
000790 d6 6b 35 46 de 00 ba 3f 75 ae 72 f1 1e 85 cc 3f
       0.10157574857787152 0.22281252660228615
0007a0 a0 e6 8e e7 72 fd d0 bf 94 75 e7 76 ea b4 a8 bf
       -0.2654692899046527 -0.048255278601327195
0007b0 c7 07 78 fd e6 a0 a9 bf 50 22 d7 33 07 98 e0 bf
       -0.05005571216680909 -0.5185581219203161
0007c0 f0 db 9d 69 b9 65 c0 3f 08 27 8a 05 04 31 c5 3f
       0.12810437829077115 0.1655583407448875
0007d0 4b c1 d8 22 56 79 cc 3f d8 77 4c 72 89 bc d4 bf
       0.22245289517878528 -0.3240073791692999
0007e0 b2 f9 4c 8f c6 9c d6 bf 04 60 9d 66 17 ef b1 3f
       -0.35331882471282505 0.07005449538462477
0007f0 a3 99 57 18 3d 7e c8 bf a1 10 67 09 c3 65 c2 bf
       -0.19135249794562723 -0.14373052558051305

gbias f8 []
000000 b5 36 f9 92 18 3e 0c 40
       3.530320308905028

ibias f8 [1569]
000000 3c 2d 15 7c f8 19 e8 bf 08 30 67 dd bd 1d d9 bf
       -0.7531702445498136 -0.39244028684038357
000010 8c c7 9c d7 17 4e c6 bf eb 03 56 6c 47 b7 b3 bf
       -0.17425821330976665 -0.07701536555215653
000020 aa e7 0b 89 af 73 f0 bf a9 c2 7f 85 80 ca bf bf
       -1.0282435754183816 -0.12418368586782925
000030 e2 74 34 ce 56 04 da 3f b1 bd c3 5f 1f 03 c3 bf
       0.406514836666089 -0.14853279281622414
000040 4d d7 3a 57 22 ad b3 3f 41 11 86 1f f6 d0 d9 3f
       0.07686056737551646 0.40337899282919315
000050 54 1d e1 87 54 49 c3 3f a5 c3 4d ea bd 44 96 bf
       0.15067536005720206 -0.02174660437180233
000060 0e 3a 55 d8 56 14 bb bf 10 35 a5 15 7f f5 ea 3f
       -0.10577910214963301 0.8424678251991811
000070 ba 54 37 56 6e 31 e6 3f af 02 37 92 fe 76 e8 3f
       0.6935340579899709 0.7645256858596293
000080 e5 52 c1 13 8c 6a e1 bf fe 14 e5 57 9f ea d8 3f
       -0.5442562471240221 0.3893202169750366
000090 e4 9a ea 08 b1 07 d8 3f 56 dd f4 8a cd e8 d7 bf
       0.37546945448631974 -0.3735841614720433
0000a0 fe 96 57 76 31 1b da bf 50 2d 16 39 d9 7b dc 3f
       -0.40790974194383967 0.44505911421648126
0000b0 9d d8 d6 44 f6 b9 d7 3f c2 e2 a7 ce cc 28 e1 3f
       0.3707252189882498 0.536230472206704
0000c0 17 56 5a ab 9a f4 d9 3f f0 67 0b 73 3e e1 da bf
       0.4055544541709834 -0.4199977992517452
0000d0 9e e1 49 7e e1 35 dd bf 11 24 34 b9 35 2e e3 bf
       -0.4564136250769709 -0.5993908517131122
0000e0 92 ba 41 e6 ef 1c 4b bf dc 5e 44 46 33 11 e1 3f
       -0.0008274241813646824 0.53334964489019
0000f0 73 b3 b9 8e cd 90 d7 3f 56 13 14 37 78 92 8d bf
       0.3682130712320976 -0.014439524823055255
000100 2e 7d ca 9e 60 1e d6 3f 96 e3 59 b8 71 ae e5 3f
       0.34560409075671117 0.677544460354613
000110 d6 04 7e d8 30 76 e0 bf 2b 8a 97 cb 3e 5c d2 bf
       -0.5144275883068541 -0.28688020593668523
000120 88 a9 db 7c 37 61 f1 bf eb 3e 09 9e 34 05 e6 3f
       -1.0862345578449055 0.688135441459932
000130 62 9e c3 91 6f cb ca 3f 7a 81 fa 2f 63 5c c7 bf
       0.2093333684672301 -0.18250694124891337
000140 65 18 4b 29 8a 0e d1 3f 31 9c 4b fb 6f 11 cd bf
       0.26651243240883665 -0.22709464807778226
000150 ef 73 e3 a7 a7 d5 d1 3f 33 a5 7e 83 08 a1 cd 3f
       0.2786654605422986 0.23147684498443652
000160 f8 20 8a be f7 d8 bf 3f d9 17 76 43 90 4e dd bf
       0.12440441514820921 -0.4579201372911235
000170 5f fa 76 a3 5e fb c2 3f 1c 6e 3c 82 1b ce b6 bf
       0.14829619390180235 -0.08908245019522848
000180 7a d0 61 d2 04 0e e0 3f f4 1b d7 27 9f 28 f3 bf
       0.5017112835908073 -1.197417407632881
000190 3c 1d 33 46 76 9d c7 3f ee 82 54 13 68 cc cf 3f
       0.18449285915105829 0.24842549270490316
0001a0 c9 bc af 39 f0 28 e2 3f 42 e2 b5 6e 04 79 dd 3f
       0.5674973608674004 0.4605113106877391
0001b0 5d 36 71 81 5c 59 c6 bf 5c c5 5c 76 53 3b d4 3f
       -0.1746020919840018 0.31612097319437793
0001c0 dc ad 90 58 8c 8a bb 3f d5 c9 0f f6 58 4f cb bf
       0.1075828281615751 -0.2133589936707511
0001d0 28 95 27 2b e9 cc b9 bf 86 a2 f4 94 5b 19 e7 3f
       -0.10078294089870055 0.7218454274453314
0001e0 29 6c 99 3a df 1c f8 bf 4e 85 e1 9f 6c c8 da 3f
       -1.5070488251719871 0.41848292935727194
0001f0 86 87 50 6e 6f 08 e1 3f 3f 4c a4 2b 10 87 d7 3f
       0.5322796969014554 0.3676186014355984
000200 70 56 2d 94 c3 aa eb bf fa c2 72 3a 87 d6 a1 3f
       -0.8645952123722065 0.03483984554748605
000210 83 76 73 a5 c5 d3 df 3f 12 ed aa f6 9f 92 b9 3f
       0.49730054051710953 0.09989356777343897
000220 a3 07 f2 45 95 0e e8 3f b2 4f 0f 74 3f b6 e8 3f
       0.7517801633950864 0.7722470537942085
000230 58 e2 16 27 e9 9d e0 bf ef 53 6b 06 90 43 c2 bf
       -0.5192762149300263 -0.1426868468612663
000240 e0 98 2b d1 66 2e dd bf 55 0f 15 99 13 d7 d2 bf
       -0.455957130687592 -0.2943772311157223
000250 57 30 40 81 cd b7 cb 3f d0 7e cd 6a f2 36 b8 bf
       0.21654671488829777 -0.09458842380035581
000260 f2 d8 cc 33 9a 3e ee bf 8e 00 b1 4f f3 b4 72 3f
       -0.9451418887827272 0.004567099032158363
000270 08 04 fd 63 2d 89 ec bf 8f 15 18 23 3f b2 c1 3f
       -0.8917452767274208 0.13825215543344568
000280 ba 9b f8 8f 41 34 ce 3f 1e 4f 54 98 b9 d8 86 bf
       0.23596972970810076 -0.01115555759546499
000290 58 45 35 b0 33 3b e6 3f fd 35 b6 83 32 14 b8 bf
       0.6947267953457112 -0.09405818668002293
0002a0 0e d1 8a b9 1c 02 b6 3f 6d 44 c4 94 6f a8 da 3f
       0.08596972970810077 0.41653050926203755
0002b0 65 cc 3d bd 45 b6 af 3f 89 07 91 a8 4b ad dc 3f
       0.06193750319553074 0.44807712041448916
0002c0 eb 60 80 66 a6 9b ea 3f f3 f9 45 f2 13 6e e7 3f
       0.8315002443296441 0.732187245550277
0002d0 89 58 bc 5e 60 c3 d6 3f e6 4c 72 03 13 51 bb 3f
       0.35567483188186394 0.10670584520476076
0002e0 30 aa 26 d2 81 f9 e3 3f 27 eb e2 ec 6d 90 9e 3f
       0.624207411242713 0.029847829421423413
0002f0 64 48 24 7e 2d 11 cf 3f 11 d0 de 10 04 b1 d2 3f
       0.24271172198547497 0.2920541920423157
000300 17 a4 e7 2a a0 51 4d 3f fa cc 70 76 b9 eb c8 3f
       0.0008947403019280456 0.19469373973115706
000310 b9 40 aa 94 24 bb e4 bf bc ef d8 74 9e 5a cd bf
       -0.6478445914854297 -0.22932797151031348
000320 b0 a0 41 9b b9 9a c6 bf 0b ae 9c a9 2a 39 94 3f
       -0.1765968330466925 0.019749323465630336
000330 24 8e 55 93 f4 75 bb bf 5f 34 cf 91 87 0a c1 bf
       -0.10726860615755435 -0.13313383693312894
000340 ea a4 67 bf 69 06 d7 bf 18 7a 60 a3 0e e0 dd 3f
       -0.3597664231479728 0.4668003650166681
000350 f8 34 50 d3 51 0f b6 bf 09 d3 b2 cb 9f 9a b6 3f
       -0.08617125901237788 0.08829687808140475
000360 13 35 6d 35 ea 0b b1 3f 90 47 bc d4 31 55 e5 3f
       0.06658805660591254 0.6666497378339376
000370 0e 4f b1 84 46 2d c1 3f 54 8c 04 78 c9 a8 f0 bf
       0.13419419745570632 -1.0412077606386179
000380 e1 12 f2 6d d0 d9 e1 bf 32 0f cc 72 87 49 ba bf
       -0.5578386447310458 -0.10268446495689146
000390 69 2b 24 16 a3 62 d4 3f ac f4 c3 63 b8 1f e6 bf
       0.31852032816157433 -0.6913721035522449
0003a0 9d b6 69 fe a7 7e b7 3f c2 6e a7 55 3b 77 b2 bf
       0.0917763706326817 -0.07213183251536306
0003b0 95 cd 20 0f 73 e6 c7 bf 8c c2 d7 a4 7a 8d e1 3f
       -0.18672025908163606 0.5485203952394655
0003c0 eb 5d 54 78 01 11 e8 3f eb f5 b9 d9 9d 50 f1 bf
       0.7520758962809259 -1.0821817879617537
0003d0 79 e7 95 61 ba b3 d8 3f cd af 7f 4d 46 89 dd bf
       0.3859697297081009 -0.46150357788314694
0003e0 8e 9b ab 83 a7 97 d8 bf 17 c5 48 80 97 8c b2 bf
       -0.3842562471240222 -0.0724577606386173
0003f0 9a 5a d5 a6 e0 7b e2 3f a4 64 2b 3c 52 81 ad bf
       0.5776217707123863 -0.05762726768961926
000400 48 37 a4 13 e9 cb d6 3f 79 c2 66 73 f4 a3 d6 bf
       0.3561957065402237 -0.3537570120779843
000410 7e eb 4e 2d 7d 64 6f 3f 7c 2b 24 16 a3 62 d7 3f
       0.0038320965636250972 0.3653953281615754
000420 ef 6f e6 f6 6f 70 e7 3f 0d 08 fa c7 5a 12 d9 bf
       0.7324752638119189 -0.3917452767274206
000430 23 62 8c 22 9f 4b d1 3f 58 05 2a 88 f4 21 cf bf
       0.2702405774485063 -0.243223730551146
000440 3c 2d 15 7c f8 19 e8 bf fe 5e 55 87 62 d0 d9 3f
       -0.7531702445498136 0.40334380355987764
000450 01 e8 b8 19 b1 25 a2 bf 97 5a d1 72 db 7e d2 bf
       -0.03544381560318755 -0.2889927502887217
000460 17 3a 0f dd d9 69 db bf ed 71 7b 01 81 fa e7 3f
       -0.4283356341155992 0.7493290928792341
000470 db 4d c4 17 64 01 c2 bf 46 2e 6c dc fe d4 d3 bf
       -0.1406674495743648 -0.3098752167286175
000480 aa ca 6d d6 24 32 c8 bf cf af 7f 4d 46 89 d5 bf
       -0.18903027029189917 -0.33650357788314705
000490 65 e5 b5 1e e5 8d cc bf bf 12 93 9b a0 49 d7 bf
       -0.22308029174363778 -0.3638688582689546
0004a0 c0 b3 e9 e2 99 f0 e5 bf 8f e8 ec 53 fb 7d e1 bf
       -0.6856202537434157 -0.5466286315124921
0004b0 ea 26 fe 63 10 8d e3 3f 0d 19 d2 70 ff 45 c6 3f
       0.6109697297081003 0.1740111637956904
0004c0 47 f8 fe 98 52 61 ec bf 1b f9 2a e8 c1 ac ce 3f
       -0.886880205936685 0.2396471389419695
0004d0 40 28 19 8c a9 92 c1 bf ae 2d c1 00 be 94 cc 3f
       -0.13728827801452503 0.22328925167890418
0004e0 85 8d c3 9d d4 3c dd 3f ec 85 7b 29 16 bb a2 3f
       0.4568378010428307 0.03658360725763629
0004f0 82 74 16 7b 9e a8 d2 bf 74 4c a0 25 37 9f c7 3f
       -0.29154169101986593 0.18454636895384946
000500 0a 70 a6 26 91 cf e2 3f 9a a7 b6 ad d8 13 c7 bf
       0.5878377680669484 -0.18029316408256763
000510 47 95 78 57 87 a0 d4 3f cf c4 02 e8 0a 3f e0 bf
       0.3222978929719215 -0.5076956302129022
000520 43 d2 59 a0 11 9d dd 3f 71 56 2d 94 c3 aa e7 bf
       0.4627117219854748 -0.7395952123722066
000530 da 1e b4 c4 e7 8f da bf ea 9f 37 20 c5 6c d7 bf
       -0.4150332852300217 -0.36601379533976675
000540 57 7e 05 c5 0a 9c b7 3f 0e 40 1a b6 af 46 ca bf
       0.09222476301283088 -0.20528217689252454
000550 b4 51 31 51 7b 07 cc bf 47 5f 30 d5 b5 02 ba 3f
       -0.21897832359776503 0.10160385565575068
000560 22 94 e3 b9 23 73 d7 bf b9 c9 72 29 51 b8 d9 bf
       -0.36640256074162114 -0.401874819256729
000570 93 74 b9 64 2d a9 d3 3f 95 68 7a 6a 59 2b ce bf
       0.30720076404924973 -0.23569791506890128
000580 88 59 48 9b 3c 14 8c 3f 66 61 af ad a2 fd ac 3f
       0.013710473526810998 0.056622585012237533
000590 ea 78 d1 5d e8 53 c9 bf 33 83 52 da 6b 31 b3 bf
       -0.19787315922707843 -0.07497285919317846
0005a0 51 7c ff 59 2a 34 ed bf d8 4d c4 17 64 01 c2 bf
       -0.9126178510449653 -0.14066744957436472
0005b0 fa 42 8b 4b e2 6a c6 3f 13 bc 61 43 af 1b d6 3f
       0.17513683975860045 0.3454397352242619
0005c0 92 ba c3 f5 4c a9 d5 3f 03 07 14 8e d8 66 e8 3f
       0.3384582901043497 0.7625544333425015
0005d0 81 0f a2 6a a4 36 dd 3f 5c 34 c0 1e 2e 1a c8 bf
       0.45646009839423846 -0.18829895497802596
0005e0 89 87 56 71 af 0a eb 3f f4 73 57 61 76 eb bc 3f
       0.8450543607361719 0.11296787144188142
0005f0 85 8c 62 3b aa 6f d3 bf 65 f4 7a 1b 48 89 ad bf
       -0.303690488808748 -0.05768800101712016
000600 5f 1c 0c 99 c1 59 b1 bf 2d f3 c1 4d 52 56 d8 bf
       -0.06777582155710736 -0.3802686461784102
000610 a8 8e 0b 92 42 16 d2 bf c9 e8 8f d3 2f 7f e2 3f
       -0.28260864507886163 0.5780257350991401
000620 f2 9b 4a da 2d ac e1 bf 92 ac 12 a2 33 07 dc 3f
       -0.5522679580216148 0.43793955638347726
000630 d0 1f d4 9d 21 0b d9 3f 71 56 2d 94 c3 aa e5 bf
       0.39130440152120816 -0.6770952123722066
000640 f5 23 62 3c 75 e0 c3 3f 75 50 c6 0e b4 4e da 3f
       0.15528741310507113 0.4110536712917175
000650 84 ff ae 64 4f dc e3 bf 3f 5c 73 c7 d4 e9 d2 3f
       -0.6206433264232918 0.29552192189789034
000660 ed fc 0a f7 79 70 e0 3f 0d c7 b4 b2 04 b4 91 bf
       0.5137300324494426 -0.017288278014524972
000670 46 13 a8 de b0 d8 e2 3f df 25 86 46 2c ec e2 3f
       0.5889515255699755 0.5913297059461761
000680 13 51 21 d6 f6 76 d3 3f 5c 97 8b d6 3b 4c b4 3f
       0.3041359988321954 0.07928823459550699
000690 06 a7 96 fd 83 96 e9 bf 3d 47 13 b4 17 14 d3 3f
       -0.7996234848880881 0.2981013544605167
0006a0 d4 e4 ac a6 f1 f2 d3 bf c0 c7 fe 9b 9c 1a d6 bf
       -0.31170312191859506 -0.34537425264272414
0006b0 d2 04 7e d8 30 76 e0 bf 09 40 a1 f5 2c 64 b0 bf
       -0.5144275883068536 -0.06402855870078396
0006c0 02 e8 b8 19 b1 25 a2 bf 46 5e 31 f1 b9 d3 bc 3f
       -0.03544381560318756 0.11260568750855623
0006d0 f1 c3 ac b5 63 07 d4 bf a4 ea 7b f4 53 8f d2 bf
       -0.3129510187309839 -0.2899980437793295
0006e0 94 79 2e e7 0c 6b d0 3f 84 23 0a d8 8c 1d d6 bf
       0.2565338380462887 -0.34555359933488483
0006f0 26 4b b4 90 c1 bb d4 bf bc 51 31 51 7b 07 cc bf
       -0.32395972377087145 -0.21897832359776526
000700 7a b2 7f 7e 14 fb d4 3f ab b8 2e 81 9a c0 e1 bf
       0.32782471040153605 -0.5547611735435302
000710 91 82 6a d1 4d 6f e9 bf e1 f0 22 cb c1 db a1 3f
       -0.7948369112164803 0.0348797378987642
000720 a0 6d 4f 71 9f a9 c8 3f bc 56 3f a4 1a 67 c8 3f
       0.19267647774436814 0.19064648647206706
000730 c6 89 55 7d 57 3a cf 3f 8a 93 ac bb 32 74 b5 bf
       0.24396794910269487 -0.08380429345977639
000740 28 9c bb 0f 0e dd d1 bf 58 c0 23 f4 a3 7b ec bf
       -0.2791171220437172 -0.8900928276398288
000750 a1 18 09 f0 92 51 e2 bf 64 25 5b 6e b9 2f d7 bf
       -0.5724577606386171 -0.3622878625579544
000760 8c 1e 5e 14 c2 1a e4 3f dd 2e 89 5b 5f 41 c9 bf
       0.6282663724714026 -0.197307510085344
000770 ab f4 c3 63 b8 1f e6 bf ee b5 43 f9 55 ff d9 3f
       -0.6913721035522448 0.40620946256862467
000780 0e 0a 83 b8 eb e4 bf bf ff 11 ff ee 19 cf d2 3f
       -0.12458680395779018 0.29389046039094063
000790 7a 35 c7 52 3c 11 be 3f 19 c1 91 d0 f2 eb 9a 3f
       0.11745049496604124 0.026290697078764944
0007a0 65 d9 29 9f ea ee e9 3f 18 e1 08 2f b5 0a d4 3f
       0.8104146107350912 0.313153549129781
0007b0 dc f2 3c 70 29 f8 b0 bf bf 6f 76 10 ca d8 e3 bf
       -0.06628664961040037 -0.6202135392700184
0007c0 3c 61 d1 80 80 d6 c3 bf c0 6d 35 1a 6f 7f c2 bf
       -0.15498358049331695 -0.14451397685739487
0007d0 a7 18 09 f0 92 51 e4 bf 3e ed 43 32 4f 35 e0 3f
       -0.6349577606386178 0.5065074903244875
0007e0 21 0c a7 14 6a 13 d9 3f d0 c8 ce 86 bc 61 e5 3f
       0.3918099595723011 0.6681807167972469
0007f0 15 31 a3 b8 71 8c d5 bf eb bc 8c ac af 91 92 3f
       -0.33669703513148025 0.018133873850442333

umat f8 [942, 50]
000000 68 ca 13 36 df d1 d2 3f 28 26 74 0a fc f8 c8 bf
       0.29405956536280664 -0.19509840498385356
000010 ff 49 a0 07 4e 71 cc 3f 48 f6 32 d2 68 5d b7 3f
       0.22220778820390305 0.09126906520665401
000020 bb d1 25 21 a7 f3 b6 3f b4 73 3d b6 2e 61 c8 3f
       0.08965534743567265 0.1904657735675791
000030 c8 c9 b5 e8 92 55 d0 3f 5b 3c b8 50 10 df c0 bf
       0.2552230141219778 -0.1318073648585337
000040 b0 10 ab 81 81 34 bc bf 6c 57 c6 e4 8f ac c2 bf
       -0.11017617622116194 -0.14589117689746034
000050 80 34 e4 c8 11 02 3f bf fa 4a fa 2b a1 03 89 3f
       -0.00047314581105768055 0.012213954119294258
000060 e4 fb 29 ca 8d e7 be 3f d2 85 77 57 83 b4 b1 3f
       0.12072073159832503 0.06916066060468687
000070 3e 79 02 e6 77 1c b0 bf 70 55 ca 68 4e e5 be bf
       -0.06293439259977604 -0.12068643625601339
000080 4d c7 69 02 f5 1f b8 3f 82 72 89 c8 cc 07 94 3f
       0.09423762616077376 0.019561004390527
000090 22 a9 0a d1 1f 8d c8 3f 5e 01 36 b0 42 ca ae 3f
       0.19180677134620178 0.060136875162245515
0000a0 98 72 3c 8f 52 74 cf 3f d8 38 d1 3c 7a 0e b3 bf
       0.24573738092376085 -0.07443965897366256
0000b0 b4 e6 86 10 79 b3 c9 3f fd 95 d7 61 1f 00 cf 3f
       0.20078957850437507 0.2421912410492694
0000c0 c0 09 ca b6 82 a0 d9 3f 67 c9 12 ad e5 ea b0 3f
       0.40042178965100206 0.06608424640106635
0000d0 32 74 02 82 da 53 bb 3f a0 0a 6b 4b e4 d6 b8 bf
       0.10674825357496401 -0.09702898827803574
0000e0 20 bb d8 e5 e8 ee 96 3f b8 3c 64 73 2b b5 a1 bf
       0.022395743397448986 -0.034585340343363524
0000f0 41 05 8a 37 a3 b6 d0 3f ee dc 78 84 29 2c c5 bf
       0.2611473123907509 -0.16541022270551003
000100 c2 a8 8c 08 55 f9 d0 3f 44 7a 92 ff 9a 5b 73 bf
       0.26521802744776946 -0.004726033651563603
000110 28 09 75 6d ef 9b a6 bf 7f bd 8c 7f 2c a2 b3 bf
       -0.04415844164988619 -0.07669332612998934
000120 20 18 c8 61 e8 ea aa bf de d6 72 c4 da 14 c2 3f
       -0.05257345384238499 0.1412614306661259
000130 b5 9c 60 54 4b 00 b6 bf cc 15 1b a1 86 a7 a2 3f
       -0.08594198999400045 0.03643437115310241
000140 00 1a 3d e5 4e 90 2a bf 12 3b 07 da a6 97 a6 bf
       -0.00020266497687711216 -0.04412576114156343
000150 30 e1 d8 62 7f fc cf 3f b8 76 2c 4c 0c 11 c9 3f
       0.24989311529658087 0.19583276481073653
000160 5a 9b f0 e6 11 85 ac 3f 08 35 b4 5d 6a a7 c9 bf
       0.055702742997076185 -0.200421615365862
000170 77 db 0a a7 b9 a6 c5 3f a0 ee e5 70 f7 1c b5 bf
       0.16915054947250116 -0.08247324472716366
000180 11 5c 74 22 e1 d0 d4 bf 68 15 cb 58 b0 14 83 3f
       -0.3252489887685793 0.009316804609066323
000190 c2 ec cf ab f6 6b ce bf 82 6e 7a f3 95 f6 a8 bf
       -0.2376697863508977 -0.04875629994532195
0001a0 c8 9d c6 2d ea 7a b3 bf c8 b3 11 c3 3d f8 a0 bf
       -0.07609428041052191 -0.033143930494453466
0001b0 68 e8 44 db e2 52 cd 3f 90 85 3d 3f ca 45 c6 bf
       0.22909198481085302 -0.17400482261568273
0001c0 58 74 1d 44 64 66 70 3f f1 5e cb dc f3 cc c4 bf
       0.004003898300507812 -0.1625046566102735
0001d0 bb e5 89 a7 f9 68 ca 3f ee 76 98 62 5a db a0 bf
       0.206328589254367 -0.03292353108939304
0001e0 75 7f 62 7a e2 87 d7 3f 20 94 22 6a 66 1a c3 bf
       0.36766874267231425 -0.14924316580177877
0001f0 20 36 da 6f 6b 22 94 3f 7e e4 4f 91 0f f5 b8 3f
       0.019662550641944887 0.09748933122308931
000200 e8 79 b1 16 39 c7 d8 3f a8 69 ec da 21 44 8f bf
       0.38715960708751007 -0.015266670697703003
000210 47 31 52 d8 a0 4c c3 3f 18 09 de 49 f9 e7 89 3f
       0.15077601015617345 0.012649486128570461
000220 54 4c 6b b8 3d 8b aa 3f b3 86 cd 79 25 09 a9 bf
       0.05184357525072217 -0.04889790641642602
000230 40 dc 3b 77 de 7b 88 3f ed a7 2d fc 96 ac c2 3f
       0.011955011380889613 0.14589202226062473
000240 a0 9b 91 77 c7 0c 75 3f b0 0d 57 b3 2d a1 aa 3f
       0.0051391402895210325 0.05201094450196864
000250 84 c2 51 c4 1f 14 bd 3f 78 a9 80 68 23 65 b4 bf
       0.11358831923440432 -0.07966824818928397
000260 0e c3 00 02 96 81 be bf 20 60 01 02 e7 81 c2 3f
       -0.11916482495213307 0.1445893058578358
000270 b8 e4 eb 0d 69 c0 d0 bf c9 3b cf 1b 09 44 d1 bf
       -0.26174379691617444 -0.26977756229183264
000280 04 6c 2b e3 eb 4f b2 3f 4e 3d e5 ab 20 43 ba 3f
       0.07153200431950785 0.10258678623835246
000290 9c c2 74 5b 6f 8f d8 bf d1 11 2a 5b 09 53 cb bf
       -0.38375457698115567 -0.21347157431968225
0002a0 22 a5 21 96 92 8d d4 bf ad c9 01 df be 6b a0 3f
       -0.321140905964585 0.032072033617527175
0002b0 81 29 cb 42 d4 5e c0 3f 0a 49 62 71 04 90 c7 bf
       0.12789395581632948 -0.1840825608856636
0002c0 64 9b 37 60 63 51 b2 3f f6 d9 1b b7 a5 38 bd 3f
       0.07155438517621132 0.11414561958722644
0002d0 44 dd b6 99 0c ea cc bf 44 4a b1 a8 39 dc 92 bf
       -0.22589261537152983 -0.018418217583823684
0002e0 0b 89 f2 6c 53 d9 d7 bf 27 55 07 07 fa d1 c2 bf
       -0.37263951911349186 -0.14703297942347968
0002f0 2f 4b 81 c1 0a 93 aa bf 64 9d 85 00 51 6c c9 bf
       -0.0519030915462707 -0.19861805463299753
000300 82 b6 d3 89 72 4a a7 bf 11 f1 64 e6 ca de c7 3f
       -0.04548986370523968 0.18648658990594716
000310 ce 38 11 46 bc d0 b3 bf 90 3e f4 86 c0 0e 93 3f
       -0.07740380011202605 0.018610962140029275
000320 2f 1d 47 38 77 e6 d5 bf 5d e3 02 57 c5 41 d5 3f
       -0.3421915101611885 0.332139334651904
000330 fe 93 c5 65 1c 8d d5 3f e2 e0 ac f0 41 f2 c4 bf
       0.3367377275338298 -0.16364311458324382
000340 e6 e3 18 02 e2 1f c4 bf 0e d7 03 df b8 1a b7 bf
       -0.1572229871979111 -0.09025149769498972
000350 f0 15 be dd 30 e6 cc bf 78 82 57 76 b6 b1 d3 3f
       -0.2257748682715568 0.3077217250520685
000360 a6 01 21 83 e7 98 c1 bf e2 ca 27 4e b8 5b bb bf
       -0.13747877028255323 -0.10686828525630745
000370 32 13 19 0c 11 bf c4 bf 3f fb 59 1e 02 b3 ca 3f
       -0.16208088961334394 0.208587899036468
000380 7e af 87 a7 88 33 c9 3f 7a a3 17 94 77 f1 d8 bf
       0.1968851869599994 -0.3897379823889008
000390 0b 8c fc c8 69 72 c0 bf 70 db ab 23 80 8f d6 bf
       -0.1284916144732907 -0.3525085781433779
0003a0 fa ea d6 08 02 97 a9 bf 8c 49 03 41 7f 5f 82 3f
       -0.049980224207919435 0.008971208735975698
0003b0 65 f4 2c 9f e3 c9 d4 3f ca 40 c7 4f 78 d7 aa bf
       0.32482233566753954 -0.05242515539032551
0003c0 66 bc 57 fc 37 8a b5 3f fc 1a 2b fa 5c 02 c7 bf
       0.08414029989920521 -0.17975961890461878
0003d0 0c 44 23 23 ae 3d d0 3f da a8 91 4b 6a 55 c9 3f
       0.25376466208860005 0.19791916551486716
0003e0 7a 1f a6 e1 87 e1 b6 3f 2c e1 10 1b f8 10 bb bf
       0.08937882670408995 -0.10572767887868356
0003f0 88 3c f9 15 e9 d9 e0 bf ea 4d 44 8d be 53 e3 bf
       -0.5266004017993433 -0.6039726981275042
000400 98 96 ef 6f 21 35 cb bf b5 1e 71 db 4b ba cf 3f
       -0.21255891767139157 0.24787281241355222
000410 d8 7e 3c a0 70 72 90 3f 38 b0 d4 c2 b7 ae 7a bf
       0.016061553745315788 -0.0065142801443407936
000420 20 02 a2 a6 bc f7 b8 3f 24 9b c7 2a b3 c8 dd 3f
       0.09753016536888781 0.4653747480173698
000430 fe 9a b4 7f 3f a1 a5 bf 02 8f de 2b 03 cc d4 3f
       -0.04224584993271739 0.32495192798727157
000440 5c 90 67 36 16 80 d5 bf 50 02 d0 d5 35 3c ce bf
       -0.33594279587692255 -0.23621247234406662
000450 bb 37 24 39 7f c0 cb bf f8 66 1d 52 ec b4 96 3f
       -0.21681204118834593 0.022174541961567734
000460 67 04 87 02 37 1c c9 bf 78 da fa 0b 24 2d 9b 3f
       -0.19617354987534272 0.02653938601607783
000470 6c c1 e4 21 2d 5b c5 3f a4 b9 33 0f bf 2f c5 bf
       0.1668449798103312 -0.16551960222518602
000480 c2 9e 68 f6 66 20 a6 bf 6f 88 f1 34 9d 59 cd bf
       -0.04321595914762845 -0.22929730496531728
000490 88 72 39 ed 00 ea ad bf 5b fd 96 4b 93 81 b3 3f
       -0.05842593093686782 0.07619591327146706
0004a0 83 e4 2e 8c ba ad e0 bf 43 e2 b2 71 c5 16 ca 3f
       -0.5212071168854354 0.20381992389390477
0004b0 aa 59 56 19 36 61 d8 bf 79 77 81 dc d4 63 c5 3f
       -0.38093330835672623 0.1671091152847415
0004c0 f2 6a cd b1 e4 8e cb bf 14 d1 41 fd 38 97 cd bf
       -0.21529825860746815 -0.23117744794911543
0004d0 be 77 aa c6 0f 13 b7 bf c8 ba 3a 03 77 02 b2 3f
       -0.09013460731736608 0.07035011128275948
0004e0 36 b4 ff 62 ce 9c c7 3f 02 a2 8d 5b 09 7e a2 bf
       0.1844728454010764 -0.036117832590040436
0004f0 be 64 aa e0 bd cc c2 3f b6 e0 7a ce 8e d4 c0 3f
       0.14687322111129747 0.13148675043135477
000500 36 53 1c 77 0f cb ce bf 20 41 57 4c f5 f7 7c 3f
       -0.2405719119639344 0.007072408863180862
000510 57 8c 3a c2 fa 5f d6 3f e0 4c c4 f2 2a ce 6c 3f
       0.349608125378102 0.003516277202047044
000520 80 fe 6d db 60 c9 ca 3f d8 43 96 f8 2d 5a bb 3f
       0.20927057947482197 0.10684478110330475
000530 80 25 17 cf e1 85 62 bf 40 78 57 17 0a 3f c2 bf
       -0.0022611055689806814 -0.14254881038408662
000540 fa 9f 63 ed c4 08 be 3f ea b6 c3 12 96 80 d0 bf
       0.11732130809434685 -0.2578482802626768
000550 f5 2d 80 3a f8 d2 ce 3f 48 9c 88 86 ca db cc 3f
       0.24081328255157045 0.22545749253296976
000560 a0 38 9e 4b c7 bd a0 3f 9a 05 b6 df b5 32 ad 3f
       0.032697895031661206 0.05702751499030541
000570 60 05 89 b0 41 04 3a 3f 1f 91 d3 be 31 c8 b0 bf
       0.00039698222875380294 -0.06555472287033524
000580 16 9b 0f d1 38 72 b3 bf 61 03 8f 89 bf db d7 bf
       -0.07596163848903034 -0.3727873652788301
000590 ce e0 62 6c 08 e4 d0 3f b8 08 f9 94 e0 31 b3 bf
       0.26391802391618746 -0.0749798167899226
0005a0 0c 4b e6 52 a3 c0 c9 bf 75 74 55 68 d8 5e 95 3f
       -0.20119134471732314 0.020869618766813553
0005b0 d7 79 5f b1 9e 9c 91 bf c2 6c 6a b2 97 5e 96 3f
       -0.017199019981370824 0.02184521700347087
0005c0 9a 52 58 37 32 5f c3 3f f5 0b de ae 33 71 c1 3f
       0.15134265615838133 0.1362671474308567
0005d0 db 5f d8 df 55 54 d0 bf 49 e5 19 77 91 14 a3 bf
       -0.2551474271763234 -0.03726629809257049
0005e0 24 71 f7 12 de 06 c1 bf 6e 12 e5 e6 13 98 a3 bf
       -0.13302207876302774 -0.03826963609256927
0005f0 64 46 52 d9 bc c5 9d bf 0a 7d 12 68 6f 1d 93 bf
       -0.029074621929402147 -0.01866697380739616
000600 a2 84 fa 06 01 40 d1 bf d0 32 88 56 6b c6 b2 bf
       -0.2695314949178941 -0.07334013807867312
000610 34 9f d8 6a a9 f6 9a 3f f8 5c b4 3b 5b 74 da bf
       0.026331565042851682 -0.4133518298198875
000620 12 be 9b d9 bc ea b0 bf 7d 44 50 2f ec f4 90 3f
       -0.06608181297973939 0.016559305560865035
000630 e0 80 6d ac 34 1b b4 bf c6 de da e7 a1 c1 c8 bf
       -0.07854012689267931 -0.19340919323962263
000640 c8 38 cd b4 0a dc b8 3f ca 3a c6 8a fc b4 c0 bf
       0.09710757173636175 -0.13052326942530207
000650 48 d8 0e c8 02 c8 a8 bf 98 88 ef 03 05 00 c6 3f
       -0.048400961800709796 0.17187559787914064
000660 20 40 c4 ad 97 42 80 3f f4 62 e7 e7 0a 21 bf 3f
       0.007939515104709527 0.12159794007983377
000670 08 ad d5 93 23 e3 ba bf 50 50 0a 81 f1 98 9a 3f
       -0.10502836570019636 0.025974057675356044
000680 b8 af c3 67 6b 7b cb bf 48 dc d4 bc b9 e8 c3 3f
       -0.21470396582242102 0.15553971977507985
000690 f8 58 26 2e a6 99 c4 bf 18 29 ae e0 ea d6 b9 bf
       -0.1609389996853634 -0.10093563065871469
0006a0 55 98 ed dd 79 79 b4 3f d0 5a 1c 86 c8 18 a1 3f
       0.079978577310244 0.033392206545774905
0006b0 8a 07 fa 3d 74 cf b0 bf 84 f8 ce fb 41 a1 99 3f
       -0.06566549790480117 0.025029211992425818
0006c0 44 6a b7 6f 31 ba c8 3f f2 cb 86 fa 3e 0a c1 3f
       0.193182162808471 0.13312518341771767
0006d0 22 df 31 48 4f 47 d4 3f 8a 9a 61 aa 78 88 ab bf
       0.31685239839815627 -0.053775568769926244
0006e0 62 e2 08 aa 2f 50 a9 bf 32 bd 83 6a fc 64 a9 bf
       -0.04943989706629705 -0.049598587038298794
0006f0 5e 9d 22 a5 c3 f1 bc bf 1c 55 51 e7 81 30 d3 bf
       -0.1130640295183318 -0.2998356589281046
000700 45 af 40 1f ea 66 af bf 63 3c 8a 8c c1 e0 ca 3f
       -0.06133205062391637 0.20998401033691313
000710 31 5e 16 69 78 6c c4 bf ba ed dc 20 65 4b bd bf
       -0.1595602524873683 -0.11443168690032382
000720 b0 e0 53 ac df dd a3 bf 1d f1 1f 60 88 3a c5 3f
       -0.038802137170877216 0.16584877675621437
000730 31 0a dc 5b 4c d4 bb 3f d6 a8 d7 6e ec 76 a5 bf
       0.10870816462196654 -0.04192293980652699
000740 dc 88 4a 4a 29 56 bf bf b4 69 aa 9b 2c 1b d0 3f
       -0.12240846694706725 0.25165858461118806
000750 67 b6 86 c3 df 6f b6 bf e5 75 29 79 77 66 ba bf
       -0.08764456294621824 -0.10312601764731928
000760 5e af 84 80 34 5b b0 3f 30 a6 25 94 1c 15 b2 3f
       0.06389167916921454 0.07063463799354319
000770 34 3c ae 6f 75 00 b3 3f 69 12 85 7a 12 1b b8 3f
       0.07422574974610613 0.09416308871466018
000780 16 40 4c 0e a3 34 ca 3f 4e 06 6c f9 cf 8f cc bf
       0.20473135183465335 -0.2231388061409682
000790 58 e2 19 68 95 65 a5 3f 42 58 eb 13 2b b8 a8 bf
       0.04179064651265624 -0.04828009241252619
0007a0 32 03 b0 20 cc 07 b0 3f db 55 ca 0a 5e ff c7 3f
       0.0626189784816347 0.18748069311975155
0007b0 de 91 b7 86 64 4c b2 bf a0 92 a6 ac 21 1c c4 3f
       -0.07147815979948954 0.15710850649079067
0007c0 c1 b1 e7 84 37 a9 c5 bf 4c 65 75 0d c7 be d2 bf
       -0.1692265891027898 -0.2928941375190177
0007d0 ad 35 e3 da 7c b0 b5 3f 6e e0 46 28 fc 80 cb bf
       0.08472423881467846 -0.21487380949634222
0007e0 f4 cd d0 44 de c9 c4 bf 66 af 2d fb fd f5 99 bf
       -0.162410529710186 -0.025352447944370658
0007f0 2f c8 6a 48 71 0a be 3f a4 0f f8 b1 f0 d4 b2 bf
       0.1173468400764086 -0.07356170983263027
