offline_resampled_model_testing/model_6.npz (npz, 972701 bytes, 5 tensors)

imat f8 [1581, 50]
0	0x3fb02516b9c0f528	0.06306592974666059
1	0xbfc379e1fd0bb218	-0.15215706687685393
2	0xbfc1002fccc8afa3	-0.13281819819655735
3	0xbfcd42769cb3e187	-0.22859079982277938
4	0xbfc24923c33b6155	-0.14285704644022226
5	0xbf6e287ed4b0d0ac	-0.0036814191021453304
6	0x3fc5de66d516f2c5	0.17084966091888112
7	0x3fac9302050e4574	0.05580908118930497
8	0x3fbf0a23a81c3d53	0.12124846319442399
9	0xbfa38b9ea0c6cc6e	-0.038174588323635614
10	0x3fc28ba6d55cfb94	0.14488683145642922
11	0x3facbcc5415ba2f8	0.056127704838052794
12	0x3fa45eb4006e9942	0.039785027554261734
13	0xbfc8e135ffe10e4c	-0.19437289232347366
14	0x3fdb8729946a9a9a	0.430124659479057
15	0x3fce7fc08066f3cb	0.2382736803973827
16	0xbfcb53eeb5ad7cf5	-0.21349891539555413
17	0x3fb159eb8b21d449	0.0677783217123117
18	0x3fc552de6f1c38e2	0.16659145760826904
19	0x3fb947fb75575f5d	0.09875461210992627
20	0x3fa3914e11a1fff2	0.038217963840906935
21	0xbfc064a09294c4d6	-0.1280708995559851
22	0xbfba1c82b3145a0d	-0.10199753639276583
23	0x3fb7d8c770ee06ca	0.09315153605532625
24	0x3fb69b9636f5fea6	0.08831156579798946
25	0x3fda96ef8b9503ca	0.41546238547385583
26	0xbfbd116dd9bcb93c	-0.11354719701623578
27	0xbfd0f1b42f985151	-0.26475243232677764
28	0x3f95d3594cd18033	0.02131404429781032
29	0x3fc99e7536df00b8	0.2001482503819767
30	0x3fd040b70604cc39	0.2539498862053651
31	0xbfc9adaf9a02d313	-0.20061297435827238
32	0x3fc2723b3547161b	0.14411106206368704
33	0x3fd77e294db4ee8a	0.36707527721930744
34	0x3fc883263b25807c	0.19150236022960943
35	0xbfb4ee5d78ceb2a3	-0.0817621631565069
36	0xbfaf1a32151e589e	-0.06074673183245348
37	0xbfc6049004f8f1ba	-0.1720142387656674
38	0x3fb7d2d3f54d66a0	0.09306072939707599
39	0xbf9a8ba0bc2840f4	-0.02592326305790578
40	0xbfcee05702a92f7f	-0.24122130994726018
41	0xbfa30bf7038254f6	-0.03720065992198755
42	0xbfb59596826b074c	-0.08431378063235434
43	0xbfc9a048f4d760d6	-0.20020400958197254
44	0xbfe19ccef5e81f99	-0.5503916552415716
45	0x3fb460966057f4f9	0.07959880687845446
46	0x3fa2870753d33584	0.03618643663649393
47	0x3fc15f4c373e1c3c	0.13572075555222962
48	0x3fce0439a348390e	0.23450394127616686
49	0xbfae8c156bb4261e	-0.05966250362150681
50	0xbfb420f312c90fd2	-0.07862776955249665
51	0x3fb69b8b06537d8e	0.08831089882322926
52	0x3fc56b0f2767519b	0.16732968734744422
53	0xbfbfc22ed041b68a	-0.12405674538032421
54	0xbfe0b2519837b58b	-0.5217674229622146
55	0xbfd4cabb41b911d8	-0.324873747046039
56	0xbfc066396195d776	-0.12811963333995963
57	0xbfb3080f56a34b86	-0.07434173455412293
58	0x3fd35a951fc30a71	0.3024037180113402
59	0x3fc7f210e82e9a23	0.1870747693730702
60	0x3fcf751ce25356a0	0.24576149989177498
61	0x3fa933cfdf3f21c6	0.04922341919115385
62	0x3fbebd02ea326194	0.12007158487029407
63	0xbfc46792c6004f44	-0.15941080730464752
64	0xbfd47fa91f91697e	-0.32029178698362404
65	0xbfc43f5e5ea4bf9c	-0.1581838571669295
66	0x3fbbc2c49759022c	0.10844067282688091
67	0xbfbdadd3bd86ecb8	-0.11593364121556504
68	0x3fc3197e0ee66fb7	0.14921546676202777
69	0x3fb8174f11c4f4d3	0.09410566505262645
70	0x3fd45597a1f41dd6	0.31772414031771967
71	0x3fcf01154b643495	0.24222055608007467
72	0x3fc18961a808d813	0.1370050497513949
73	0x3fc4dc7abe542fc2	0.16297849934960423
74	0xbfb8345ea7a19a96	-0.09454909889755422
75	0x3fc844c4a74ab9eb	0.18959863823461318
76	0x3fc45e727a31cbf2	0.15913229910401544
77	0xbf686a4d37fce184	-0.002980376069810999
78	0x3f9874b048d5a57c	0.023882631726711775
79	0x3fc4ec7b21bf70d9	0.16346682689516603
80	0xbfbbc665c4400867	-0.10849605599654098
81	0x3fb132c20fa8b564	0.06718075640011062
82	0x3faccaa62015f33e	0.056233588616100935
83	0xbfc61f9c6e69eb58	-0.17283969298645263
84	0xbfd4165811746b0a	-0.31386377052847136
85	0xbfd81c7697d0c906	-0.37673725915659906
86	0xbfc20ec640eb6f64	-0.14107587976365743
87	0xbfd9b14bb50e3471	-0.40144627267074556
88	0xbfc7f64fd7f26526	-0.18720434231071542
89	0x3f558047d9bd3600	0.001312322775408048
90	0xbfcf59b3410bb6c8	-0.2449249332052459
91	0x3fbed2d9204dd961	0.12040478743242523
92	0x3fc4ca4ef4ed6add	0.16242396315904886
93	0x3f879239402a9d56	0.011509368200974517
94	0x3fb244db7e85949e	0.0713631805316077
95	0xbfc305592d7392f6	-0.14860071868238095
96	0x3fc9267b5a02ccf5	0.1964868726259749
97	0x3fbbc3806f3e4020	0.10845186916253668
98	0x3fa2a2bdb188f4e6	0.036397865220786405
99	0xbfa35451beb4471d	-0.037752680329630396
100	0xbfc86e7e02df2692	-0.19087195530146467
101	0x3f8297472173e60a	0.009077602108379618
102	0x3fb90561b05a4588	0.09773836665615054
103	0xbfb2c5892bfc9bbc	-0.07332665752311035
104	0xbfd28c15276f88dc	-0.2897999653925021
105	0xbfa6812e34a667cb	-0.04395431893063025
106	0x3fc5928b323396bd	0.16853465987440144
107	0x3fbadf34afdbf2da	0.10496835034787058
108	0x3fca15ed61d88ce0	0.2037941673052961
109	0x3fd083278d9ba21c	0.2580050356760084
110	0xbf7a935670a971ba	-0.006488168388923682
111	0xbfc04b53092a27bb	-0.12729871699803916
112	0xbfc3ab6e983be217	-0.1536691897706681
113	0x3fa29d6df9c34baa	0.036357342470771783
114	0xbfb34c236ba32170	-0.07538052919256244
115	0xbfd66dacf356eb60	-0.35044406665445216
116	0x3fb38cde251d9c62	0.07636822134155488
117	0xbfbb7d0d63230644	-0.10737689657528288
118	0xbfbd46049d9b9a28	-0.11434964034888451
119	0x3fbe04025d5368db	0.11724867609464999
120	0xbfd2893be57feb13	-0.2896260968406505
121	0xbfd1875d41656bab	-0.2738869799265397
122	0xbfc4a57519db50fe	-0.1612993599179688
123	0x3fc4f59b9a301ffa	0.16374535587988231
124	0x3fd1e4d871c9115b	0.27959262000901725
125	0xbfb9cd44e6a8e3cb	-0.10078840857830966
126	0x3f8f320955b48700	0.015232155731215169
127	0xbfc472785d3a99e3	-0.15974335243409063
128	0x3fc3939178024d58	0.15294092521490188
129	0x3fd7158307027ff5	0.36068797764346466
130	0x3fc174ae9db08f42	0.136373354908864
131	0xbfc06c29793612d9	-0.1283008424617467
132	0x3fd2cd51f0fd98bb	0.2937817433761542
133	0xbfb1dcdd89e32dcc	-0.06977638832466154
134	0xbfbcb924b4394b58	-0.11220006370539914
135	0xbfb8d4033c96629d	-0.0969850562017975
136	0x3fb6bee0fe20f3e7	0.08885008053125852
137	0x3fc511a17f9aec6a	0.16460055094453035
138	0x3fd9f6b62ee5a3ec	0.40568308429516153
139	0xbfbfe501fb826f7f	-0.12458813085907926
140	0x3fd3ed93fcb4fb1e	0.3113756149140715
141	0x3fd7e7290ffc0b3c	0.3734839111422621
142	0xbfc64ec63b7fde79	-0.17427900223968942
143	0xbfc240099fcab21c	-0.14257927229245204
144	0xbf981f32e3169090	-0.023556513891563713
145	0xbfd07995940ca2a5	-0.25742091615624424
146	0xbfb1e146e27e5dbc	-0.06984370259885159
147	0xbf8a5340b66dce42	-0.012854104583062246
148	0xbfb65261f644115c	-0.08719455969191386
149	0xbf9dc949f88c6846	-0.02908816890258261
150	0xbfc4646ae484575c	-0.15931450040869322
151	0x3fb7f0bebd3a6074	0.09351722831559234
152	0xbfb2dda372dd1718	-0.07369443468368464
153	0x3fb7cfa93ad01530	0.09301240621433204
154	0xbfbddaf9a34068c1	-0.11662254558214881
155	0xbfbf702aa0a03848	-0.12280527516870265
156	0xbfc86aecdf4ce64c	-0.1907631006559306
157	0xbfc50835bc346c0f	-0.16431304635702346
158	0x3fa898fa25520c74	0.048042122894025235
159	0xbfb1c07adbc83b23	-0.0693432604386826
160	0xbfafc9dadeff4e8c	-0.062086906167363315
161	0xbfbfba64ba420bf9	-0.12393788859667144
162	0x3f8b581b8d1ca268	0.013351645702259066
163	0xbfbc1183fa1c1a00	-0.10964226585574721
164	0x3fd248c6be6639e0	0.2856919154518476
165	0x3faba882e5bd1582	0.054020014328254554
166	0x3fb6bc60da66a10b	0.08881192524006935
167	0xbf9514078b87b0a0	-0.020584218875158045
168	0x3fc2afc12da8e99f	0.14598860482676643
169	0x3fa1bfa2c174692d	0.03466518985279019
170	0x3fab77800598bff2	0.053646088298023545
171	0x3faf2687b953c960	0.06084083688064612
172	0x3fd273d1df857990	0.28831908062229505
173	0x3fc37b790c740a73	0.1522055922324231
174	0x3fb192ac010ae6e4	0.06864428544477225
175	0xbfa4a76e63c1715e	-0.04033989875526588
176	0xbfca80e18444d487	-0.20705813368264023
177	0xbfad2c5e1c0a9686	-0.05697912304212331
178	0x3fcf4627f533f230	0.24432849381254718
179	0x3fae415b550398d7	0.059092382552806626
180	0xbfbb9492bfecd67a	-0.10773579774544287
181	0x3fa25db9c6a5d944	0.03587132024670095
182	0x3fc28658af869048	0.1447249276217255
183	0x3fc58f3da5f19bb0	0.16843386271213268
184	0x3fa2cc3d0e705daa	0.03671446610695324
185	0x3fd2f5ac7fa07bd5	0.2962447401386588
186	0x3fbc2a3105a03939	0.11001879107809466
187	0x3fca5b5ec7398ddf	0.2059133980538794
188	0x3faf863af35ee874	0.06157097073396836
189	0x3fcec98a95ca88b5	0.24052555383702204
190	0xbfa65bd1768db1a4	-0.043669267389165684
191	0x3f96800fafc94e64	0.0219728899995303
192	0x3f916c3470484703	0.017014331200761578
193	0x3fa17672053fb616	0.03410679163048884
194	0xbfc1909d9cd0755b	-0.13722582013080395
195	0xbfc47f874c59e22e	-0.16014186122971935
196	0x3fbc37ebd3dc7a90	0.11022828981774979
197	0xbfb905c17c661cee	-0.0977440766056252
198	0x3fb1c8b25ab3e8c5	0.06946863855765446
199	0x3fcf5bd31398585b	0.24498976189414887
200	0x3fb025a4ee853f4a	0.0630744058919365
201	0x3fbd6d8d3a3c6bf2	0.11495287582185634
202	0x3fc3c39fc765a096	0.1544074748628687
203	0x3fdc867c2f3b6820	0.44570831882959006
204	0x3fb908b8e9603f7b	0.09778934190421566
205	0x3fa9492db748f518	0.049386433242469774
206	0x3fa704ab836beadc	0.044957504074735616
207	0x3fc837f0739a19a9	0.18920713085772192
208	0x3fadccd4a4bfe72e	0.05820335875610137
209	0xbfaf39ba863272ae	-0.060987309342839566
210	0x3fcdcda3a15865a0	0.2328381097620822
211	0x3fb2db2c7c7309bc	0.0736568263846839
212	0xbf8f971a83b76cc2	-0.015424925942104987
213	0xbfc5afa7a8c228dc	-0.16942306270750052
214	0x3fb40089fdd7a662	0.07813322493861954
215	0xbfb6dfa4a571ebd7	-0.08935002364334764
216	0x3fc621d8ebba76c8	0.1729079390542465
217	0x3fba5a7aa677c006	0.10294310154108652
218	0x3f95e8d1f18c5619	0.02139595066826958
219	0x3fb0cb3b2b8499ee	0.0656010609860471
220	0x3fba6e6f3bcf9912	0.10324759683826226
221	0xbfa06f7a8caf758b	-0.03210051505423469
222	0x3fb4bbf604a6e2cc	0.08099305738040669
223	0x3fc607cd0cb9258a	0.17211306687594813
224	0x3fbe96cd5236c8c4	0.11948855645349271
225	0x3fb2c1affebeda18	0.0732679364144605
226	0x3fb51b8e5a9229a2	0.08245172225193767
227	0xbfbb5f0e416d1026	-0.10691918465914849
228	0x3fc58f7d90fd8c71	0.16844148234949644
229	0x3fb795513f9212cc	0.09212215234772286
230	0xbfb9bced959b9eea	-0.10053906347786393
231	0xbfcf34d70ac3f0d6	-0.24380004907278047
232	0xbfd5b6bcdfe5989a	-0.339278429650571
233	0xbf77377c79f2a010	-0.005668150172972744
234	0x3fad18d0d7166320	0.056829954391281357
235	0x3f89ae6c824c8c53	0.012539718367014318
236	0xbfd0de248bd10e29	-0.2635585179707243
237	0x3fceadcd7303ecd0	0.23967903247817057
238	0xbfc6437d78851d6b	-0.17393463501705794
239	0x3fc03fd5382d928f	0.1269480251604773
240	0xbf9d4aac2df7451a	-0.028605165772949005
241	0x3fbb36b0e38235ac	0.10630326799783657
242	0xbf7dea9b4ea7fa55	-0.007303816479633148
243	0x3fbafecee1d76d0b	0.10545056356152231
244	0x3fc681c518e7c4f2	0.17583526340562333
245	0xbfc80a6ae331a950	-0.18781791776138812
246	0xbf91089e1e907572	-0.016634436240669577
247	0xbfbf27aa08c160f6	-0.12169897760157142
248	0x3fbf3c5014b5acca	0.12201405053717732
249	0x3fb341effcb46cf6	0.07522487563658217
250	0xbfac546bd68c1cc5	-0.05533158296571509
251	0xbfc17a2b747fec7f	-0.13654082478010207
252	0x3fb3ab6b9edabdab	0.07683441761286385
253	0xbfc5f1928596919c	-0.17143470309123365
254	0xbfc936637f98b973	-0.1969723103552031
255	0x3fb0ede3df349649	0.0661299152312377

gbias f8 []
0	0x400c3e76fa61a6b0	3.530500370125843

ibias f8 [1581]
0	0xbfc1c4956b2b3965	-0.13881175740102517
1	0x3f81afc3f1b2f04a	0.008636027158324695
2	0xbfdbfc66be525008	-0.4372803553208091
3	0xbfb285248aa4bbd3	-0.07234409699297766
4	0x3fdace10b8a3cc58	0.4188272288440138
5	0x3fddecffdcf1bf3b	0.46759029938310775
6	0x3fb85d167867760c	0.09517040671877214
7	0xbfa8bd228efe96a4	-0.04831798549211655
8	0x3fdb5a5ce5ecdadc	0.4273903127063201
9	0x3faa103011967292	0.0509047528714507
10	0xbfcb2448c2451103	-0.21204480634526854
11	0xbfd6d21226e57e18	-0.3565717105720707
12	0x3fdb9d09e4938aa1	0.43145987817676185
13	0xbfc6af1cc2322990	-0.17721900446151695
14	0xbfe3f399d033e8d0	-0.6234864298305869
15	0x3fc458ef153828ee	0.1589640477762439
16	0x3fd4dfcd5b314e97	0.3261598005821979
17	0x3f88f4636494a000	0.012184883601165097
18	0x3fdab7d81a51c233	0.4174709565186589
19	0xbfc94e9f19da42bb	-0.1977118374093346
20	0xbfc09713bf13d716	-0.12961050825077142
21	0xbfc489744f61702e	-0.16044477344519364
22	0x3fd44055fd998013	0.3164267517622658
23	0xbf8b361d573b56d5	-0.01328680918178852
24	0xbfd8b2453c1c7808	-0.38588076467738164
25	0x3fdada999fe2462f	0.4195922910085725
26	0xbfe40e5683d6880e	-0.6267502379380419
27	0xbfe25db277927a08	-0.5739376387971911
28	0xbff50ce4344da008	-1.3156473200888303
29	0xbfd0e4407e1758bb	-0.26393139184564135
30	0x3fd270ed685b13f9	0.28814253989213473
31	0x3fe2a00ad8961dce	0.582036421795175
32	0x3fba154bf63c7280	0.10188746224998546
33	0xbfe2841936ae9167	-0.5786253040319423
34	0xbfc2275b8de21d13	-0.14182609966176382
35	0xbfdbaa24014d221c	-0.4322595608432793
36	0x3fd2f8734235a3b0	0.2964141985490256
37	0x3fd77d36f824a25b	0.36701750023579444
38	0x3fdf8a16b7352657	0.4928032673966291
39	0x3fc8b909a779c641	0.19314690282367233
40	0xbfeb21cb558b5a76	-0.8478752775943821
41	0x3fcf06eab7285954	0.24239858573191475
42	0x3fd84a141047f4e5	0.3795213850970199
43	0xbfc873a4e9d2f467	-0.19102918069066563
44	0x3fabc5f1967c8a1f	0.05424456560128398
45	0x3fd9d5c3d4d49bb5	0.40367217811802486
46	0xbfdf03a567844367	-0.484597540941698
47	0x3fda42508280e05e	0.41029751533961256
48	0xbfd79db381b38cf1	-0.3690003172507224
49	0x3fed1114a80fdc69	0.9083350450954529
50	0x3fd339079d988485	0.3003558196088039
51	0x3fce5a09bd0aee4d	0.23712274294472238
52	0x3fd04055fd998013	0.2539267517622658
53	0x3f56014c4b609891	0.001343082910815894
54	0x3fa77e361105407d	0.0458847900177952
55	0x3fd2eb1b053d1ce1	0.2955997038993257
56	0x3fdd87e086fa47ca	0.46141827756320863
57	0x3fe749d3d35a333a	0.7277621391272995
58	0x3fe425a7a678a8b5	0.6295965434449246
59	0x3fdebc1749693ee9	0.48023016137174906
60	0x3fc5534611e26a86	0.16660381196273394
61	0x3fb568e12168d4e1	0.08363158288632945
62	0x3f83d7da86b76517	0.009689051853387682
63	0x3fe8006da41cc64b	0.7500522809334113
64	0xbfc0a3b1aa6cd716	-0.12999554463902346
65	0xbfe95f86ed89ff1e	-0.7929110183176566
66	0x3fd23e3daf1fe5bd	0.2850488863183179
67	0x3fc593a5561a5e3c	0.1685682936119849
68	0xbfecbb64ef24f410	-0.8978752775943821
69	0x3fe40e165b350d33	0.62671964467919
70	0x3fe359a944b7e957	0.6046949712902386
71	0x3fe6d3f70ca78239	0.713374638286104
72	0xbf938c3005da9faf	-0.019089460713672398
73	0x3fb0e9ed4595c5dc	0.06606944035390633
74	0xbfaabea150334485	-0.052235642471381495
75	0x3fce63d79521490c	0.2374219396757059
76	0xbfe77903532107d1	-0.7335220931638508
77	0x3fe51b4708a02bbd	0.65957976994229
78	0x3f81afc3f1b2f04a	0.008636027158324695
79	0xbfc70dfc7c3b543e	-0.18011432710651037
80	0x3fc158cca28e7ec6	0.13552244126639418
81	0x3fd339079d988485	0.3003558196088039
82	0xbfe2841936ae9167	-0.5786253040319423
83	0x3fe2b748f75a694d	0.5848736601940715
84	0x3fe50f0627a058fb	0.6580839895202922
85	0xbfb09bf63e9c446d	-0.06487978962492642
86	0xbfdcea73acfddf9e	-0.45180980581016594
87	0x3fbb276a17dbaddf	0.10607016642068555
88	0xbfd87d9db5e99ba5	-0.38266699566741585
89	0x3fcd418653a76aa7	0.2285621555773407
90	0x3fc674d5aa65a042	0.1754405099884498
91	0xbfe6ae152078b429	-0.7087503084382024
92	0x3fc1d275b809504c	0.13923522459174575
93	0xbfd07b0515afcc65	-0.2575085365089705
94	0x3fe3f628219774ee	0.623798432930611
95	0xbfe62955be62b1d9	-0.6925457685916242
96	0xbfcf75cddee6bd36	-0.24578259834150068
97	0x3fde3478dd2fab8b	0.47195264435020395
98	0x3fd73ff29ec21644	0.36327805999494367
99	0x3fcd4b49fc184824	0.22886013802832494
100	0x3fe07ce55b1918bb	0.5152460841425389
101	0x3fa89452322be380	0.04800660002178514
102	0xbfbe269924219c00	-0.11777646190749635
103	0xbfb3a5e93516ca9e	-0.076750350438298
104	0xbf9a800d21ab907c	-0.025879101924957557
105	0xbfc43d35e19a5eaf	-0.15811799541255797
106	0x3fa6dd40ffb0c0c7	0.044656783306324103
107	0xbfe1d4d6198de914	-0.5572309970005187
108	0x3fcf596d6450ee2b	0.2449166049790262
109	0x3fe1f832823705fe	0.5615475219021275
110	0x3fd6ebc4170a67e5	0.35814001321852934
111	0xbfe0be77845fd66b	-0.523250349563296
112	0xbfc761c0b91bc795	-0.18267067945958773
113	0xbfda114cbac4dff4	-0.407305891410487
114	0xbfd9bb3b050b1aa7	-0.4020526456119264
115	0x3fd3da26ea50e555	0.31018994219228563
116	0x3fd9ecb2dd21da0f	0.40507194132752117
117	0x3fbffbe1791a2a62	0.12493714529606728
118	0x3fe711ed40e2c376	0.7209383265782054
119	0x3f9872a1a384b755	0.023874784093258345
120	0x3fc1603ee343d1e9	0.13574968430442816
121	0xbfa4d818e597bd66	-0.04071119120259929
122	0x3fe2858380466d3e	0.5787980561612256
123	0x3fec68cc5542024e	0.8877927460853898
124	0x3fd82691e67ebf20	0.37735412129676327
125	0xbfb842195bb62714	-0.09475859154749983
126	0x3fd16bf7384b9653	0.2722147035368369
127	0x3fe9afff05939586	0.802733908549883
128	0x3fa6fe6ad98a74b8	0.0449098005821979
129	0xbfe69d28c704ddd1	-0.706684483250621
130	0x3fe005e0e790a6f1	0.5007175944094496
131	0x3fd0cc67c0b8fbcf	0.2624759084755483
132	0x3f9264f154625495	0.017963190818211478
133	0xbff158fe261ff8cb	-1.0842267503026501
134	0x3fc296dba8fcbffc	0.14522882224400735
135	0xbfebaaa20a632ea8	-0.8645792200927263
136	0xbfe681f0979a413c	-0.7033617936122378
137	0xbfe62955be62b1d9	-0.6925457685916242
138	0xbfe3dd806400694c	-0.6207887604862576
139	0x3fdd5a5ce5ecdadc	0.4586403127063201
140	0xbfe613b3be1d69b7	-0.6899050439054041
141	0x3feb2134cb34c499	0.8478034943456293
142	0xbfe4114c02c74afa	-0.6271114401118603
143	0xbfab2c508250e631	-0.05307246771594654
144	0x3fe22ed31a5b2723	0.5682158961073792
145	0x3fde4f84b2c7bbfa	0.4736034150982388
146	0xbfd6b4922b81a002	-0.35477117775599265
147	0xbfcc33e40855e0ef	-0.22033358008389523
148	0x3fd24abf27547130	0.2858121761398875
149	0xbfe1352a5688954c	-0.5377399149044009
150	0x3fb24f109137c94f	0.07151893182143464
151	0xbfe03af4a4656cd5	-0.507196732603371
152	0x3fe7642663ea8370	0.7309753371701913
153	0xbfe1e18de4b6038c	-0.5587834803592258
154	0x3fc640f0c2153de3	0.17385682560642043
155	0x3fb5f7c96a1e918d	0.08581217613988752
156	0xbfd7b9527a9fca2e	-0.3706861684324022
157	0xbfdfa87097d18174	-0.49465575052274535
158	0x3fe31e2a76c65697	0.5974323577708728
159	0xbfd8678914b8354d	-0.38131930373568396
160	0xbfcc0c6e28373074	-0.21912934268619078
161	0xbfe87cedf4c34d60	-0.7652501850629214
162	0xbf8543f5dbe44813	-0.01038353040033616
163	0xbf99444307c9e8a5	-0.024674460745224853
164	0x3fd54e516db2ce9f	0.33290515625706435
165	0xbfec2086b98805a6	-0.8789704917582426
166	0x3fb2082b7f2b4f65	0.07043716292110742
167	0x3fc0570754473bb0	0.12765590300702234
168	0x3fd40bda3d47648a	0.31322341903939643
169	0x3fe2e49d97753ced	0.5904071767962741
170	0xbfca1c0a59955173	-0.20398072599585823
171	0xbfda35ff8caa4341	-0.4095457910234935
172	0x3fe0dea4dbdbb110	0.5271782201867001
173	0x3fe0d47765c913ac	0.5259358394620128
174	0xbfc4cb18c918e1cd	-0.16244802302550312
175	0x3f8bb9ddfe6b6046	0.013538107229962414
176	0xbfe1fca67f60b180	-0.5620911109777325
177	0x3fb99611b8425037	0.09994612453948624
178	0xbfc4625054edf3f6	-0.15925029894779613
179	0x3fd230b0e6e0d145	0.2842218641919952
180	0x3fc93748e3ca98ee	0.19699965593935737
181	0x3fd15e964de7bd1d	0.27139814002926405
182	0x3fb9f217edefd77b	0.10135030325895215
183	0xbfe09a6846f603ca	-0.5188485513646068
184	0xbf970369b82ff000	-0.022473956934831563
185	0x3fba7bc8d8dbf1ad	0.10345130247509955
186	0x3fc6893621b617e0	0.17606236120280894
187	0xbfb1c5d250b4bda7	-0.06942476721154965
188	0x3fd27463ce4035a5	0.2883538736503744
189	0x3fbee5ba13b9e53a	0.12069285375209385
190	0xbfc4a762a57d83df	-0.16135819511967406
191	0x3fd2882d0ae2a48a	0.28956152022380677
192	0xbfef52d18d099292	-0.9788596872936799
193	0x3fc04c29e3053835	0.12732432923297812
194	0x3fb02672a2f80a9c	0.06308666685803604
195	0xbfdc4024875cc4d4	-0.4414149591348864
196	0xbfd3a423613bcef0	-0.3068932008311398
197	0x3fe0489c341aea84	0.5088635461500677
198	0x3fdad00871c6e867	0.4189473258117062
199	0xbfe5abc7308c8a64	-0.677219004461517
200	0xbff2780823ba3c8e	-1.15430463748979
201	0x3fe1269dda5ac813	0.5359639420260031
202	0xbfd98cec86717f3c	-0.3992263138697927
203	0xbfe87fbcab513bb9	-0.7655928941766127
204	0xbf94cad76902d520	-0.020305028709761364
205	0xbfbd73170b73f1e0	-0.11503738431560562
206	0x3fbb7e13651f652c	0.10739251345457451
207	0x3fdbe458c0ee0aca	0.43581217613988754
208	0xbfeeee841a842092	-0.9666157262700088
209	0xbfdd74e626248de5	-0.4602599499214349
210	0xbfd1413f50d1a265	-0.2696073807951847
211	0x3fcc4b8e35f69a76	0.22105577120710834
212	0x3fcdadad0a187cc4	0.23186266892387242
213	0xbfe952d18d099292	-0.7913596872936799
214	0x3fdca1703e26218d	0.447353420917829
215	0xbfe52cb16b884cef	-0.6617056942217497
216	0x3fe17688c8b05752	0.5457195205405958
217	0xbfd053494dd788eb	-0.2550833950209738
218	0xbfe14b3186561e3e	-0.5404288886792938
219	0x3fd4d3dcb5173928	0.3254310387100241
220	0xbfd4c46b155adfe5	-0.32448842130133776
221	0x3fd97b58c890e4db	0.39815349184534704
222	0xbfd44cad76902d52	-0.31718002870976136
223	0x3fe189452322be38	0.5480066000217851
224	0x3fbad884ec12f400	0.10486632121588002
225	0x3fcab5957d49978e	0.20866650216629207
226	0x3fea01cc0541a747	0.8127193548836907
227	0x3fdca8719ee6eb38	0.44778099553848305
228	0xbfe2841936ae9167	-0.5786253040319423
229	0xbfd54fe0a721c8d5	-0.333000338759246
230	0xbface244e25f82d9	-0.05641379607528103
231	0x3fb615112a33c368	0.08625895767523917
232	0x3fd85037496d5a40	0.37989599390622075
233	0xbfd79f50afab3d15	-0.3690988269344911
234	0xbfe047aeba124dc2	-0.5087503084382023
235	0xbfe18faf83a68cf9	-0.5487897464085157
236	0x3fd71be5eb8b342c	0.36107776644058975
237	0xbfd2d7eb60df33db	-0.2944286771788122
238	0x3fdb6985367aafc1	0.42831545181502056
239	0x3fd1ba5dc3b31549	0.2769998942497592
240	0xbfd1b7da7392a45f	-0.276846516479571
241	0x3fe3de4c569dc4b3	0.6208860103344221
242	0x3fc69fbb881a3fec	0.176749650436704
243	0x3fbf6a8dfc794f3b	0.12271964467919087
244	0x3fcf423089411050	0.24420744611609502
245	0xbfe0d43752e16a17	-0.5259052866707091
246	0xbfd12be1ca58c88c	-0.2683033443492
247	0x3feb5287ad02fab0	0.8538244609006451
248	0x3fe37924eb0aa334	0.6085381117492035
249	0xbfe1b7a3acc022e6	-0.5536669134172285
250	0xbfbf9cce819f4680	-0.12348642983058689
251	0xbfde08f499014809	-0.46929659788031636
252	0x3fe1eb1654fd8cba	0.55994717216199
253	0xbfe17078c38a8fd8	-0.5449794596829589
254	0xbfeaa5fce2afb2db	-0.8327621867625469
255	0xbfd510480edc5025	-0.3291187424777056

umat f8 [942, 50]
0	0xbfc60e9d46963c0c	-0.17232099482177465
1	0x3fc5cdbf9df2bd1a	0.1703414460402904
2	0xbfc48bed1452b848	-0.1605202054246908
3	0xbfba87bcc182396b	-0.1036336872514078
4	0xbfc0b20f0a1b2638	-0.1304339217515904
5	0x3fb9a163d8eda6f4	0.10011886640645767
6	0x3fa57f537a856f44	0.04198704596157524
7	0xbfcedad4e44d9ce9	-0.24105321071258537
8	0xbfcafc071b767d22	-0.21081627694091148
9	0x3fa386905164493e	0.038136014876857235
10	0x3fbe49f9329f1698	0.11831624494433368
11	0x3faf45f9f4401420	0.06108075243540889
12	0x3fbef760d905d22c	0.12096219347387976
13	0x3fb83fffaa63ef5f	0.09472654256745504
14	0x3fc110a4163c0e0a	0.13332034192727377
15	0xbf6401d4d8326c78	-0.0024422795409698127
16	0xbf99d7d343363bde	-0.02523737046936591
17	0x3fb645a45a45934e	0.08700015262509206
18	0x3fc977fbdd013481	0.1989741162418888
19	0x3fce38d55bf11933	0.23610941876740696
20	0x3fc8b59068b4bc2c	0.19304089653584933
21	0xbfb759347e395495	-0.09120491105689361
22	0x3fbe181489b3d4bb	0.11755493509174901
23	0xbfb068e0ae189d7a	-0.06410030603784903
24	0xbf82550f11902b8c	-0.008951299403653377
25	0xbfcc65e67bc97b4a	-0.2218597511700529
26	0xbf99f6fdc920cc60	-0.025356259728323116
27	0xbfc1a43241a10439	-0.1378233738378485
28	0xbfcd6c51f901cd91	-0.22986817034289378
29	0x3fc87488dca595cd	0.19105635427255976
30	0xbfa4f5b94899cf51	-0.04093722354164576
31	0x3fb5b6bb5c0ff906	0.08481951711289434
32	0xbfbcddd4f23c23be	-0.11275988496721731
33	0x3fac58dc1185ee1c	0.05536544526964013
34	0xbfad0c93607d8494	-0.05673656990871581
35	0xbfc46924c3a2c6fe	-0.15945872833759006
36	0xbfbe6dc5861f48c1	-0.11886248135059231
37	0x3fabd853148c749c	0.054384800203686384
38	0xbfb3719e9d0356a4	-0.07595244725538436
39	0x3f9ff1eb76ff7b8a	0.03119628824049018
40	0x3fac9c0b7f3a5f18	0.0558780281837114
41	0xbfc3e11a38f78896	-0.1553070810469463
42	0xbfce0f4ae1b75b5e	-0.23484169026661567
43	0xbfb520524bcf4f95	-0.08252443648171799
44	0x3fa7fe7826801636	0.04686332197165337
45	0x3fbc8042e329f106	0.11133211179725686
46	0x3fb69d4ab81b40d3	0.08833758349215097
47	0x3f85b08d0a82ba5a	0.010590650447139516
48	0xbfc90d3fa28bd7bc	-0.19571681439236766
49	0xbfb852e2ddccb352	-0.09501474299459048
50	0xbfc223e1d75d0c31	-0.14172003761095334
51	0xbfc97bb787d4de35	-0.1990880406608412
52	0x3fc22c039a03f139	0.14196820278437786
53	0x3f5a85903befd4a0	0.0016187580620201994
54	0x3fbe3a1ea19535ce	0.11807433552640775
55	0xbfcfda545f3beb39	-0.2488503899583863
56	0x3fc8bb944982be2e	0.19322446431532242
57	0xbfd0bf942c708ffe	-0.2616930421811502
58	0x3fc63ec27d88b0eb	0.1737902749022234
59	0x3fbba7a9e1eadc0f	0.10802709355890293
60	0x3fd0564805f9ed17	0.25526619514103416
61	0xbf8120d6c1193e20	-0.00836341645040678
62	0xbfa4ebc68c841c2c	-0.04086132493289826
63	0xbfe0adc38445c2e6	-0.5212113936850897
64	0x3fc28a3ee2ab27f1	0.14484392230798407
65	0x3fb737893cc2dfc8	0.09069116338184735
66	0xbfa3f555827fc42e	-0.03898112504965244
67	0xbfb1ce1dbb3903ed	-0.069551332672759
68	0x3fc2439b2cdf0932	0.142688176069052
69	0x3fa7135f764d062b	0.04506967848875506
70	0x3fd0048fce4caa3c	0.25027842661316746
71	0x3fd3476f0cc200d1	0.30123497243768066
72	0x3fb0ca37fd182100	0.0655856125741856
73	0x3fad5bdcfac678bc	0.05734148560735394
74	0xbfd1ddba49d23c71	-0.2791581841383453
75	0xbfba83ef7be829c7	-0.10357567572660918
76	0xbfc6ad2e2d414c7f	-0.1771600457164801
77	0x3f92dc07849b3000	0.01841747042526265
78	0xbfbbdda7f3dc8bc8	-0.10885095313692184
79	0xbfc086ee0ad27f5a	-0.12911773231916862
80	0xbfbb6285d9b1358d	-0.10697208943130061
81	0x3fc437df9f515398	0.15795512465652162
82	0xbfb4b89a6a74e2dd	-0.080941821089151
83	0xbfca667de2922e9c	-0.2062527996352984
84	0xbfc5e8ddda06f3a1	-0.17116902490479638
85	0xbfce9a4b0b57ca0d	-0.2390836530099282
86	0xbf5ae5d9b5f55fc0	-0.001641714676074088
87	0xbfc0e858a1cca126	-0.1320906438861666
88	0xbfc02a2eb7276993	-0.12628730719627565
89	0x3fb0bba4dd68958f	0.0653632202671217
90	0xbfd551569c836b9c	-0.3330894974184788
91	0x3fd2758c38cd8946	0.2884245447841248
92	0x3fcca75e7a177455	0.22385769807343317
93	0x3fd3455426581637	0.3011064886526102
94	0x3fd05b34f53ae6ce	0.25556682537317676
95	0xbfb41a99dd21350f	-0.07853089951204971
96	0x3fc5812ffa9da325	0.16800498711679626
97	0x3fbc2cb814c5cf56	0.1100573588099086
98	0x3fb46bfe1e8fa5d9	0.07977283712502671
99	0xbf9ab046c29d55ef	-0.026063066128093778
100	0xbfaa533619bd6208	-0.05141610206800712
101	0xbfc3ef54ad602289	-0.15574129548646834
102	0xbf9ef01828af8b94	-0.030212762339839452
103	0x3fd3011bf5ec4e65	0.2969427014915936
104	0x3f6fe86a2e170e40	0.003895003683938275
105	0x3fd4df15870e6816	0.32611597241486956
106	0xbfb60852f0536666	-0.08606451384857791
107	0xbfd1fed64d76715a	-0.2811790234061583
108	0x3fb67cb716b53a7a	0.08784050278084435
109	0x3fae30f0ab88fa69	0.05896713346418354
110	0xbfcd3e006c2d7958	-0.22845464021788575
111	0xbfb632ec08e1eeae	-0.08671450821742141
112	0x3fa3f612d6e1eeb3	0.03898676751211152
113	0x3fb10fea4d14c9c8	0.06664909726968127
114	0xbfcb43fa9da500aa	-0.21301205346572277
115	0xbfc94d70035e6104	-0.1976757065247129
116	0x3fc05da110b5bd64	0.12785733524240606
117	0x3fc947bfe363da44	0.19750212290792224
118	0xbf783a98164009e0	-0.005915254678259235
119	0x3fc2ef98b27507e5	0.1479369040844737
120	0xbfa874b790647289	-0.04776548040010648
121	0x3fd40feb49f9f8c7	0.3134716246057789
122	0xbfdbddcb90866d23	-0.43541230310229845
123	0xbfc0a71fcf7fec83	-0.13010022765942972
124	0xbfc0067601f55368	-0.12519717307682332
125	0x3fca63a19fa2888a	0.2061655072657838
126	0xbfd0721ba64c9336	-0.2569645999922615
127	0xbfd4bd06ac56c203	-0.3240372355458307
128	0x3fb2a7a509a35530	0.07287055478385152
129	0xbfd0063ace5080d8	-0.25038023136040755
130	0xbfc0a10b2ebc6e55	-0.12991466314348324
131	0xbfc7f561933636b4	-0.18717593849253478
132	0x3fc755869a00b22e	0.1822975398985291
133	0xbf7e7dd6483d74f8	-0.007444226302905969
134	0x3fc083b39cb27b1e	0.12901921416502032
135	0x3fcaf77eea1608c5	0.2106779711721797
136	0x3fb1d8d11f257a98	0.06971461306009485
137	0x3fc3ad2995fb9c1e	0.153721998437704
138	0x3f743bc5fb4b1f08	0.004939816823657635
139	0x3fd1890abe769448	0.2739893779747189
140	0x3fb04358621177e2	0.06352760690921813
141	0xbfc9fe4a80abcce9	-0.2030728462483247
142	0x3fad24707f9d18c2	0.05691863591941761
143	0x3fb212dee20f28a0	0.07060044306777735
144	0xbfc4b3ad6521eb18	-0.1617333167849544
145	0xbfa92c9c357af28a	-0.04916847374758955
146	0x3fb08e1076afa3ad	0.06466772935495042
147	0x3fcfb88b5d75e19e	0.24781934798717214
148	0xbfc92c503c5c33e4	-0.19666483828805703
149	0x3f68a6aba0b24154	0.0030091621498017727
150	0xbfb933ca4b86fdc4	-0.09844650596550425
151	0x3fc3cc148814e7a8	0.1546655334912519
152	0xbfc6c456835b76b3	-0.17786675847940145
153	0x3fba91497f4f52b6	0.10377940519476678
154	0xbfc3d166f8b34afc	-0.15482794898579033
155	0x3fcf2803eae6637e	0.24340867013668438
156	0xbf8b59fcd30bb0e4	-0.013355231466868074
157	0x3fa24993769107fb	0.03571759054513276
158	0x3fb9755ef49d0e58	0.09944718811044007
159	0x3fbb71056a93b502	0.1071933160016734
160	0xbfbde0fcc6d1515e	-0.11671428541132431
161	0x3f85256fd5c01d26	0.010325311384817026
162	0x3fb3700e6f539c48	0.07592859476027158
163	0x3fc47ef1bf3fa7e0	0.16012403333962677
164	0x3fbe78b0e576927c	0.11902909853103866
165	0x3fafc522680e7e9e	0.06205089111540228
166	0x3fba35f37ef9b24c	0.10238572931275164
167	0xbfc4beba4e81e284	-0.16207054932944598
168	0x3fbad0e26d579e5c	0.10474982423294804
169	0x3fbe07faddb94bc1	0.11730926430872925
170	0x3fa414ae355a6f49	0.03922027970585746
171	0xbfce7ce59fca1865	-0.238186553022561
172	0xbfc413fc93f74d96	-0.1568599436273927
173	0x3f9d9cba0d6be7f0	0.028918177670654133
174	0xbfaf675f81953bba	-0.06133554894278555
175	0xbf8e1c3eeb024458	-0.014702312037373641
176	0x3fcdd2555b544f6d	0.23298136672439843
177	0xbfc44be55749f452	-0.15856615793373635
178	0x3fa3c62ad000da48	0.03862127102950247
179	0xbfc3b7048e14501d	-0.15402275979488503
180	0x3fb21a77b75c77ae	0.07071636416045976
181	0x3fda785f40a181fc	0.4135969287072212
182	0xbf96525fde998366	-0.021798608743100266
183	0xbf8115975bd88f88	-0.008341963282027867
184	0x3f96d2daeac7ac30	0.022288723544914457
185	0x3fb3c95d0fc28678	0.07729131350290597
186	0xbfa62743819c7d42	-0.04326830823105833
187	0xbfa32c4d487185cc	-0.037447371571726146
188	0xbfcc336d59d0700d	-0.22031943211993657
189	0x3fd7b4d0fad7c091	0.37041115280499876
190	0x3fb00f453d84cb00	0.06273300887987077
191	0xbfb9b35b93753603	-0.10039303159756945
192	0x3fbb47f07f54b440	0.10656645878471327
193	0xbfbc2c7039df5138	-0.1100530759134174
194	0x3fc1cfb455510f2e	0.13915113607264956
195	0x3f8100a1b9ca59b2	0.008301986200689313
196	0x3fa8450628713552	0.047401611744684616
197	0xbfb4cd42a96835ee	-0.0812570251075255
198	0x3f91fd823c822f7a	0.017568621581218725
199	0xbfa352b593ee3eb8	-0.03774039679330826
200	0x3fb262526dd77905	0.07181277448350805
201	0x3fda4a3ed497c233	0.41078158150688465
202	0x3fd057520705ed61	0.2553296154580576
203	0x3fcbfe1899e13db7	0.2186918975225873
204	0xbfcaaea351a37760	-0.20845452772385453
205	0x3fd730f2c41d14bb	0.3623625674411632
206	0xbf99b077ac8d6db0	-0.025087232500806855
207	0x3fd314d6f385e4c0	0.2981469514994153
208	0x3fd1352c3154929c	0.2688703996412103
209	0x3fc983ceca37a128	0.199334954012792
210	0x3fc9b2a8f5898f8e	0.2007647704041315
211	0xbfb222e2b8239394	-0.07084481235103929
212	0x3fc1b9a9ccb683fb	0.13847849364995554
213	0xbfdc4fb392d42baa	-0.4423645910143771
214	0xbfc5ddfd5ca0d28d	-0.17083708784925414
215	0xbfd8dc1074357fb0	-0.3884316573003117
216	0xbfc21b5c6da29f92	-0.1414599929169041
217	0x3fc692701b20d573	0.17634393047925875
218	0x3fe0a0a19fcdbd1e	0.5196083184399958
219	0xbfbf5e2147b6f34a	-0.12253005982252066
220	0x3fd865e5d06435eb	0.3812193427155239
221	0xbfbc92119e6be013	-0.11160383336743988
222	0x3fae6a98fa576c1d	0.059407024916900954
223	0x3fd474a21b30eaba	0.3196187272584826
224	0x3fb86ff7096826d8	0.09545845012339826
225	0x3fd39dc8bed8e0ce	0.3065053809873576
226	0xbf713500a67a168c	-0.004200937786327363
227	0x3fe74fc055d73184	0.7284852673124509
228	0x3f992e6151c1b0ac	0.024590988745715123
229	0x3fc580bdafb99a38	0.1679913623840592
230	0x3fd372d0fe631ad5	0.3038828357934283
231	0x3f99f0c7dbb6fc79	0.025332567963911565
232	0x3fb450db274a022e	0.07935876568991126
233	0xbfc2eed933a63d37	-0.14791407606069537
234	0x3faabac488a9aedd	0.05220617454764718
235	0x3fe0d1dffe974d72	0.5256195042115179
236	0xbfd1a6c5b9e02a50	-0.27580397750776786
237	0xbfd8162cea364f6b	-0.3763534819820424
238	0xbfcad1e5b8e60d30	-0.20953055885557026
239	0x3fc9d3750ba697c4	0.2017656618965572
240	0x3fe2f1b3f2b2e903	0.5920047512256875
241	0x3fc43e97fa2f4cf9	0.15816020694783342
242	0xbfce96e2a3d1b5ec	-0.23897965430243973
243	0x3fb2b6489ec52818	0.07309392811035342
244	0x3fdfaa4a61c24133	0.4947687105823377
245	0xbfd4e2126ef78a41	-0.3262983401929525
246	0x3fb1d64701a96208	0.06967586317603758
247	0x3fc07113b5204701	0.12845083564803164
248	0x3fc04f2909dceae9	0.12741578084554497
249	0xbfc00dfe02e5698f	-0.12542700902379209
250	0xbfaa01cbf98fd51e	-0.05079495831879853
251	0xbfcdac10be02df33	-0.2318135192670013
252	0x3fbb35462ba75952	0.1062816483093674
253	0xbfb46dfc8c8aa445	-0.07980326110067988
254	0x3fc211dec612ee48	0.14117035552577506
255	0xbfb53238238890cb	-0.08279753558651064

ubias f8 [942]
0	0xbfc5d91137f79250	-0.17068686707274816
1	0x3fce14ac7f2d130c	0.23500591478127608
2	0x3fe8c669338d6177	0.7742200858001941
3	0xbfd4ed2196235c0c	-0.32697333967138387
4	0xbfd3da8fd2e4d2b3	-0.3102149543295056
5	0xbfb678cbbbdaf603	-0.08778069816886362
6	0xbfd83c31dd8b7a55	-0.37867399821508246
7	0xbfe12c514b552d70	-0.5366598578779485
8	0x3fa7c704e42875f9	0.04644027028210113
9	0x3fc5f29d0569c87f	0.1714664722854344
10	0x3fb4b187392a79ca	0.08083386560108533
11	0xbfc9efa83012f239	-0.20262625071872423
12	0xbfc31ad4847e7f8d	-0.14925629109802366
13	0xbfe2491b54a00a45	-0.5714241650424091
14	0xbfbb7e0ae45dcd0b	-0.10739200663902097
15	0xbfe454fca087ed9d	-0.6353743682260987
16	0xbfcb75147e3959ec	-0.21451049960405955
17	0xbfcc2f2b1a2b03de	-0.22018946435676318
18	0xbf918c372ae758e6	-0.017136442178377197
19	0x3fbbad1f8f728ccc	0.10811040165076519
20	0x3fe85084c7a57014	0.759828939374986
21	0xbfd0410012cc0709	-0.253967302662304
22	0xbfd281152eebdce7	-0.2891285856453138
23	0x3fe47fff78280b61	0.6406247469716214
24	0x3febcfcf29a78358	0.8691173375665171
25	0xbfd2f652b160cc17	-0.2962843639572283
26	0xbfcbaa452a5590f8	-0.21613373343564724
27	0x3fc8670e7c6c38f8	0.19064503741578398
28	0xbff9042fe69b0d9c	-1.5635222442659602
29	0x3fb505534bf68f57	0.08211250881737207
30	0x3fc9335f9be7ded6	0.19688029396615175
31	0x3fc7fd217c5e3d07	0.18741243908559843
32	0x3fdfdc7d9f148622	0.4978326848523428
33	0xbfc8a17494c45f2b	-0.19242722763078154
34	0xbfc7a90bc3a1bc97	-0.1848463731034584
35	0x3fe1074fd325f161	0.5321425556171954
36	0xbfbbc3d8fffccd18	-0.10845714807219442
37	0x3fbf9f06b25fb1db	0.12352029661969459
38	0xbfc8a3e668c13329	-0.19250183215117403
39	0xbfdfbcd2531dac06	-0.495899754684331
40	0xbfcea0c5f74ac1ce	-0.23928141188436175
41	0xbfc7108cc93a87c9	-0.18019256425492206
42	0xbfb4bf43bd0fc62a	-0.08104346624147554
43	0xbfe1c2ba10fae488	-0.5550203639642328
44	0x3fbee83e4ef77442	0.1207312529363245
45	0xbfbe0d1f51bc84ad	-0.11738773103253904
46	0x3fc7f093de4f9833	0.18702934603715135
47	0x3fd61c3e7bc7e68e	0.34547388160681514
48	0x3fd0f80661c4a3f8	0.26513824031513833
49	0x3fbadec42eb715fe	0.10496164455897625
50	0x3fcc035e034b0d0a	0.2188527599410935
51	0x3fb1f9f30fe150f8	0.07022017610262654
52	0xbfab5ba873d3fcce	-0.053433670176667655
53	0xbfe6b81c194860f8	-0.7099743360331834
54	0xbfe2437f63fd2b96	-0.5707394555005176
55	0xbff989f937f0a6fd	-1.5961849389227034
56	0x3fe41ee7b12872d2	0.628772588741038
57	0x3fddd6006a7db561	0.4661866226150178
58	0xbfd42fb3f63f8e11	-0.3154115586059741
59	0xbfd601ae6022e8cb	-0.3438526095229803
60	0xbfd5271bafde25e0	-0.33051197218500583
61	0xbfe0a4da481a3319	-0.5201236160515662
62	0x3fd1fdee16aedcb9	0.2811236592783178
63	0xbf9f8d888ac020b2	-0.03081334444871748
64	0xbfae805e49161d14	-0.05957312242667903
65	0xbfa40dfb17594801	-0.03916916522997838
66	0x3fb646a396eea7a9	0.08701536593312532
67	0xbfebd9083e009ad6	-0.8702431879981656
68	0x3fdab1fc193f5d2b	0.4171133276517646
69	0xbfba9b8fca75b3fc	-0.10393618290773071
70	0xbfcf2af6a245358c	-0.24349863932949878
71	0xbfc9a58b3df4af0d	-0.2003644993322883
72	0x3fd51a6223720c9b	0.3297353120944508
73	0xbfe02cff95df87b0	-0.505492966385864
74	0x3fe1ab9bbe3c172d	0.552198287536816
75	0xbfab9aff4dd84728	-0.05391691041235297
76	0x3fe17e47e6dd7b4d	0.5466651448331078
77	0x3f896fa2918b84e4	0.012419958178215791
78	0xbfd610973eea6c4f	-0.34476262230027016
79	0x3fc281d71da24ac7	0.14458741137476336
80	0x3fd3c494ff2a4a58	0.30887341421581516
81	0x3fe0c02a6a044312	0.5234577246320404
82	0xbfe72c48a76c2da4	-0.7241557378742312
83	0x3fda31d1d7c160ed	0.4092907530771431
84	0xbfd7f277425b53f7	-0.3741739414229523
85	0xbfdde61ebf2ae3a3	-0.4671704165335148
86	0xbfec878f1c613599	-0.8915477327624785
87	0xbfd3b07742a7b179	-0.3076456213882675
88	0x3fc278996b3219bc	0.14430539831319134
89	0xbfcd5d7a103e5ab7	-0.2294151858629527
90	0x3fd0a8c4753bef36	0.2603007454742853
91	0xbfc0581cd810fdf0	-0.12768898534885365
92	0xbfbe329e3bbfdcde	-0.11795987089850565
93	0x3fd66233e60f14c6	0.34974381891909123
94	0x3fc95c34f748de06	0.19812643122143941
95	0x3fdde43a4ceaf1be	0.46705491553782597
96	0xbfc3470a7cb0f5f1	-0.1506054982036598
97	0xbfc6fcf290b25a16	-0.17959434571521687
98	0x3fd0ebcf569cc4d6	0.26439269502868734
99	0x3fbb3f710145182f	0.10643678933146881
100	0x3fe4578eb43b3b96	0.6356881637710667
101	0xbfeaa5bbcd25d56c	-0.8327311522286158
102	0xbfd71f265c6bf02c	-0.3612762358241095
103	0xbfa8ddd062ccc03f	-0.04856730657627439
104	0x3fbe78a4b45f9fed	0.11902837184572919
105	0x3f6e59f48cb084d7	0.0037050033911475255
106	0x3fd74430fa91eebb	0.36353706807834
107	0x3fce371375605193	0.23605578643094968
108	0x3fe8216ed4018e92	0.754081167292002
109	0x3fdac2850d47a454	0.4181225423513457
110	0x3fd14b126c735637	0.27020702925560464
111	0x3fc28a56e2e3ee2c	0.1448467834342052
112	0xbfbc0f3f556e4b27	-0.10960765681947447
113	0x3fafd0f1cec4c6ae	0.06214099549323514
114	0xbfd0c022417567dc	-0.26172691719477625
115	0xbfd43d5886256d18	-0.31624425029959147
116	0x3fd28ba81e419721	0.2897739692183326
117	0x3fdde15ddc50c195	0.46688028826886213
118	0x3fd9c09289a75e61	0.4023786873126252
119	0x3f9c9f18075923a1	0.027950644920824556
120	0x3fc5991423d6d4f0	0.16873409032783782
121	0x3fd3e366705fe4f3	0.31075440382080827
122	0x3fbb9950f7a5e302	0.10780817075818663
123	0xbfdf383c712c8591	-0.4878073792661662
124	0x3fdec6c37531260a	0.48088156170396756
125	0x3fe0167baf6c53ff	0.5027445245965508
126	0x3fb0ceef126b4faf	0.06565756034552693
127	0x3faedf841711eac9	0.060299041572724095
128	0x3fcf61926c5cbafd	0.2451651600944941
129	0xbfe0089387917050	-0.501046910077557
130	0xbfbf34ac8581f8af	-0.12189749011483529
131	0x3fd3db541a70d950	0.3102617510043233
132	0xbfbb036612937b27	-0.10552061036603942
133	0x3fbdec9fab7d99a4	0.11689184128554203
134	0x3fda4b39b46d8520	0.41084139461425373
135	0xbfd9e178e7fdabed	-0.4043867364441088
136	0xbfc8db88525866b0	-0.19419960041778017
137	0x3fdc769980789347	0.4447387461280425
138	0x3fc6b2b81af8e41f	0.17732907597545108
139	0x3f51d47d2bc301b0	0.0010882589695456572
140	0x3fc0bc8726984e72	0.13075341591376205
141	0xbfb8a814ad7f2e5a	-0.09631470905076736
142	0x3fdcae9318bc83a9	0.44815518775618074
143	0x3fad4e17cd46340c	0.05723642712391816
144	0xbfa297a08d69ae53	-0.03631307340841929
145	0x3fad715ca5b99f7f	0.0575055076886306
146	0x3fc709cefafb3ac7	0.17998683218907827
147	0x3f522bf58e3dd700	0.0011091135029039356
148	0xbfdad03029348a18	-0.41895679496715976
149	0x3f92cfa1ad212fce	0.018370176498407713
150	0xbfc1a5ee996d07a8	-0.1378763436460393
151	0xbfd71a712e3a4d89	-0.3609888984148815
152	0x3fcece1cc3adb3ce	0.2406650500737712
153	0x3fb877e7c56539d1	0.09557961053108179
154	0x3fdd51faa0af5acc	0.4581286019505739
155	0xbfca11f5d4520542	-0.20367310397345234
156	0xbfd4e929e2aa9546	-0.3267311776674727
157	0xbfdc072751fe5309	-0.4379366207806901
158	0x3fc74931cebc2a01	0.18192122072680664
159	0xbfc3aeab6624d64c	-0.15376799094672078
160	0x3fd6369eb559dd57	0.3470837374693096
161	0x3fca2aa7c27493fd	0.204426736782949
162	0xbfcf89b1744c61ab	-0.24638956240302198
163	0xbfc06d9f3636a1d6	-0.12834539553774843
164	0xbfa7b4ab8105cdde	-0.04630027723296924
165	0xbf944eeee749e6bd	-0.019832356325855772
166	0xbfb406e12630f828	-0.0782299726715513
167	0x3fdbd3e0b858dc83	0.4348069954170983
168	0x3fc0eb5204180263	0.13218140792743602
169	0xbfd30443e1c8916f	-0.2971353249470416
170	0x3fc75daa1de0cd04	0.18254591425793631
171	0x3fc292f6c7fd4668	0.14510998501878025
172	0x3fd0a1fcefe9f032	0.25988696507534137
173	0xbfc5fc8281a4d90e	-0.1717684872653042
174	0xbf9149ec7dd4df5e	-0.016883559398791596
175	0x3fe5b4f84e1291cd	0.6783410572866672
176	0xbfb421e4285d9ce6	-0.07864213929643746
177	0x3fb552d0bf279daa	0.08329491297592165
178	0xbfd2093c089999fa	-0.2818136295303756
179	0xbfe7e809db75d717	-0.7470750128111118
180	0xbfd2f2af50796c3a	-0.29606230601138217
181	0xbfd79bf8c6d18f8d	-0.3688947621906145
182	0x3fdd4fe1e7bcebcf	0.45800063734685365
183	0xbfaa65a1cc3e5aca	-0.05155664079864193
184	0xbfb4d04122782044	-0.08130271045240628
185	0xbfe7aeccb5295307	-0.7400878465947195
186	0x3fc783e6987e5486	0.1837127918812806
187	0xbfafe840279110e2	-0.06231880648604872
188	0xbfe8722e9ee48cd1	-0.7639382460951315
189	0x3fda66f57bb55161	0.4125341137016872
190	0x3f9669ad78bb40a8	0.021887503141272774
191	0xbfa4395642fffe68	-0.03949994628783032
192	0xbfb5d77ea21674ca	-0.08531943757266727
193	0xbfbef8b4f8d13c20	-0.1209824664558572
194	0xbfd6ebdf83ca8eec	-0.3581465518020497
195	0x3fb776a1384ff746	0.09165389656842846
196	0xbfdad79c0a4abd33	-0.4194097614772147
197	0x3fc766674ad682e2	0.1828126063747027
198	0x3fc7f64e0ef7a43a	0.18720412951305027
199	0x3f9853c4327766e3	0.023757043438172764
200	0xbf79270c176fa259	-0.0061407539678631435
201	0xbfc09e64271511ad	-0.12983371647181965
202	0x3fd21499888a38e4	0.2825073083303222
203	0x3fe7b519f4dfd830	0.7408571036055545
204	0xbfb7c615b7f54adf	-0.09286628476301527
205	0x3fc8f04d189729ac	0.1948334093161298
206	0x3fbfd257d9cf2b47	0.12430333201988929
207	0x3fd2ca64fa1dbdab	0.29360317635925054
208	0xbfe0c228da40e129	-0.5237011206400314
209	0x3fd22404b027af96	0.28344838335646594
210	0x3fc43e04a1cf3869	0.15814264202930708
211	0x3fd1843d9bebd6c6	0.2736963293713014
212	0xbfad6e6bd296391d	-0.05748307176246412
213	0xbfe53b4c67c2aea1	-0.6634885813304728
214	0xbfb76db7767d9c71	-0.09151789324606498
215	0xbfdbf8c34529fdde	-0.43705827478694725
216	0xbfdf99b9ccf15916	-0.4937576772112079
217	0x3fb5238603600454	0.0825732954254062
218	0xbfa2c7fffbe0c518	-0.036682128426386906
219	0xbfe97aeb18b440b9	-0.7962546808721732
220	0xbfc81f04bc2f9c43	-0.18844660938995803
221	0xbfdbe36de0f7abd0	-0.43575617761115115
222	0x3fc5e6f57d3939ee	0.17111080755644487
223	0xbfe4aafc70200303	-0.6458723249380401
224	0xbfd54a1ad2fddec0	-0.3326479969468714
225	0xbf80f68f7bd33bb1	-0.008282776800482812
226	0x3fd40d5ca0aeb016	0.3133155411876499
227	0x3fdc82e6354b1cab	0.4454894562190456
228	0x3fa7b3806eeb945c	0.04629136423117394
229	0xbfdcdfd09b9fa45b	-0.45116057584397645
230	0xbfd38aa6944c7af0	-0.30533756716060534
231	0xbfb7026f14f26407	-0.08988088857076103
232	0xbfd9637ec95cfae4	-0.3966977087438137
233	0x3f83ce5834fa1ac6	0.009670914761284687
234	0x3fa6c006c501c53d	0.04443379549855784
235	0x3fe8899236654277	0.7667933523571965
236	0xbfda3e9dc18e14dd	-0.4100717916665653
237	0x3fd5cc76f703f44e	0.34060453531839563
238	0xbfcc4c902bfbbdbb	-0.22108652255654512
239	0x3fd3ea0c9468cce9	0.311160225802452
240	0xbfcf0c116bb496a8	-0.24255578764966867
241	0xbf981a2f66c0b286	-0.02353738846447808
242	0x3f4dfe1399d9efe4	0.0009152980525892721
243	0x3f89ef704ba7d2ea	0.012663724240135694
244	0x3fce7e48342475d0	0.23822882219330532
245	0x3fba508d98c10f64	0.10279164294575832
246	0x3fd48605bf45e4ab	0.32068008116727736
247	0xbfb84af4bc4fd32d	-0.09489373776871153
248	0xbfc64ea0e62dc211	-0.17427455176540765
249	0xbfb1b1155121f129	-0.06910832625175502
250	0xbfeaedc1ea89e6fd	-0.8415231304963694
251	0xbfbb6e8b06909788	-0.10715550337098823
252	0xbfd5eef19e4f669f	-0.3427089735028889
253	0xbf75fabdcedde9a6	-0.005366078794276785
254	0x3fd413d1cdbe9b08	0.3137096890663291
255	0x3fb0fda84c23bce5	0.06637050494076709
