offline_resampled_model_testing/model_4.npz (npz, 968499 bytes, 5 tensors)

imat f8 [1574, 50]
0.16427251862688336 -0.01859883674215615 -0.21705477907528983 0.44431239165570924 -0.024698822863953633 0.008630797353245984 -0.1269552839901834 -0.20028840358834107
-0.10403124940491208 -0.18821322753454733 -0.0496973185704316 0.5112300662943269 -0.20689562019448335 0.02420762455359928 0.09411692872855075 -0.08589302111333016
0.16863530667238757 -0.21506614973215465 0.17478800445267695 -0.02781611548098105 -0.046213669833960636 -0.1068694796872329 -0.0899380634891589 0.36710064881208676
-0.1842736038116638 0.0879025883490649 -0.1436455718885561 -0.0864297040401648 -0.09604635751822632 0.004726042940920311 -0.12529891193874088 0.1573321411300755
0.13157509447197602 -0.18447813356213008 0.007343617739225802 -0.2608315539702857 0.025573932909753197 -0.016622032006087785 0.22189249027559677 -0.3595650607270236
-0.07006729950761408 0.22168099534742794 -0.11308855455613813 -0.01834477490247718 0.10374611115909937 0.26934268300257547 0.22575310584942596 0.20401714410070534
0.09401817360384795 0.05617837677476015 0.008700764097956948 -0.27290965815468987 -0.2930004151450596 -0.2238526267840667 0.1113391453826469 -0.18313701289164713
-0.027204552877290525 -0.17358512919862995 -0.048105007658573784 0.07592219175202941 0.24155945657118963 0.09802594492128512 -0.34072889777207027 0.024432747720585554
-0.10433882746720258 -0.14020654006265015 0.14216931959985224 -0.021401804591326512 0.3773727665537734 -0.15644053189594276 -0.40126368792605216 -0.04513115390343718
-0.2838049017516144 -0.01944507171259517 -0.057720811759560786 0.23737891142467593 -0.10160084064559825 0.03279155222728023 -0.019650821259906262 0.2332060736577894
0.1834062409208358 -0.057237044389518446 -0.045722377363881 -0.12951156529641633 0.18423417491497732 -0.12410215970718283 -0.17350628797557918 -0.6348791914372773
-0.023579145991181875 0.3820254347034869 -0.3487836958198398 0.06023425457291039 0.28465092351043314 0.13123494157205112 -0.19761748711164157 0.04373317496738402
0.3225635866386144 -0.24904591665265555 0.25936961494802047 -0.23241459533494407 -0.040939188816653545 0.11458244427181843 0.012645849599040207 0.12397926156942811
-0.08679052540063578 -0.010507553694947287 0.055877691078875136 0.2803520243531263 0.07078408836237093 -0.11599108591827707 0.09596449395047559 -0.17662509708239066
-0.15119875212475142 0.013275306672161305 -0.14402425061723786 -0.03749843121530348 0.09441491907364616 -0.07326917877363878 -0.3515594454635997 0.1552484812042124
-0.02065540788177022 -0.07509627880867148 0.03162460863204273 -0.06841454459802447 -0.13105290032790612 -0.35700837221572923 0.09533794741300242 0.09340091890851682
-0.018191957271884794 0.10332391340202432 -0.22937814393076728 0.019626821959933757 -0.09398634558257013 0.38657876494533117 -0.14657604498725169 0.028262496628208775
-0.2585586002443564 0.1439809343938425 0.02824657577401279 0.15212909936040653 -0.10984824882658183 0.008639890502084538 -0.006726803956862799 0.030783891877642813
0.04693171855631796 0.21077157342393904 0.11127891651244874 -0.17219710985766898 0.022467397318607127 0.12712219165151614 0.2129684768614235 0.21093140863739251
0.16461599199488672 0.026610388441954777 -0.08564519476850509 0.20497486314739136 -0.472205688020267 -0.12715475093220313 -0.008627365567924091 -0.14853246241163215
0.06100891598048015 -0.06569460897329898 0.0027025917067102397 0.021626760439310784 -0.15727730741736964 0.17193507707172703 0.10216483006593537 -0.2444276209663836
0.2575768926714281 0.2222916969494473 0.11520610984922705 0.25983105633124204 -0.1754478816895855 0.06378983711116201 0.06745001714971942 -0.19182602178450012
0.1328929973194424 -0.23928982095666107 -0.09811573222340539 0.1828721883012252 0.0004507087836051124 -0.02362997846680297 -0.1430909388221603 0.1909868419855728
-0.026816161369915742 0.11590105500025391 -0.0729881095745126 0.042818519333162525 0.009230084734400897 -0.15247844804146782 -0.08841646198069412 0.14222202482935703
0.19076293005014427 -0.19906377987946225 0.30720702821969914 0.1393536747351864 0.19124617464481644 0.32793709389748327 -0.0029594930111081323 -0.15646886802626095
0.1594880479216082 -0.5331028680871377 0.20783244493064024 -0.4473288932337503 -0.1208173086210527 0.041595244387167316 0.22390270079781094 0.04116860533388142
0.2106028253661823 -0.0713835338514368 0.027550512177611883 -0.07351333669649188 0.0375235477093353 -0.20834006091971302 0.2923485482389575 -0.01193893069491997
-0.0679716872154924 -0.07887170815829825 -0.36236466215096574 0.22347594169881424 -0.15740325969677432 -0.23024964082496135 0.20916162895304463 -0.07193930138021107
-0.23357149539433114 -0.2759619830441892 0.24180510449782627 0.22441939918857556 0.12336296200016605 -0.29444797864680133 0.09654427068711806 -0.021802155879583618
0.4477239058846414 0.09373626336731167 0.20968983693728663 -0.20475031713735767 0.1839551412164764 0.1432600889229783 -0.4333643752399634 -0.09487622002803546
0.07002385785275667 0.3294683210617124 -0.31563321408294087 -0.18755944481905815 -0.028006956850724782 -0.29764811469610974 0.053111918048159484 0.047747428352532484
0.10998645272794348 -0.25510744492718535 -0.035497619986186744 -0.24612675641416368 0.004644876949260926 0.06975803473572663 0.23713463215733205 -0.08271771931140852
00000000: 6627 91c3 e106 c53f c86e 34ce 920b 93bf
00000010: e5d0 c874 73c8 cbbf a89a d73d 9d6f dc3f
00000020: de2f cdf1 a54a 99bf 70fa f602 06ad 813f
00000030: cc67 651c 1240 c0bf 6309 97e7 0ca3 c9bf
00000040: 13c4 f4bd caa1 babf 0ebe 77fc 5e17 c8bf
00000050: 93f4 ea4b ed71 a9bf d9e9 ee27 ff5b e03f
00000060: 77e1 3541 8e7b cabf a612 162f e2c9 983f
00000070: 4b9b e30a 0c18 b83f 7eea a2c4 15fd b5bf
00000080: 50ee 8d7b d795 c53f 58c2 c99f 4987 cbbf
00000090: a4bd 6d0d 745f c63f 3c98 2be9 d37b 9cbf
000000a0: 0848 2171 51a9 a7bf ce7b 3258 cc5b bbbf
000000b0: 81fc 5951 2e06 b7bf 3540 3fb8 937e d73f
000000c0: 5c8e f106 4796 c7bf 6d67 31b6 c880 b63f
000000d0: 1800 bd64 fa62 c2bf 4766 41d0 4120 b6bf
000000e0: 18d2 707c 7e96 b8bf ad91 ee7d 9d5b 733f
000000f0: d029 8074 cb09 c0bf d2b4 61a8 7523 c43f
00000100: e8d4 dce3 73d7 c03f edfc 3cbf fa9c c7bf
00000110: b088 6360 5714 7e3f 984d 84d4 76b1 d0bf
00000120: a4f2 e895 0d30 9a3f 5ad5 6faf 5d05 91bf
00000130: 8818 7b1e f966 cc3f 25d6 262c 1d03 d7bf
00000140: 3b7c e737 eeef b1bf 29ba 94f8 0a60 cc3f
00000150: bbda 5e1b 5ff3 bcbf f7d3 0801 f9c8 92bf
00000160: a0f8 83ea 1a8f ba3f e26d ba17 e93c d13f
00000170: b7fe 4b4f 7ae5 cc3f 4b30 ded8 3b1d ca3f
00000180: 84b1 db34 9311 b83f 24dc fa85 69c3 ac3f
00000190: c0ea 01ca b4d1 813f 1b5d 2212 5a77 d1bf
000001a0: 0ccc 30d0 84c0 d2bf 2ca4 94ef 33a7 ccbf
000001b0: e1dc 2ee4 b880 bc3f be43 879c 0871 c7bf
000001c0: a41c a4a3 82db 9bbf 4a72 7d9a 0938 c6bf
000001d0: f8b5 5535 38a1 a8bf 7098 9d02 a36f b33f
000001e0: 29a3 0197 6beb ce3f c7ae 9873 3a18 b93f
000001f0: 3eec 2e94 80ce d5bf 9c34 a5f1 e504 993f
00000200: 00b4 ac0b f3b5 babf 0e90 20b4 49f2 c1bf
00000210: 1c85 16b1 9a32 c23f 9036 2ecb 5aea 95bf
00000220: ccf7 af1a e026 d83f 9086 214c 3e06 c4bf
00000230: 5ebe 2de4 4dae d9bf 068e 173c 6e1b a7bf
00000240: 6bee dd08 dc29 d2bf 0cbf 4bac 68e9 93bf
00000250: 109d 9c0d 958d adbf c41e aaa2 6e62 ce3f
00000260: d7a6 d13f 8302 babf ed6f cde8 0dca a03f
00000270: 8475 9a4a 581f 94bf e65c cb55 b2d9 cd3f
00000280: 9c92 510f db79 c73f fa9c 8b83 2c4e adbf
00000290: 764c f266 ec68 a7bf b270 b3c0 d593 c0bf
000002a0: 155e 0846 fc94 c73f 6629 4ebd 28c5 bfbf
000002b0: 43b3 403c 7435 c6bf f849 842a ee50 e4bf
000002c0: 4e54 99b3 2125 98bf 8daa 12cf 1a73 d83f
000002d0: 7c26 bbd9 7852 d6bf 5aab fa32 06d7 ae3f
000002e0: 7939 d081 b837 d23f b27c 127b 4ecc c03f
000002f0: d68f 21a2 874b c9bf ec66 78d8 3164 a63f
00000300: 6a92 dfbd e1a4 d43f 19dd 9c91 bce0 cfbf
00000310: 78c8 7103 8399 d03f f6cf 09ef c2bf cdbf
00000320: 6941 2f3a fbf5 a4bf 22dc d76a 4655 bd3f
00000330: 6802 aa33 11e6 893f 1bab d2d9 1abd bf3f
00000340: 8ec9 3264 e737 b6bf 0a9a d8fb fb84 85bf
00000350: 38ff 842f 009c ac3f 5fb3 fd9d 49f1 d13f
00000360: 60f3 97f0 e71e b23f bd82 a580 97b1 bdbf
00000370: 0130 180b 2191 b83f a293 cfb3 a69b c6bf
00000380: 5431 c90f 7b5a c3bf 5bab 0280 1530 8b3f
00000390: 5bb0 1dfb 626f c2bf 5e2b 718f fe32 a3bf
000003a0: 0601 ad7d 932b b83f de36 a3d6 c4c1 b2bf
000003b0: 776d 3730 f37f d6bf 334c c3a6 2edf c33f
000003c0: 7ed9 59f5 b026 95bf bcd7 887d 8239 b3bf
000003d0: ad97 a5c7 1931 a03f 1387 9e97 9d83 b1bf
000003e0: a626 7a68 57c6 c0bf e624 c4a4 39d9 d6bf
000003f0: 9ae4 3456 1168 b83f a4e0 2064 1fe9 b73f
00000400: 16c4 2196 e9a0 92bf a2d8 f49c 6f73 ba3f
00000410: 1cc7 4c55 435c cdbf 2ff2 c4b9 0d19 943f
00000420: 9835 8c38 7d0f b8bf 502b 31dc b4bd d83f
00000430: 5e73 ccfb 00c3 c2bf 3cc8 e20a d8f0 9c3f
00000440: 028a 095f 398c d0bf a70a 3c9e f76d c23f
00000450: 1f88 b19c abec 9c3f c0ed 4261 f778 c33f
00000460: 77a8 3bcc 031f bcbf e806 2e79 cab1 813f
00000470: ae71 05b0 908d 7bbf 74ab 6e03 d085 9f3f
00000480: 525d b028 6f07 a83f c821 641b 90fa ca3f
00000490: 8bc0 276b c67c bc3f d3f6 a60d 8e0a c6bf
000004a0: fcaf d682 b101 973f 079b de3b 8a45 c03f
000004b0: 8870 9911 8d42 cb3f f6fd e5e6 ccff ca3f
000004c0: 2321 0207 2312 c53f ec42 5ef0 c03f 9b3f
000004d0: 911c 97ee d7ec b5bf f12c dcc6 9d3c ca3f
000004e0: fd0f c234 9e38 debf 9275 645c 9b46 c0bf
000004f0: fe0d b867 39ab 81bf 46e5 399a 1c03 c3bf
00000500: 0a18 cd85 8f3c af3f fc56 10a5 5cd1 b0bf
00000510: a815 d5df be23 663f c297 3853 5325 963f
00000520: 6759 e1ad a921 c4bf 9b76 87f6 f701 c63f
00000530: 4941 ef6b 7927 ba3f f014 257f 6749 cfbf
00000540: 57a9 8eca 237c d03f f1fc 48e8 0d74 cc3f
00000550: 7610 1aca 257e bd3f 6061 5b70 12a1 d03f
00000560: 012f 0181 1375 c6bf dea8 35e0 8754 b03f
00000570: 9fce c581 6744 b13f fb08 0b4d c18d c8bf
00000580: a95d ad42 a302 c13f 9c24 a381 0ca1 cebf
00000590: fe63 1fd5 1c1e b9bf 0805 0d1a 5b68 c73f
000005a0: 8089 507c a389 3d3f ad62 e102 7532 98bf
000005b0: bd2c 4ccb cd50 c2bf 6cad 25c0 4172 c83f
000005c0: e828 5a20 b275 9bbf ee48 cc08 b1ab bd3f
000005d0: be90 9e47 59af b2bf 64ed 6518 4fec a53f
000005e0: fea6 9600 39e7 823f 906a d7ed 6984 c3bf
000005f0: 7b96 a214 76a2 b6bf cedc b4d0 5434 c23f
00000600: 6e60 ed70 eb6a c83f 6541 3304 ec7a c9bf
00000610: 6a84 d3aa 47a9 d33f 7653 c859 57d6 c13f
00000620: e1d3 ca30 c17a c83f 94d6 5bdd ebfc d43f
00000630: 5820 41b6 813e 68bf 41e9 81ff 2b07 c4bf
00000640: 548d f6b6 1a6a c43f 60d1 fabe 2d0f e1bf
00000650: 542d 03e9 409a ca3f 59ab bf5d 09a1 dcbf
00000660: f272 5115 e2ed bebf eebf 9fcc f84b a53f
00000670: 68d2 b4fc d7a8 cc3f ecd8 0f2b 0d14 a53f
00000680: 424c b28b 08f5 ca3f 7f65 5df7 3046 b2bf
00000690: ccdf 2993 3336 9c3f aa67 ee20 c5d1 b2bf
000006a0: b0a4 7b54 4936 a33f 7064 0c1a e3aa cabf
000006b0: aa0a 6eaf d6b5 d23f e035 1227 7073 88bf
000006c0: b8fc a4ad 9766 b1bf a89a 1eaf ef30 b4bf
000006d0: f486 4a8d fb30 d7bf d404 8512 dc9a cc3f
000006e0: 7239 573e ca25 c4bf 7425 a1fa d178 cdbf
000006f0: 8e38 f7e9 cec5 ca3f c69f b932 9d6a b2bf
00000700: 3a8c ffb6 abe5 cdbf 664d 0773 5ca9 d1bf
00000710: b279 e93b 78f3 ce3f dc2b 0d5e c6b9 cc3f
00000720: 4812 540f b794 bf3f 0953 aa55 3cd8 d2bf
00000730: d3a3 3715 20b7 b83f 90bf f0e9 4d53 96bf
00000740: d85c 5a2b 82a7 dc3f f8a1 9c89 19ff b73f
00000750: 0180 f9d7 1dd7 ca3f 97ac f925 4235 cabf
00000760: 9158 ba91 d78b c73f ea84 5fba 5856 c23f
00000770: 2c0e baee 3dbc dbbf 5b42 30d6 ce49 b8bf
00000780: f8d6 6a63 15ed b13f 1ccc 014c 0216 d53f
00000790: 5220 01a7 5533 d4bf fbe1 c6a8 f201 c8bf
000007a0: 6cf8 ef0e dbad 9cbf 8a7e 95ad aa0c d3bf
000007b0: ecdf 163e 7c31 ab3f 9805 7cd6 5972 a83f
000007c0: 8f35 7879 1228 bc3f 9d6a 3b2d ae53 d0bf
000007d0: 435f da79 be2c a2bf 0315 bce0 1481 cfbf
000007e0: 50d1 74a9 8106 733f c9bb d29d a9db b13f
000007f0: 82af ee78 6d5a ce3f 4b01 3e0b fd2c b5bf

gbias f8 []
3.5324010163455575
00000000: 9b7d cc76 5b42 0c40

ibias f8 [1574]
0.32371673035498744 -0.004817471273566354 0.536345055731646 -0.2832898539038626 -0.33076930366851076 -0.32641486994467067 0.16200811306147142 -1.252981497580145
-0.014979829984299914 0.17708494783808826 0.18381185773375702 0.15069923774083188 0.07431706267310359 0.3292122151720249 0.24606353256881516 0.11261754922599579
-0.6591609147110015 -0.0009954735961578173 -0.29931601581138917 -0.040697995734391354 0.13424072205940404 -0.18446689456832924 -0.07465038112958405 0.48110929144480624
0.5212120508069515 -0.34366751362129805 0.28298745540425896 -0.2518219352474581 0.23459901097555938 0.7418015796256796 -0.9233663583549436 -0.3689669581997502
0.22421903447172048 -0.2427486214878277 -0.45402448597228956 0.3803836381292714 -0.5977411701421793 0.379267891480454 0.22508998514040213 0.2096574149079307
0.1839323615643353 0.40440993180924734 0.20021359345510836 -0.251821935247458 -0.5742133575415642 0.3032469067652017 -0.284915156867621 -0.2841264068999149
-0.19949146346121316 -0.24102569873757076 0.5274978886079682 0.7817712567727589 -0.36795939190753396 0.22355980118207516 -0.3407018563302671 0.19295207429349504
-0.26592081307644605 -0.40805769484012683 0.014363085696327766 0.45376469419720916 -1.3952832198241523 -0.16161992118740395 0.3625442239402486 0.04314466918752377
-0.12670525369930125 0.6655990573026711 0.7242190344717198 0.3500942701470883 0.2745674581989458 -0.5129302786476816 -0.574650381129584 0.1738371998860565
0.4942190344717202 0.09791586565174723 0.7394674715719125 0.5292842158926624 0.168231688570032 -0.8259208130764459 0.389280840334198 0.6008740471760392
-0.5509842790993384 -0.028247039890998894 0.03414911069763723 -0.7178451784717917 -0.19437237232087515 -0.3105672595349086 -0.07700084695463122 -0.4588448961535811
0.0168953740568089 0.6709090090630805 0.3368950243082645 -1.0772301606936598 0.557549935076084 0.22937055741809356 -1.4338082355408246 0.03487568752099119
-0.4588448961535811 -0.3845118451384582 0.05441413105666042 -0.6954675700849398 -0.10447502768225163 0.5820366424584359 0.8718941489286679 0.7526562398218809
0.4067810328238873 0.2604339844479167 -0.2904005543703041 0.44672402902701164 -0.5717538080594461 0.6135659678009524 0.2025221908782317 -0.8259208130764459
0.10726375291298458 -0.188465368547887 0.2995163810240939 -0.7562091659109307 0.8466982590874776 0.19504496393638773 -0.48624255018983703 0.18665188269274705
-1.2493007622591679 -0.17133846341089312 0.10664729456290978 0.35353322761317724 0.07798458704875308 0.47719326020122227 0.20014849004705582 -0.27763616100062266
0.5822441995869989 -0.7235431475273021 -0.2734007340273471 -0.03843663988613271 -0.03956336607437984 0.1027328819357635 -0.08809783205077605 -0.5370953902104492
0.5521776896530598 0.43444373571486267 -0.1405108506122852 0.5627858526844175 0.612425181083308 0.490746853930336 -0.26592081307644605 0.06881476957067362
-0.47304369199813673 0.3787867787711565 -1.2272339262015752 0.4316298310656394 -0.45766621875927604 -0.3086580866065891 0.4300934227749794 -0.2882673442303717
-0.31585088930236305 -0.5010424298978633 0.17238507858841176 -0.6810671183758034 0.1873381877374537 0.569711927861924 -0.24085088930236304 -0.09578015145839239
-0.9706294425819061 -0.11231383887913193 0.5535828956038591 -0.3146241036693522 -0.3731834040965235 -0.43342790602859044 0.34025179672199657 -0.9770674410251866
0.7300243002160954 0.02603155343086921 0.9533956799549129 0.07994787995360261 -0.08491515686762069 0.21048790575723864 0.0764836967645922 -0.7373367495407168
0.44009316108653423 -0.14655877735272096 -0.4628188509466345 -0.37491001485959774 0.31587194191479634 0.4006992377408317 0.4291868932406706 -0.807607284889561
-0.23092470487584857 0.22479469106452707 0.17222770027523643 -0.13135008275695093 -0.643900592868242 -0.15236583947314022 -0.20845704361912926 -0.42852569873757085
-1.040850889302363 0.4913419133934109 -0.09686216390495844 0.2958111818624394 0.25748946422605584 0.3392145637208956 -0.36602569873757074 0.544304056184857
0.16866803678767994 -0.8723617010175618 -0.6008368486310988 -0.03624186768955992 0.14385992686788857 -0.42160067756370506 0.6453323653851823 0.34001089782290655
0.7681526004555824 0.9250696217105961 -0.1560044208134216 -0.4213813088606983 -0.11033418028796456 0.1111164002657454 -0.17268664996892613 -0.297919440758006
0.16430578878021532 0.18536840987474182 0.7026811338077165 0.7352051212563782 -0.7059208130764462 0.09891669049829865 0.22256290030176537 -0.47018118028261485
0.5449929743789651 -0.5785387721480475 0.4402383695702431 0.17459906065031783 -0.09258653096692075 0.3119990320518505 -0.29546757008494023 -1.2982927708934553
0.004208948773079043 0.1800819175071247 -0.19309183304141614 -0.1005684789971449 -0.04053688933849166 -0.14390059286824186 -0.019939086981881522 0.05478958083843746
-0.007219121167863728 0.047802734411181116 0.5113359594893844 0.09409903070747745 0.27041608781131865 -0.44274707246617623 0.2452355012825572 -0.643900592868242
0.31764719683407105 -0.5145089871096714 -0.02287130565568763 0.12174732001473078 0.9204403980111849 0.6997809558280119 0.12174732001473094 -0.13408388120253598
00000000: f3bb 8260 c6b7 d43f 8035 1c19 7cbb 73bf
00000010: 92a3 371b bd29 e13f b790 73c4 6b21 d2bf
00000020: 7eb9 7103 532b d5bf ffc9 d531 fbe3 d4bf
00000030: 7f91 a48d aebc c43f e398 a953 360c f4bf
00000040: 3dc3 0ebf bead 8ebf d00a ca35 b8aa c63f
00000050: d6af ca9e 2587 c73f 2283 d0d4 1c4a c33f
00000060: 323c b769 7106 b33f 4ce2 661c d011 d53f
00000070: 7f86 8f84 027f cf3f 529e e1f2 80d4 bc3f
00000080: bb86 6fa1 d817 e5bf 0ea6 87a2 514f 50bf
00000090: 470d c55c fe27 d3bf 5e48 6221 5ed6 a4bf
000000a0: 33ae 84cb cc2e c13f c1cd ae77 9c9c c7bf
000000b0: 44e3 9591 491c b3bf c3a8 23a0 7eca de3f
000000c0: fee6 0fe5 c4ad e03f fbde ec06 a6fe d5bf
000000d0: 66ee 886a 771c d23f a668 13c0 d91d d0bf
000000e0: 4130 e823 5707 ce3f 40a1 93aa d6bc e73f
000000f0: 208e eb9a 378c edbf 1171 b196 279d d7bf
00000100: a62e 1996 35b3 cc3f 133b 3807 6312 cfbf
00000110: 7163 b5b7 bc0e ddbf d1b7 6c9d 3458 d83f
00000120: 4678 2717 b220 e3bf 1936 95d5 ec45 d83f
00000130: 4ce6 6aa6 bfcf cc3f 115d 32de 0dd6 ca3f
00000140: 9e24 cc7a 188b c73f 7817 d331 dae1 d93f
00000150: b05a 0d5a 99a0 c93f a468 13c0 d91d d0bf
00000160: ec27 f2b0 f45f e2bf 68dc cab6 6568 d33f
00000170: a164 38c8 0c3c d2bf fb2a 6486 202f d2bf
00000180: d4d3 b2af ef88 c9bf a965 c91a eed9 cebf
00000190: 02f8 8840 43e1 e03f 9356 9927 4504 e93f
000001a0: 11ee 9f8c a58c d7bf bf7d 6389 9b9d cc3f
000001b0: cdff a728 0fce d5bf 2499 6450 a7b2 c83f
000001c0: d74c dfba d804 d1bf 2b0c 8e05 9e1d dabf
000001d0: 1dd8 aeba 646a 8d3f 5903 6a12 7b0a dd3f
000001e0: 46d6 5c7f 1453 f6bf 4be5 f029 f6af c4bf
000001f0: 1555 4bb0 ec33 d73f 6c76 50de 0e17 a63f
00000200: 4a58 6fb4 e037 c0bf fea0 eb64 964c e53f
00000210: a34b 8665 cd2c e73f 731e 33cc f167 d63f
00000220: 12a9 6063 8392 d13f 4f70 7dc2 ec69 e0bf
00000230: 68bc 3232 8963 e2bf b45e 2b20 4c40 c63f
00000240: 9678 87df 48a1 df3f 46d9 bba0 0311 b93f
00000250: f86d dbaf b7a9 e73f 1f89 b173 e5ef e03f
00000260: 0c92 47b0 9d88 c53f 56f8 277c f16d eabf
00000270: 3f77 8c2f fae9 d83f 285c b435 5c3a e33f
00000280: fcef 6ac8 a9a1 e1bf 8a9f 29c2 caec 9cbf
00000290: 1b86 4403 fe7b a13f 8915 a473 96f8 e6bf
000002a0: a59a 2ea3 31e1 c8bf 2a4a ba7f 55e0 d3bf
000002b0: 9c37 6fd7 53b6 b3bf 27a2 bafb b65d ddbf
000002c0: 6d58 1c5c 054d 913f fc90 902b 1678 e53f
000002d0: 29b4 e525 b08f d53f 021b 67b1 553c f1bf
000002e0: 103d 21f6 72d7 e13f 0954 63b1 035c cd3f
000002f0: 0622 86e7 e0f0 f6bf 3906 a8e2 39db a13f
00000300: 27a2 bafb b65d ddbf b9d5 f291 d79b d8bf
00000310: 2640 a842 2bdc ab3f 5e30 9e34 4541 e6bf
00000320: ebda 241b e0be babf 15d8 0d4f 0ba0 e23f
00000330: c11d e78e 8ee6 eb3f 3b4a e589 c215 e83f
00000340: 1126 2750 b308 da3f 2d21 7e4d f3aa d03f
00000350: bcaf f034 ec95 d2bf 2189 c061 2097 dc3f
00000360: 2f52 5fa4 ce4b e2bf 0699 b418 55a2 e33f
00000370: a6a4 4445 3fec c93f 56f8 277c f16d eabf
00000380: e5b7 ce26 a375 bb3f d9be 2b19 a21f c8bf
00000390: 3358 47c1 462b d33f 7abb 9090 dd32 e8bf
000003a0: 188c 8bf2 2618 eb3f bd9a adbe 3bf7 c83f
000003b0: 974b bf12 991e dfbf 897a f379 35e4 c73f
000003c0: 0156 cccb 22fd f3bf 5dc6 7234 6bee c5bf
000003d0: 80c5 5ab2 3c4d bb3f 8777 a9d4 49a0 d63f
000003e0: e669 f742 ccf6 b33f 43e5 9b99 558a de3f
000003f0: 0046 8c39 779e c93f 8dd1 eb75 cac4 d1bf
00000400: 2261 7096 bea1 e23f 43fd 7bf5 4327 e7bf
00000410: f263 d6ca 657f d1bf 27e2 8e9e f7ad a3bf
00000420: 727a d146 a641 a4bf 9b4f 23c0 b34c ba3f
00000430: 79af 815b 948d b6bf dc28 f9ab e22f e1bf
00000440: db80 d48b 70ab e13f d73b 3619 edcd db3f
00000450: b873 0e72 42fc c1bf 23cb fd79 5702 e23f
00000460: 6dfd 7fb1 fc98 e33f 42b9 0f7e 6568 df3f
00000470: d74c dfba d804 d1bf 84ae c940 d89d b13f
00000480: 9182 ad0c 5946 debf ecac bee6 0a3e d83f
00000490: 353d 990a c0a2 f3bf 4fea 19ba d29f db3f
000004a0: 4e86 8340 674a ddbf 54c2 e7d8 0dc1 d3bf
000004b0: 6ac4 4290 a686 db3f a259 fedf f872 d2bf
000004c0: a8d5 fda5 e636 d4bf f23a 4a22 8a08 e0bf
000004d0: e784 6dd9 b610 c63f dbc2 f944 4dcb e5bf
000004e0: 24e8 cf9e b2fa c73f c0db 4982 143b e23f
000004f0: b611 62b2 33d4 cebf 1aa6 1e4a 0c85 b8bf
00000500: 6191 0d7a 650f efbf 08c4 df88 99c0 bcbf
00000510: 38cb 077a f3b6 e13f 7bc3 f222 cd22 d4bf
00000520: 124a 00a5 3ce2 d7bf 7942 6466 48bd dbbf
00000530: b6e0 d478 afc6 d53f 1511 26f0 2244 efbf
00000540: 4dd4 d6eb 5b5c e73f 6f40 99fa 03a8 9a3f
00000550: a5ba 31a8 3782 ee3f 9e06 c9d9 7677 b43f
00000560: 3c5f aeed ffbc b5bf c026 b787 44f1 ca3f
00000570: 77f6 4780 6f94 b33f 8252 2d3d 4398 e7bf
00000580: cdd5 8381 7c2a dc3f adf9 d521 70c2 c2bf
00000590: 2170 32f5 d29e ddbf 3ef3 3093 86fe d7bf
000005a0: 3fe0 0ff3 3e37 d43f 8e41 686a 0ea5 d93f
000005b0: 24cb 954d cc77 db3f aa95 933b ebd7 e9bf
000005c0: 4bde a3d3 f08e cdbf 6fe1 378b 12c6 cc3f
000005d0: 02df 12aa 8e0b c63f c04d e25a 14d0 c0bf
000005e0: c0cf 876a d59a e4bf d948 c84c b980 c3bf
000005f0: 4e85 7b6c b8ae cabf d6b2 640d f76c dbbf
00000600: 030f 1943 53a7 f0bf df70 4b5a 2572 df3f
00000610: ec0b 3172 f5cb b8bf 70fa f805 92ee d23f
00000620: 1797 fa16 b57a d03f 9b85 6000 b1b5 d53f
00000630: d4b2 640d f76c d7bf 879c 0c57 f06a e13f
00000640: 241a f10a ea96 c53f 4fe8 0416 63ea ebbf
00000650: cf45 e332 0e3a e3bf 1cfb f148 4b8e a2bf
00000660: ce1f 8d88 006a c23f 2be2 8668 81fb dabf
00000670: 5826 8c0f 90a6 e43f f7b5 9b11 bdc2 d53f
00000680: 1d69 29c3 b494 e83f ada4 789b 2b9a ed3f
00000690: 9d68 b6ee f3f7 c3bf b3f3 2c4f e9f7 dabf
000006a0: 25c0 f75f dc3e bcbf 9ecc 30d9 1f72 bc3f
000006b0: 5842 099d 981a c6bf da7c b9b3 1c11 d3bf
000006c0: 8960 adda f807 c53f 25d0 0fed 26ba c73f
000006d0: 0b0d 2725 5d7c e63f 42bb f4e3 cc86 e73f
000006e0: 8154 b73e e796 e6bf c8ff b7ae 9a52 b93f
000006f0: bbab 0ced f07c cc3f 718b 20ce 7217 debf
00000700: cb3c 301b 9570 e13f e600 3bbe 6383 e2bf
00000710: 56e8 ef8d dd2c dc3f 50e5 b313 4359 c63f
00000720: 7392 8d3a c0b3 b7bf 75f7 c2c9 caf7 d33f
00000730: 2bc7 a2cf f0e8 d2bf 06ee f9a3 cec5 f4bf
00000740: 496c 4b15 673d 713f 1aa4 259d ec0c c73f
00000750: 3ecf 04b2 3bb7 c8bf 751b 4d18 dbbe b9bf
00000760: c214 fb4b 40c1 a4bf fc3e 1faa 556b c2bf
00000770: 6243 ff79 e96a 94bf 94ab b943 610d ac3f
00000780: 8c3d 2615 cc91 7dbf c229 e999 9979 a83f
00000790: 6dd2 e83a dd5c e03f 8552 79c3 df16 b83f
000007a0: 688f 5d47 7f4e d13f 0516 29d1 f755 dcbf
000007b0: ebd2 e97c e063 cf3f c0cf 876a d59a e4bf
000007c0: d460 84e8 5454 d43f bf4a 248d db76 e0bf
000007d0: e263 3b57 936b 97bf 21c3 d615 d52a bf3f
000007e0: 2702 ec6b 3f74 ed3f 48a3 f407 9b64 e63f
000007f0: 2dc3 d615 d52a bf3f 17c3 571e a929 c1bf

umat f8 [942, 50]
0.04355217966132134 -0.08745249743355799 0.06014767143873106 0.29054483218900384 0.020408279910532366 0.3211505475464632 0.21594992302304677 -0.09811117278679429
0.2421609609979878 0.19860521858560842 -0.23283622388274686 0.3230053942149419 -0.2687646419709049 -0.040186428758398784 -0.1851254336144298 0.12664260152375878
0.022196803134533784 -0.03424115887010558 0.01994076868644445 -0.2255960686362522 -0.053994305207941934 0.13056230847633424 -0.5157680015270217 -0.022906409357020353
0.11297607757680724 0.32717310621564366 -0.30996345735986186 -0.2648572674841456 0.002815238641953239 0.33129269905586384 -0.41957151113021024 -0.022122835859629597
0.39258716814698436 -0.10522161734261784 0.08794057547563697 -0.06105124333173262 0.157977965781211 -0.3639923177265402 0.05480137700617261 -0.6012724116441904
0.12110913563945486 0.03283587211778183 -0.14493968187547596 -0.3298902108540338 0.36702858343752154 0.30826617643825527 0.20443093854659616 0.4865449287652688
-0.06393081271248645 0.34596629598123263 -0.2771901467663489 0.027946486435967206 -0.017327268106352597 0.12077712211052558 0.08163531561960947 0.29940239488905696
0.0025470364061079276 0.22487409138016323 -0.01363132096526452 -0.10344038473267095 0.045438088352379155 0.008518311750891263 -0.02557003575550643 -0.16143386281646052
0.26492449571428706 0.011922829718262501 -0.03737107708898383 -0.139197077683571 -0.36945287330280546 0.10119317053051757 -0.08537169338220944 0.11970009720135047
0.054782127189953095 -0.2402269996927075 0.01541588317295231 -0.21019997580949248 0.11221659634195254 0.27294736218642945 0.043172301051346104 0.30073516541081197
0.057010722177466486 0.2823030922213279 -0.18489477094372223 0.2297540855549429 -0.12248663024063801 0.2501053087229461 -0.015428760287644262 0.5001049412057518
-0.14063931077247743 -0.18691588680412202 0.3234665176321131 -0.11859597720308603 -0.061739757013818564 -0.06155353745470096 0.21367410824476846 0.13513388389269687
-0.28891271384799744 0.16319394159165618 -0.23749932411560482 0.02435307196958865 -0.29941680638189727 0.09065440090936233 0.19306727881146366 0.014688890811473634
-0.04226444142571171 -0.0950746706947829 0.21565518169979367 -0.2440352322944701 0.24366623171439544 0.01829981003376783 0.05736719263469724 -0.0116843489122786
0.3543383453709088 0.07295206188284907 -0.26974341332582263 -0.12019350249265162 -0.02706431888157763 -0.029209874660834516 -0.16352401839669276 -0.043333599604327824
-0.1830363891307467 -0.16746098924696418 -0.018574455499173324 -0.049037851955154345 0.14815883507395708 -0.02594516209442056 -0.3392742140129096 0.19646281873249527
-0.1220564957621999 -0.022584868619113452 0.07590452845385733 0.15134783097730398 -0.3591004662364229 0.08995475848010087 0.0401068411627826 -0.14737759747266913
0.10373159167342913 0.08382166366122043 -0.09331018321589779 -0.2036784074935425 -0.20066218740793915 -0.2186101328091885 0.18675794515872224 0.31268273654801393
0.2961173960218778 0.27079532820683294 -0.005491596269508119 -0.34664343843068024 0.006335500723699164 -0.22489543898791609 0.1400030361968522 -0.013754275594785051
0.12196134889448502 0.03329962088906957 0.13118140523701205 -0.0392297630061239 -0.03344868516646704 -0.11144327477204255 -0.0729736918780062 0.2806297362836391
-0.029459450156102185 0.19528968866413537 0.18557121150996214 0.021605748618038753 -0.286297959662272 -0.08024685430334166 0.0724247595022722 0.07215223090293395
0.26368302189962733 -0.09005224516317906 -0.3213697810791539 0.26669387487968904 -0.08834932646967034 -0.282185159942752 0.20585867484432907 -0.05070976636114605
-0.05565494048960948 0.34137013820212564 0.11890415919876363 -0.38022979421318787 0.014419769087774939 0.0195737665182361 -0.11323395396255154 0.06483786707736802
-0.09570436652154946 0.3933105096023923 -0.18423738081882043 0.17279273203520162 0.22243860628954926 -0.22348828527458553 -0.09340207030153433 0.13731098269892092
0.1101223753270523 0.13721312945174705 0.08012429116257033 -0.12019165370925272 -0.07735898811734576 0.13484706506651595 -0.2607366425418649 0.1001821569901116
0.06833627615830445 0.07532760839747535 0.04067517830728913 0.30340526647510946 -0.19363497031209262 0.011687479958243163 -0.012101170358467618 0.13396158634414818
-0.2942939939735004 -0.08133344197318233 0.18309646816708375 -0.25410453966016305 0.052509401578034236 -0.25625475092515815 0.030106490905962187 -0.23181313104709925
0.17492253450148154 -0.010350229618479895 -0.0756326612259413 -0.03099233457841219 -0.15668109832013508 0.270974550447735 -0.1704327362163133 0.1625299457097558
-0.2705792602003191 -0.41029432240615565 0.2691755352431263 -0.15555904035899448 -0.20737166133943025 -0.1157626908420792 0.23410487232155444 -0.10035947674819463
0.03222597624515583 0.20949247346625427 -0.14412017438220323 0.0662815849424438 0.3271214893222576 -0.059320239182328316 -0.14619933834979776 -0.23266291263572272
0.10393534530924688 0.42116007336055816 -0.10530509748416193 0.21581923049197987 0.226516110971866 0.04559392158755579 0.04907329835433111 -0.20105173577424634
0.10093155337950407 0.05070927328091128 -0.05013353897254136 0.6466892115266114 -0.01746616468069065 0.13034334464393205 0.24280690906472077 -0.09620243538647516
00000000: 7639 a1a6 784c a63f 703f 6e70 4963 b6bf
00000010: 0712 85f3 accb ae3f 5482 115a 4998 d23f
00000020: 9626 227b e8e5 943f ca7d b306 bb8d d43f
00000030: 0696 7a40 3fa4 cb3f 12d2 7d56 d01d b9bf
00000040: 5959 ed5f 21ff ce3f 70ef 5153 e56b c93f
00000050: a144 73cf 93cd cdbf c26c 25d1 1eac d43f
00000060: 1084 e59c 7033 d1bf 784d 85ca 5093 a4bf
00000070: dc11 84b1 30b2 c7bf 7296 e923 d335 c03f
00000080: a77f 273e c2ba 963f ae69 0ca3 0e88 a1bf
00000090: 1f26 7655 5a6b 943f 520e 73fc 54e0 ccbf
000000a0: 04a3 133e 24a5 abbf d580 7f06 44b6 c03f
000000b0: 0138 5ce5 2b81 e0bf 3a90 3a1c c774 97bf
000000c0: 1539 6c0e 00ec bc3f 52ec d477 67f0 d43f
000000d0: 6234 14f8 70d6 d3bf f8f2 7ce5 6bf3 d0bf
000000e0: 4257 b9bc fb0f 673f e94d f64a e633 d53f
000000f0: abcd a877 42da dabf a02b 0c62 5ea7 96bf
00000100: b450 01ee 2520 d93f ea9a 51cd cdef babf
00000110: 9ac6 a807 4683 b63f 10d8 faca 1b42 afbf
00000120: 976b 423a 9f38 c43f e75d 286f a64b d7bf
00000130: a1d8 0814 ed0e ac3f 8ff6 ffa3 9f3d e3bf
00000140: 3c7b d120 0201 bf3f 7055 c309 ddcf a03f
00000150: be1e c62c 628d c2bf 24df b8d4 eb1c d5bf
00000160: 5ced a374 657d d73f 38fa 900e a2ba d33f
00000170: 5a92 ac01 cb2a ca3f f436 4557 8d23 df3f
00000180: 6f8c ce0d c55d b0bf 587d b0d1 4f24 d63f
00000190: 58a2 c8bd 7bbd d1bf 2252 1ff5 009e 9c3f
000001a0: 8f1b 6247 3dbe 91bf 3ed8 91dd 3feb be3f
000001b0: a1ec c852 0de6 b43f fc1f 99a9 6829 d33f
000001c0: 804d 1cc2 85dd 643f b006 199a acc8 cc3f
000001d0: 760a faed bcea 8bbf da31 83ad 117b babf
000001e0: 4eb5 ee3e a943 a73f ce01 1973 0c72 813f
000001f0: 414f 4f0d 082f 9abf 3bbf a164 dda9 c4bf
00000200: 4f23 40df 85f4 d03f 70c8 b91d ff6a 883f
00000210: b5b3 d343 4d22 a3bf 43c3 2cb8 35d1 c1bf
00000220: 07ec 0faa 1da5 d7bf e0d2 01ae cbe7 b93f
00000230: abaa 1457 ebda b5bf 62cd ce62 aaa4 be3f
00000240: 7c50 5f29 670c ac3f ceef a521 c2bf cebf
00000250: 90c7 88d0 5c92 8f3f ad62 dc32 d5e7 cabf
00000260: 2d6c 5b13 3aba bc3f 0eb1 8736 f877 d13f
00000270: 269a 370a ae1a a63f e594 0cb5 3e3f d33f
00000280: 1e10 8c66 8230 ad3f 1c9e 29fd 4011 d23f
00000290: 25cd 33c1 a1aa c7bf cf59 caf5 9468 cd3f
000002a0: 51ae 14a7 485b bfbf ac58 61b2 b901 d03f
000002b0: b477 d326 1d99 8fbf 9f7e e113 dc00 e03f
000002c0: e65e 260c 7800 c2bf ee98 761a dcec c7bf
000002d0: 022e a5e8 acb3 d43f 2140 8653 4e5c bebf
000002e0: 4884 797a 5a9c afbf e460 a4fc f183 afbf
000002f0: 32e5 7455 ac59 cb3f ac46 f32d 114c c13f
00000300: 600c 58c0 8b7d d2bf ca4f 0501 8ae3 c43f
00000310: 3406 f3ba 6066 cebf 9483 aafe 02f0 983f
00000320: e21c d21b a529 d3bf 3ce9 2477 2035 b73f
00000330: 3b23 36b8 6db6 c83f 48c7 328d 3515 8e3f
00000340: 2d0e 6a53 afa3 a5bf 4ee3 4f49 d056 b8bf
00000350: db88 4ec8 969a cb3f c064 e3e6 8b3c cfbf
00000360: 622b 2d80 7430 cf3f eae0 7876 2fbd 923f
00000370: 3e6e 7590 3b5f ad3f 6256 a0c3 f6ed 87bf
00000380: 3c8e 45bd 7aad d63f 476d f67f fcac b23f
00000390: b2ee a2e0 7943 d1bf 4acb 655a 00c5 bebf
000003a0: 5387 f0b1 bfb6 9bbf 4ede 8d81 31e9 9dbf
000003b0: fde8 8fe3 5aee c4bf 22b2 3c52 d22f a6bf
000003c0: c0b1 a584 bc6d c7bf 54f4 1598 5c6f c5bf
000003d0: b6cb a39b 2e05 93bf 55b3 d344 7d1b a9bf
000003e0: ffc7 a063 def6 c23f e364 bd5a 5e91 9abf
000003f0: 76f0 6331 abb6 d5bf 7803 ab92 b125 c93f
00000400: 8021 9031 183f bfbf bd08 6ae0 7c20 97bf
00000410: d1de 53ab 7a6e b33f 781c 2fa0 5d5f c33f
00000420: b6ae 9d85 80fb d6bf 14a7 ca69 4607 b73f
00000430: 6cb0 4746 e288 a43f fd71 a7e4 44dd c2bf
00000440: bea5 cc51 278e ba3f 760a 1f28 5675 b53f
00000450: e0c9 4b19 2de3 b7bf 3006 8b51 2212 cabf
00000460: 7bff 3a6e 4caf c9bf e0ad 7eb5 6afb cbbf
00000470: a8c8 5c31 afe7 c73f 1ad7 df73 fe02 d43f
00000480: 8a33 ec60 96f3 d23f 30b5 a3ed b554 d13f
00000490: f801 1626 5b7e 76bf 5cb2 dbf5 672f d6bf
000004a0: 10d9 9706 41f3 793f 3880 bcad 5fc9 ccbf
000004b0: 0d31 e796 9eeb c13f 88d0 e09e 332b 8cbf
000004c0: 5dbb e0e4 db38 bf3f 1021 60dd a50c a13f
000004d0: 8c0b ab62 8dca c03f 8f42 486a ec15 a4bf
000004e0: c0b2 c4a1 2f20 a1bf ea4b 81e4 8b87 bcbf
000004f0: 629c 1564 67ae b2bf b6e4 e76c d6f5 d13f
00000500: 6016 ea3b 9e2a 9ebf 627c 07a5 40ff c83f
00000510: 68d7 4126 ccc0 c73f fc5a e13e d11f 963f
00000520: 964d 6aad b452 d2bf 80f8 d6ce 0e8b b4bf
00000530: eea0 7bd5 6d8a b23f 35c1 0f90 9178 b23f
00000540: 4070 e4c0 2ee0 d03f 1c40 e8f7 a90d b7bf
00000550: de16 ea8e 5291 d4bf c5b6 a92f 8311 d13f
00000560: 9a94 cfbb 0f9e b6bf b7b8 5758 520f d2bf
00000570: 04f3 06ba 9359 ca3f c8c4 3768 a1f6 a9bf
00000580: 8c03 87ea cd7e acbf 2f2f da22 02d9 d53f
00000590: 20f8 1dc3 8070 be3f a511 c758 af55 d8bf
000005a0: e8d3 2ea5 1c88 8d3f 4cb1 383c 250b 943f
000005b0: b0e0 1081 e6fc bcbf c6c2 a3e6 3699 b03f
000005c0: 3861 4bd4 1480 b8bf 6795 fad7 ff2b d93f
000005d0: dfa4 a82a 1795 c7bf 80f1 897e 121e c63f
000005e0: d4d2 b045 de78 cc3f 3490 259e 439b ccbf
000005f0: 6ee3 52b5 32e9 b7bf 0768 0902 6893 c13f
00000600: 2a68 96e0 fa30 bc3f 5ddd c927 3390 c13f
00000610: 4e8e 288a 0683 b43f 24f3 ee55 e1c4 bebf
00000620: d001 0474 cccd b3bf f20c 362b ab42 c13f
00000630: 8483 25be e8af d0bf f24e eaaf 89a5 b93f
00000640: b4f7 3a77 7c7e b13f ca94 8d8e ab48 b33f
00000650: fa73 2d81 60d3 a43f f476 3cec fd6a d33f
00000660: 6b1a 6ddc 07c9 c8bf 06e6 8b01 9bef 873f
00000670: d4aa 7697 7fc8 88bf d25a 223c a725 c13f
00000680: 3ea0 e179 b6d5 d2bf fd8e 58b9 44d2 b4bf
00000690: a236 657f b46f c73f 17c1 e6af 3f43 d0bf
000006a0: 5737 0525 83e2 aa3f 76c3 aa53 7a66 d0bf
000006b0: 228d 5a67 3cd4 9e3f 41b9 507c 0dac cdbf
000006c0: b836 8292 dc63 c63f 905c bd4d 8032 85bf
000006d0: c390 797e a95c b3bf b88d c35d 74bc 9fbf
000006e0: 03da 9750 200e c4bf 2c2a 0ea4 a557 d13f
000006f0: 15c2 1b6a bdd0 c5bf d9d6 b800 c8cd c43f
00000700: d651 62ac 2b51 d1bf c302 1e1e 4342 dabf
00000710: 5629 3006 2c3a d13f fc31 78cf 5be9 c3bf
00000720: 16f7 c893 278b cabf 1d81 43ab 9fa2 bdbf
00000730: 5148 3a01 26f7 cd3f b527 7a9e 28b1 b9bf
00000740: c8f6 1b54 ec7f a03f d2d9 253d a6d0 ca3f
00000750: 2b2b d5a5 8772 c2bf bca3 a777 d4f7 b03f
00000760: 644e 9df8 8eef d43f d0d8 8eee 385f aebf
00000770: 5261 74f0 a8b6 c2bf b99a 61f8 e5c7 cdbf
00000780: 416e 00bd 819b ba3f 52bb 5d61 49f4 da3f
00000790: d7eb cb5d 46f5 babf decc 67ec f69f cb3f
000007a0: 2d15 52dc 7afe cc3f 7cd9 3a24 1658 a73f
000007b0: d8d0 13a7 2220 a93f 7a2a fa32 10bc c9bf
000007c0: 3e42 e678 a6d6 b93f 96dd b0dc 90f6 a93f
000007d0: b0bd a36c 1aab a9bf aed9 c592 adb1 e43f
000007e0: 8847 5c78 a6e2 91bf e49b 3f39 17af c03f
000007f0: 5381 d6fa 4b14 cf3f 7ccc c709 b9a0 b8bf

ubias f8 [942]
-1.463641491377816 -0.2549982718704269 0.38068198344980725 0.7109434827856206 -0.21247277336657244 -0.20112018037819146 -0.435248660633203 -0.09377305613483919
-0.13940039866183745 -0.09459603286178099 -0.026280780578209203 -0.21522526526126323 -0.5254385372667127 -0.12015761933721908 0.34204452061816 0.3107860642373959
0.36449507714062523 0.3801684554334971 0.4543964464808238 -0.39319593885888166 0.2193904307635208 -0.47989618460370853 -0.38538386029071453 0.2289847604172374
0.666034579182138 0.17167484463746568 -0.3112934950701129 0.488779131973 -0.40660750550309954 0.6165032463604563 0.4769128351638589 -0.31384646906734914
0.09028589950033944 0.02132320017726813 0.19336334768072042 0.2171204273331049 -0.15457614543238077 0.02773304184865099 -0.1474042300236965 -0.38658585684042684
-0.031979213801356154 0.33174553598868795 -0.20321222648045809 0.1186333953093182 -0.15882977487475894 -0.08853386164990232 0.27172850576923335 -0.3578487177167515
-0.19763525971106427 -0.3650506172014739 0.09659248711712146 -0.415330614795391 0.148099823828667 -0.0611421864841525 0.25998641101870895 0.0029722208275685933
-0.1351324797919809 -0.2247649745947829 -0.040648087819823965 -0.4939493541554677 0.3314722315943042 0.3422158738423244 0.33765360500027397 -0.3666915941554007
0.01748104495631796 -0.21559272355644427 0.11664471191497948 0.927474813604298 -0.2853189367744789 -0.16744170754640936 0.24506088170195997 0.4002104962635744
-0.052108631767882774 0.03856310485050673 -0.11050144184033352 0.15572621425378644 -0.05931252372496221 0.33154683266775037 -0.03902942063994429 0.01476551174910658
-0.19878042383097688 0.5295693510883984 -0.17702073684524255 -0.27743000450290517 0.18865009349576153 -0.06737894668708651 -0.18836529149131379 -0.34799714494305944
0.10375843526040121 0.16698146898915722 -0.07026207537512014 0.18352098048527574 0.1701679628457988 -0.006021499332438926 -0.4836167555487734 0.42153976877218663
0.024992529506427663 -0.2065459055938277 0.3302680642749929 0.091402625731428 0.0324054807823171 -0.039301942337628334 0.1886302783849133 0.14975961392055695
-0.4368397939180819 0.31932541502105755 -0.16070767172929387 -0.7530869215893158 -0.3817862043206981 -0.31759222061648706 0.4121234541666613 0.35056117903288386
0.3737490607017379 0.13035321950858303 -0.08208740620269829 0.041936376886303355 0.4469204293121672 -0.49209036042385307 0.15209487588521084 -0.23903453234978922
0.025930451504672675 -0.01390246505091063 -0.22532754465290125 -0.10584133244251699 0.6208406749473321 0.021988230079639723 0.08417048495396101 -0.600517647073798
0.6289806081942241 0.07782743032410397 0.031053773298076102 -0.5036248686096848 -0.7501587290977207 -0.5630031175768834 0.31983521360995276 -0.44611763598166626
0.06010312625913135 -0.45879435411168024 -0.0788315070425962 -0.014302880181047575 0.5772476182490814 -0.35052907284641205 0.7610274493190041 -0.7355114302227094
0.18199745219431104 -0.2280507942705661 -0.06125605366096392 0.06689122016187188 0.3912421549600679 0.21490685214763233 -0.031278685837526916 -0.04812871410074008
-0.3793824144427275 0.24504331941487092 0.06564427005807733 -0.5779923284172399 0.3920522838779221 0.21503462398339634 -0.1601410366653445 -0.8801015131140025
0.03796863192051723 0.10716321221682652 -0.014225353845364958 0.15910056859120908 -0.9681986643831655 -0.03131736294460665 -0.07077342690116258 -0.21805737989641516
-0.029947740769202955 0.09260678365562161 -0.04591386662088621 -1.1589336454429913 0.3045901874471538 -0.7605111991925716 0.06664171400325619 -0.1352955189982153
0.060470806545805576 0.2635752788542924 -0.17733841211204476 -0.39717919406211616 0.031079774319569733 0.08634107065453818 1.0738900069942865 0.15659361828837776
0.3584751120838331 -0.8061828607796215 0.7939138447040096 -0.3393234370771388 0.306740612386975 -0.3462572115344458 -0.5828872487633362 -0.194577531557536
-0.33907092019570045 0.17585170925335747 0.3186290939840447 -0.035961705641953 -0.1429419436666672 -0.39728372518849386 0.12362721456436655 0.044310952883843624
-0.39078913709556123 -0.12384822028624344 -0.4376590473157846 -0.08285348663867184 0.020850676220552367 0.16983711748636696 0.19680212002915318 -0.19200581727672603
0.20803344298897905 -0.4424806934889183 0.08717540195084923 -0.5186587192245815 -0.5396980593296123 -0.24156730319735015 0.1778066285149727 0.8482290180341325
0.369710807356984 0.16847839858680558 0.23097828292777153 0.6601382417026506 0.0354822232611993 0.6420416673998592 -0.3459236807664604 -0.4014204368658305
-0.07270905079893077 0.008920122599045663 0.5960586001113876 0.37801042701260607 -0.1720767945678013 -0.21020661698692347 0.0611744859796759 0.45852017318731075
0.24071561485691548 0.41509009793128154 -0.029746746965280013 0.6938966375605363 0.3380068401912881 -0.2628994708759833 -0.09258497745378554 -0.16300345150976608
0.26151015930284294 -0.4365559186536274 -0.46629959358025713 0.07144084653763859 -0.049985428170954985 0.17169351055007337 0.3337987647311153 -0.7384397277456219
-0.15911010474566276 0.48084776584574723 0.021072396768489012 -0.2777975600156139 -0.3800852222190006 0.2927586089473072 -0.17126664555545315 -1.0048851966086154
00000000: 0995 2857 136b f7bf 7c14 8e45 e451 d0bf
00000010: 35f9 45f7 175d d83f 67cb fb8b 0cc0 e63f
00000020: 3c2e 73ce 4e32 cbbf 301d a55a 4ebe c9bf
00000030: c208 c332 1ddb dbbf e658 58d1 8201 b8bf
00000040: 6ea6 a64c dfd7 c1bf 4102 7913 7237 b8bf
00000050: 2f15 6354 59e9 9abf 6af7 c861 808c cbbf
00000060: a4cb b37a 64d0 e0bf 9c27 6b55 a6c2 bebf
00000070: 052f 75b3 0ee4 d53f 5df0 7c3b ebe3 d33f
00000080: 90ce f728 e353 d73f 6ab1 c312 ae54 d83f
00000090: ae70 43d5 d414 dd3f 0f69 944c 1f2a d9bf
000000a0: 67a3 9752 fc14 cc3f 6247 967c 9eb6 debf
000000b0: e5b5 1611 21aa d8bf 8520 a364 5f4f cd3f
000000c0: fcf4 f2bf 2750 e53f 12c4 a1f9 70f9 c53f
000000d0: af27 328d 3bec d3bf b5a4 b244 2848 df3f
000000e0: b869 9c7c db05 dabf 28df 1f04 65ba e33f
000000f0: 0792 8469 bd85 de3f 6eff 2680 0f16 d4bf
00000100: acd6 a409 fa1c b73f d034 a1bd bfd5 953f
00000110: a152 4453 21c0 c83f b138 5827 9aca cb3f
00000120: 2dd9 afb0 26c9 c3bf bec2 08ef 0c66 9c3f
00000130: 1336 9f4d 24de c2bf 0973 0e9b d2bd d8bf
00000140: a073 db5a 945f a0bf 0296 eaa0 513b d53f
00000150: bfc1 70b5 db02 cabf 6324 1119 c25e be3f
00000160: c1eb 5bb8 8854 c4bf b2fa 5fb8 27aa b6bf
00000170: 14de 6af5 ff63 d13f 2f93 e04e fee6 d6bf
00000180: 226c 7fb8 1c4c c9bf def4 9043 fd5c d7bf
00000190: 1a14 3505 49ba b83f c8b8 e4db c694 dabf
000001a0: 2699 f15d eff4 c23f d2f2 b556 074e afbf
000001b0: 89b4 2e0b 9ea3 d03f 7d59 07e8 3259 683f
000001c0: 82be aa66 054c c1bf dade 9543 19c5 ccbf
000001d0: 4d83 a97f d3cf a4bf 7698 7ec0 dd9c dfbf
000001e0: fdb2 8e4e d736 d53f 43ca 9468 dde6 d53f
000001f0: 4a92 b6dd 1d9c d53f 2f65 2705 e077 d7bf
00000200: 1d96 8c11 8de6 913f 861a 77d8 8a98 cbbf
00000210: 071a ed86 6ddc bd3f b969 09a9 dfad ed3f
00000220: 650e 985b aa42 d2bf 06f9 f2d8 ba6e c5bf
00000230: 012c 38ac 275e cf3f 6cf3 3d7c 0c9d d93f
00000240: e891 908a fbad aabf ef8d 5414 8bbe a33f
00000250: c975 dd8e d249 bcbf 95c9 ac2a d6ee c33f
00000260: f0ab 480b 365e aebf b39f d934 1038 d53f
00000270: 6ef5 750a aafb a3bf 8aa5 9170 613d 8e3f
00000280: 4633 b80d a371 c9bf 856f 7c6c 3bf2 e03f
00000290: e868 bb91 9da8 c6bf 1b39 11c7 69c1 d1bf
000002a0: 47cf f9ae af25 c83f 35c0 7524 bf3f b1bf
000002b0: bd0e 5497 5a1c c8bf 9c6f 28d1 9545 d6bf
000002c0: 8aa7 20ae e98f ba3f 1459 2c16 a65f c53f
000002d0: 4c9e e203 b2fc b1bf df34 a890 9d7d c73f
000002e0: 7ff4 9f55 10c8 c53f a397 4aeb ffa9 78bf
000002f0: 814b 38b1 93f3 debf a3c1 35f0 81fa da3f
00000300: 7068 7f43 a497 993f 01f8 d2a2 1870 cabf
00000310: 445b bea9 1c23 d53f 81f6 4898 2966 b73f
00000320: a2a8 5780 7397 a03f f6ce 045a 621f a4bf
00000330: 046b 5976 0925 c83f cd72 06b2 522b c33f
00000340: f80c 1ee5 2ef5 dbbf 2f03 93dd d36f d43f
00000350: 5f95 25a9 1192 c4bf 89af 68be 4919 e8bf
00000360: 90c4 6767 2f6f d8bf cec1 4052 6e53 d4bf
00000370: 06dd 630d 3b60 da3f 4661 cc27 986f d63f
00000380: cffa 272e 81eb d73f b8dc 5b0f 6aaf c03f
00000390: a9d6 0d25 ae03 b5bf 0f93 7a4e af78 a53f
000003a0: a9d7 f324 589a dc3f 97a0 2c91 687e dfbf
000003b0: eb77 e84a d877 c33f bc4b 87fd ae98 cebf
000003c0: 257a bb24 838d 9a3f 3ace d145 e578 8cbf
000003d0: 570a 9671 88d7 ccbf 45da 67e5 6a18 bbbf
000003e0: 889c 5d43 eddd e33f 8c1c 5b24 1584 963f
000003f0: cc6c 2a68 328c b53f 674a dbc8 7037 e3bf
00000400: 6f65 c0f0 9b20 e43f 5e47 f99b 7fec b33f
00000410: d937 ee72 8fcc 9f3f 4730 84e6 b11d e0bf
00000420: 8813 09e1 4c01 e8bf 7f3d 311d 1f04 e2bf
00000430: 4917 a41d 2e78 d43f 1b72 2dfc 308d dcbf
00000440: 3a35 5743 d6c5 ae3f 6af1 9ffe e25c ddbf
00000450: ae70 a438 4d2e b4bf 5bfd ed14 d44a 8dbf
00000460: bb5b 42ff cf78 e23f eb0a 0b7e 116f d6bf
00000470: 94de c53c 565a e83f cd80 5444 4f89 e7bf
00000480: 37a0 9048 b14b c73f 1905 9cb7 c430 cdbf
00000490: 07cd 4f16 f45c afbf 401a fc72 c81f b13f
000004a0: ffae 1789 1c0a d93f 9a87 d456 1182 cb3f
000004b0: a1d3 7789 c203 a0bf 4557 1faa 53a4 a8bf
000004c0: cb60 ad2d cd47 d8bf 51bd 7e59 945d cf3f
000004d0: 54b9 1119 10ce b03f 8e82 7cc4 e97e e2bf
000004e0: 68fa 6476 6217 d93f 9417 c22a 4186 cb3f
000004f0: 13d3 9c61 807f c4bf 1f83 ffa5 ca29 ecbf
00000500: 1db6 bee0 9f70 a33f 553a ce5b 0c6f bb3f
00000510: 8aa7 51ac 2e22 8dbf 5ae7 6f4d 685d c43f
00000520: 78cf f1c3 7bfb eebf a3c0 4953 d408 a0bf
00000530: 0d62 f711 351e b2bf 103d a7e1 4de9 cbbf
00000540: a970 c5dc 9eaa 9ebf da4a 3003 14b5 b73f
00000550: 39a4 23b7 0582 a7bf 5a96 9601 fe8a f2bf
00000560: 7e27 71d7 677e d33f 45c3 1895 1b56 e8bf
00000570: bc80 316e 6e0f b13f 6243 b212 5d51 c1bf
00000580: 6b36 f490 07f6 ae3f 27a6 add8 6ade d03f
00000590: 4243 2c6c 06b3 c6bf d17f 4948 626b d9bf
000005a0: 5715 1459 60d3 9f3f 3d4b c3ca 721a b63f
000005b0: b0aa b849 a72e f13f 3ecb a77a 420b c43f
000005c0: ae1e b598 41f1 d63f 409d b4ff 3fcc e9bf
000005d0: 0f0d db01 be67 e93f d9ce 40a6 79b7 d5bf
000005e0: 09a7 a360 a3a1 d33f b4da e201 1429 d6bf
000005f0: cd34 d628 03a7 e2bf 30bb 49a3 eae7 c8bf
00000600: 5ff8 5084 56b3 d5bf ec2c 180e 4f82 c63f
00000610: 1acc 8d48 6b64 d43f 60f8 479b 9269 a2bf
00000620: 8733 a3ee eb4b c2bf 7eba bab7 186d d9bf
00000630: 5914 737b 08a6 bf3f b83d fbda ecaf a63f
00000640: 9d47 dd70 b002 d9bf 9116 cc57 84b4 bfbf
00000650: 9744 c117 9b02 dcbf ce00 79d7 e235 b5bf
00000660: a0f5 dd31 e159 953f 0b1c a000 39bd c53f
00000670: cf82 a7d6 cf30 c93f 7732 ec88 a593 c8bf
00000680: 3b54 0e01 d7a0 ca3f 0c5d e98a 9a51 dcbf
00000690: 5d01 658c 2051 b63f b85a 9b2b da98 e0bf
000006a0: 9c21 51dd 3445 e1bf 0efd 8169 adeb cebf
000006b0: 1aee 3d1b 5ec2 c63f 8231 7f2e b124 eb3f
000006c0: 39dd a484 57a9 d73f dca2 013e b390 c53f
000006d0: e768 a145 b290 cd3f 5f75 de3b da1f e53f
000006e0: bd10 fed8 b92a a23f c4da 84f7 9a8b e43f
000006f0: f672 f313 9d23 d6bf c039 1258 dfb0 d9bf
00000700: f1fa 4d73 0f9d b2bf 98b4 b696 b644 823f
00000710: 614b 3f7c e912 e33f 9b3b 64a5 5231 d83f
00000720: 1bdc 88c6 9c06 c6bf 094a aee8 0ce8 cabf
00000730: 40bf 4321 4352 af3f 1054 19ff 6458 dd3f
00000740: c336 b9ee c4cf ce3f d987 e00e d690 da3f
00000750: e057 8365 ee75 9ebf 4f0f a4b8 6634 e63f
00000760: 5089 1c71 e7a1 d53f 4c13 634d 58d3 d0bf
00000770: e5d0 432a a6b3 b7bf fa4d af0e 4cdd c4bf
00000780: eac1 711b 95bc d03f 3486 5f3c 88f0 dbbf
00000790: cf2d 2440 dad7 ddbf 5f4b 7a83 f249 b23f
000007a0: 72a7 8aa6 b097 a9bf 56be 5f8e 0dfa c53f
000007b0: 1bc8 7d7e f55c d53f c381 175a 4ca1 e7bf
000007c0: bb41 2c4c b85d c4bf ab60 2ab5 35c6 de3f
000007d0: 9740 e09b 0094 953f ff3d cb6a 6fc7 d1bf
000007e0: 6de7 c7f7 5053 d8bf d645 c39a 8ebc d23f
000007f0: ad34 c7c0 10ec c5bf 50b2 fa7f 0214 f0bf
