offline_resampled_model_testing/model_17.npz (npz, 968555 bytes, 5 tensors)

imat f8 [1577, 50]
-0.17866592317655378 -0.1440551552325899 0.22115173518736886 0.14217807638067165 -0.19477276019796647 0.0475907261563602 0.09135207919944774 0.2486062320310461
-0.19208716192520958 -0.20530478375047426 0.1029008118121012 -0.23777903499118797 -0.1680776100974762 0.17823661175402522 0.36910978095486763 -2.915992712015404e-05
0.08329607695141308 0.14439165166623166 -0.21756900911018917 -0.06448708320107488 -0.04100113618408739 0.16820886690124587 0.12081945886851511 -0.06981203509649123
-0.1665143783887083 0.11164267214964643 0.08188249924934424 0.026439951610248494 0.14169843940573965 -0.002207889817379795 -0.07558627490644822 0.1590354378067548
-0.013324930661962185 0.0033610708414547625 0.15954360928897307 0.030626723165662485 -0.12139393525382705 0.014902268382581838 -0.04417976392901368 0.13218103937175318
0.004775317272921171 -0.0599214517280642 -0.10942595646961936 -0.11364490021812852 -0.07636313150920546 -0.07797473052322072 0.12819573798933903 0.06618756819503765
-0.1204235147532248 0.09539646003431712 -0.09787092860581646 0.023952485676613823 0.20041823633435496 -0.34945058215704466 0.030455557684940075 0.14915918701848901
0.08215882217295006 -0.054473329104237744 0.035838671379141054 -0.14155911539354915 -0.13700646182487208 -0.1420644230228799 -0.08400935958450592 -0.08604023190400335
0.07544902592585813 -0.11290724601527924 -0.06954480689071708 -0.5820847073620368 -0.030868388456143824 0.1638030006847494 0.1659630681679423 0.17894126215602324
0.199448419376699 -0.3125558133937306 0.1538879854203587 0.0642417479088917 0.1867289171487765 -0.09206753540335957 -0.20648608020322953 0.27626451034694177
-0.25345249100831513 -0.018721608973104084 0.10537436556432679 -0.08885423449987666 -0.04832712552813437 -0.11428628683181523 -0.463435881114325 0.11587844769089448
-0.25425934910575476 -0.17003324956850704 0.06243456866852419 -0.07895312492793402 -0.06874096838948657 0.04273520217675054 0.05591949199779956 0.29156852665056915
0.4280619815194269 -0.5352527567484545 -0.13342418719596216 -0.22694583590856338 0.32620489177173295 -0.09482720279989944 0.45359981797266946 -0.01745479596738892
0.1314443650057044 -0.3003508363230716 0.12480085057136456 0.13426658097779484 -0.04999802079227631 -0.16210933126036198 -0.21154502244977177 -0.2753283965912094
0.23249456321979844 -0.16787805172887124 -0.06952437016137877 0.006676139815939185 -0.07458819889010335 0.14802733036550636 -0.0340254634121798 -0.1394239766733809
-0.3730466885835225 -0.16906677354895666 -0.2786965715936837 -0.08709060306691997 0.15718801457263828 0.3808332125830367 -0.003390698956866893 0.23571763815249522
0.07051412484351184 -0.010762393146352557 0.0016032962349274704 0.2114342072815415 0.08450158409659034 0.10637091297214599 -0.12372708095138979 0.3157397598869918
-0.4235536177813969 -0.04732596185390675 -0.20554440495687615 0.03946972167048582 -0.015400241477711114 -0.08651066448074116 0.2310394031161107 0.11052522820174115
0.07937252475676185 -0.010923827634086704 -0.15393687774677528 -0.19927755949066672 -0.25665803119667013 -0.07092006844800595 0.09219483583326397 0.11786323721862987
0.03197195945887864 -0.16373426950061387 -0.061597649498268195 -0.1639304308336597 -0.07650031409742228 -0.03249815439485067 -0.0060554844998459475 0.041905244317783995
-0.30022910960947397 0.09484182521657253 -0.08601757977121727 -0.14224643829339836 -0.04144076731940484 -0.02238783764793928 0.07622274920222963 0.059965901176219596
0.03805548742141863 -0.028602684364120126 -0.03581485033788046 -0.16557085183089365 -0.045593490228153385 -0.1197467191914884 -0.21666568219206528 0.204602400752208
-0.030005249542495612 -0.29721811184707947 -0.09647839601730326 -0.36157615713953073 -0.0414409611308762 -0.1864120078495502 -0.3265805485277456 0.2958899597599687
-0.0851522913477813 0.3047663485430472 -0.03799202547731706 -0.010169893965384973 0.060613049398792335 -0.022080491935696472 0.19360596680788122 0.21721021786188724
-0.11683390244535116 -0.003997561310974319 0.25637359547599264 -0.10954960142773346 -0.034200331307732236 -0.03749671520628472 -0.05946208605387519 -0.3043286439241664
-0.12468659410048172 0.013267355688530873 -0.21420215071265317 -0.13553194626390588 0.21102053138413226 -0.07179820793172759 0.37729286196666817 -0.3724029862718625
0.07381013958109091 -0.11048900014288426 -0.6376107061757119 -0.4439376217269663 0.019237941424242313 -0.1730033702852247 -0.02484433219831391 0.1612694565908187
-0.10194866012866259 -0.09868233087815037 -0.012485993048168331 -0.07612793651893664 -0.10119008723715779 -0.39658916320807486 -0.027015918231122274 0.15850699745262578
0.007039068144632277 0.03438808617993723 -0.028391215807868214 -0.1560836943364215 -0.03159137372173514 0.17452290640018608 0.19014828667006844 -0.06362966471185112
0.042247432364445496 -0.3641677851368323 0.08979059751268043 -0.31102179975900673 0.155028806534817 0.39480649628826814 -0.37785670926331816 0.0414494106057587
-0.03467840563304867 -0.2151206535566454 0.1996624758721496 -0.028531543519375542 0.020125511233396422 -0.10060131567342649 0.07748588906402343 -0.026314300179234737
0.10865094214668362 -0.1858689798990904 -0.04176252307486115 -0.46119630724423255 0.019700746577482046 -0.18138170953486654 0.0208936577301833 -0.19192183333672805
00000000: 2afa 7964 86de c6bf 97a7 453a 6670 c2bf
00000010: e8ac 0a37 b34e cc3f b6af 2126 e432 c23f
00000020: 66d8 9955 50ee c8bf 6471 dec8 cf5d a83f
00000030: 8e4e 9590 d962 b73f 52db 133a 54d2 cf3f
00000040: 30a1 39e7 4f96 c8bf 81d7 f559 6d47 cabf
00000050: c8fe 7625 b557 ba3f 7215 7b1d 8b6f cebf
00000060: eb7c 472f 9183 c5bf 3e79 3711 75d0 c63f
00000070: ad6e 75a1 7e9f d73f 007a f0ee 8e93 febe
00000080: 0234 6446 e452 b53f db66 dcf6 6c7b c23f
00000090: 802d 6021 4dd9 cbbf b0f0 5cb9 3982 b0bf
000000a0: dedc 04d6 19fe a4bf 0279 1e3f de87 c53f
000000b0: 5a89 8f28 06ee be3f 5e4c 9b97 33df b1bf
000000c0: 8423 bfd8 5750 c5bf 2285 b839 9d94 bc3f
000000d0: 7a03 6460 40f6 b43f 4436 e51d 1313 9b3f
000000e0: 6f29 92a9 2c23 c23f 84d5 e1d1 4716 62bf
000000f0: c1e9 bf42 9f59 b3bf a57c 24f2 455b c43f
00000100: 4c17 51eb 194a 8bbf 04ab fe2a ad88 6b3f
00000110: d949 17cc ec6b c43f 3a4a 8599 9c5c 9f3f
00000120: da11 d945 ac13 bfbf 5819 b79a 1485 8e3f
00000130: d0b2 70e2 ba9e a6bf 4461 a0ec 4eeb c03f
00000140: ae57 3e78 488f 733f 2373 0047 06ae aebf
00000150: 5edb 5ee8 5603 bcbf 8d46 cb09 d517 bdbf
00000160: 5ec2 73c0 888c b3bf 3bfb 82e5 26f6 b3bf
00000170: 484d 13cb b768 c03f 2ea9 cc20 abf1 b03f
00000180: 4ad3 8851 13d4 bebf 7066 0004 e76b b83f
00000190: 7754 97b5 110e b9bf ca4c 8e1a 0087 983f
000001a0: a8fd 4905 4ea7 c93f d5b0 7bf9 655d d6bf
000001b0: 31fa f3e0 bd2f 9f3f ca38 12f3 a517 c33f
000001c0: 0c8a 4f4e 5c08 b53f 708e 039e ede3 abbf
000001d0: 2ad1 0243 7259 a23f 2872 88ed 9b1e c2bf
000001e0: a072 7080 6d89 c1bf f378 67c1 2a2f c2bf
000001f0: ee2d f92b a381 b5bf c9fe 2a8e bb06 b6bf
00000200: 99da dd9a a050 b33f 08f7 1d41 7de7 bcbf
00000210: a9c7 333f b0cd b1bf cae4 b31b 70a0 e2bf
00000220: 43f2 987b f69b 9fbf b4bd 7629 7ff7 c43f
00000230: 4904 101f 473e c53f 04bb 6e1a 8ce7 c63f
00000240: c01c 3b9b 8687 c93f 1ed9 2c19 ea00 d4bf
00000250: 9e5a 50fc 99b2 c33f 207b 4eae 2572 b03f
00000260: f18c 2fb0 bbe6 c73f 22ac 94ed bc91 b7bf
00000270: 57ab c6c8 226e cabf 8e13 3f57 51ae d13f
00000280: d01b fecb 9038 d0bf ec69 12e9 c12b 93bf
00000290: 097f ef7d d0f9 ba3f f3bf 49af 26bf b6bf
000002a0: 2459 4e3f 55be a8bf 8bec 52b8 dd41 bdbf
000002b0: 3e74 4bf8 eea8 ddbf 7ec5 24bf 35aa bd3f
000002c0: 3822 4701 c945 d0bf 578e 1047 a6c3 c5bf
000002d0: 6671 247d 6cf7 af3f be83 7ba1 4536 b4bf
000002e0: acd2 2013 0299 b1bf 1164 796f 63e1 a53f
000002f0: b1d0 adca 7aa1 ac3f 4f74 a009 0fa9 d23f
00000300: 7d5c d214 5e65 db3f b582 aa63 ca20 e1bf
00000310: d442 4034 0b14 c1bf 9e67 98a7 8f0c cdbf
00000320: a61b 7d7b 8ae0 d43f 59f6 cb76 9846 b8bf
00000330: bc81 ea87 c707 dd3f 3268 5a87 abdf 91bf
00000340: ceb3 7840 2bd3 c03f a85d d5b6 f238 d3bf
00000350: e68c b7d3 f2f2 bf3f 1b68 1fb7 a52f c13f
00000360: bdc9 5530 5799 a9bf 34e1 11a2 ffbf c4bf
00000370: 5bd4 8644 e813 cbbf 3b3d c1fe fa9e d1bf
00000380: 746f c3c0 61c2 cd3f 2b23 f22a 077d c5bf
00000390: 1e3d 1e60 59cc b1bf 0c89 c4a2 7058 7b3f
000003a0: 9e89 e652 3618 b3bf bec1 6a3f 8ff2 c23f
000003b0: 2d51 2c19 c96b a1bf 7893 0b16 a5d8 c1bf
000003c0: 963a d637 ffdf d7bf 2ad3 9de3 faa3 c5bf
000003d0: f323 2025 2ad6 d1bf 491a f6db 914b b6bf
000003e0: cfd1 f4a2 bc1e c43f a495 5144 925f d83f
000003f0: 8a9e 2ba4 cfc6 6bbf 3748 7add fe2b ce3f
00000400: c9e3 1bb4 360d b23f 14e4 b8f4 970a 86bf
00000410: 809f 4439 b644 5a3f f4d3 c3ae 4610 cb3f
00000420: 4eb1 2754 e5a1 b53f 0206 76c8 1f3b bb3f
00000430: e4d5 50f6 93ac bfbf c9bc b089 1435 d43f
00000440: 324f 1ea2 801b dbbf 981b d4c4 1b3b a8bf
00000450: 2e31 9570 474f cabf 2490 8317 6035 a43f
00000460: b769 fa6b 298a 8fbf fe33 b31a 9025 b6bf
00000470: 904b 3cfc b292 cd3f 0869 82a0 614b bc3f
00000480: 82ff 07fe c151 b43f 34fe 7b53 3b5f 86bf
00000490: 560e c91f 34b4 c3bf e467 6b54 ed81 c9bf
000004a0: 63b5 8fce 156d d0bf 9b40 9d4e d127 b2bf
000004b0: bb92 c3ac 149a b73f 5e34 41fd 482c be3f
000004c0: cea3 87f0 a05e a03f c8aa 5e9a 3ef5 c4bf
000004d0: 6208 3624 ba89 afbf 16f8 9f1f acfb c4bf
000004e0: cea1 2e4b 8695 b3bf cacb 9c1c 99a3 a0bf
000004f0: 065e 36be a2cd 78bf 3365 c0ab 9a74 a53f
00000500: eb1c c527 f436 d3bf dc1e 99c9 8d47 b83f
00000510: 609a ff83 3f05 b6bf 09a8 389c 2135 c2bf
00000520: 624a b768 b937 a5bf a0ae 1a5a d6ec 96bf
00000530: c2e7 0887 5583 b33f d2a3 dac0 d9b3 ae3f
00000540: f110 d143 027c a33f d4d3 afa7 054a 9dbf
00000550: 111d d3f5 5256 a2bf 226c e4f8 6c31 c5bf
00000560: fe7d e1aa 0758 a7bf a911 bb92 b8a7 bebf
00000570: fc18 9779 b3bb cbbf 07f8 f455 6930 ca3f
00000580: 7f2d f935 b2b9 9ebf 765f 8a1d 9f05 d3bf
00000590: e233 aae3 ceb2 b8bf 7a5e 7b52 1024 d7bf
000005a0: 2839 8be9 bf37 a5bf 62d3 a542 59dc c7bf
000005b0: 1dee db19 b2e6 d4bf 8890 1871 dcef d23f
000005c0: bca7 8462 8acc b5bf 787a fab6 4a81 d33f
000005d0: f024 ded5 b073 a3bf 9c84 e10f f4d3 84bf
000005e0: d4dd c171 ac08 af3f f83f f9ba 449c 96bf
000005f0: 340a e08f 14c8 c83f 9d73 095f 8bcd cb3f
00000600: 461c 119e d3e8 bdbf a89e 8231 bf5f 70bf
00000610: 0b26 08cc 6c68 d03f ec04 6c53 710b bcbf
00000620: 4d49 f5b0 b482 a1bf 2f6e 09fb c432 a3bf
00000630: 161b e885 d071 aebf 11fb 38d9 1e7a d3bf
00000640: 1c44 e9eb 75eb bfbf bc09 4b56 ea2b 8b3f
00000650: 3d98 05e0 f96a cbbf 6523 625e 1c59 c1bf
00000660: 7129 8a84 b802 cb3f dc69 fa0a 5e61 b2bf
00000670: 2b4f caf5 9025 d83f d01a be55 73d5 d7bf
00000680: d52d 9da7 38e5 b23f 0472 2ed2 0149 bcbf
00000690: 2e55 5391 4e67 e4bf 7701 b257 7969 dcbf
000006a0: 47b6 0965 1cb3 933f 4f85 bc74 f924 c6bf
000006b0: d680 21e9 ca70 99bf 6c5c f340 7aa4 c43f
000006c0: e3a5 1fb1 4e19 babf a090 d0c7 3e43 b9bf
000006d0: c054 669e 4192 89bf fd29 a9d5 1e7d b3bf
000006e0: 3dec 5cf3 97e7 b9bf db4e 7b83 b761 d9bf
000006f0: 84a8 1895 0faa 9bbf ed82 1f11 f549 c43f
00000700: 74b1 9b77 ffd4 7c3f ba9b 07b3 509b a13f
00000710: a8cb 8d3d 9612 9dbf b290 4eed 8cfa c3bf
00000720: 0fee f099 be2c a0bf 3022 b23f c456 c63f
00000730: 54b6 5170 c756 c83f 252b fea0 084a b0bf
00000740: 9fc6 b098 74a1 a53f 43d8 da65 864e d7bf
00000750: 9c25 ce3f 84fc b63f 2fb6 93fa c7e7 d3bf
00000760: 34a2 00e3 fbd7 c33f fe9c 7377 8244 d93f
00000770: 660c 37e8 cd2e d8bf b2fc fa6d db38 a53f
00000780: 1d8a 2434 5ec1 a1bf ee26 dcd5 1289 cbbf
00000790: 9dfc 0d3e 8a8e c93f 32cd 4779 5f37 9dbf
000007a0: 3739 4032 c89b 943f 137f c000 02c1 b9bf
000007b0: 7874 6e7f 1dd6 b33f 3c6d bfca 22f2 9abf
000007c0: 9b18 3353 8cd0 bb3f eef4 0003 8eca c7bf
000007d0: 8d25 9cbd e561 a5bf ba98 2984 3d84 ddbf
000007e0: 2e3d 07b9 6e2c 943f c4bc 450f 8437 c7bf
000007f0: 0c6f 94a2 2565 953f f7e8 c806 e590 c8bf

gbias f8 []
3.5252785947222054
00000000: 37f7 8c43 c533 0c40

ibias f8 [1577]
0.7083674417888455 -0.3346819885974348 0.2855744404424936 0.45615914816443004 -0.19713424786649705 -0.7582120345159767 0.1135241154406292 0.27899297081762503
0.5700322267986968 -0.6658455541550795 0.5291956408035888 -0.016578692310941185 0.18509405392955564 0.6255089617067751 0.4595059756214556 0.15744943024217983
-0.18150537849535528 0.33446486309161977 -0.3010786710959989 -0.6416098714942392 0.2877325490666826 -0.2681768405031296 -0.4368299856097415 0.056092722319239445
-0.22407891410352238 0.038708751526700017 0.5271856947491178 0.13396659211958156 0.4459824032478736 -0.2621527121690504 -0.37936787396603733 -0.06733250843748408
0.1357344105691585 0.18509405392955702 -0.082054565218841 -0.6745454565663438 0.837537608315282 0.17566401147818844 0.6277002601937298 -0.21604363027288934
0.08098533501390477 0.30496607652572 -0.0877527989145938 0.14589668179488718 0.1594591049845836 0.36336621117846896 -0.40794947205126686 -0.008682748052705124
-0.4236290338715164 -0.7912685184757691 -0.311136047125588 -0.2294297839043054 0.14437847643709062 0.01168488195077247 -0.36452450976189044 0.5529847627868285
0.25627647979752355 0.2888125000474852 -0.38575722888639213 -0.15361437174353582 0.15412979543479569 0.12359726116403398 0.14100813144393612 0.5700839980508627
-0.09570781338382331 0.2938554402614534 -0.00964020074517649 -0.05540297494251481 -0.12417888748841262 -0.07353212963694783 0.8179974842240021 0.15712129009108994
-0.12467875441286386 -0.5802228757777644 -0.14676767878856595 0.33622044107609217 -0.3436485386163372 0.10755131744793237 0.8165478917699271 -0.42178357034834385
0.41150249908498315 -0.45494868255206783 0.010274277568098674 0.4199919475889787 0.3146089505142495 -0.2160436302728894 -0.13974584692128647 0.34230945452146805
0.05196825744282481 0.0380102074211404 -0.30025716435895905 0.35736562645039843 0.5002815874524408 0.31235124615266374 0.1392684038889013 -0.4766416878034829
-0.6100502742360975 -0.12339338232141775 -0.4705620744386427 -0.4579351851424357 0.49120543089913715 -0.6904924685887441 0.36903311831905317 -0.42426348035255074
-0.321979473020827 -0.6749313187536384 -0.7830620744386424 0.2656222741900469 0.3074624784191329 -0.5844646829044682 0.31207007818555815 -0.03957353974927744
-0.55961877038193 -0.10208700124709082 0.2006242122321588 0.1344694233076284 -0.3425709796275791 0.356635178612663 -0.25489736277776315 0.4929355508431907
0.1369403692493543 0.6494187510933215 0.38207300827108787 -0.9703332466371886 -0.11797559557346265 -0.6090695836584422 0.43883196882684833 0.26404691880953796
0.10616737896012847 -0.009333565569156132 -0.9174719404597564 -0.1002653283068624 0.6277002601937298 0.3910919418484649 -0.29295413270700743 0.6054243291203861
0.09980334490197267 0.4310905944707599 -0.18932865745782143 -0.4357938842063444 0.5097399782592754 -0.1451481258730009 -0.03895455841847558 0.20843724547505557
-0.04226073228534053 0.3409853350139047 0.07557279152331156 0.7920505279487341 0.20873148152423118 0.6863172020153501 -0.009935264782478746 0.12442996050756015
-1.2596187703819288 -0.5430694055026329 -0.29293674134920156 0.6649474485921486 0.22663645033250693 0.1783887420599407 -0.7439589460416542 -0.628617191383532
0.5907020435140725 -0.08460522147150294 -0.321979473020827 -0.4884319492156744 -0.7893690306317043 -0.36020853927942326 -0.42358909491913704 -0.0662028537978774
0.0771207665151607 -0.1626392973611027 0.2002049051107754 0.6286834365789643 -0.05540297494251481 -0.6284789002173784 -0.10560257154099056 -0.19639296408397908
0.23924277111360698 0.5789138677520725 -0.17106549560183784 0.050355886433486145 -0.33926900999998555 -1.1502336600895915 0.019777124222235595 -0.09314424716903763
-0.14740602714013692 0.37294232419975176 0.49212121010032284 0.6483384692675838 0.2704870875609902 -0.42470483442631385 0.7858778506431325 0.08527859009635513
0.2600135328062822 0.4072492647500148 -0.6859265483597758 0.4639056019204025 -0.689466967788656 -0.13275073524998507 0.37744485298914676 0.27592108589647757
-0.4357938842063444 -0.5386217028075261 0.5521686897354624 -0.20973607216929935 -0.006855271968939882 0.34623464285549505 -0.17106549560183795 0.028310924415600017
0.8621426320409925 0.1823355655208485 0.407630805000016 0.24054201416987503 -0.286515597121203 -1.0898857335632046 -0.8828043395219484 -0.1569977035435291
-0.7908455541550795 0.11832131032659197 -0.3249606070883379 0.6054243291203861 -0.029090911318011264 -0.5634343454552327 -0.23275073524998496 0.03280686862104557
0.09672613989961405 -0.5127507352499852 0.09974584341132109 0.42786575213350303 -0.17703114296956196 0.3095499408574436 0.1863849617961015 0.5400728671990906
0.5987989647823548 0.03280686862104557 0.06402242696582766 0.5612812971795027 -0.20325258413947714 -0.05729187593203171 0.8102759902905973 0.1201579965759788
0.02924430203705171 0.11245687940679477 -0.4492462572409751 0.2108497135939798 -0.6927507352499849 0.45232888616091865 -0.260714259286513 -0.3038954077719758
-0.7866169042929135 0.07855857432204925 0.2880511841558597 -0.1932038142968608 -0.011234930987646842 0.5846121014478255 -0.11657117266024285 -0.32762463561935407
00000000: c818 8132 f2aa e63f c084 e500 6e6b d5bf
00000010: 6089 9104 da46 d23f e8cb c823 b631 dd3f
00000020: 790b c1ed b13b c9bf 75c0 75e2 4543 e8bf
00000030: edf4 1f9b ea0f bd3f ef6f 5e55 05db d13f
00000040: d286 7839 b43d e23f db0e e955 9b4e e5bf
00000050: 5bfd 4db2 2bef e03f 35cd 2435 01fa 90bf
00000060: 4adf 2776 29b1 c73f 2456 bc5e 2b04 e43f
00000070: 1f16 67c0 8b68 dd3f d0fd d48c 4d27 c43f
00000080: 77c3 5778 913b c7bf 9bef 2850 df67 d53f
00000090: 6359 7879 df44 d3bf ff78 db6c 1188 e4bf
000000a0: 8b1c 0fc8 356a d23f ee5a e031 cf29 d1bf
000000b0: 8cc8 86c1 05f5 dbbf 6f3a cf6f 2fb8 ac3f
000000c0: 061f e62b 9eae ccbf ea98 c02b a2d1 a33f
000000d0: 5eba bb88 b4de e03f 9680 f439 d125 c13f
000000e0: 67a1 22c7 f98a dc3f b1b8 542b 1cc7 d0bf
000000f0: 5c94 f530 9047 d8bf e156 b209 b43c b1bf
00000100: 410e 2bc3 be5f c13f 7cdf 2776 29b1 c73f
00000110: 4638 1a2a 8701 b5bf 4ec5 735a e095 e5bf
00000120: 514b 9cab 1bcd ea3f c005 3188 287c c63f
00000130: da20 27db 1e16 e43f 8dfd 4353 51a7 cbbf
00000140: 851f 5775 74bb b43f 4b50 446f 9084 d33f
00000150: 2b7c 78a9 f776 b6bf eeb4 7312 beac c23f
00000160: dca6 7aec 2769 c43f b7e8 5e5a 6441 d73f
00000170: b05c 381a d81b dabf 59fd 67b7 42c8 81bf
00000180: b24f 87f3 bc1c dbbf 4ca6 265b 1252 e9bf
00000190: 1db6 c02a a7e9 d3bf 9a75 4c85 f45d cdbf
000001a0: 0a95 4571 fe7a c23f 9183 b04e 3eee 873f
000001b0: da22 019c 5e54 d7bf 4662 eb19 0db2 e13f
000001c0: 36b8 dd76 d566 d03f 0f51 986c e77b d23f
000001d0: 1bcf 9016 3fb0 d8bf e6c2 6abf a2a9 c3bf
000001e0: a5a5 5d6f 86ba c33f 551f 93f2 11a4 bf3f
000001f0: 85c9 82f0 8d0c c23f 883e f3cb 203e e23f
00000200: 7a87 74a8 4e80 b8bf 0a2d 6b0c 87ce d23f
00000210: cf54 6bd7 3dbe 83bf d45a f55a c75d acbf
00000220: 1dcc 9d04 30ca bfbf d4f4 fe6b 00d3 b2bf
00000230: c679 5e0f 092d ea3f e228 39e9 8c1c c43f
00000240: 7492 b564 f2ea bfbf 0369 7b90 2f91 e2bf
00000250: 52dc 4086 48c9 c2bf e2c8 aabd a284 d53f
00000260: 1f39 ab70 56fe d5bf 22a1 14af 7b88 bb3f
00000270: 70a0 580b 2921 ea3f 5bb8 2884 80fe dabf
00000280: 98b4 f293 0e56 da3f bbd7 3a14 e11d ddbf
00000290: 1efb 2831 ae0a 853f b597 dee7 25e1 da3f
000002a0: 9334 5f94 8d22 d43f 8ffd 4353 51a7 cbbf
000002b0: 01ae 2321 31e3 c1bf e500 12ea 65e8 d53f
000002c0: fa48 4b5c 959b aa3f 6571 93eb 1276 a33f
000002d0: 67ee 53d3 6937 d3bf b96a 9413 14df d63f
000002e0: 39c6 1c88 4e02 e03f 5acb c514 90fd d33f
000002f0: 5dd3 080c 8cd3 c13f 48ad 4123 4c81 debf
00000300: db50 1827 8885 e3bf 2202 9d6d b596 bfbf
00000310: bbeb 1c64 b01d debf 42f7 f760 cf4e ddbf
00000320: 9814 55e7 e86f df3f 8422 57a9 8318 e6bf
00000330: 108f 9415 3d9e d73f 0516 4003 2227 dbbf
00000340: a5e5 a6ca 4f9b d4bf 17fa a290 0999 e5bf
00000350: db75 0e32 d80e e9bf bc10 2f91 f4ff d03f
00000360: 80aa 631a 77ad d33f 04bc 5747 efb3 e2bf
00000370: 257f f7c6 f4f8 d33f 2c2c 05a6 fb42 a4bf
00000380: 7694 a09f 65e8 e1bf 99f5 b3ab 5f22 babf
00000390: 4d54 29df 0dae c93f 0689 b547 4b36 c13f
000003a0: dcc8 83d4 aeec d5bf fda5 2f5b 1cd3 d63f
000003b0: a1e5 3d07 3d50 d0bf 5f10 7a8d 418c df3f
000003c0: 51cd b613 4387 c13f ff5b 2bd5 09c8 e43f
000003d0: af5a cd58 e273 d83f 3ce7 104f f80c efbf
000003e0: 2cd2 b60c a633 bebf 9fa4 d97e 7f7d e3bf
000003f0: 1d3d a3ae d215 dc3f cb60 390c 25e6 d03f
00000400: 8d29 890c c92d bb3f d32c fff6 791d 83bf
00000410: cab6 681d ee5b edbf 5f2c 0012 fdaa b9bf
00000420: da20 27db 1e16 e43f 79f8 fd7e a607 d93f
00000430: d618 cdb0 c2bf d2bf 27cb b8d7 a25f e33f
00000440: 53a8 6246 b68c b93f 005e 3701 fd96 db3f
00000450: 070c fde3 eb3b c8bf c7a2 1d08 0ce4 dbbf
00000460: 7bcb 0237 ca4f e03f 26a1 d9ba 3694 c2bf
00000470: 9bfc df14 daf1 a3bf 47b6 4a58 12ae ca3f
00000480: fd1e 24de 32a3 a5bf 8438 9327 b4d2 d53f
00000490: 625f 0f0c bd58 b33f 1738 4a59 7a58 e93f
000004a0: d966 6593 b6b7 ca3f 28d2 2a7e 4ff6 e53f
000004b0: 3ff3 8aaa f058 84bf 57c5 0553 a4da bf3f
000004c0: 697d 0303 6627 f4bf 6df1 0217 d360 e1bf
000004d0: 7e10 f9be 79bf d2bf a561 28df 3f47 e53f
000004e0: 113c 2157 6c02 cd3f 849e 8f3a 71d5 c63f
000004f0: da18 dafd 82ce e7bf b542 d6cc a11d e4bf
00000500: 8f58 d2f8 07e7 e23f 2f7b 4a13 b0a8 b5bf
00000510: a5e5 a6ca 4f9b d4bf 91fb 0c14 7842 dfbf
00000520: 823a 61d7 8242 e9bf c57b fc1d a80d d7bf
00000530: fdac 676f 151c dbbf 81b8 f693 abf2 b0bf
00000540: cc6a 06c2 2fbe b33f ebec 9a4f 5dd1 c4bf
00000550: 4d8b f977 50a0 c93f e597 f4b9 2c1e e43f
00000560: d45a f55a c75d acbf 291c 55c8 7f1c e4bf
00000570: b45d 2427 c508 bbbf 5bdd f396 6723 c9bf
00000580: aa61 ded2 819f ce3f cd45 2660 7686 e23f
00000590: 11be 8a62 79e5 c5bf e72b c92a 3fc8 a93f
000005a0: 50c2 9f5d 95b6 d5bf a67d 0d69 5b67 f2bf
000005b0: 0f46 f956 7440 943f 74cc 6627 4dd8 b7bf
000005c0: 2f6c e660 33de c2bf c3db 6e7b 49de d73f
000005d0: 0e20 c3f5 e97e df3f 70c6 4751 30bf e43f
000005e0: b924 c412 a94f d13f 6d1a 942f 5d2e dbbf
000005f0: 8437 654e e925 e93f 2449 8353 d1d4 b53f
00000600: ebe7 facc 0fa4 d03f 8df7 5a38 5f10 da3f
00000610: 923a 953b 1cf3 e5bf 097a 2b1f a1b0 dd3f
00000620: d262 ca07 1d10 e6bf 0196 35e1 f9fd c0bf
00000630: 4471 e874 0e28 d83f 7cf0 0cea b0a8 d13f
00000640: c7a2 1d08 0ce4 dbbf 492c cf94 633c e1bf
00000650: 573f 09ac 5dab e13f 001b 61b1 a1d8 cabf
00000660: 0fa9 960e 4614 7cbf 319f f358 b528 d63f
00000670: 15be 8a62 79e5 c5bf a128 f0f9 89fd 9c3f
00000680: 414f 2325 ac96 eb3f 90a4 6795 c556 c73f
00000690: 5e4d 1484 9f16 da3f ee37 16aa 14ca ce3f
000006a0: 947c db83 4556 d2bf b47e e005 2c70 f1bf
000006b0: cf6f e0e2 ee3f ecbf aa1e 2231 8018 c4bf
000006c0: db0e e955 9b4e e9bf c7c7 452e 4e4a be3f
000006d0: a3b1 fb92 27cc d4bf 27cb b8d7 a25f e33f
000006e0: eb03 e302 02ca 9dbf 6b8c e576 a707 e2bf
000006f0: ca62 02ae c6ca cdbf b584 9fd7 0fcc a03f
00000700: 8583 8957 0bc3 b83f aac1 dc3a 7468 e0bf
00000710: 5812 5d8f f188 b93f 457a 1f09 2762 db3f
00000720: 22c1 b6dc f4a8 c6bf 7888 1d8e aacf d33f
00000730: 17b3 b061 76db c73f 2877 c2e4 4648 e13f
00000740: c8cd 5372 5c29 e33f b584 9fd7 0fcc a03f
00000750: 045e 0716 c663 b03f eac1 e731 04f6 e13f
00000760: fd6f da40 2e04 cabf d6bc e85a 5c55 adbf
00000770: 3307 e1e9 c7ed e93f b78e a5a9 acc2 be3f
00000780: 14ba 5fe3 37f2 9d3f 9c2c 435b f9c9 bc3f
00000790: 36d3 ac5f 73c0 dcbf fae8 2098 1ffd ca3f
000007a0: 6ab7 0597 032b e6bf 6339 46db f4f2 dc3f
000007b0: cb21 4fdc 8aaf d0bf 0d41 72b9 0573 d3bf
000007c0: 0567 cd36 f72b e9bf 2799 882b 6a1c b43f
000007d0: df80 e13b 6e6f d23f 6609 ef0f e7ba c8bf
000007e0: c76d 51e9 5602 87bf 4b0e 1270 24b5 e23f
000007f0: b76b 3bbe 9bd7 bdbf b656 d651 cdf7 d4bf

umat f8 [942, 50]
-0.15141996759758414 0.24118276903221922 -0.40566979796963115 0.16059788979775746 0.12588575720722245 0.0995040321152147 0.03829334401678375 -0.6351148209874234
0.2254593505171729 0.13575456678617584 0.14768609262138643 -0.2040986434403766 -0.13947534213894325 -0.008903963678170437 -0.12056827302839021 0.32189886485014213
0.12519696428920976 -0.2959048614405302 0.3654385496153471 0.017154897489092574 0.08738923865401853 -0.05109760912625655 0.10219017713947076 -0.3190301032533157
0.15507565349011748 -0.16704678397904982 -0.0646265405344495 -0.15377077509907305 -0.07741106093265884 0.16903623351048208 0.024537450334794972 0.24279168297242584
0.048980654207275126 -0.0015397314378530567 -0.14136840357357205 -0.4199429881348943 -0.14040980949566806 -0.03947311603819408 -0.08324699063875934 -0.0682426054256827
-0.010645689589361566 0.14072514287262333 0.19993562273409493 0.09058633981314629 0.2781361422028418 0.22994675112646634 0.3998842688331528 -0.006288529143469227
0.15226185843768297 -0.141663940989777 -0.46807382894380084 -0.02416069390861078 0.19291891165891817 -0.03495935696577887 -0.15362116640513718 0.11907836905812076
0.012102444335559431 -0.41102696940523153 0.03914121844827506 0.05273710056757189 -0.05244237737334388 0.002038932692901044 0.01933283803039117 0.2079002531150338
-0.30451640459142165 0.39336843995412285 0.205775582500398 0.25627323465428975 -0.019143796690574012 -0.3767088156303158 -0.02963419984172555 -0.21031509309584456
-0.1968422577672831 -0.4015869279038466 -0.0771111243824286 -0.21221591502373152 -0.16262717506468968 -0.06902093549412616 0.16336145684285966 0.06644218656577403
0.1259613071544048 -0.06186926685077572 -0.026558922035096348 -0.2370466076176192 0.022561636961878365 0.08453771850503092 0.08968794915207746 -0.4234443669376674
0.1684076029508207 0.3927731473163798 -0.2930483067885657 -0.23059892552922065 0.029615927741809003 0.03439863576192955 -0.11908502140119585 -0.23704955624734922
0.10426056805723456 0.11633575344397995 0.21830283607045872 -0.059640586200850026 -0.12290109842683869 -0.03235675625968857 0.14281546561245306 0.061118120765355895
0.0006566257806855484 0.09543154916138705 -0.17648642214069676 -0.07736785057730755 -0.10676542340950211 0.0876941296015823 0.18105741149207974 -0.2707446382777434
0.12784758609580277 0.3317203573106202 0.023858816149440822 -0.07180211780770603 0.11781450169680151 0.22396129183846686 0.029910163393027087 0.15225362042549104
-0.03345701717374663 0.15336471907189148 -0.12724073762920085 -0.07689095990229122 0.1420316554900515 -0.07548694975009704 0.2161379346248063 0.10846193289944378
0.0692244578227329 0.020768078325840336 -0.031566414011191535 0.027540651623601163 -0.034113765780487464 -0.023023504554907297 -0.08440783619479414 0.24718056152264706
-0.1679010837708469 -0.17087317848896982 -0.08289913364206034 -0.1448001919550036 0.17147014343031444 0.10828437121487511 0.08422571547357748 0.05309936656245209
0.23678922125589014 0.05114098155935204 -0.13894234239076875 -0.08634879901666428 0.10499956128493293 0.24527608595073985 0.028603075807419803 0.35215937488505683
0.09148135078242464 0.18934204900422777 -0.22426067826975735 -0.15005283464870828 0.18335900316078352 -0.24316743179669803 -0.07024631059412514 -0.13306578664439878
0.14452057178217298 0.11030406795171532 0.10591022763372117 0.09564995610702087 -0.09254108342750027 0.1469968242687839 -0.09151528919456137 -0.06238171700670249
0.3549096374415293 0.0985420358892597 0.13468024582609667 -0.282570799274139 -0.19091986955521287 0.08019099987257836 0.3171409800185708 -0.20044851307983919
-0.0420880771012045 0.052287138894925776 -0.3210935597260133 0.022194194072797088 0.010266159884352422 -0.0829020252421758 -0.059884306921822575 0.013043309795158081
0.08542334601487699 0.14633898856852812 0.0161840668429154 0.1071644713208116 0.18156488943455115 -0.004522621743574554 0.29984941785455854 0.461144530650717
0.046946730886018834 0.09334402310336376 -0.37652887529356727 -0.0580072127835745 0.022975008773270286 0.08116655803560774 0.17661423024099115 0.13574262218013072
-0.30535956578795675 0.3311591361059394 -0.076020573251458 0.22939586840668189 -0.04673195817103486 0.17237387135902515 0.3994309393208755 0.2142633114752984
0.21324753958782122 0.004479175428081877 -0.05514115920754001 0.024229677002832753 -0.07838120678488247 0.3264037675236343 -0.20738187177429268 0.22115126819579203
0.18019446645167259 0.2758531242305531 -0.36595516233896486 -0.1545154715328666 0.2196188828049594 -0.3809576491957455 0.2440446453048584 -0.13428886559046485
0.01580748859145467 -0.014637325002238764 -0.5853971369275328 -0.20843671507367423 0.0582819731143613 -0.0359356840714312 0.009367386203110561 0.08238169117481053
0.024828927145952917 -0.04531523889762784 0.2727985386293146 0.29274335031059334 -0.016768125994984062 0.21448555895491705 0.6803293403267735 0.03490477449093679
0.07914527769239744 0.44682654459356774 -0.34277394355719937 0.252949096285068 0.12016715005699571 0.2363926954516004 0.19413809207445687 -0.29652034836547125
0.0040605589080865145 0.09798912194348772 0.1706162491324872 0.31198339910129697 0.2029834174836381 -0.3352146532307178 -0.11285830914640665 0.22152185285642076
00000000: 2481 65c0 ba61 c3bf b711 adb4 13df ce3f
00000010: 9d49 d074 7ef6 d9bf 2476 3ebe 788e c43f
00000020: 1e5d 1e45 061d c03f 6d46 c1a3 1879 b93f
00000030: b0c2 6968 2f9b a33f 6f11 2b51 dc52 e4bf
00000040: 6f3a 861c dadb cc3f 058c 50d8 6760 c13f
00000050: 4402 f1bc 60e7 c23f 3e00 5e83 e71f cabf
00000060: eae6 8af8 53da c1bf 688c 6bc6 3d3c 82bf
00000070: 2696 97f5 8fdd bebf 17a8 49b2 fd99 d43f
00000080: 131f 9741 7406 c03f c853 a7f1 1af0 d2bf
00000090: efea d25e 5863 d73f 1840 baae 0d91 913f
000000a0: d395 0a22 245f b63f 88be 3340 7729 aabf
000000b0: 5856 c9ac 2229 ba3f 4e66 fa3c fd6a d4bf
000000c0: 4aac 12de 84d9 c33f 84c6 0bfd c961 c5bf
000000d0: 7090 0c6e 5d8b b0bf 8ec7 10c1 c2ae c3bf
000000e0: 52ef 0d17 36d1 b3bf fa1d 62b3 faa2 c53f
000000f0: 2c55 dc6a 5820 993f 45be 0d41 cc13 cf3f
00000100: ecf2 e907 fe13 a93f a896 e40a 1a3a 59bf
00000110: e8a2 041f 5c18 c2bf 2a54 0e8e 58e0 dabf
00000120: 6826 e9d9 f2f8 c1bf 6717 e9fc d135 a4bf
00000130: fcac 48be ac4f b5bf 8644 7fee 5878 b1bf
00000140: 5c93 0945 68cd 85bf b271 2e0f 4803 c23f
00000150: f062 7990 7d97 c93f ec38 f696 aa30 b73f
00000160: 2632 a688 fbcc d13f 906e f427 e56e cd3f
00000170: 59b0 3430 b497 d93f 84a4 2d30 00c2 79bf
00000180: 0282 350b 517d c33f 9d6a c944 0b22 c2bf
00000190: fb55 dbee ebf4 ddbf 089e beb8 94bd 98bf
000001a0: 8c6f 2d20 91b1 c83f 3ce4 b65d 31e6 a1bf
000001b0: e67a d7be dba9 c3bf 7101 c484 eb7b be3f
000001c0: d0ac fb94 2ac9 883f 44a5 d70f 444e dabf
000001d0: d865 525a 510a a43f a479 7274 5b00 ab3f
000001e0: ce6a 7c2f bad9 aabf 541d 83a7 f3b3 603f
000001f0: f54c 51cc fccb 933f d0c6 fab9 799c ca3f
00000200: c733 b45f 327d d3bf 746a 38d2 f22c d93f
00000210: 9ac8 93b2 da56 ca3f 2c8a 6bda c766 d03f
00000220: 6a43 d472 6e9a 93bf 7cd0 cf4a ff1b d8bf
00000230: 8042 a77c 6d58 9ebf 26d6 59df 9aeb cabf
00000240: 7a67 ca89 2032 c9bf c747 76a8 99b3 d9bf
00000250: 975c 61fd 8dbd b3bf b1db 5b1f e429 cbbf
00000260: a7fe 2b9f f7d0 c4bf dac4 af24 5bab b1bf
00000270: 6193 4839 07e9 c43f 4eee 5fea 5a02 b13f
00000280: f010 6507 801f c03f eace 801b 54ad afbf
00000290: 7e23 3b16 4332 9bbf b036 ac11 8b57 cebf
000002a0: f4fb 94d3 651a 973f 92ef 4190 43a4 b53f
000002b0: 8117 7418 caf5 b63f 9a0d eb66 b619 dbbf
000002c0: d427 895d 618e c53f 4422 9efb 3123 d93f
000002d0: 2d86 73af 4dc1 d2bf d703 d2fd 4384 cdbf
000002e0: a4f8 5d44 a353 9e3f ebbe 3faf b29c a13f
000002f0: 9391 5c20 5b7c bebf fb8c cecd a357 cebf
00000300: dd75 1112 d2b0 ba3f e0bc 6510 2ec8 bd3f
00000310: 43f9 c5ea 58f1 cb3f 446c 7efe 3589 aebf
00000320: 76c0 6246 7276 bfbf 6d48 e193 1091 a0bf
00000330: 5c91 15f5 c647 c23f 39a7 c2d3 df4a af3f
00000340: 600a 7b20 2d84 453f 3e9f a7b6 336e b83f
00000350: d023 a469 1b97 c6bf 28c9 fd23 61ce b3bf
00000360: ef2c e391 fa54 bbbf a0a2 b05a 1f73 b63f
00000370: 6748 87a6 e32c c73f b418 be51 e153 d1bf
00000380: d6b6 9348 4f5d c03f 5442 8405 e83a d53f
00000390: b71e 550c 726e 983f d583 c4a3 9f61 b2bf
000003a0: bf44 c857 1729 be3f 7210 027c c3aa cc3f
000003b0: dc40 5d16 c5a0 9e3f 1369 36f0 0b7d c33f
000003c0: b378 2a35 4721 a1bf 7a12 6382 74a1 c33f
000003d0: 000d 6bab 6c49 c0bf 686d 233e 20af b3bf
000003e0: 15cb a9e1 172e c23f 0693 73dc 1c53 b3bf
000003f0: 52bb 5168 68aa cb3f acff a946 29c4 bb3f
00000400: 8895 6eae b1b8 b13f f44b d724 3a44 953f
00000410: 20fe a817 7929 a0bf b6b5 22d8 9d33 9c3f
00000420: f7be bd08 5c77 a1bf db18 693c 7993 97bf
00000430: 8c96 fb7f c09b b5bf fa2c f9d5 9ca3 cf3f
00000440: 841e e15f c87d c5bf 46d5 af1c 2cdf c5bf
00000450: 7e00 dcab e038 b5bf 945c 730c d088 c2bf
00000460: 4d06 23d1 bbf2 c53f 002b 0949 86b8 bb3f
00000470: 8ff3 7005 d18f b53f 93e9 a515 d72f ab3f
00000480: 0670 abf4 1b4f ce3f 68c5 9096 262f aa3f
00000490: d08a 4cd8 dcc8 c1bf b250 d373 f41a b6bf
000004a0: 9829 d051 40e1 ba3f ae1c d3ef 3465 cf3f
000004b0: 78aa a1ec 1f4a 9d3f a31c 8779 c789 d63f
000004c0: 54ee cd61 526b b73f 738a 1d3a 5c3c c83f
000004d0: ef43 79eb 92b4 ccbf 8a80 be68 ee34 c3bf
000004e0: 5259 00cd 4e78 c73f ce72 8243 1c20 cfbf
000004f0: e29a aa86 a9fb b1bf a256 edb8 4c08 c1bf
00000500: eaaa b36c a67f c23f b0e7 772c e33c bc3f
00000510: f1ad ffc3 ee1c bb3f f8ee 57f9 837c b83f
00000520: 8386 dbbe c5b0 b7bf 2cd6 6cbc cad0 c23f
00000530: 1cb4 2cc6 8b6d b7bf a200 d314 7ff0 afbf
00000540: 752e 76e9 d6b6 d63f 00f6 6c05 0d3a b93f
00000550: fec2 9ec9 333d c13f eef7 6bd5 a315 d2bf
00000560: 83b7 f2f1 0f70 c8bf 36e2 e2b9 6587 b43f
00000570: 75ac 59ae 094c d43f aed8 1a00 4ca8 c9bf
00000580: a903 6785 918c a5bf 2338 1c3f 61c5 aa3f
00000590: 4eaf 7e00 cc8c d4bf 5ca1 d026 13ba 963f
000005a0: c09f aba7 6c06 853f a6f3 2f2f 1139 b5bf
000005b0: 92b3 8be7 27a9 aebf f0af 0368 73b6 8a3f
000005c0: cfe3 72ed 4dde b53f b409 0469 3cbb c23f
000005d0: 40f5 3957 8e92 903f 35b3 9d7b 216f bb3f
000005e0: 8f93 1caf 843d c73f 107c b107 5086 72bf
000005f0: e83c da9c bb30 d33f 3df1 7759 6483 dd3f
00000600: 2c7f 9ee3 6609 a83f 408a 81d6 64e5 b73f
00000610: 96ac 5891 0c19 d8bf 66d5 ac13 1fb3 adbf
00000620: 7cdd 39bd c286 973f ccb4 4ae0 54c7 b43f
00000630: b656 728b 4b9b c63f d6ed 77a5 0360 c13f
00000640: 4a1f 25d9 028b d3bf 102f d616 b631 d53f
00000650: dc2c f093 1576 b3bf bf75 5204 d85c cd3f
00000660: c696 0b50 40ed a7bf 9c01 16d6 5810 c63f
00000670: b832 59c9 4690 d93f d370 c2ed fa6c cb3f
00000680: 56b7 3d04 b24b cb3f a064 a07f c158 723f
00000690: cc79 eb46 763b acbf 447c 4719 aacf 983f
000006a0: e817 c36f ca10 b4bf 5688 b3a0 cce3 d43f
000006b0: a4e4 863a 7d8b cabf 4d57 2f4c af4e cc3f
000006c0: d040 2abe 9c10 c73f 2875 c4dc 93a7 d13f
000006d0: 1e16 8333 cf6b d7bf d4d6 7ab8 29c7 c3bf
000006e0: 1e9d 9db7 781c cc3f ae3b 1d31 9c61 d8bf
000006f0: a994 2cdd da3c cf3f 41c8 f6a6 6030 c1bf
00000700: a8f6 209a d62f 903f acfb 7b81 2cfa 8dbf
00000710: 40d3 c8c6 92bb e2bf 0c78 43e5 0dae cabf
00000720: daef f180 22d7 ad3f 2d3f b177 2966 a2bf
00000730: 2082 214b 352f 833f 408e 626d f716 b53f
00000740: b0b6 5818 c16c 993f 38c7 261a 8f33 a7bf
00000750: d4ce 7300 8875 d13f 6b26 ed9a 4ebc d23f
00000760: f0fd 0de3 a92b 91bf a87b 9646 4374 cb3f
00000770: d1ce 6609 42c5 e53f 445e d3e1 09df a13f
00000780: f959 526b dd42 b43f 58e6 005d ce98 dc3f
00000790: 9af1 5f1f 02f0 d5bf 4037 0668 5130 d03f
000007a0: c65e 8c3b 46c3 be3f 362c fda7 1d42 ce3f
000007b0: 780e 2f5a 84d9 c83f a801 b57b 30fa d2bf
000007c0: 605e 6bfb cda1 703f d66c 1caa d015 b93f
000007d0: 2959 18d5 c0d6 c53f 373d 0238 89f7 d33f
000007e0: 337c dc51 5cfb c93f bb04 3129 2874 d5bf
000007f0: d49c dd3a 48e4 bcbf 330f affc d35a cc3f

ubias f8 [942]
-0.19747789399238647 0.07855048009629578 -0.10469425803061051 -0.5398550973961419 -0.7881069493432844 -0.3395537093567719 -0.20914872748726787 -0.023374805254903753
0.15643521594072854 0.3206690461355617 0.15268926018143195 0.38148300815503766 -0.24183291941507443 -0.3871478898565149 0.03505332426774463 0.09733359967484263
-0.2074498599421787 0.3172477377586506 -0.08160599796168622 -0.3116870654998278 -0.12138175416341848 0.1162341689344124 -0.055945122411914544 0.03457133323336406
0.05422330461886087 -0.06425170137122024 0.15800194441734167 -0.22845660643921525 0.23922603286293126 -0.3236124862440518 0.16797804705277544 0.7092655302209648
0.24830323792474643 -0.045502900769015225 0.25799976670560665 -0.6811065191628162 0.15756038621682344 0.28454868960846214 0.11126793124960249 -0.3043296175753407
-0.11329338695160035 0.1916557921932032 0.13800127616404562 0.2719902906881953 -0.15429459873593226 -0.14349204236077334 -0.5430130519611261 -0.0819540028514434
0.38350073445548055 0.400002324595874 0.24631231004559231 -1.4768037791514257 -0.48646492929405555 -0.25575546652512937 0.2443059350219649 0.5084879526530631
0.3751046876263559 0.049087716635272304 -0.059706572923051815 -0.12301531524151109 -0.0381391194827412 -0.0808605431431402 -0.44560595441425166 -1.6169895392626243
0.05837495367324105 0.1517759350793562 0.2112958963593511 0.04491228280612557 0.2936217932339147 0.29047675363157305 0.3858791528344509 -0.2854754950700358
-0.2142800736096486 0.5392753204364872 -0.2085983205456993 -0.1279424552322673 0.2683028271978819 -1.3751603871384492 0.05402786221352717 0.287316533697689
-0.08135598464770524 0.07935620260413453 0.4635770008206236 0.7672289687156626 -0.7291740008167438 -0.184205438921791 -0.24903904099888513 0.30108386972899454
0.40355493930113306 0.3912195177290321 0.26781985247968026 -0.6361752745016119 0.13581612853154498 -0.4762394833707933 -0.4537368801983884 -0.41547892937585396
-0.23777485232566536 -0.39414023633738954 0.08534308987842636 -0.1999311818625506 0.4327308023855259 0.28900948377237584 -0.25810925460602724 -0.0714105854251104
-0.10998007188609113 -0.07183501502999032 0.0033963339274332804 -0.20696502075162293 0.7043542519046869 -0.03464574310329907 0.09083977774792527 -0.14507932763890716
-0.6418232156748555 -0.25921333212943826 -0.5071112048604877 0.09654145747083338 0.16627246645510788 1.2595330390653192 0.41049498508447874 0.025925250929420635
-0.35703174537803795 -0.2888233222613665 -0.15554051142253372 -0.025224970500488955 -0.034907330911739455 0.05961993777858939 -0.1064861458643438 -0.14243783807005575
-0.410290444342859 -0.4032809672975981 -0.18851657959966783 0.19473232143352978 0.35484426474260045 -0.025634689021199662 -0.5013529087174036 0.3538042203300396
0.6495368926361423 0.27125754829193205 0.5215005520232561 0.6017418329276486 -0.07061867349187896 -0.16110124713983295 -0.18922379225836589 -0.025598957727432474
-0.18213066902385164 0.13805743437865298 0.25374845621289144 0.04922817726590711 0.08253215197885216 -0.014296703347701315 -0.19043655059105613 0.22415604112518644
0.19767504349124182 -0.035607743659181464 0.1845082290591989 0.3768092316466243 -0.15217803404640842 -0.16659653736241112 0.23929298280075054 -0.1963547425091144
0.11202706109941214 0.30694462835754427 -0.22190805042115683 -0.07303589666926709 0.37105111323824985 -0.022405322004219144 0.023885837940530143 0.3922502942083411
0.3025531938500462 -0.11420294796927076 0.08760398612876437 -0.33672878991568495 -0.5102961804813959 -0.022543118189672615 0.22062497873319672 0.8873351524582296
0.32062110228300367 -0.11423381980959485 -0.0978177407364443 -0.386051194224606 0.5437996570350477 -0.5601077313989576 -0.3310187077910462 -0.2815397557838776
-0.2970694707440892 -0.2107452754996123 -0.32930127875745585 -0.18308619950224905 0.22596442515452764 0.5594956952284756 0.04056710713666945 -0.11844240395363667
0.11104401620845 0.2840655058558366 0.09846540601413407 0.30593052330551807 0.4014557570899922 0.060795061857792855 -0.10547499966000283 -0.20932611696930462
0.6049152765597015 -0.2009390449411716 0.36938293605193884 0.041286068213508643 -0.46867683313590336 -0.4403131219415013 0.14644519977475684 -0.8281746728078629
-0.02714417477255167 0.41547425259937454 0.05564955927740762 -0.41745700578685146 -0.19864451985016646 0.37681853587898906 0.7249362414321587 -0.5534945087364537
0.08640330031933982 -0.08000816146129598 0.03243359481957449 -0.035030529414169606 -0.07169702693522713 -0.3015399867228598 -0.36612338331968086 -0.5561447998033124
-0.12306549742512198 -0.7463664439608856 -0.3197476189530389 0.9265003471951714 0.10079440354427727 0.25868951359147707 -0.012137413428755186 -0.29567140951704385
0.40875965877891646 0.08817691198451534 0.039071981296028235 -0.05068962778063241 -0.30435523726291075 0.007138154339832194 -0.11376242378245553 0.24358637801144403
-0.24149942258052012 0.6155192113945468 -0.05887790653663262 0.10165887009666989 0.04405394268516346 0.7674116776492473 -0.21122731314256088 0.25459302429441266
0.03767449600819082 0.1698569173462986 0.2642830390453585 -0.22588079269308528 -0.3630363176791656 0.12272879167634283 0.20460694322708484 -0.5463803362583887
00000000: 30ac 30a4 f446 c9bf b443 195f e21b b43f
00000010: 8109 522e 3ecd babf 7fa6 7c32 7e46 e1bf
00000020: 64c0 a510 2c38 e9bf 8f0f 3b7b 3fbb d5bf
00000030: 0867 47b0 62c5 cabf 9d10 7ba0 90ef 97bf
00000040: 813d 34b4 1106 c43f e078 7f76 d785 d43f
00000050: edff 7659 528b c33f 8e5b 00b5 376a d83f
00000060: 03f2 fd8f 61f4 cebf 898b 69f1 07c7 d8bf
00000070: fc2c b162 82f2 a13f a5c8 67d3 daea b83f
00000080: cd76 018e b78d cabf 1fd1 9974 c94d d43f
00000090: 7823 6774 21e4 b4bf 2f1c 3a4e aef2 d3bf
000000a0: ca86 76e8 df12 bfbf 2f44 40c2 85c1 bd3f
000000b0: e480 42ce d6a4 acbf f49a 3b73 55b3 a13f
000000c0: 57c1 0930 28c3 ab3f 3e0c 1aac cc72 b0bf
000000d0: ce0a fd5f 6839 c43f cf14 9bea 103e cdbf
000000e0: 1ac2 bf69 f59e ce3f 7eb5 3f25 11b6 d4bf
000000f0: b9d0 44fd 4d80 c53f 2555 0fa0 4db2 e63f
00000100: 3d58 3087 66c8 cf3f b423 5afd 274c a7bf
00000110: d413 1874 1183 d03f b5b1 1ce6 9fcb e5bf
00000120: 2c23 f950 f02a c43f 643b ffb4 0b36 d23f
00000130: bc84 cf1d 0e7c bc3f 782d acee 227a d3bf
00000140: 0c69 cf9f cb00 bdbf 1986 c74f 2d88 c83f
00000150: c625 f79b 06aa c13f 1576 d5f6 4968 d13f
00000160: 4698 c2e7 ecbf c3bf 927f 967e f25d c2bf
00000170: 872c 6fe8 5c60 e1bf 11f3 0502 f0fa b4bf
00000180: f79b 1eaa 468b d83f f9a5 9d59 a399 d93f
00000190: 7dbf 1f6a 2987 cf3f 8508 e1ff fca0 f7bf
000001a0: cd02 7ecc 3d22 dfbf f0e9 1f2d 4c5e d0bf
000001b0: 4eab 91b8 6a45 cf3f c3c1 e186 8845 e03f
000001c0: 9b9d 7b17 b701 d83f 1be9 2a73 0622 a93f
000001d0: 301a 1f24 dc91 aebf 5792 de83 ee7d bfbf
000001e0: 03d3 c07d f886 a3bf 622a 56cc 46b3 b4bf
000001f0: 482c 47d6 ce84 dcbf 99b6 516c 30df f9bf
00000200: 4c3a dd69 52e3 ad3f e929 bed2 646d c33f
00000210: c43a 5272 be0b cb3f 2e99 ae23 befe a63f
00000220: 4c48 d50f b3ca d23f 7f22 46cf 2b97 d23f
00000230: 2f75 6879 3eb2 d83f 54a7 c802 3b45 d2bf
00000240: bf40 2b8a 876d cbbf 7911 1a51 be41 e13f
00000250: 5545 5f8a 59b3 cabf 4b0b 7f1a 6b60 c0bf
00000260: be4f 0f9f df2b d13f bb3a 982d a800 f6bf
00000270: 2f4e 8f3a 8aa9 ab3f db39 f5e2 6463 d23f
00000280: 5251 65ed bed3 b4bf de64 eb26 b050 b43f
00000290: 32f3 6cde 3eab dd3f b8ae 25c4 238d e83f
000002a0: 9a3e d3b6 6455 e7bf a50b f537 0b94 c7bf
000002b0: a63a 42e4 82e0 cfbf bbb4 7547 f544 d33f
000002c0: 2802 9c18 d8d3 d93f 58ff 8c96 bd09 d93f
000002d0: 55aa e7e0 f523 d13f 8d43 d03f 8c5b e4bf
000002e0: 0bfa 2743 6c62 c13f 390e 892b b57a debf
000002f0: c63b 5c69 060a ddbf 322b 76ef 3497 dabf
00000300: 2a65 4607 686f cebf cbd5 46f8 9739 d9bf
00000310: 7ba9 f773 0bd9 b53f ae6f c64f 5897 c9bf
00000320: 59ee 0d89 dcb1 db3f 0d51 42a2 217f d23f
00000330: 13fb d4ad dc84 d0bf 4333 fdd0 f647 b2bf
00000340: c665 f66b a727 bcbf 26f0 4290 c763 b2bf
00000350: 97bc a0e4 a0d2 6b3f c0a7 c56d d47d cabf
00000360: 6955 97ed 118a e63f f408 263b 16bd a1bf
00000370: 6f6e 9a92 4641 b73f 8373 c49b f591 c2bf
00000380: c962 24d7 d089 e4bf 4bb8 0b84 f396 d0bf
00000390: 4ff3 0947 413a e0bf 9d9f 8be2 f0b6 b83f
000003a0: 6931 d38a 6a48 c53f c845 b01d 0c27 f43f
000003b0: af07 07c2 8c45 da3f 58a2 8723 268c 9a3f
000003c0: 0614 82ad 9bd9 d6bf 1bd1 dbd0 147c d2bf
000003d0: 9aa6 e160 c0e8 c3bf 7460 5e1d 93d4 99bf
000003e0: 0d2a 50a9 5fdf a1bf 6bae e525 8186 ae3f
000003f0: b0e5 f611 ad42 bbbf 91a6 1c30 673b c2bf
00000400: bc16 14da 3242 dabf 901d 69f9 5acf d9bf
00000410: 8432 11b0 4f21 c8bf 63fd 031c fdec c83f
00000420: 5487 0fb8 c4b5 d63f 56ec f4db fa3f 9abf
00000430: 5a43 5641 150b e0bf 6d46 e074 baa4 d63f
00000440: c15d ed97 01c9 e43f 4e3f ad9e 485c d13f
00000450: 8825 f9ec 21b0 e03f 2be6 a116 7841 e33f
00000460: 0d70 22bd 1014 b2bf 0fbb e735 f79e c4bf
00000470: c6f8 af37 7c38 c8bf 7e08 01f9 9c36 9abf
00000480: 6b2c 87c9 0e50 c7bf 2220 d0b2 ddab c13f
00000490: 2212 362a 6a3d d03f 7f2a cc86 6f34 a93f
000004a0: bc1f 9ebd d320 b53f 154b 8d0a 9747 8dbf
000004b0: 9835 6092 3960 c8bf 5ab0 ea28 25b1 cc3f
000004c0: 9adf 8373 6a4d c93f 3946 009d 2d3b a2bf
000004d0: 3279 d334 f79d c73f 7033 b077 a41d d83f
000004e0: 1d0f b3df 917a c3bf 4d98 cc0b 0953 c5bf
000004f0: 5550 a507 27a1 ce3f eadd bef6 2622 c9bf
00000500: 4560 b033 cead bc3f 2fa0 1e15 fba4 d33f
00000510: 1995 a3a5 7b67 ccbf d5e7 a003 7bb2 b2bf
00000520: d72b 202b 4dbf d73f 54d1 0eb5 6bf1 96bf
00000530: e724 2b73 8775 983f 3228 5efa a01a d93f
00000540: 16b9 3812 085d d33f bf82 a286 673c bdbf
00000550: 951a 6cff 366d b63f 33cf 13e9 f68c d5bf
00000560: 341f cea7 5854 e0bf a97e 7f0d 8b15 97bf
00000570: c37d 2b76 703d cc3f d2c6 8cb0 0c65 ec3f
00000580: 54a1 2d5f 0e85 d43f fcea 2d78 6d3e bdbf
00000590: a57f 6e5d 950a b9bf fab0 7111 10b5 d8bf
000005a0: 5954 d189 ce66 e13f 7f0c 930c 67ec e1bf
000005b0: 0be9 1417 692f d5bf ae65 e752 bf04 d2bf
000005c0: da18 5fab 2f03 d3bf 1457 0781 b3f9 cabf
000005d0: 08d5 b2ab 4513 d5bf 0905 9b5b 5e6f c7bf
000005e0: b88f 0cfc 66ec cc3f 6f4a 2884 63e7 e13f
000005f0: 7101 e43c 36c5 a43f fec3 70cb 3d52 bebf
00000600: 2c23 0872 616d bc3f 15a4 6416 212e d23f
00000610: ad39 9e62 0735 b93f e080 1c9e 5d94 d33f
00000620: 1584 df7c 73b1 d93f 4502 e0c4 8720 af3f
00000630: bfd7 15da 6800 bbbf 8979 4abd 32cb cabf
00000640: 4097 3548 775b e33f de82 41e1 5eb8 c9bf
00000650: 4ec9 8253 f8a3 d73f cdcf 8391 7223 a53f
00000660: 1a8a ad1d cdfe ddbf 1442 af16 172e dcbf
00000670: 8629 d85f b7be c23f 8cba e22b 6880 eabf
00000680: d437 b3bb aecb 9bbf 8aa3 cf51 2197 da3f
00000690: 293d 445a 197e ac3f 8dcc d596 9db7 dabf
000006a0: 869e 2402 2f6d c9bf 7c1e 087e cb1d d83f
000006b0: 6c5c 147d ad32 e73f a93c b11d 3ab6 e1bf
000006c0: fe55 23d5 861e b63f b1ac e334 6a7b b4bf
000006d0: 2a65 15da 229b a03f ae0e 6484 85ef a1bf
000006e0: 5540 e881 bc5a b2bf 1f4d 5a5f 6e4c d3bf
000006f0: 702b 6ac5 906e d7bf badc df2d f0cb e1bf
00000700: 81f5 b46e 3881 bfbf 2d9a 74e1 3be2 e7bf
00000710: 9523 98b7 be76 d4bf f2f2 5d0e e4a5 ed3f
00000720: e8ad d77a a9cd b93f fc62 2c76 5e8e d03f
00000730: c153 e00d 80db 88bf 303a 8fc6 47ec d2bf
00000740: cd4a 9845 1e29 da3f 055b 3c19 c392 b63f
00000750: 7875 b623 3e01 a43f a8e2 20ab fdf3 a9bf
00000760: ff45 9a63 8e7a d3bf 5c15 18b7 e53c 7d3f
00000770: 73ca a8c1 881f bdbf 21b6 a7a3 d62d cf3f
00000780: 633c fefc 73e9 cebf 2dfa 5f58 55b2 e33f
00000790: b245 10b6 3e25 aebf c3db 69d2 5006 ba3f
000007a0: eb6d 2f06 3d8e a63f eb4d 42ef a28e e83f
000007b0: 6210 fc20 7f09 cbbf 5297 488a 404b d03f
000007c0: 6d36 7f50 124a a33f 9c38 8018 dfbd c53f
000007d0: 6b96 6568 03ea d03f 59a7 b46c a9e9 ccbf
000007e0: 5d4e ecad fc3b d7bf 8d09 8772 276b bf3f
000007f0: 1cf1 d870 8f30 ca3f 4b08 6d9d f27b e1bf
