offline_resampled_model_testing/model_12.npz (npz, 969558 bytes, 5 tensors)

imat f8 [1572, 50]
0.024528315867625175 0.2516776729947684 0.06607500523306725 -0.21697880326736207 0.21839246165139514 -0.08723642665491077 0.1972748813519376 0.12464680498153524
0.03508698745844473 -0.23474395380280133 -0.0358404793379078 -0.02087670118344036 -0.21224794580074036 0.4917270652004102 0.10724371721349524 -0.03765892803151898
-0.09664915607233007 -0.26834217768946533 -0.14771839751243013 -0.06900835130103486 -0.05344134294499852 0.0675893947235511 -0.1258115679893003 -0.05710855550128064
-0.30605403859616764 -0.3005278959741031 0.07788541183792635 0.18022629846815474 0.19579822365245825 -0.09453895393578154 -0.1028642993799852 0.11086885902259992
-0.08736696413618109 0.09613509632153436 -0.10319591063829762 0.48231485856266854 0.2993901736125301 -0.031036996185351336 0.279803368442049 0.26326010598619376
0.035092863059509295 0.08820675126025236 0.11502082270749295 -0.16368840467448195 -0.23938523780829574 0.15502251535227785 -0.04905410823066692 -0.14114806771847346
0.09709637132297173 0.14639199442329887 -0.11098607262910165 0.07147836681404485 -0.1738639336071699 0.0628888980301574 -0.17248705042333345 0.0005783362769606615
0.13380408217103107 0.2455090045306365 -0.09858213293014945 -0.11299062608052846 -0.005572699481966786 0.02719646805197612 0.0486186886663115 0.14189384438175784
-0.24751696549206137 0.4303865271574949 0.25175822388933233 -0.04774503621301052 -0.10709794779343307 0.03521276619410979 0.09229969663887982 0.011247200207413197
0.1422179571211799 -0.09444293410296944 -0.2230866460398544 0.007736411614999786 0.08060429265171287 0.016207500265951358 0.02422299540138345 0.11346512575449086
-0.09065876381294047 -0.15163817050216366 0.14480280711353122 -0.19537216475721575 -0.17816356827197455 -0.06696626213419204 -0.11045333532406987 0.1394540399411751
0.05660503733176725 -0.12249405510133549 -0.14069851117606724 0.16658285024110864 0.2146841529270751 0.06293881405096262 0.0018808617608143119 0.13205436213596689
0.30183030927811716 0.05925427926829638 0.10749800404077192 -0.15737672835099425 -0.13012344833588846 0.05400632678411635 -0.1312918257028339 -0.21814154273398004
0.013897219064331074 0.06603212277874121 0.015477542646635686 -0.00892769440394399 0.03059296554005496 -0.060516590695191996 -0.16835602708660063 0.16555029694736
-0.08670943539404463 -0.04695851312590179 0.10100241098219338 -0.003883603976034787 0.026191076627538556 -0.026080555648357234 -0.14749642081401115 0.002482359892619475
0.05657289894470188 0.052491411806223714 -0.14525725917330445 -0.029997914004290478 0.07591375089368108 -0.017808515382284548 -0.02809577597819854 0.017623478027132322
-0.061834932342076515 0.06535362587446977 0.056390509718943604 0.0075730711751050145 -0.017322913453873864 -0.05489593286736155 -0.16207173514666545 0.0469727469922504
-0.02386409543096317 0.03598168346226014 -0.04900977028544691 0.06001822362012132 -0.0903525054370615 0.006931397776418068 -0.1345367744334639 -0.09965654707739009
0.017952936382852436 0.01813790100594756 -0.008941345745656387 0.04510699909228169 -0.08833119866929058 -0.005832481447918203 -0.020251643205064996 -0.07857614821219831
0.10424752308661103 -0.19584619448497675 -0.2098149426167361 -0.3058216062919927 0.28678818047893084 0.07626627126650629 0.18354101389826066 0.060066673459799644
0.00979693385364229 0.1434968100333399 -0.05394163884817407 0.05150874335648731 0.33996318347468935 0.1521516283901494 0.016183311849380287 0.09118121970042571
0.22467876974670012 0.24339832635087244 -0.1318607573701575 0.10770764769019504 0.13019892465462773 0.33672778303284334 0.08880837453082847 0.05863629082818786
-0.3147311166744674 0.00984071614450487 -0.13080277173455274 0.017173135083486085 -0.21230355719644603 0.04153188571913338 -0.27731688697222323 0.09699542442378453
-0.18201671634696542 -0.06254784924725774 -0.2831094204224237 -0.10091247780204071 0.11436825157213151 -0.3996272047995777 0.046522913754423814 0.2955374114525534
0.03621951430148556 -0.1194815512960904 -0.012167162386941502 0.09939445006630193 0.018084416746116168 0.15833944072143868 0.01972075025126188 0.07043327861848744
0.23365535667782053 0.06271760836121185 -0.0650761456277626 -0.36463847805138155 -0.006850148405309356 -0.026838788100519567 -0.021669682897300403 0.16745938831518634
-0.14728536985405508 0.004563763181799081 -0.10763834942094021 -0.09463908108065577 -0.28592808407711257 0.054304463562762695 0.29936468420958934 -0.1710629774957451
0.11943782944555853 -0.15500562904524443 -0.025973286057698775 0.2147940790858061 0.08692290151413967 0.1306866643362976 0.023796393551166556 0.11685826236766719
-0.12290771381674181 0.20134853377620743 0.15283255606657514 0.046548160957174 0.003086678971854308 0.010183613421771855 0.08602481050618688 -0.29742708630533043
-0.015986695149439543 -0.24872325261471856 0.0017199337299422177 0.013242720113947446 -0.2665459198442205 0.005251409544143092 0.35458962940622163 0.04099847079987258
0.045993842499840384 0.3258390825366838 -0.005958887530881543 -0.0851554278182318 0.17716437197678978 0.3072985420463236 -0.20860338212813445 0.14044038428444505
-0.028350252587133033 0.22065357067818644 0.11404546669778493 -0.347828171476379 0.10482776666131322 0.2633459362037473 0.14370682413784533 0.12525928191158847
00000000: a4dd e869 f31d 993f a256 a9ab 7c1b d03f
00000010: 141e 8fa2 4aea b03f 60b1 fa1f f6c5 cbbf
00000020: a42a 3ec0 48f4 cb3f dcb3 805f 2055 b6bf
00000030: 084b dda5 4d40 c93f 5053 f25e dae8 bf3f
00000040: 9e61 4cef ebf6 a13f 6825 4202 170c cebf
00000050: b130 42ed ae59 a2bf cd30 53b3 b360 95bf
00000060: fcbd edd0 f02a cbbf 2c01 e6cb 7478 df3f
00000070: c028 2202 5374 bb3f 2778 98f0 0748 a3bf
00000080: aa43 84c4 ffbd b8bf 3e13 54ab 842c d1bf
00000090: 59ad 2abb 6fe8 c2bf 8e23 fd03 88aa b1bf
000000a0: 47fb 67e8 a95c abbf e2e2 e4df 894d b13f
000000b0: b57b fcec 971a c0bf 594c 6624 553d adbf
000000c0: a012 a5ad 6396 d3bf 48a5 2f5b d93b d3bf
000000d0: 2cec ad60 4cf0 b33f cc61 e6c4 a711 c73f
000000e0: c0e1 998b ea0f c93f e42b 5a73 b433 b8bf
000000f0: 4853 c391 5055 babf 519b a5cb e661 bc3f
00000100: 4a38 b76d ae5d b6bf 8ee4 b246 4f9c b83f
00000110: c3bd 4515 0c6b babf 9eb2 f923 3fde de3f
00000120: 8b36 1a67 3529 d33f f221 548e 29c8 9fbf
00000130: 363b 3163 4ce8 d13f 2e57 63ea 40d9 d03f
00000140: 3dc3 5316 b1f7 a13f 29fe f2b7 b794 b63f
00000150: 1240 e32f 0172 bd3f 1fd9 67dc bdf3 c4bf
00000160: 7212 c4eb 2ca4 cebf dc74 ca1c c7d7 c33f
00000170: f199 2bbd 9e1d a9bf b549 5fcf 2311 c2bf
00000180: ad76 64cb 4edb b83f 44de 380e f9bc c23f
00000190: 90e3 4050 9569 bcbf 007b d6ff 674c b23f
000001a0: 98fa 6562 2c41 c6bf 602d 52a0 7c19 b03f
000001b0: c49e 4640 0e14 c6bf 0037 a4b2 6ff3 423f
000001c0: d678 7ffe 7d20 c13f a092 aacc d66c cf3f
000001d0: 9ca8 e7bc ad3c b9bf 303b c523 f4ec bcbf
000001e0: 6061 6820 66d3 76bf 5058 6613 64d9 9b3f
000001f0: 54a9 977b 8ce4 a83f 5eca 8fd6 9329 c23f
00000200: 1c2d ffcb a2ae cfbf 00f3 b1ee 738b db3f
00000210: 7ca3 8686 ce1c d03f 2095 2992 0972 a8bf
00000220: a0d3 3d67 c56a bbbf a829 695e 6807 a23f
00000230: 50a5 7ef2 f3a0 b73f b8cd 7fa8 c508 873f
00000240: 98a4 5eb1 3234 c23f 587f 4f81 692d b8bf
00000250: 302f 756c 1a8e ccbf d041 ff2d 37b0 7f3f
00000260: c837 dba0 7ba2 b43f 7062 5eee b298 903f
00000270: f08a 3db4 e9cd 983f f820 5aec 0c0c bd3f
00000280: 4820 aca9 6935 b7bf 80e7 902b e168 c3bf
00000290: 68f7 75fc e588 c23f e029 1781 f401 c9bf
000002a0: b48c 8855 10ce c6bf 643d cd71 b324 b1bf
000002b0: d874 f376 ab46 bcbf 94d4 6b46 a1d9 c13f
000002c0: 00f2 41e0 55fb ac3f 385a 9d38 c55b bfbf
000002d0: c06d 0ca8 6802 c2bf 6015 ee3a 9652 c53f
000002e0: b047 e533 c57a cb3f 0377 ff13 c21c b03f
000002f0: 004b 10f0 e7d0 5e3f e884 5547 28e7 c03f
00000300: 08a1 d212 3051 d33f dcf4 35af 9356 ae3f
00000310: 488a bd3b fd84 bb3f aca1 b5ae eb24 c4bf
00000320: 3acf 8599 e2a7 c0bf 7436 a19e b7a6 ab3f
00000330: 571a d0a8 2bce c0bf cd80 f8e3 0fec cbbf
00000340: cadb 172b 2576 8c3f 5cf5 d12f 7be7 b03f
00000350: b8ff ea9b b0b2 8f3f e8ef f2db ae48 82bf
00000360: 7cc3 ed29 c353 9f3f f072 cdd3 07fc aebf
00000370: bef1 35b7 b08c c5bf 2cb2 9d8b c030 c53f
00000380: d8a4 45ed 9632 b6bf 7b00 4a3c f20a a8bf
00000390: fd54 fc43 4bdb b93f b079 2a02 82d0 6fbf
000003a0: b0cd 3f66 d5d1 9a3f 48e9 4876 dcb4 9abf
000003b0: 742c d6a7 29e1 c2bf 1051 c8d1 e255 643f
000003c0: 8464 9d7d 1ff7 ac3f 8ca4 0e82 27e0 aa3f
000003d0: ccf5 d334 ca97 c2bf b2f7 62ee c5b7 9ebf
000003e0: 6cb1 6765 156f b33f 9cff a03c 653c 92bf
000003f0: f8ac ed9b 23c5 9cbf 50bf 1297 e30b 923f
00000400: f4b5 5108 d4a8 afbf 4e4d cee5 03bb b03f
00000410: 5863 1886 37df ac3f 300d 70d0 f004 7f3f
00000420: 6cf7 050b 19bd 91bf a88c b2d8 511b acbf
00000430: a2cb 0741 c4be c4bf 701e 45d8 cf0c a83f
00000440: eccc b255 d46f 98bf bd6b 73f3 306c a23f
00000450: 8af5 1e01 cf17 a9bf 2f91 3967 b5ba ae3f
00000460: 4ebe f67f 5721 b7bf 1899 3eec 1864 7c3f
00000470: 0489 2643 8038 c1bf c598 876a 1783 b9bf
00000480: 1dad 862a 4162 923f 18f5 8dee bd92 923f
00000490: 7084 7a1c d74f 82bf 2417 d8bb 4318 a73f
000004a0: e546 8099 df9c b6bf c061 2cd1 cce3 77bf
000004b0: bd28 06c5 d8bc 94bf 9329 d102 911d b4bf
000004c0: 6a93 5836 f7af ba3f b8f4 2df4 7c11 c9bf
000004d0: b620 604e 37db cabf 83cb 5bc9 9492 d3bf
000004e0: 9e53 02d0 bc5a d23f 6ea4 e0b4 2f86 b33f
000004f0: 8e77 159e 457e c73f 5ebf 2d1c 0fc1 ae3f
00000500: 680e 0534 6a10 843f e335 167d 1a5e c23f
00000510: d4b8 7d0d 3d9e abbf d82c 59a0 5a5f aa3f
00000520: aa8a b7f0 f4c1 d53f d802 fc5d b479 c33f
00000530: 6646 89ac 5b92 903f 896a 9f04 a757 b73f
00000540: a173 1520 46c2 cc3f 3c00 ca25 ad27 cf3f
00000550: 46eb 4334 d0e0 c0bf 31c5 5b78 ba92 bb3f
00000560: e6d8 aebd 5baa c03f 1af6 f1af f28c d53f
00000570: 2988 3848 25bc b63f dc7e ee6e 9305 ae3f
00000580: 1ea0 49fb 8d24 d4bf 7a35 1490 5e27 843f
00000590: 3ebc 692d 25be c0bf c8a4 3696 d595 913f
000005a0: 89d9 7d51 c32c cbbf 644d cfd5 aa43 a53f
000005b0: 8a26 0b54 8fbf d1bf f204 c32f b1d4 b83f
000005c0: 168c 04e2 524c c7bf 7fbd f3c6 2203 b0bf
000005d0: 42d8 79f9 761e d2bf 0008 eb6f 66d5 b9bf
000005e0: 2af8 33dc 3c47 bd3f 6c30 cdfb 7d93 d9bf
000005f0: 9a04 2ef2 d9d1 a73f c2b9 3bbf 15ea d23f
00000600: d7c3 cd3a 5d8b a23f 18c4 4acb 5796 bebf
00000610: 08d9 4be4 18eb 88bf cc4c 7028 ea71 b93f
00000620: 629b f7a9 b884 923f a062 c87f 7744 c43f
00000630: 68ea 8625 ad31 943f e669 3754 ea07 b23f
00000640: c7b4 bb31 6be8 cd3f 2674 cbdc 420e b03f
00000650: bc91 388d d4a8 b0bf 6b02 86a0 3c56 d7bf
00000660: d00f fab5 e60e 7cbf e8bf 9f94 a07b 9bbf
00000670: ba33 6fcd 9330 96bf e366 1c2a 4f6f c53f
00000680: 41e9 593b 3fda c2bf 88dd ccd9 73b1 723f
00000690: 99f0 8ed6 2f8e bbbf 7837 2a4e 443a b8bf
000006a0: f09f 874e a54c d2bf 98ca 0e6e cbcd ab3f
000006b0: c37b 107e ca28 d33f 2947 f342 64e5 c5bf
000006c0: e4b7 5f43 7a93 be3f 61fd b875 39d7 c3bf
000006d0: e0f7 bfb8 bd98 9abf 0a24 8654 5f7e cb3f
000006e0: 1cd3 464b 9440 b63f 5882 ac32 57ba c03f
000006f0: d890 42f0 145e 983f daf2 224f 6cea bd3f
00000700: 60df 4443 e176 bfbf 5c4b d5eb c9c5 c93f
00000710: a2f6 0867 0490 c33f d600 001a 29d5 a73f
00000720: d07e 9827 3c49 693f 741c d074 25db 843f
00000730: 8cc7 c4d3 b805 b63f ca0f 289e 0b09 d3bf
00000740: 6913 5af3 d05e 90bf 4213 dedd 29d6 cfbf
00000750: e0d6 c4c7 ec2d 5c3f bf58 65ce ff1e 8b3f
00000760: 163e 279e 160f d1bf b2fc ff83 8082 753f
00000770: 183b 73b3 98b1 d63f 4afd 8a66 c0fd a43f
00000780: 4e58 b542 818c a73f a63c d02a 8cda d43f
00000790: d004 0db1 5868 78bf be62 8e01 bfcc b5bf
000007a0: 730e d477 52ad c63f dfa2 0c81 c7aa d33f
000007b0: 5ca4 0900 84b3 cabf e009 c554 f3f9 c13f
000007c0: f1c1 c73e d907 9dbf cf7a e74e 603e cc3f
000007d0: e85a b96d 1532 bd3f f695 4717 d142 d6bf
000007e0: 38e7 8515 fed5 ba3f ebe4 e1e9 a8da d03f
000007f0: 2d29 f136 fc64 c23f ee54 aa03 7f08 c03f

gbias f8 []
3.5334213632635096
00000000: d6a2 716b 7244 0c40

ibias f8 [1572]
0.48077239878579947 0.17496698877618388 -0.6667106816317548 0.13325048163434378 0.21941609807198323 -0.8471209623036543 0.24935511781870962 0.24171440511996237
0.5176926821786076 0.24004569320559224 -0.12230291632488403 0.4593738087165851 0.4095668843196154 0.6543002515592127 0.6669012656610936 0.052366186856472305
0.2534054601820428 -0.927350753801747 -0.6344181264054024 0.5431611612813223 -0.20007285235600797 -0.6247761275870837 0.6472660517660105 0.34056774425255754
0.18135753785152872 0.15764091498426486 0.12299566467983727 0.19806623140756718 0.3687768811455782 -0.3177091975977715 0.2798205290507988 -0.1647311601095892
0.07651707963686373 -0.07082734660396783 0.38599739295976 0.03489186323349936 -0.5219195216028628 -0.040987117438110815 -0.07846046034029956 -0.1722919125836118
0.14993397755236776 -0.3556142421756731 -0.04730566726020186 0.4431945457946925 -0.5397023667292168 0.34753387580348793 0.028495974345563165 -0.4021015630162747
0.07898685553088042 0.5314585482554 -0.27148516209797047 -0.322028514085033 -0.43463962932582284 -0.00737281925854795 -0.02746505240353153 -0.6167436928555714
-0.3063102993479326 -0.6480845087329693 0.4925864864976084 -0.41746019733665995 0.4784020893344878 0.035231978872816726 0.10349125845644658 0.7015034635585629
0.4492979464869917 -0.276994178020527 -0.0911526912614346 0.5793302075646897 -0.7238818341093118 -0.787368657724579 0.2264884746128363 -0.20006602244763222
0.43666974976620265 0.2073263639796255 -0.43253837883827906 -0.7000330112238161 -0.20003301122381612 0.32011732473889587 0.24929794648699044 0.8327024630997479
-0.064487349427619 -0.3184904489147934 -0.04622494725129625 -0.08897185962767576 -0.3511932723792763 -0.12216023577886667 0.6510260155119392 -0.4910863344330728
0.25449743821990384 -0.04790933265136238 -0.11557478838579782 0.391324017908024 0.4011063761678973 -0.22710910898894848 -0.25193010067867555 -0.43618997125689446
0.3881498533030649 0.10965037847381368 0.06715714377371058 0.015611190157594719 0.4794076139733659 -0.03076887411561205 -1.0122012393304625 0.11465475951066309
-0.5846864857128348 0.25291470894976076 0.06977419941827837 -0.2490946921953468 0.1976926821786066 0.4755935937137546 0.6756219148408764 0.011510000356642952
0.19991874160291384 -0.3945272344978249 0.38645466381646687 -0.15006602244763223 -0.38526710192576646 -0.5234645451095168 0.6837857774869249 -0.13312832039749456
-0.33534735143282124 0.4206054196357805 0.2385316270689929 -0.1787148656184131 -0.03216492103555819 0.09877013356955154 0.21967320740903734 -0.5378599390459421
0.37887092137642553 0.2443857578243269 -0.5556142421756732 0.45377505274870356 0.8116155984262722 0.16577636396374762 -0.968786530277437 0.31023840141046216
-0.25133622354677515 0.1873112533937214 0.2006635064910836 -0.20452660571260964 0.10573934943706029 -0.3944957952370473 0.15825630714442906 0.655707053873493
-0.16782286622613013 0.522782746133685 0.2066233336944618 0.36449805433847604 0.4362786844030474 -0.09117278092373221 -0.08783864064802453 0.015303356987529562
-0.5519154290236459 0.5041938383564021 0.08741747194045969 -0.04218171020252153 -0.6647211567084328 0.3012705620724052 0.36201210372310866 0.48173415324846863
-0.1867370906108077 0.06718320264926089 -0.3983946947025287 0.04234421521499124 -0.5964725303900629 0.24437475408305487 0.0443857578243269 0.9033640403254338
0.2285148379020295 -0.40696940408014615 -0.11184626302354572 0.3822925081884157 0.3894980543384763 -0.04702231411741221 -0.17922718724366288 0.5861748719755555
-0.1608593980776994 -0.2159580515878807 -0.3667462321804803 0.9062541386770896 -0.3667451281261722 -0.22230799497470194 0.26786915243490456 -0.09197397385381305
-0.4408043179125347 -0.028357520344796057 0.10427893309812289 -0.6198248145110082 0.3157060769082534 0.5871553775092035 0.3380672320155125 -0.5030983261581667
-0.0369627801111953 0.31133352463125075 0.8384637171196014 0.18883753809628603 -0.014895858242596276 0.1496459615941549 0.5423412141946444 -0.6878821726216187
0.12769708367511584 0.2766612741355313 0.27399093469557345 0.02498507612246218 0.42416239703317243 0.3647328980742335 -0.5142592159495148 0.20468959446211707
0.0987701335695514 -0.4983104781941649 -0.06839535318551522 -0.42515549303857303 0.24935511781870962 -1.1127759628749965 0.31199245424603783 -0.06515691525594897
0.08977661100426315 -0.1759270615777486 -0.5651569152559495 -0.2527080259919953 -0.17376065757094258 0.3106682078358254 0.018140556278343226 0.5142013830921008
0.4638940142874386 -0.6889475755090065 -0.123158181474009 -0.23711284058802226 0.140831064380071 0.23029450266255067 -1.157828309512558 -0.2899707248779199
0.44472792880726925 -0.5111844693862584 0.6774086095255291 0.049966988776183885 0.1650122946563736 0.26307449796088495 0.16621717317954007 0.36276071569251517
-0.22388183410931148 0.28682526928265606 -0.1753803700665634 0.6690899637059384 0.5122437519167481 -0.1091689356199291 0.3207728127563371 -0.25377635107345875
0.24059739633509253 -0.5590539244881728 0.3467904087389718 -0.005277118895749274 -0.42673709061080783 0.5524438915291806 -0.5636843799619143 -0.2931061677249341
00000000: c8af 6698 f9c4 de3f fc2e 567b 5165 c63f
00000010: 7912 b0a3 b155 e5bf 4edb 650e 5a0e c13f
00000020: 3fb1 b7a2 d315 cc3f 3335 9b6b 9d1b ebbf
00000030: 1690 0f56 deea cf3f bd2d 7b64 7ff0 ce3f
00000040: 94bd 6a3e f090 e03f ad8c ee38 d1b9 ce3f
00000050: 0b20 d271 3e4f bfbf 89e8 4467 6166 dd3f
00000060: ec59 6b05 5836 da3f b8c3 c614 07f0 e43f
00000070: eb9c b552 4157 e53f cef6 eda7 bdcf aa3f
00000080: 6405 0789 cb37 d03f 81fb ef7c dbac edbf
00000090: 55d3 1c3e 274d e4bf 2224 0584 9361 e13f
000000a0: eede d7ba fc9b c9bf 87db 6981 2afe e3bf
000000b0: 82ac 844b 67b6 e43f 52c8 e8a6 dccb d53f
000000c0: 7b4a fa4a b936 c73f 3a39 2fd7 932d c43f
000000d0: da84 59d5 a47c bf3f 3032 2bf9 3b5a c93f
000000e0: ffa1 0259 0a9a d73f 7c88 54f5 5855 d4bf
000000f0: 4272 415d 94e8 d13f fbc2 a620 e915 c5bf
00000100: a131 a092 9f96 b33f 6895 53b1 bd21 b2bf
00000110: 989e c668 2eb4 d83f 4101 f8a6 58dd a13f
00000120: 51b4 8d91 90b3 e0bf 5472 e871 43fc a4bf
00000130: 2bd1 3017 fc15 b4bf 41b9 f450 a90d c6bf
00000140: 5ec4 125d 0931 c33f cbb9 083d 62c2 d6bf
00000150: b996 98cb 7238 a8bf b50a fda7 4c5d dc3f
00000160: 07a0 d5e5 3d45 e1bf b2ff b4b9 fe3d d63f
00000170: 5f03 8777 0c2e 9d3f 13d3 b431 08bc d9bf
00000180: 84aa 5189 7b38 b43f 78f8 7d5b b501 e13f
00000190: bad7 234d 0360 d1bf f5fa 177c 1d9c d4bf
000001a0: 89ff 5fbc 22d1 dbbf 903a 8419 f632 7ebf
000001b0: f0a3 6c77 cc1f 9cbf be86 da44 5dbc e3bf
000001c0: 5926 8883 969a d3bf afac 41b9 1bbd e4bf
000001d0: 8c5c 7d78 8986 df3f 8e54 bcf9 aab7 dabf
000001e0: 88e6 01cc 239e de3f d370 100a ed09 a23f
000001f0: c808 7e32 677e ba3f e078 4064 b772 e63f
00000200: e394 942c 4cc1 dc3f c9f4 f1c9 45ba d1bf
00000210: ec05 e963 c855 b7bf 5168 e280 df89 e23f
00000220: 3060 753c 0a2a e7bf cb51 5ac1 1f32 e9bf
00000230: 0d08 b107 93fd cc3f 6e08 ba6f c39b c9bf
00000240: 787e 99ad 65f2 db3f 0a0f 7298 ab89 ca3f
00000250: 6004 d873 b5ae dbbf 4174 2aa1 ab66 e6bf
00000260: 04d1 a984 ae9a c9bf 8ebd 2860 cd7c d43f
00000270: 0090 8fbf fee8 cf3f 6efc c9a2 7fa5 ea3f
00000280: fe1e cc30 3e82 b0bf 765a 8bc3 2562 d4bf
00000290: d443 68d9 cbaa a7bf ca7b 5d1b dcc6 b6bf
000002a0: f76d dc58 f379 d6bf beb8 8aa9 e445 bfbf
000002b0: c801 af82 34d5 e43f a6c3 7960 f56d dfbf
000002c0: 437f 849f af49 d03f 9852 d271 9287 a8bf
000002d0: 70ef 5b30 4f96 bdbf 5979 c3e4 730b d93f
000002e0: a1ec f613 baab d93f 0e99 dd49 e911 cdbf
000002f0: dbbe d26d 9f1f d0bf 050f 5957 89ea dbbf
00000300: 2f91 787b 72d7 d83f 52ff 8915 0c12 bc3f
00000310: 5d6b 33e8 3531 b13f c494 6d79 c2f8 8f3f
00000320: 1504 de45 9dae de3f 08c4 3e30 e081 9fbf
00000330: f151 3eed f931 f0bf c2d5 6daa 035a bd3f
00000340: ef97 d16e c0b5 e2bf 1076 e72c c12f d03f
00000350: 9228 9bd0 b8dc b13f a208 4bba 55e2 cfbf
00000360: 35cd 4e6a fe4d c93f 1103 cc1c 2070 de3f
00000370: 907a 96d9 b19e e53f bdad de18 8e92 873f
00000380: ea5f 85f4 ef96 c93f b22a 6328 ef3f d9bf
00000390: 1a9e 9e57 acbb d83f 08a2 5309 5d35 c3bf
000003a0: 43bc bf58 37a8 d8bf 6c8c bbb7 38c0 e0bf
000003b0: 40d7 f8b5 92e1 e53f c4aa 234b 590a c1bf
000003c0: 6211 cdbc 5476 d5bf 41c9 76fe 32eb da3f
000003d0: d457 a950 3488 ce3f 6cef 91f3 20e0 c6bf
000003e0: a92f daa7 eb77 a0bf e7b5 80dd ff48 b93f
000003f0: f28a d06c 401e cc3f edfc 000c 2636 e1bf
00000400: 8ae5 2dd2 6b3f d83f 3759 bb52 0848 cf3f
00000410: 4dc3 ea84 97c7 e1bf 82f7 d284 a60a dd3f
00000420: 0342 8546 c1f8 e93f 8c48 d6ee 2838 c53f
00000430: da19 0b9c 4c00 efbf 3f5c 012b f2da d33f
00000440: 31bf 1b87 e415 d0bf c2d8 bfad d0f9 c73f
00000450: 2aa0 f07e 57af c93f 2949 5985 ed2d cabf
00000460: 7684 bbe7 bb11 bb3f e7f7 bc4a 6b3f d9bf
00000470: 4c18 c91f be41 c43f ca94 045c 8dfb e43f
00000480: c229 fb3c 387b c5bf f9d4 b1e1 a2ba e03f
00000490: 5f73 6726 a272 ca3f 7eb8 b5a5 ef53 d73f
000004a0: dafd 5c6e fdeb db3f 4451 5a70 1957 b7bf
000004b0: 638a e8d8 977c b6bf e85d 3ece 5d57 8f3f
000004c0: 4e0f ba8b 4aa9 e1bf 11bc d21d 5b22 e03f
000004d0: 5151 15cf fd60 b63f c74c 9e53 d798 a5bf
000004e0: 4eb4 a04d 6545 e5bf 204e d652 0448 d33f
000004f0: 66cd 8fd0 342b d73f 1361 647c bbd4 de3f
00000500: 61d2 8f40 00e7 c7bf fe17 381a eb32 b13f
00000510: cb6c 2976 4c7f d9bf 54dd 0b17 24ae a53f
00000520: 209b 5f8f 4d16 e3bf 149c 6004 ac47 cf3f
00000530: 77fe 86e4 bab9 a63f b390 32b4 5be8 ec3f
00000540: 8b50 b865 f93f cd3f 2ccc 3f66 c90b dabf
00000550: 70ae dde9 f4a1 bcbf 2534 0bff 7a77 d83f
00000560: 1c52 4f3f 89ed d83f 810f a20a 4f13 a8bf
00000570: 32ff e19d eaf0 c6bf 68e7 1bce f1c1 e23f
00000580: 4abd ff6e 0a97 c4bf af5c 7070 83a4 cbbf
00000590: 625e 4930 c578 d7bf ad72 efad 0800 ed3f
000005a0: 383b d18e c078 d7bf 6e20 07a0 9674 ccbf
000005b0: 7b2b 54a8 c424 d13f 8308 c939 9b8b b7bf
000005c0: d4ac 5750 2336 dcbf b2fd e7f9 c009 9dbf
000005d0: 3276 512f 06b2 ba3f 975e 72d9 9ad5 e3bf
000005e0: cd0a de42 8734 d43f 7052 0213 fac9 e23f
000005f0: 94c6 56be e4a2 d53f 80b1 30a9 6119 e0bf
00000600: 975f 7e17 c9ec a2bf f022 9c72 e3ec d33f
00000610: 3c29 7ddc b1d4 ea3f ddba 3015 d42b c83f
00000620: 2980 fb3f b881 8ebf 3d3f 834f 9927 c33f
00000630: 4ea5 47f6 db5a e13f 3229 5d79 2103 e6bf
00000640: f6ef 16c7 6058 c03f c6d5 1e7d d1b4 d13f
00000650: dabf fa45 1189 d13f 0a10 5613 b095 993f
00000660: 0fd4 dc09 7a25 db3f bc43 40a7 c857 d73f
00000670: bd6e 45be cf74 e0bf 03ed 05c5 4433 ca3f
00000680: ddb5 80dd ff48 b93f 9b46 c6a1 51e4 dfbf
00000690: fd51 219d 5b82 b1bf f42f 9462 bf35 dbbf
000006a0: 1690 0f56 deea cf3f 172b 052b eecd f1bf
000006b0: fa78 e532 aff7 d33f 6cee 21a4 1fae b0bf
000006c0: 9882 3598 99fb b63f 7799 fa27 c784 c6bf
000006d0: d23d 84f4 c315 e2bf 2fa1 c448 5e2c d0bf
000006e0: aba0 cc0a ca3d c6bf 8cf4 23e8 fce1 d33f
000006f0: 0474 c91f 7093 923f 8608 7e75 5674 e03f
00000700: 602e 0b85 70b0 dd3f 9107 2fc9 db0b e6bf
00000710: 6e6b aa69 4b87 bfbf 87c3 e4ab b659 cebf
00000720: b1fa e297 c006 c23f c72e b14e 4a7a cd3f
00000730: 98d4 3bfa 7686 f2bf 237a 095f e18e d2bf
00000740: 1915 7621 6c76 dc3f 4496 4788 9f5b e0bf
00000750: 851c fed1 54ad e53f f0bb 58ed 4595 a93f
00000760: 5557 7e74 1f1f c53f e7d4 496b 36d6 d03f
00000770: 0f7b 6bb5 9a46 c53f e710 8bb8 7837 d73f
00000780: b380 d5f1 28a8 ccbf d010 cf5f 585b d23f
00000790: 15ec e52c dd72 c6bf d65c 065b 2f69 e53f
000007a0: 3702 4202 4d64 e03f a60a 3ad0 7ef2 bbbf
000007b0: 6700 0fb1 8a87 d43f 44f5 162a df3d d0bf
000007c0: 5288 613e e5cb ce3f a911 4c0e c5e3 e1bf
000007d0: 3e6c 0666 d031 d63f 3c86 30d1 759d 75bf
000007e0: 8f78 0a16 a94f dbbf 09c5 dfcf 9ead e13f
000007f0: 8d7a 26d3 b309 e2bf 5d9b 285f 40c2 d2bf

umat f8 [942, 50]
0.056057017940523104 0.05834036759561138 -0.16371222426326848 0.0989947237114143 0.1831386255277576 -0.04463672724528707 -0.08123164563860727 -0.03951448444744589
-0.447867163137711 0.21652191584760838 -0.05060900445444578 -0.1075848961831159 0.12081675831168454 0.02497509945288073 -0.07684182916121529 0.08050298253648003
-0.02629869154834023 0.08253416822577525 -0.34994940564085564 -0.022865465137015487 0.05651654783234698 0.09943940636087467 -0.04569779426303401 -0.24498825844034294
0.15614503379816236 -0.15916528521013978 0.09134414281682376 0.11183848035951313 0.04661238042885847 0.05969696276245337 -0.11566413735128306 -0.11377745332785127
0.23877409165961366 -0.0693345119614141 -0.027701152085135825 0.2057308565693186 0.0036316738980842677 -0.008320871083386493 0.25677789318217503 0.19721322169717406
-0.19260500430113214 -0.18117455703797133 -0.1425410607678677 0.28779285862224335 0.01938137294768272 -0.016007714114534603 0.19238629273206617 -0.07686502145067206
0.12452941457752947 -0.19149944120113754 0.15490093418579537 0.15619931260790137 -0.05687407863980265 -0.08757135594863415 0.05036107483816763 0.2421780849976333
-0.11811241535067366 -0.3218032418683965 -0.021601792539550312 0.056983469479773896 0.13403421811811844 -0.055261895744083536 0.06309556692700169 -0.21172970011289363
0.08407690580357134 -0.43067266014460387 -0.2765820056508296 -0.22223962595012642 0.035503819548713324 0.13152694316500885 -0.4663615411704613 0.2480408019089785
0.05750978717223251 0.06200100959593011 -0.03710342812558707 -0.22943350307295554 -0.14602417859166505 0.061399050500435114 0.3168986621524006 -0.3447112385910702
-0.12878876641175824 -0.1838400117865865 -0.10855986475944482 0.2370225022486852 0.057908638707445906 0.001982584033569351 -0.024862994199666203 -0.19957978980723534
0.06446584510566092 0.21393130269700325 0.04803686270149218 -0.09428641703866573 -0.022138103791713493 -0.06980343114818585 0.11364305229642652 0.048322446491711545
-0.29048140313282533 -0.08849516961813889 0.2632342134525014 -0.10864167097837746 -0.10802090364281619 0.4440185719158596 -0.13292067523918344 -0.10126870555285522
0.10548068808591626 0.1818734304419078 -0.17910962243869455 -0.10332206526418976 -0.08404414696412423 0.01150984903824306 0.012155974919438654 0.04954718228649153
-0.23102931399120039 -0.21933619535194848 -0.14518043202688222 -0.19728784532351956 -0.28566151990211053 0.05297418044721517 -0.021090102287766956 0.06682116594744215
0.08842720242803237 -0.06998743172872493 -0.1540531095094873 0.06898526356459281 -0.015022451493758394 -0.16873545509019042 -0.024002516894251223 -0.05377692135000808
-0.09570595882696273 0.1573706922152432 -0.09815116991088893 0.15568982378165322 0.0823668586642898 0.006350762484266838 -0.3903676063883522 -0.0405193531377909
-0.004777179458019032 0.1191429158794081 0.023455455971677662 0.033536532255676835 -0.08589714430014361 0.003672228143418464 -0.014281132878568664 -0.11561662437272506
-0.057991830499503655 0.0128850155773447 0.2709334081118435 -0.14006800943845016 -0.0231555043260752 -0.004265751477975784 0.09813581833455444 -0.11335432161346351
0.013468804704535958 -0.10946946853246205 0.17140513324567425 -0.15597207244010527 -0.05693116700631597 0.14559262051047614 0.0052587536972936305 0.020405947840281373
0.07079336528549844 -0.12089759680321066 -0.1932248615155632 0.034390830936010586 -0.24978545530595914 -0.19653252925628106 -0.09123457604783297 -0.11569486549772456
-0.2735027109273287 -0.07077571497622615 0.23418741048669836 -0.004454720504316164 -0.1819472507436126 -0.11807904325358273 0.04021258558643019 0.16557369018673432
0.1502112841774183 -0.2297566793086439 0.17068183970751513 0.10362657524346253 0.04869967070150492 -0.15445899523807882 -0.11894690884710067 -0.026066223020924147
0.04449815378982355 -0.04843636987167677 0.12844582586545084 0.19455044801848292 0.11676916064949226 0.07110706826164903 0.08623667426852606 -0.05260804623575486
-0.009482254441139759 0.22488666064161625 0.014754763150089216 -0.20878802376900063 -0.18799138525276587 0.09466131492328811 0.009376246563271334 0.023819236814164334
0.11165197085978756 0.1525518525577601 -0.11546042743371393 -0.3201378009454596 -0.24401686444578735 0.12623176067115838 0.08458625327894478 0.08587534358956003
0.3536146857187618 -0.010707756313045609 0.20271026753440086 -0.31994465499707725 0.015844384184516842 0.03446697761909962 -0.09303169866231091 -0.03398604237645571
-0.2751728129181446 -0.21585738331320717 -0.17268770261949573 -0.008305177188771301 0.3829749130881622 -0.11765274065847742 0.4899032725077567 -0.36834028444021233
0.1297165161834691 -0.11855020467548666 0.30876509531340474 -0.12104015013643261 0.0530542310117658 -0.21325269517028375 -0.27736560580981523 0.09594830785493011
0.370348625748789 0.05328958253800736 0.17485119141935507 0.021509569898100045 -0.159834985304328 -0.0144819837837869 0.13154998128509307 -0.12612544843817128
0.006800783903965921 -0.23739381489379807 0.033013558439747875 0.1382535837754439 0.1902424725461411 0.26322944668053605 -0.2886530498386142 -0.05657445580583935
-0.391405801028526 -0.24376265375253686 -0.2213223344417166 0.07296234232955642 -0.05752000723936327 -0.05613680591134378 -0.06006188097279294 -0.22806263391235007
00000000: 221b 8865 81b3 ac3f a533 b8e5 c9de ad3f
00000010: 9844 95ac 85f4 c4bf 2a2c d1dc b757 b93f
00000020: 8f57 a323 1671 c73f 2a1e 7007 a0da a6bf
00000030: 3e07 6bdd 98cb b4bf d214 d714 3e3b a4bf
00000040: b23d a808 dba9 dcbf 1864 b779 fdb6 cb3f
00000050: 39a9 0766 6ce9 a9bf e468 a60a af8a bbbf
00000060: 5ce6 c1d9 d8ed be3f af37 758d 1293 993f
00000070: 4855 36f7 e7ab b3bf 1082 39ed d79b b43f
00000080: 2bc7 8250 0bee 9abf 740f 5591 f520 b53f
00000090: f0da 1e31 9265 d6bf 019f e263 0b6a 97bf
000000a0: 16d9 3ea9 bcef ac3f a8ec 4066 dc74 b93f
000000b0: b2d7 b787 b365 a7bf dadf f376 c65b cfbf
000000c0: 2c47 cc7a 8ffc c33f 826a 512f 875f c4bf
000000d0: 4e54 146a 5462 b73f 1e15 9457 72a1 bc3f
000000e0: 5ab2 0ff3 93dd a73f ec74 78ad 9990 ae3f
000000f0: 846a 3e37 2a9c bdbf b0b6 10e9 8420 bdbf
00000100: e6b2 6741 2690 ce3f bcbf 5b15 e8bf b1bf
00000110: c997 11d9 b05d 9cbf 2224 5f82 6355 ca3f
00000120: ee7e e713 2cc0 6d3f ac44 6b69 880a 81bf
00000130: 0268 638b 0c6f d03f c19a c368 483e c93f
00000140: 7c78 42e1 47a7 c8bf 3335 ac56 ba30 c7bf
00000150: e2e5 2a15 c93e c2bf 4483 f3bc 326b d23f
00000160: 21f6 d8eb b5d8 933f de2d 6c82 5364 90bf
00000170: e3cf bd31 1da0 c83f fe43 5611 6dad b3bf
00000180: bc21 00e3 28e1 bf3f eaa0 94be 0d83 c8bf
00000190: ce52 3937 cbd3 c33f c280 a7cd 56fe c33f
000001a0: f004 7f67 991e adbf 5da2 dd8d 136b b6bf
000001b0: adb9 d742 edc8 a93f 0db6 6f05 b1ff ce3f
000001c0: 32c6 2e81 9d3c bebf 2094 e49f 6c98 d4bf
000001d0: 6329 f8c1 c71e 96bf 780f a8f3 ef2c ad3f
000001e0: 305e ae83 0828 c13f 3a21 df85 494b acbf
000001f0: 705b 79f4 0727 b03f 75d3 c974 f519 cbbf
00000200: 4374 c668 1086 b53f a98d a60f 2490 dbbf
00000210: 72ac 3b03 85b3 d1bf 5e60 aa1a 5972 ccbf
00000220: d58a b07f 8e2d a23f 52e1 b7f7 dfd5 c03f
00000230: 4f1d dc13 ded8 ddbf 15e7 220e cdbf cf3f
00000240: dc95 353e ec71 ad3f 2c27 11a9 98be af3f
00000250: 3dde bc74 38ff a2bf 310c 27b8 135e cdbf
00000260: ccfc bc97 ebb0 c2bf bb44 cf43 b26f af3f
00000270: 40ce 8553 1148 d43f b8fc 13ba bf0f d6bf
00000280: e253 ea79 267c c0bf 14ea 28cb 1188 c7bf
00000290: b2cc cc4c 94ca bbbf 0a7f c9db c056 ce3f
000002a0: 4208 cf7a 33a6 ad3f 407b beb2 c73d 603f
000002b0: e170 df4b af75 99bf 9812 159f d48b c9bf
000002c0: aa14 7068 d580 b03f a54f 56d6 1962 cb3f
000002d0: fc56 9ca4 4998 a83f a359 a395 2723 b8bf
000002e0: 909a 1fff 5eab 96bf 7e17 ee3d a3de b1bf
000002f0: 84e0 0709 b617 bd3f db70 b03e b8bd a83f
00000300: ac4e a34f 3f97 d2bf 3227 5d93 9ea7 b6bf
00000310: acdf 7d50 d4d8 d03f 8cbd d5c7 f0cf bbbf
00000320: b425 6e08 42a7 bbbf d47e 4cdf cc6a dc3f
00000330: eaa8 8e70 8b03 c1bf 3430 75f2 beec b9bf
00000340: 4047 b049 c800 bb3f 8e31 e1e9 a047 c73f
00000350: f8f4 6269 10ed c6bf b1ce 439b 5073 babf
00000360: d191 a1ce ea83 b5bf 0ef5 9bc9 7992 873f
00000370: 8202 d755 3be5 883f a911 0f8f 3f5e a93f
00000380: fb37 015a 5e92 cdbf ccce ee5c 3513 ccbf
00000390: d38c c9bb 4595 c2bf 960a c865 ba40 c9bf
000003a0: 4a22 6d41 4748 d2bf f53b 1b89 6e1f ab3f
000003b0: 3a8a 61ce a498 95bf 29c3 6c22 311b b13f
000003c0: e052 8146 2aa3 b63f 7ae9 6742 b2ea b1bf
000003d0: 8a5d 9825 03b8 c3bf 3a76 eaaa 04a9 b13f
000003e0: d4b4 f84e 17c4 8ebf a5de a496 1f99 c5bf
000003f0: f679 54a4 1d94 98bf 9ca8 f40c a688 abbf
00000400: 56b2 318b 2f80 b8bf b2e8 340c b924 c43f
00000410: 1ad7 d460 6f20 b9bf 7d29 bbe6 a4ed c33f
00000420: dec4 3c94 fe15 b53f a81e cbd2 4103 7a3f
00000430: fec4 b669 c8fb d8bf 14ed 29e1 f3be a4bf
00000440: 8008 a158 3c91 73bf 0b8c 406f 2680 be3f
00000450: 2697 3e01 b504 983f 9acd 844a b32b a13f
00000460: c8c2 96f1 5afd b5bf b01d f178 3815 6e3f
00000470: 3067 4e35 6d3f 8dbf 7305 8e14 0d99 bdbf
00000480: 3470 dcee 1ab1 adbf 50ec 1a84 7563 8a3f
00000490: f4fc ce13 f956 d13f da81 e09f bfed c1bf
000004a0: 0b26 3697 13b6 97bf e2ca 73f1 f678 71bf
000004b0: e127 50d2 6d1f b93f daa9 30f0 c904 bdbf
000004c0: 100d c75d 8895 8b3f a5e6 41eb 3006 bcbf
000004d0: 860e d478 9af0 c53f b11b 1c93 e4f6 c3bf
000004e0: 839a d4f8 1426 adbf d3d2 d06b c7a2 c23f
000004f0: d08c 5cf2 338a 753f 3eb8 78fa 4be5 943f
00000500: a3cc ac94 831f b23f 004e 6f18 25f3 bebf
00000510: 71e2 7d9e 97bb c8bf 600b 4ecc ac9b a13f
00000520: ba1c c744 f8f8 cfbf 04c1 e058 fa27 c9bf
00000530: 5cce 6330 265b b7bf 80ba a0bf 2d9e bdbf
00000540: c836 b383 1181 d1bf 4885 2c75 5b1e b2bf
00000550: 2170 9662 daf9 cd3f fccd 0fee 1c3f 72bf
00000560: 1f3d c529 0c4a c7bf befa 1d9d 6d3a bebf
00000570: 666f f677 be96 a43f 350c 37c8 8431 c53f
00000580: 461e 8494 1f3a c33f 1a87 d5b7 aa68 cdbf
00000590: 5f4e c80b e7d8 c53f a8ca aa6f 4587 ba3f
000005a0: 6d55 fac9 29ef a83f c86e 8ff6 4fc5 c3bf
000005b0: 2f66 75fb 4d73 bebf 8fd5 9e9d 1ab1 9abf
000005c0: 8cf3 8446 76c8 a63f e155 12e1 a6cc a8bf
000005d0: 602d b3ae e970 c03f 16ad d471 07e7 c83f
000005e0: afc2 2b6e 95e4 bd3f b0be b2a4 1234 b23f
000005f0: cdf9 b24f 9b13 b63f 6d94 2d1c 71ef aabf
00000600: a082 bca5 6e6b 83bf 1196 610a 16c9 cc3f
00000610: dcd4 84c9 be37 8e3f ac31 f1e2 90b9 cabf
00000620: 1e91 cb09 1a10 c8bf 98b8 ca53 b93b b83f
00000630: 56b1 c982 da33 833f 06b2 87ec 1164 983f
00000640: 8c71 603b 3995 bc3f 7a03 d7b0 d186 c33f
00000650: 045b cf87 d08e bdbf f88a 5142 237d d4bf
00000660: a6ca 3bd2 f13b cfbf b449 e6c1 5c28 c03f
00000670: a234 86d7 71a7 b53f fefa 3f30 edfb b53f
00000680: 9b08 a37d 9fa1 d63f 24af 6cb9 f2ed 85bf
00000690: 2ad4 cff8 68f2 c93f 4c84 6f25 f979 d4bf
000006a0: 424e 979f 8239 903f 89fd 54db a7a5 a13f
000006b0: bbf6 3ee7 ecd0 b7bf 7a00 0e59 9e66 a1bf
000006c0: 1dd5 0e6e 6e9c d1bf 1116 f7f8 36a1 cbbf
000006d0: a007 9671 a11a c6bf 305a 4e03 4e02 81bf
000006e0: febb b935 a982 d83f c8b5 6971 7d1e bebf
000006f0: bff2 6741 935a df3f 4b15 de20 e392 d7bf
00000700: b328 6101 8d9a c03f 1cec 0364 4e59 bebf
00000710: 051d a1ac cec2 d33f adc2 56be 7cfc bebf
00000720: 154d 3896 ec29 ab3f 1f26 c543 dd4b cbbf
00000730: af41 7fab 5bc0 d1bf 4eed 577c 1190 b83f
00000740: f669 edb8 cab3 d73f 68bc 6fac c548 ab3f
00000750: b608 681a 8661 c63f c0af 0dcd 9a06 963f
00000760: e2c1 5109 7975 c4bf 204c dcf5 baa8 8dbf
00000770: 6756 b439 a1d6 c03f a71d 1ef2 e024 c0bf
00000780: 3070 4687 23db 7b3f ccea 9ea7 eb62 cebf
00000790: d487 a533 27e7 a03f e666 6f1e 4bb2 c13f
000007a0: 57ab f286 dd59 c83f b092 3552 c0d8 d03f
000007b0: f0a3 3ca4 4a79 d2bf 563d f3ba 53f7 acbf
000007c0: 0176 b8ea ca0c d9bf 8239 ed58 9d33 cfbf
000007d0: 1999 264e 4a54 ccbf ce1e 25fa a8ad b23f
000007e0: 15e1 ea2b 4373 adbf 3774 fba2 f6bd acbf
000007f0: 2c5e 074d 6ec0 aebf cdec 0b09 2831 cdbf

ubias f8 [942]
-0.5040719780096561 0.018079628554927805 -0.15687530417033416 0.3958570662180495 0.1869106352472816 0.5356261942514072 0.16165027771725154 0.027533326781026587
0.0064003763527313235 0.028796705845621894 0.1517294241238642 -0.07869376173404041 0.11343289361294061 -0.058151669975503084 -0.06140290724595978 0.15066629897176984
0.25456308069122446 0.08516525961957384 -0.19638613718669087 0.23109302300232804 0.04298940618340653 -0.1737035821145466 -0.17143288129945652 0.3650608552831007
0.3545543056482787 0.02222509482342406 -0.22322014902924922 0.027986254932362762 -0.858036832504848 -0.046436039858144984 0.03832785468831443 -0.24826796257244657
0.17913577790069635 -0.563819687066622 0.3738010695795742 -0.2983917012523427 -0.1302586308404378 0.12369850029357755 0.2667620016838121 0.4436993659891179
-0.35250285359612976 -0.043660401715603474 -0.23506022467212964 -0.12671449715639882 -0.38497233692348565 0.3767948984531746 -0.27330478170144845 0.35600119691684556
-0.9911007882635686 -0.34895464805004456 0.05614754772410163 -1.1297075630748437 -0.05461621821438863 0.3086362719424129 0.1139037537245057 0.5703423971707227
-0.25665604584964885 0.14123939342358294 1.020441728201602 0.3322410592573307 -0.2833407322275282 0.057350215463890984 0.055158744377234684 -0.2933931521610239
0.6846299974829277 -0.34490447628295345 -0.09916312190177277 0.17933548586482168 -0.35317495890231504 -0.8108989807485686 0.2097183256895981 -0.14455570692214792
-0.8947106662377439 -0.7749418565405561 0.12472585074509662 -0.5033806195079402 0.09831858795620263 0.237466658993314 -0.1793275230194451 -1.6341784393543763
-0.04893748684216499 -0.6182120177623015 -0.0950086154430236 -0.46143428126319147 0.8616564523153807 0.1621831534076016 0.2463517487910547 -0.10585286734634464
-0.20561479315102907 -0.16418235943135992 0.5268158311660658 0.32205543722312463 -0.5069213317001587 0.18775551430630505 0.7233145126188408 -0.018547945366663196
0.15417736334561802 -0.14445540847154162 -0.33656597620250084 -0.2789690351991425 -0.1980049409922882 0.07036292842990008 0.10549209931353426 -0.36777735018112645
0.36780358805439983 0.035587484935694885 -1.3892367174945264 0.1213003787123341 0.12022390116368513 -0.6999484286717674 -0.12404041537308322 0.2863523484766336
-0.8389670136874391 -0.025360883642726897 -0.08378877970877878 0.2645495576807129 0.5882416577709426 0.3677121869920043 0.33105559544852786 -0.3065802702627677
-0.07517582212641442 0.08824115276218035 0.23672888667752498 0.06552401109903923 0.22001971910262044 0.2493783620822835 0.25680922603180995 0.23552879410979466
0.04835659396174936 -0.41094316785893215 0.34335340006463255 0.10439187701060004 -0.48044759785516694 -0.5431628662269087 0.19156897871047748 0.28090201326044084
0.18301413102860306 -0.09662376145096768 0.09447720442579241 -0.18061545219377687 0.31531552199605034 -0.15209671199820354 -0.15216312321346098 -0.3481306029323743
0.04747602571733895 -0.4737414976797449 -0.12963444202322075 0.123613685366986 0.03417101493929193 0.03717386665434371 0.4240503895278315 0.40104941321094967
0.5727031261813037 -0.40930600638739933 -0.7966184643465855 0.10156296945341295 0.17989018336833676 0.2835902788422832 -0.07388936501077589 -0.25795412178283494
-0.3926528235642316 -0.3016403258255131 0.047490387309900094 0.4129850367772332 0.49478355594620266 0.060156161455118005 0.39650389872183095 -0.011756731528363429
0.20601468080575852 0.4070461208326507 0.33597584901098926 0.3654583644258698 -0.019177152733367057 -0.14273151052144145 -0.17212336101567094 0.1229338927255147
-0.19004922127784343 -0.25437678890059606 -0.1962839166103225 -0.11717494230188047 0.4313908033158234 -0.4719714473445424 0.05492899753168601 0.4640820268465172
-0.34607481389201183 0.574384205624133 -0.34527279695207147 -0.07183614484773529 0.16633757798385268 -0.12468272674256178 -0.5562358257569207 0.3985897069525209
-0.5095868154915596 -0.18977922752870743 -0.0667599938098854 -0.030634095727923936 0.21345821314172933 0.47821287972245 0.26621219361767423 0.08790372013344216
-0.698174389173668 0.13358494300379356 0.5350694590794991 0.4408651162292106 -1.4356932966031137 -0.04012089979886329 0.041192395080292585 -0.04936606761815514
0.4467055966230222 0.3324445214833368 -0.05617996107272941 0.07694015695795332 0.3754408181800094 0.15957297151657723 0.5169467109394308 -0.13069239422571413
-0.18423403217213466 0.318781399162125 0.7294477316040218 0.03685786916148847 0.5586868883344411 -0.539373509774118 0.1496034761418047 0.243197667433622
0.34500361489460185 0.16552666926844517 0.21296950707197557 -0.1925390008566351 0.26475719339713255 0.29217508406093734 -0.3150111248554187 0.1328346212188508
0.3543823807249419 -0.3437876393887265 -0.14188404827944168 -0.0884250402852567 0.09350560751799741 -0.4231239958531015 -0.09081610540824334 -0.41557916936800954
0.6944614832772626 -0.14980132504373136 0.39513061536076144 0.7894757651674361 0.013575119253211095 -0.060005856639721245 -0.27695196406159617 0.006720141620601221
-0.5051775424985263 0.09099443253530062 0.5168038121491838 0.22505256105461577 -0.025752367546499053 -0.6597157828797618 0.2605200027023886 0.1265575834799743
00000000: 4835 8c8e 5b21 e0bf 760e 7855 7783 923f
00000010: f116 7b6e 7d14 c4bf 8602 53e0 b855 d93f
00000020: 41b1 d40c b0ec c73f 851a 668b d923 e13f
00000030: 3aab 17d0 f4b0 c43f 5c61 4c48 b231 9c3f
00000040: b987 dff1 4737 7a3f 23a0 5b37 e27c 9d3f
00000050: f6f8 39a9 de6b c33f f002 0c3d 4625 b4bf
00000060: c7b4 5b28 f009 bd3f f850 8141 0ec6 adbf
00000070: 335e 00ad 3370 afbf d3b7 5885 0849 c33f
00000080: d09e 95f2 c24a d03f 8548 d2f4 63cd b53f
00000090: c163 4d52 2e23 c9bf b07b 10c8 7494 cd3f
000000a0: 91ae 431b b502 a63f c3a4 3042 eb3b c6bf
000000b0: 97f2 513d 83f1 c5bf bc67 9f34 285d d73f
000000c0: 0495 da8a 04b1 d63f a21d abdd 2cc2 963f
000000d0: 8bc6 f153 7a92 ccbf 2925 b0c6 6da8 9c3f
000000e0: 64e5 cba8 0975 ebbf e8cc 17f1 76c6 a7bf
000000f0: 6c05 d364 b59f a33f b554 f29d 3ec7 cfbf
00000100: e041 d0d1 ebed c63f d958 9995 cf0a e2bf
00000110: 3d76 4352 5bec d73f 0cb4 9181 d918 d3bf
00000120: 159f bd97 50ac c0bf d13d 5375 b4aa bf3f
00000130: bf09 43ee a012 d13f f377 8b06 9265 dc3f
00000140: 9a4a fc20 688f d6bf bf5a fffa a75a a6bf
00000150: a152 c714 7416 cebf ec9f 9b3e 2e38 c0bf
00000160: 3cde 3c03 63a3 d8bf 54fc 8959 681d d83f
00000170: 88e1 cf56 d37d d1bf b10f 863e b9c8 d63f
00000180: 1938 1400 19b7 efbf 5d60 4ae0 4555 d6bf
00000190: e883 7312 5fbf ac3f 7934 d73c 4813 f2bf
000001a0: 4bbe 1f2e a8f6 abbf 9787 9659 b2c0 d33f
000001b0: 8a6d 23e1 cb28 bd3f 1cdb ebb2 3e40 e23f
000001c0: beac cf7a 0d6d d0bf 18a1 d4e7 2114 c23f
000001d0: f897 a1b4 ba53 f03f 3683 f900 7043 d53f
000001e0: eeae a22a 4122 d2bf a303 ace7 015d ad3f
000001f0: 5296 6056 c43d ac3f 8ab9 5912 f4c6 d2bf
00000200: 7297 212b 7de8 e53f 5546 7839 ea12 d6bf
00000210: 6f91 891d c162 b9bf 6e9d 6617 77f4 c63f
00000220: 011a 9024 6b9a d6bf 4198 556b e2f2 e9bf
00000230: b3b6 1ad3 0cd8 ca3f 0024 d728 cd80 c2bf
00000240: 8ff3 5b43 78a1 ecbf 3295 44dd 52cc e8bf
00000250: d47c ea89 08ee bf3f 2242 47ac b11b e0bf
00000260: b85c dc2f 682b b93f 2d22 22b7 4e65 ce3f
00000270: f812 524b 34f4 c6bf 94af 8d4a 9825 fabf
00000280: da30 1293 550e a9bf 6f10 c991 64c8 e3bf
00000290: bd80 2a10 7c52 b8bf c7d5 d1a6 2388 ddbf
000002a0: 489f 628d b092 eb3f b484 ece5 6ac2 c43f
000002b0: c05b 2f40 7488 cf3f 84bc 706b 2c19 bbbf
000002c0: 2128 14e6 9551 cabf 4b3d 2b74 ed03 c5bf
000002d0: 28f2 bbdf acdb e03f c9d3 9768 8e9c d43f
000002e0: 9d80 a915 b338 e0bf 3a6c cb68 5f08 c83f
000002f0: 7771 0d7a 6425 e73f 2c00 088b 3bfe 92bf
00000300: 172d ad76 15bc c33f bdcb 8ecb 837d c2bf
00000310: 881b 2f05 4c8a d5bf 34ba b1f0 a0da d1bf
00000320: 910f 01d5 3958 c9bf ae0b 750c 4e03 b23f
00000330: 44bb 89bc 8701 bb3f d632 cf02 aa89 d7bf
00000340: fae2 820f 188a d73f 1433 e4d7 8538 a23f
00000350: 80a9 c047 503a f6bf fed7 8fa7 8a0d bf3f
00000360: 7b10 b25b fec6 be3f c004 413f fa65 e6bf
00000370: b2de 68d7 1cc1 bfbf 86c1 f5cc 9853 d23f
00000380: 11bb c659 d1d8 eabf d768 5f17 34f8 99bf
00000390: cbf6 9e74 2e73 b5bf 413c 9a44 61ee d03f
000003a0: 38ac 482b e0d2 e23f b329 5eb2 9888 d73f
000003b0: affd e6ce 0330 d53f ca27 98da 029f d3bf
000003c0: eb9c 7b01 b93e b3bf 2760 46e1 f896 b63f
000003d0: ef33 26d5 214d ce3f d5ea c57c 2ec6 b03f
000003e0: 95ab 022d 9b29 cc3f 259a bc52 a1eb cf3f
000003f0: 5388 c7f6 8f6f d03f ace3 fbb9 ce25 ce3f
00000400: 192c 390b 32c2 a83f 0800 9e92 e44c dabf
00000410: 40df 0f8a 80f9 d53f 5084 ba11 6db9 ba3f
00000420: 6fb3 0e48 a7bf debf 0914 5b17 9761 e1bf
00000430: e7ab 3e11 5585 c83f be62 1570 4cfa d13f
00000440: 7fa2 bccd 016d c73f 1ccb 72b7 55bc b8bf
00000450: ceed 3977 a82f b83f f989 293a 681e c7bf
00000460: a73a b927 212e d43f d942 eeb1 e777 c3bf
00000470: cef4 edca 147a c3bf 2c34 9594 c547 d6bf
00000480: f99c 9913 c74e a83f 5fb9 d2db c751 debf
00000490: 7964 7684 dc97 c0bf be3e fd7f 25a5 bf3f
000004a0: 5951 45ff dc7e a13f dbb0 17fb 7308 a33f
000004b0: be32 b83e a423 db3f 948b 7428 cbaa d93f
000004c0: 4b80 a881 9553 e23f 3660 dfd1 1132 dabf
000004d0: 3644 7801 e67d e9bf 7a7c 49e0 0700 ba3f
000004e0: 1d1f 383b a406 c73f 07d5 45d7 5726 d23f
000004f0: 4e55 3ed6 69ea b2bf 4c3e 3b01 5282 d0bf
00000500: dafc f84e 3921 d9bf bfd2 a439 134e d3bf
00000510: 53a4 bdf8 a850 a83f 4884 acca 586e da3f
00000520: 3dcd d8a5 88aa df3f 9b8b 34d4 c9cc ae3f
00000530: ebca 6fe3 5160 d93f 409c 60cb e913 88bf
00000540: 0e3f 4766 b05e ca3f 4e27 3c2c 0b0d da3f
00000550: c5df efd8 a080 d53f 898f d07a ab63 d73f
00000560: bee4 47ef 2ca3 93bf be2d e6b0 0645 c2bf
00000570: e84e 3867 2308 c6bf 8978 d378 9878 bf3f
00000580: a561 026b 8853 c8bf af21 4c95 b547 d0bf
00000590: 6f3b 49d5 d41f c9bf 44e6 1851 2dff bdbf
000005a0: 2558 022c e89b db3f eb65 bfba c734 debf
000005b0: 0056 0050 a71f ac3f 5ee6 fd19 85b3 dd3f
000005c0: a9ab e8f9 1626 d6bf afd3 4ffc 5a61 e23f
000005d0: d8e2 c612 f318 d6bf 9aaf ca84 da63 b2bf
000005e0: eeab c4bc 8c4a c53f aa43 bc09 35eb bfbf
000005f0: 38aa 0f13 afcc e1bf 0188 f866 7e82 d93f
00000600: 034a 6002 894e e0bf 9b14 d98b af4a c8bf
00000610: 0839 18d6 2e17 b1bf 9605 2d5d 8b5e 9fbf
00000620: 41cf 4046 9952 cb3f 17c5 bb31 0a9b de3f
00000630: e098 58de 9e09 d13f a87c 2bb3 db80 b63f
00000640: 56fb 0cd1 7157 e6bf 8d3b b8b8 4f19 c13f
00000650: 2ab7 7afc 491f e13f 6db5 0952 2237 dc3f
00000660: e6f2 bf88 99f8 f6bf 375f 0b01 ba8a a4bf
00000670: fe72 6d6b 2b17 a53f c679 e75b 8246 a9bf
00000680: 38e8 1b12 d396 dc3f da56 e062 c546 d53f
00000690: 25f0 feae 9ec3 acbf 212e e2a1 59b2 b33f
000006a0: f2a9 eaec 3807 d83f 609f fe1a e36c c43f
000006b0: d04e 28d4 d38a e03f 6187 8443 87ba c0bf
000006c0: eda8 7e13 fb94 c7bf 5e5d fe18 ea66 d43f
000006d0: 5c2e ecc4 a257 e73f bf34 4cdd 08df a23f
000006e0: b636 4353 c3e0 e13f d5df 193c 8c42 e1bf
000006f0: d4cf b2ea 3426 c33f 4fa2 0be6 1921 cf3f
00000700: 8c57 be0a 8a14 d63f 08d8 8f57 fa2f c53f
00000710: 1bae f5b5 9542 cb3f 2c1f f133 1ea5 c8bf
00000720: 225f c127 c8f1 d03f 93db af1f ffb2 d23f
00000730: 2255 c86b 2429 d4bf 6cac f490 b900 c13f
00000740: f680 df6f 33ae d63f 4c64 fcde 9d00 d6bf
00000750: b896 97a9 4129 c2bf 7333 2c00 06a3 b6bf
00000760: 104c 48c6 fbef b73f dde1 15ab 7614 dbbf
00000770: c6b1 ad6a b93f b7bf 9067 555f d998 dabf
00000780: 643d e049 0739 e63f d9ea fa97 b02c c3bf
00000790: 60dc a7eb d149 d93f 6d1e 0cae 6243 e93f
000007a0: c4cf daa9 45cd 8b3f 0011 ac6f 16b9 aebf
000007b0: 0e48 0dbb 94b9 d1bf 9f70 c247 9486 7b3f
000007c0: e48d f617 6a2a e0bf 1a71 db3f 694b b73f
000007d0: b81f f425 a889 e03f bb28 ceb6 85ce cc3f
000007e0: 4c8c a021 d45e 9abf a5f4 0346 641c e5bf
000007f0: b8e0 e316 5cac d03f 56bb 0df5 0933 c03f
