offline_resampled_model_testing/model_15.npz (npz, 969594 bytes, 5 tensors)

imat f8 [1581, 50]
0.461478628952445 0.35862218035924165 0.08775019210946622 0.16546638364960953 -0.1820398277708572 -0.2682689417918135 -0.008810082743737383 -0.16852942127390635
0.1299042565887911 -0.02023630786527932 0.07883374841484445 -0.014925643762052326 0.07065607643756587 0.3157196085272088 -0.2815934935165847 0.19202638917541123
-0.06350602624613426 0.1514323583128887 -0.061923822327118 -0.034702780084217705 0.12511832625369346 0.07213277046752342 -0.10334332859112466 0.1536831953183972
0.044501411070918914 0.211013308587845 0.03711802548875297 -0.13439447443185612 -0.013796387290014027 0.21112874655871544 -0.44750324009998965 0.07703674083646131
0.09662106324782907 0.183626434350939 -0.0781666577760391 0.13204753818721737 -0.2543798764839236 0.11772480400442366 -0.002188210133944879 -0.05794881406776177
-0.09482689135634634 0.30193179615067667 -0.1899788113615023 -0.0686891242187517 0.0624185233599244 -0.08555723763468046 -0.3015421343417913 -0.031375001773061476
-0.03366663304155408 0.019933153898877454 -0.3171619193311255 0.22479214074503145 -0.04459930827879008 -0.2045529505249224 -0.13777295296700126 0.1382329624746074
0.23216541327061724 0.07818069843212483 -0.3819629536307224 0.07210525234675158 0.06446357999011881 -0.00028260715232567186 0.042055871955292805 0.21034725884571515
0.47073318798565666 0.2791149838984712 -0.20189324754732973 -0.031228940106028256 0.015029796572679418 -0.10355129628455353 -0.016433788152886333 -0.289379698781936
0.2726237198023107 -0.31113298396296457 -0.09023236491821524 0.01915135941268309 -0.10281670184203574 -0.029215635836192758 0.28473118857736895 -0.12665293975149147
0.013105852331342743 0.19259668055242296 -0.21981552805728838 0.08777566581995387 0.1903445736371372 0.224285476966073 0.024575113255706316 -0.477378820483927
0.019062388113966933 0.1243799087600734 0.1824786005390354 0.09630286543056736 -0.07021027043263033 -0.00552236465714584 -0.0007365883032575196 0.12926172126223895
0.07837607760632302 -0.01530387096729615 0.01710059509647641 -0.11036696929797955 -0.08544846148017327 0.13907978564314064 0.19424190206644623 0.10403118868419517
-0.22023853225220372 0.4519307348435926 0.012635211407618502 -0.15660856580147628 -0.09238406739192218 -0.03854669236308712 -0.05143686765462753 0.0780373915702387
-0.01872196447411438 0.10079301901042773 0.21249574419046127 -0.28452071054093175 -0.07336763982182687 -0.08446083663581387 0.2394584656869097 -0.05650559829713358
0.42636519233771775 -0.1321778546583214 0.1837605255019643 0.018906870607669587 0.02856397710832511 0.2094562846807431 -0.1424442002336142 0.2603769491738228
0.2712554049835497 -0.005376242074808385 -0.3572445048007048 -0.052613129572771505 0.10489832069951131 0.08913878446860937 -0.11935856953401625 -0.16148645679099846
-0.31729069279782823 0.07374082815559634 0.27572203823816266 0.08696699403753688 0.334957981821972 0.08243125326415127 0.32946662730044574 -0.15845768366787705
0.2352735423097505 -0.26920110014487414 0.09064795681690697 0.12906036914281785 -0.19783577953379622 -0.12238296950761957 -0.074931932362466 0.041292848426243735
-0.10496878954171188 0.22175821400703816 0.5269194995283477 -0.4502432517878421 0.004059034823136371 0.038837582545385385 0.3252475308257251 0.2556807700389978
0.06301236740868707 -0.29522398497151886 0.17426290413548384 -0.10417253208226698 0.04996236772797864 0.047151665521944164 -0.15819189784327325 0.3452776791277998
-0.25396558376491835 0.11489625958036842 -0.07110316607627376 0.008203588946132614 -0.029788801676494926 -0.09698432179170595 -0.113765639472314 -0.04860729628377626
0.03421981403262543 0.11729688291897565 0.04312239068924012 0.1273789926230703 -0.06973666905154642 0.01831309001204339 0.2705349663224962 -0.19508120748538454
0.17618866048626003 -0.054605131236457265 0.05999128775261591 0.2202840080173346 -0.1738647821299306 0.24318669492846806 0.10778858131828005 -0.08261334976104635
0.3956017413344114 -0.20271745173428218 0.3143455660759301 -0.2133862806745347 -0.23984609936626544 0.07459108530042456 0.02949994896869995 0.018835719695675858
0.2582942351435167 -0.18640867753055562 0.02828087670208755 0.07255994637111315 -0.025163943308364474 0.07666837771853352 0.2284944275477044 -0.15978836594257528
-0.16887655224710454 0.2796389302697878 -0.3051047842688273 -0.0549894457162641 -0.07312452249308253 -0.15586119165647042 -0.19324599849309904 -0.04058402360645818
-0.09272745494305429 -0.1419964028515994 0.014118220938702991 -0.2214819692799233 0.36943762854115614 0.11451406899392694 -0.005189873972501872 0.01296049691916975
-0.08979961796782981 0.08618758989473173 -0.11620588488225247 0.13478172900192678 0.0457566671138541 0.08057688378552874 0.13423723492259954 -0.10177877364871794
-0.08931766309372302 0.15800913094956082 0.08286686562251061 -0.05200582006913393 -0.3114515019667957 -0.13519259801510594 -0.22554314937162964 0.31966864320994465
-0.014780044687520453 0.27627803536046935 0.04285810299439243 -0.46587533173245843 0.48177502876214007 0.04387678941633853 -0.12345739967379973 -0.22754815745379153
-0.2931027023143873 0.11560784402480274 0.11391135089280639 0.13920853024054644 0.31755471349903563 0.09813238401561668 0.17567695164578062 0.0387765872652941
00000000: bbd5 c9a8 dd88 dd3f 8ed7 1072 aaf3 d63f
00000010: 98ef 53ed cb76 b63f 2865 2ea1 002e c53f
00000020: ee32 6cc1 144d c7bf c2d0 e17e 512b d1bf
00000030: 7543 134a 050b 82bf 9082 6440 5f92 c5bf
00000040: 877c d4e2 b3a0 c03f a584 e4a1 d3b8 94bf
00000050: 0e4a 43d3 722e b43f d059 a3fe 5591 8ebf
00000060: 2f22 9041 8416 b23f 6223 5504 c034 d43f
00000070: 3ce3 5ab7 a005 d2bf 1f1a bd1a 5294 c83f
00000080: f378 d351 ee41 b0bf 0848 41b1 2262 c33f
00000090: ae00 7aaf 7ab4 afbf 6480 1513 90c4 a1bf
000000a0: 50e7 b197 e003 c03f 40bd 2012 4b77 b23f
000000b0: 7c04 8f58 b574 babf 862c eb14 e4ab c33f
000000c0: 76d4 5992 e3c8 a63f 12e9 b3ed 7b02 cb3f
000000d0: 8ef0 2143 2201 a33f c755 3990 d633 c1bf
000000e0: 1c5f b5c1 4741 8cbf 368a db4a 4406 cb3f
000000f0: ec57 45a1 e4a3 dcbf caa7 7b0a aeb8 b33f
00000100: 8211 c172 28bc b83f aef3 1b2d 1281 c73f
00000110: 6c24 c9e6 ba02 b4bf 3c05 0409 efe6 c03f
00000120: fc92 9088 c247 d0bf b183 2077 3623 be3f
00000130: 0045 c95e 02ed 61bf c2aa 868a 77ab adbf
00000140: 7e27 283d 9346 b8bf 90bd 85bd d952 d33f
00000150: 7c84 ddc6 3951 c8bf 7e44 1c46 9c95 b1bf
00000160: 84b0 fd18 52f5 af3f beb9 9341 14e7 b5bf
00000170: 4d4c 5761 774c d3bf 8af2 0d5d 6210 a0bf
00000180: 4683 c2bf c03c a1bf d041 6850 5b69 943f
00000190: e014 c481 614c d4bf 1ee9 7226 fdc5 cc3f
000001a0: 9c97 f674 b8d5 a6bf 4005 6784 ca2e cabf
000001b0: 7e20 a24b 8ba2 c1bf 8d60 8722 9eb1 c13f
000001c0: 683b a1a4 98b7 cd3f 28c5 f176 a603 b43f
000001d0: 3e29 88be 1472 d8bf e0f9 b264 7d75 b23f
000001e0: 3434 d767 af80 b03f 2022 137a 5c85 32bf
000001f0: bf34 4ee5 5888 a53f 00d6 c5b2 a8ec ca3f
00000200: e492 e217 7e20 de3f 54b8 ea17 05dd d13f
00000210: acdf bf4f a3d7 c9bf 19cb c6b1 7afa 9fbf
00000220: b126 f625 f1c7 8e3f f224 0077 5682 babf
00000230: 2406 aada 04d4 90bf 8543 996d 3285 d2bf
00000240: f48b 2ac2 aa72 d13f 17fb b451 9ae9 d3bf
00000250: 0c4e 5de0 7719 b7bf 80d9 67f9 699c 933f
00000260: 79e5 e403 3252 babf 740d cb21 b4ea 9dbf
00000270: 15d3 c529 0939 d23f 9763 16dd 2936 c0bf
00000280: f6cf 31b9 3dd7 8a3f 7439 250e 02a7 c83f
00000290: e65a 144c ea22 ccbf d7d1 144e 7778 b63f
000002a0: 780c 5f03 365d c83f e3bd 44f2 62b5 cc3f
000002b0: ad3e eaee 372a 993f 7204 72e5 5f8d debf
000002c0: 50f1 2136 1785 933f 2e6b 6798 5cd7 bf3f
000002d0: 0b7b c472 755b c73f 630e 89f9 4da7 b83f
000002e0: 7bf9 59df 4cf9 b1bf 009e 9579 9e9e 76bf
000002f0: 4060 2856 f322 48bf 0216 b9e8 a58b c03f
00000300: 57a0 1b62 7410 b43f 8c34 74ca a257 8fbf
00000310: 39dc b982 d182 913f 7b86 b17b 0241 bcbf
00000320: 2805 8d4b f3df b5bf 059d 6fcd 5dcd c13f
00000330: 3db1 712c ebdc c83f b2a1 29b9 c9a1 ba3f
00000340: 0dcf abb6 c630 ccbf 7878 8de3 6eec dc3f
00000350: 10ad 305e 7de0 893f e305 32de bf0b c4bf
00000360: f8a8 1e74 7ba6 b7bf 8a09 235e 64bc a3bf
00000370: c246 c5e0 ee55 aabf 48c9 a82c 42fa b33f
00000380: 4c64 88c4 d92b 93bf da9c 5040 92cd b93f
00000390: cd29 eb7f 0f33 cb3f 04b6 b35a 9635 d2bf
000003a0: 8494 9ebd 38c8 b2bf 3bc4 24b3 399f b5bf
000003b0: 2a14 7033 93a6 ce3f b746 7441 4dee acbf
000003c0: 5e91 4f3b 9149 db3f bfa7 8135 34eb c0bf
000003d0: a8d1 a903 7785 c73f bcf4 b79b 525c 933f
000003e0: 1686 180e e03f 9d3f 599e 52aa 76cf ca3f
000003f0: 4a0e c18e 9c3b c2bf 5c5d 5514 04aa d03f
00000400: 0e20 51a1 3f5c d13f a0d8 2ffe 6505 76bf
00000410: 0edd 320e 18dd d6bf 2ce5 b5ad 1bf0 aabf
00000420: df49 cfc8 9dda ba3f 020e 19a4 ccd1 b63f
00000430: 705c a580 488e bebf 5306 5595 96ab c4bf
00000440: 2714 399f 7d4e d4bf f7e8 4ecd ade0 b23f
00000450: 5c3d 410c 6ea5 d13f 74ff 380b 7843 b63f
00000460: fa68 5d9a f36f d53f 2a15 f0f0 361a b53f
00000470: d63e 5831 fb15 d53f 18a4 9364 5748 c4bf
00000480: 48cf ea84 711d ce3f 5bd8 4a40 973a d1bf
00000490: 7153 fa59 b434 b73f a9cb 56d8 0c85 c03f
000004a0: e2c4 89cd ae52 c9bf 2462 9f83 7d54 bfbf
000004b0: 9141 ec36 bd2e b3bf 354b 1913 5624 a53f
000004c0: 1aaf 2e0e 3cdf babf dec9 63ba 9262 cc3f
000004d0: 862a 4348 86dc e03f 381a 6b12 c9d0 dcbf
000004e0: d460 19dd 34a0 703f 10b9 c605 85e2 a33f
000004f0: 5614 0005 dbd0 d43f 6026 62e0 125d d03f
00000500: 7e8b 4319 9421 b03f 55a3 1c24 f3e4 d2bf
00000510: 4c7d 1531 3f4e c63f 2a52 6f12 0dab babf
00000520: 0a44 d8de aa94 a93f c0c3 bc5a 4324 a83f
00000530: e850 ddd1 a13f c4bf b321 f98c 0719 d63f
00000540: a31c 25dd f840 d0bf b095 545d d769 bd3f
00000550: 108d f02c d133 b2bf c823 de11 0bcd 803f
00000560: 0a47 f3a3 f480 9ebf 33f3 51ea f6d3 b8bf
00000570: 782e f1b4 be1f bdbf c287 c537 0ee3 a8bf
00000580: 7268 4a6c 4285 a13f 374b 0f24 2b07 be3f
00000590: 58a3 7853 2314 a63f c4ba c16f f44d c03f
000005a0: c18a e828 43da b1bf 3e00 c3aa aac0 923f
000005b0: aee4 31e4 7150 d13f a261 1bc7 6bf8 c8bf
000005c0: dc75 5b9b 598d c63f 3f70 b529 34f5 abbf
000005d0: a783 e295 2db7 ae3f 9c14 2231 4432 cc3f
000005e0: bf4c 9680 3341 c6bf fa21 c5da bd20 cf3f
000005f0: 87ed a44f 0898 bb3f cdcb 6f03 2626 b5bf
00000600: 9a67 51f7 8951 d93f 4e7b c33c a5f2 c9bf
00000610: 1a14 7cdd 3c1e d43f 14c3 74dc 3d50 cbbf
00000620: a0f6 6ce8 46b3 cebf 8f3f f0bf 6618 b33f
00000630: 7089 3710 3c35 9e3f 3ab3 5bc0 ab49 933f
00000640: 84f3 2b8b e487 d03f aa98 d752 3ddc c7bf
00000650: 1c94 2682 a9f5 9c3f 86d7 a9e4 4993 b23f
00000660: a2f8 30a6 93c4 99bf 0040 f0ee 89a0 b33f
00000670: 635c d12e 4e3f cd3f 1498 00f7 f173 c4bf
00000680: d134 7b32 bf9d c5bf 529e 0caf 9ae5 d13f
00000690: 796a 9237 d686 d3bf a4fa f39d 9327 acbf
000006a0: 3fb6 a4e8 49b8 b2bf 0da8 7070 42f3 c3bf
000006b0: 422c ceed 48bc c8bf 0f79 42dc 6dc7 a4bf
000006c0: 9cf6 6b8a fcbc b7bf 6fd9 3229 f02c c2bf
000006d0: 90ea ac89 03ea 8c3f 5200 5b6b 8559 ccbf
000006e0: 7abf 1fb9 dda4 d73f 0ac4 4245 cb50 bd3f
000006f0: 4453 b72f fa41 75bf ac0e 4373 088b 8a3f
00000700: b478 5d96 1bfd b6bf 2f3f ebcf 6310 b63f
00000710: 3009 2c3b abbf bdbf a5af 1417 8740 c13f
00000720: a5ea a7f9 6a6d a73f f024 acc8 afa0 b43f
00000730: c8f2 f28a af2e c13f 038c 3f78 2c0e babf
00000740: e853 f1b9 85dd b6bf 50e9 f2a8 a439 c43f
00000750: 3c4d c54d c336 b53f 1414 ccc0 81a0 aabf
00000760: aa32 cf47 d2ee d3bf 836d 91b5 fd4d c1bf
00000770: bba9 3111 99de ccbf 8b2d 0978 7375 d43f
00000780: 32d2 8704 0045 8ebf 7a7c 9e11 8aae d13f
00000790: 0383 754d 7ff1 a53f b875 73c4 e6d0 ddbf
000007a0: c005 24ee 66d5 de3f 7e7c 31bf 0477 a63f
000007b0: ee54 0c76 e79a bfbf 54b9 434b 4c20 cdbf
000007c0: 20cf 33d6 31c2 d2bf 8162 3fc5 7998 bd3f
000007d0: 0b50 ba56 4b29 bd3f 3b8b 5aca 95d1 c13f
000007e0: 06d1 4a01 d152 d43f db8c 0634 341f b93f
000007f0: 9263 fd14 957c c63f c152 4f5c 86da a33f

gbias f8 []
3.534161614949083
00000000: fce0 5786 f645 0c40

ibias f8 [1581]
-0.057917354238103465 0.19673325967866054 -0.9568248326382202 -0.7046079387922134 -0.020745453454174587 0.48822136111643694 0.5632631948795165 0.23469205583538083
-0.04653761383347967 0.6506978709394843 0.24195142378943138 0.5583260352315392 -0.02277440996605525 0.3791371258008536 -0.6635712452913618 -0.2106882676743761
-0.3915663855831479 0.5673040296151267 0.6510893068722721 0.06482907313486568 -0.1539719996026721 -0.6827060959762478 0.08245129524295734 0.3143985318644701
0.490310438882552 0.7815391007777065 0.7886889963640253 -0.7592749102262342 0.28324671484195 -0.47854331078627477 -0.2414000247263565 -0.8395446118346909
-0.12060708235736876 0.376019324831311 0.27761264917028294 -0.7770292746991617 -0.4545993256754917 0.09232485778833074 0.1531663033472615 -0.18617207043377318
-0.33886435673843435 -0.11741530581936337 0.21267307807731467 -0.0031057071032059634 0.2768776435534467 -1.2081436577325193 -0.09818453658859413 0.1093927037233471
0.3076085869195525 -0.420745453454175 -0.2349101258530466 0.23979581629182478 -0.3721385270992139 -1.218734369685694 0.2932909245881177 0.4585230089341484
0.5367234859852339 -0.6273292919592663 -0.542190686296756 -0.3672361102774945 0.529555329710977 -0.31174218281834887 0.018278500404423043 0.03470944827123562
0.6443313959069303 0.05436687980086051 0.6550049342357779 0.296945344978936 0.16635148704182534 0.48260858691955233 0.19609572016390317 -0.3946923772264397
-0.097032546621407 -0.23339196196272075 0.0006468866081132582 -0.03175586741745732 -0.11081545503248899 0.030548753923272522 -0.5404922288962871 0.5250810656333799
-0.9387756122796043 -0.2551655317910132 -0.9052796132503242 -0.32105290227901373 0.274460247177109 -0.6578528128134999 -0.10800158328341551 -0.09818453658859413
-0.29998532834497105 0.3784745829975629 -0.5198891027204574 -0.5524500552410043 0.38021899668109255 -0.8146454004887979 -1.0673914130804483 0.4744384885732933
0.7865531152629792 0.6266242579214507 -0.03983733779829987 0.736429806424038 0.7752680887578314 -0.430502046371443 0.5980936966844579 0.6552793859002958
-0.22680523878118578 -0.20031060560590608 0.07278218183926108 0.4252384835234212 0.2099879615634969 -0.13368639297092616 0.8371726133720893 0.3076085869195525
0.37558217710688147 0.42104623264217456 -0.43833188998545225 -0.3219651044991663 -0.43236363521492177 -0.18050076419922184 0.049894650131457684 0.5625167629457773
0.461266274977936 0.28715444410519786 -0.08197539638724709 -0.9770272577607906 0.6488319071962712 -0.9280068859775968 -0.8486572758681626 0.31316133518915845
-0.9784680124575696 0.13291919252545856 0.12672975478329282 -0.36734704085103237 0.18080947522157423 -0.01668686756482296 -0.4582157933697459 -0.31823172819935264
0.078562927611604 0.2192545465458254 -0.6665871524523477 0.032608586919552485 -0.1513688728241678 -0.18840590986120484 -1.216504087580254 0.027459862669096828
-0.21756492179408146 0.38047448953156876 -0.018956315277064505 0.6689511215422425 -0.5729814803699934 -0.009431910553292 -0.7145050493638437 0.1146848857182869
0.5523348308795352 0.29418396194099816 -0.27806294719914953 0.4429212828913545 -0.9297361102774945 -0.2423914130804475 -0.000764567645307269 -1.2506212112118125
-0.3423914130804475 -0.46500541891560354 0.38186121492689534 -0.8273292919592666 0.30848849720015864 0.13672348598523482 -0.07287314896367109 0.006331667329998818
-0.34891069312772727 0.07321811449791216 0.18840572461303498 -0.4257765140147661 0.32231235543161557 -0.617391413080448 0.5857722560922497 0.13309668144311917
-0.3165115027998412 -0.044448862613288675 0.06653945509790142 0.06192347822502059 0.4363007867119262 0.15076216822810648 -0.3073292919592663 -0.5514875057519558
-0.06159427538696501 -0.3409611899624821 -0.09687839319914243 -0.8949276087202983 -0.5195788307154874 0.5424090092270709 -0.49689449968544874 -0.7631988626132893
-0.06159427538696501 0.13269329753934506 0.7498273487059658 0.10085762492580794 -0.2954747471283094 -0.5847951503511206 -0.549837420913587 -0.6415549028605214
-0.5594840707378972 -0.294231250746467 -0.1607454534541746 -0.014580356382202994 0.06949795362855786 -0.2673914130804475 -0.13043487417300845 0.3076085869195525
0.027459862669096828 -0.3485162733107035 0.7564897706245751 -0.720314318633042 -0.0007099556706424639 0.07380332842578226 0.2976806609660118 0.4928162443917788
0.21454015676805507 -0.1190032832021792 -0.005605320443097158 -0.20926910021202097 -0.018633608154045203 -0.6415549028605217 0.2666522709675303 0.3237516259404154
-0.6600415252296903 -0.7658656116992824 -0.2578528128134996 0.7303104388825519 0.022451303167847533 0.068213894478508 -0.6580963108852369 -0.09600721388129124
-0.42277440996605525 0.5492326214442309 -0.5014006723070166 -0.6909025539271592 -0.0007906324513972894 -0.8433896096101247 -0.5022183732945393 0.16617880848719221
0.4510027676926064 0.03299173667098744 -0.1794635708055634 -0.11723611027749448 0.030548753923272522 -0.4943804703122875 0.9110887911680166 0.45768383336223756
0.2992234859852336 -0.8623030291837699 0.7073408108363127 0.5299807703850064 -0.8180355394908355 0.03044025959817311 0.4839683330170094 0.0006824298283392614
00000000: f9a1 a5ec 57a7 adbf 357b 2d32 8e2e c93f
00000010: 8bd1 851c 4f9e eebf 33aa b3f2 258c e6bf
00000020: 2967 81d0 4b3e 95bf 7709 cdce 043f df3f
00000030: 3389 2189 4006 e23f e6d3 38a8 630a ce3f
00000040: 63b8 e532 c7d3 a7bf 9961 6857 84d2 e43f
00000050: 21b8 32a6 43f8 ce3f cd64 ba8f cedd e13f
00000060: 55a9 f5c7 2c52 97bf 15e7 005d c843 d83f
00000070: e2f4 a2c3 f93b e5bf bcfa a749 d5f7 cabf
00000080: 13b9 1275 6c0f d9bf 63c0 c2c7 5a27 e23f
00000090: be55 f93d b9d5 e43f bbb9 f15c a398 b03f
000000a0: a287 65bf 5ab5 c3bf 27ee 5f74 bad8 e5bf
000000b0: d7d2 9430 871b b53f 0a2c 1105 1b1f d43f
000000c0: 76d4 f808 3f61 df3f ff55 cc49 5e02 e93f
000000d0: 5627 c3b4 f03c e93f 560a 83e5 fa4b e8bf
000000e0: ed84 3cd4 b620 d23f bafb 621f 74a0 debf
000000f0: 7d05 ba2d 32e6 cebf cb9d 6ba9 8cdd eabf
00000100: 8b10 6412 1be0 bebf 7720 b45b b310 d83f
00000110: 3a1b 49d8 67c4 d13f 8fc2 5b7f 6cdd e8bf
00000120: 3dd5 23c5 2718 ddbf 0609 cf14 9aa2 b73f
00000130: dae3 dc13 f49a c33f 7588 f884 7cd4 c7bf
00000140: 8f2f 7e20 f4af d5bf db43 8bf2 ed0e bebf
00000150: d675 8a15 df38 cb3f 8f20 0ece 2371 69bf
00000160: ee8e 0302 5db8 d13f ba4b ad71 8e54 f3bf
00000170: 16f5 9e2d 9f22 b9bf d1ac e904 2901 bc3f
00000180: b672 32ed dbaf d33f 14b0 a156 7eed dabf
00000190: c8df 04f6 8811 cebf 1073 581a a1b1 ce3f
000001a0: 4441 de1c 1ed1 d7bf ccfa 449c ef7f f3bf
000001b0: cc73 544c 47c5 d23f d57b f5e3 7058 dd3f
000001c0: 7aa7 69bb d62c e13f 5a36 19e1 1413 e4bf
000001d0: 40e4 3a48 a059 e1bf 6a55 e3e2 cb80 d7bf
000001e0: 20ff d004 1ef2 e03f f442 ff7b 95f3 d3bf
000001f0: c5e2 d365 99b7 923f 88d3 5fd2 6fc5 a13f
00000200: f699 26e0 5c9e e43f 7ee4 75c5 f9d5 ab3f
00000210: 8b5c 68e8 ccf5 e43f ee92 580c 2701 d33f
00000220: 6428 3e6a 014b c53f e6a5 6520 0fe3 de3f
00000230: fba8 7e20 aa19 c93f 64c1 0ad1 a342 d9bf
00000240: 2ef4 62fe 1fd7 b8bf 91bb e3ad c9df cdbf
00000250: ab8e bc69 7a32 453f f536 0718 4e42 a0bf
00000260: 9682 41d3 665e bcbf c7d2 222c 2c48 9f3f
00000270: 1f41 db5b b64b e1bf 419d 94ce 76cd e03f
00000280: aebe 2027 730a eebf 66f7 86cf a154 d0bf
00000290: 56a9 94f3 0cf8 ecbf 7ac0 e478 218c d4bf
000002a0: 6960 6bb6 c190 d13f eeb2 9357 210d e5bf
000002b0: 5b55 1ee4 fda5 bbbf 16f5 9e2d 9f22 b9bf
000002c0: ce5f a1a9 f532 d3bf 91df 1575 ed38 d83f
000002d0: 9365 b778 eea2 e0bf 4adf fdbc abad e1bf
000002e0: e10b 040f 8255 d83f 6df5 1d3b 9311 eabf
000002f0: 5663 b304 0914 f1bf a4b3 1840 335d de3f
00000300: a0e2 5370 712b e93f 8ee4 d450 4e0d e43f
00000310: fcbd 013e 8f65 a4bf e081 cc3d d590 e73f
00000320: 2c1d db05 ffce e83f ebb0 8174 588d dbbf
00000330: fe82 6664 9523 e33f 57e9 8579 0cf8 e43f
00000340: 8536 903d f407 cdbf e845 0f26 c7a3 c9bf
00000350: be2c bb62 daa1 b23f 6af5 ee78 1b37 db3f
00000360: b505 bcb1 e2e0 ca3f 867b ddbe a21c c1bf
00000370: 7b47 7138 1eca ea3f b672 32ed dbaf d33f
00000380: 3c9c e8d3 8909 d83f 6256 d3e5 6bf2 da3f
00000390: 4002 1233 a10d dcbf b1bc 9186 139b d4bf
000003a0: ab93 4e86 d8ab dbbf cabf 9127 a61a c7bf
000003b0: c3b4 1ea5 ca8b a93f 89b9 8927 2300 e23f
000003c0: 65ca 71fb 6285 dd3f fc4d 9508 bd60 d23f
000003d0: 2b53 8fee 56fc b4bf d442 ecaa ce43 efbf
000003e0: 1e4c c021 3bc3 e43f 0f92 377f 3bb2 edbf
000003f0: fbb7 ab4d 3328 ebbf 9495 40d7 d50a d43f
00000400: 09ff 3526 9c4f efbf 532b 7400 7f03 c13f
00000410: 3fb7 1c3c ae38 c03f 2f34 af29 9d82 d7bf
00000420: 4519 71cf c324 c73f 60b9 dab9 5c16 91bf
00000430: ff28 c255 6853 ddbf 269c 4a9c e85d d4bf
00000440: 3015 c534 b31c b43f d3f1 7471 8810 cc3f
00000450: 62ee 7694 ae54 e5bf e0c8 c69c 12b2 a03f
00000460: 71c2 3423 0e60 c3bf 4b0e 9d52 af1d c8bf
00000470: 5db8 79fd cc76 f3bf 5e37 7730 701e 9c3f
00000480: 6362 eed7 2ad9 cbbf 4306 60ac b159 d83f
00000490: 56ae abc8 4869 93bf bdaf b42e 0c68 e53f
000004a0: a3e3 ec41 dd55 e2bf dae6 eb9a 0951 83bf
000004b0: c106 7bb1 39dd e6bf 0d6b 8119 fd5b bd3f
000004c0: a937 6218 baac e13f bed5 e2f7 e8d3 d23f
000004d0: 3fc8 1c88 c8cb d1bf 7920 2e82 d258 dc3f
000004e0: b5aa 71f1 65c0 edbf fb80 018c ae06 cfbf
000004f0: d54a 1e84 a80d 49bf 156b 1d63 8b02 f4bf
00000500: e426 67ac bde9 d5bf 9623 ad16 a6c2 ddbf
00000510: ab32 6e05 6a70 d83f c39c 7f47 7b79 eabf
00000520: fbad aa89 46be d33f d66a 73ba 2780 c13f
00000530: 7c35 8e8f d0a7 b2bf 9fb0 c801 3cef 793f
00000540: 7854 0d84 8d54 d6bf f849 3e1f 6cbe b23f
00000550: 25cc cbc4 ad1d c83f a64a c622 ec3f dbbf
00000560: ab3b 6b00 c4a0 d43f 4360 00a3 abc1 e3bf
00000570: 4d40 5a75 a5be e23f c98d 00e3 4f09 c13f
00000580: 0252 5576 b941 d4bf 2875 8956 00c2 a6bf
00000590: 8b05 8acf ba08 b13f f87c a923 6fb4 af3f
000005a0: 1465 8922 5aec db3f 23c3 01bb 2c4c c33f
000005b0: 3858 847a 48ab d3bf b16e 2b20 c9a5 e1bf
000005c0: 6bcf d0ec 4889 afbf cd05 06e2 4ed2 d5bf
000005d0: 64b6 7aba 05cd b8bf a1b7 7739 3fa3 ecbf
000005e0: f6bd b3c8 63a0 e0bf f9f3 7523 6a5b e13f
000005f0: b085 6d96 1ecd dfbf 5897 6805 206c e8bf
00000600: 6bcf d0ec 4889 afbf a639 aa0e 18fc c03f
00000610: 15d5 8aec 95fe e73f decb 9b28 ced1 b93f
00000620: f76f ede9 0ee9 d2bf 48c2 b351 a4b6 e2bf
00000630: 621b 9ea5 4498 e1bf 0efb cb25 9e87 e4bf
00000640: 9478 4e23 4be7 e1bf 3fb4 da4f afd4 d2bf
00000650: d17e c898 4e93 c4bf 38cd 9a4e 4edc 8dbf
00000660: 933c f92d 9eca b13f 175a 9adf f01c d1bf
00000670: 735c 6a07 17b2 c0bf b672 32ed dbaf d33f
00000680: 5e37 7730 701e 9c3f b991 ff32 174e d6bf
00000690: 39ea 1209 2a35 e83f 71d2 2b9d d00c e7bf
000006a0: c5d7 8931 8a43 47bf f5b7 ec61 c6e4 b23f
000006b0: 370b e02f 330d d33f 396a 2625 4d8a df3f
000006c0: 65ae 7f46 0d76 cb3f fe50 78c9 ff76 bebf
000006d0: 9688 c9bf 9af5 76bf 45ab bc72 54c9 cabf
000006e0: 742d 8346 b014 93bf 11fb cb25 9e87 e4bf
000006f0: 486b cdaf d410 d13f dc37 5cbd 58b8 d43f
00000700: 9ea1 9b67 0f1f e5bf 7a24 6c99 f881 e8bf
00000710: 3ccc 8d15 a980 d0bf e8b1 5dff b35e e73f
00000720: 0c17 6f73 79fd 963f 2f01 eb3d 7776 b13f
00000730: d6d9 9bfe 1f0f e5bf 6cdb ccc3 ed93 b8bf
00000740: 2ff4 1866 bc0e dbbf 6efa 5f4a 5093 e13f
00000750: 9808 386c 790b e0bf 7ce1 3aac df1b e6bf
00000760: d6de cd42 4ee8 49bf 63f9 e134 0cfd eabf
00000770: 0003 1844 2c12 e0bf 7fd0 dee1 5845 c53f
00000780: 724b 69b6 3add dc3f 928c 14fc 4ae4 a03f
00000790: 9075 b78b a9f8 c6bf a855 8d8b 2f03 bebf
000007a0: c7d2 222c 2c48 9f3f 926e f1fb eda3 dfbf
000007b0: a633 3aae a327 ed3f e5b7 0c22 b14a dd3f
000007c0: bb1b a043 7a26 d33f b8c0 b285 fc97 ebbf
000007d0: f560 3532 89a2 e63f e6ff 893b 9af5 e03f
000007e0: fb85 22de 582d eabf 65d8 d23d bb2b 9f3f
000007f0: 6fe4 a650 56f9 de3f ac39 b3e5 a25c 463f

umat f8 [942, 50]
0.06982219462946612 -0.19676148865192267 0.288722653298592 -0.11400565045014911 0.18189976114957154 0.15017446785934255 0.00982999127146636 -0.304688404177899
-0.07465841754292865 0.277066472126988 -0.1669809107334474 0.03017684197371176 0.015100939814674696 0.02564460150582358 0.1376769835904237 0.09539995170902438
0.09975991425856015 0.09028385069154676 -0.13683373385009778 -0.13925674636842725 0.10989132877305054 0.3078370639981085 0.00271861993156626 -0.1363564228015274
-0.013339088879150862 0.02497130884337554 0.27903255631315066 0.045687707290292354 -0.13325300117302039 -0.056035279559671886 -0.0007040708297492912 -0.0916628779786767
0.019839440015801485 -0.3094273162898781 0.10716223101410474 0.06889314031753196 0.07460779973312065 0.004851041028434169 0.10045542220285883 -0.3552115047751729
-0.07550657347392065 -0.10804720392998744 -0.11847751591623648 0.2620398312064739 -0.3796860082163372 0.25900695768645976 0.03696652678796511 -0.04299361491164496
-0.09551452947176016 -0.2105631181900516 0.13837610757957178 0.05769669505007863 0.1545205539090544 -0.02643717170141364 -0.14562542998847222 -0.0922785827241727
-0.044703813936332826 -0.023001092009963302 0.04814368427473741 -0.029593916852240283 -0.07470406461566195 0.06345947079315137 0.14673865293130742 0.013989168191661676
0.36611105127997506 -0.12422474793189278 -0.02446246952059197 -0.26676651906888693 -0.20028618363310818 -0.020998994712246463 -0.07630950362446212 0.04379914998926461
-0.0628764816268331 -0.03878549466728449 -0.07689424832645651 0.016728885036685036 -0.01696814989808893 -0.09992038719619509 -0.11438200603180382 0.20656140008281737
-0.07172416544245383 -0.09804082211169933 -0.19159391545843116 0.0301493338251394 -0.09165893290667691 -0.013620488822045924 -0.008426030080867054 -0.25806137314534977
-0.10714470656343238 -0.08893876541170123 0.19283468975193388 0.20127411382656174 -0.18198764662719186 0.028729685762702614 -0.19649079517436033 -0.09598829193697281
-0.019321182358817104 0.012165658734278405 0.00377304036817247 -0.10004384981285605 -0.10122555806069586 0.13946320847433763 -0.20946079857417899 -0.043085369179594775
-0.24720798463422533 0.08796950199420052 0.11380741649668219 0.24911667319187297 0.12940215467647612 -0.173242604627259 0.04064653291552259 -0.19479211722158757
-0.022793878836344067 0.2831415808159364 0.3717704450935765 -0.03461700428370378 -0.0562716636903005 0.22404402621828945 -0.1838521296316784 0.1685656251820063
0.23301051766100545 0.036843719475272776 0.09938541058527103 -0.021698389096936825 0.19506836212957346 0.054344510193695406 -0.10278900406665828 0.1297280955842079
0.06239575581855755 0.513322836258281 0.21308118707382992 -0.0033223807390981436 0.06162379998085045 -0.015365596837029233 -0.15973061519590853 0.06623762091634364
0.009805051169131149 0.07219150597669677 0.05644426186437903 0.011319180336577597 -0.06312588893912639 -0.026660927638814176 0.12006514969124064 0.4317370585899805
-0.13746721741022225 0.021806553287716558 0.0011229747979910193 -0.0337378226263276 0.3009989130767441 0.10030577355536448 0.01431834646282782 0.004978671677861916
-0.02660872854032241 -0.028760390474078093 -0.15381144928261686 -0.2771654227002905 0.19598451869273537 -0.03342501915499919 -0.11703831124713393 0.19015608873896558
0.11087646942989383 0.21457016537689733 -0.12132275121668928 -0.06816012274160714 0.1251268888994596 -0.09218506704722107 0.1149002811553205 0.11739955883121175
0.05390123925569179 -0.043823140355047537 -0.09704231057666385 -0.11431449786842801 -0.11945917854205773 0.025855383561911152 0.24673178016174263 -0.05331542027918777
-0.0013469994484784156 0.07042342227028625 -0.09258407072846239 -0.36358257584216847 0.19892874247171852 0.0697437638622343 -0.1148913011572437 -0.07998166953953967
0.21960767874930276 -0.1808689477595773 -0.09317303336610455 0.18541466969463694 0.09422563697690647 -0.010712806383987195 0.23858706375031402 0.12000661924080779
0.09785828991396528 0.014713525385061623 0.02375349616822851 0.2873628305374001 0.09416068487384047 -0.010147593143471136 -0.3628279253668088 0.09945408173871942
-0.05098405395113345 0.2467514064977615 -0.23989202666136936 0.12165989253165976 0.09393099938190627 -0.2655110044038977 0.2976037682016224 0.09162095152449232
-0.09504448798766735 0.23719215432397675 0.17461406648510047 -0.2843935155037331 0.16200167680192026 -0.0013938260363968134 -0.10654660137409006 -0.06364199777066593
-0.06407970143599159 0.16129344981385021 0.23818908625689458 0.04574797458540832 0.24335496155644942 0.17033762267659786 0.3251323979811327 0.22781189853980044
-0.03832220804332589 -0.04339318849594908 0.08177766639702558 -0.16673436425248633 0.05824564101799912 0.12143111222847401 0.14426300601470837 -0.09925068448959798
-0.02068746616769296 -0.2895375402861745 0.48162325876275497 0.049817215381348104 -0.1498311827268189 -0.17780190876127763 0.11498473752596745 -0.028224914828062966
0.2628920773775394 -0.1492254258348026 -0.0863558134726307 -0.4373243941063953 0.1946675835584284 0.23557057927042513 0.2632986441549975 -0.009838091134519396
-0.07064739598882909 -0.01689478442602915 -0.21556651026235854 -0.11333380825465149 -0.18135899171706896 -0.07772641131396456 -0.10759027544350774 -0.10886632777734244
00000000: deef 770a dedf b13f f8a6 6fff 7a2f c9bf
00000010: ff08 6294 6e7a d23f e91a 3e6c 792f bdbf
00000020: c5d0 a4ca 7d48 c73f cd35 13be ea38 c33f
00000030: 904f 3f18 bf21 843f 4487 daca 0380 d3bf
00000040: 46ce b765 d01c b3bf e49f 2603 75bb d13f
00000050: 9e06 5467 a15f c5bf a89e 7e95 ade6 9e3f
00000060: a0a4 24d5 3ded 8e3f fc56 2513 9442 9a3f
00000070: f165 f73e 669f c13f 5857 a198 216c b83f
00000080: 4239 31a1 dd89 b93f 78bf 13aa d71c b73f
00000090: 3018 f08d c483 c1bf 652b b341 2ad3 c1bf
000000a0: 71b9 318f d621 bc3f 1496 973a 9ab3 d33f
000000b0: a057 48f6 5b45 663f 251c 4494 2074 c1bf
000000c0: e082 f433 8651 8bbf ea4e 482b 1492 993f
000000d0: b997 f85d abdb d13f 9e34 4811 6164 a73f
000000e0: 77e4 1031 6f0e c1bf 7c13 43fa a7b0 acbf
000000f0: c02a 0b98 2c12 47bf baf7 2ce7 3777 b7bf
00000100: b8c0 2748 ca50 943f 8e0f fd3a a8cd d3bf
00000110: 126d 92e5 fb6e bb3f 4421 9518 fba2 b13f
00000120: 6c59 e12b 7f19 b33f 1c4f 1969 afde 733f
00000130: ce30 1151 72b7 b93f 3707 0b09 c9bb d6bf
00000140: 4019 b417 6654 b3bf b7b4 4d47 fba8 bbbf
00000150: 0aeb 2be0 8a54 bebf 9efe 51b6 42c5 d03f
00000160: dd6d 028b c64c d8bf 88c9 2ceb 9193 d03f
00000170: a4b8 33cf 46ed a23f 5bf4 f653 4203 a6bf
00000180: f5c0 5fe4 a373 b8bf f15d 2f75 bbf3 cabf
00000190: 990f 4dec 4eb6 c13f 689d a7d4 6b8a ad3f
000001a0: 60b2 cc5a 54c7 c33f 13dc 6c8f 5812 9bbf
000001b0: 3e1a a2a5 daa3 c2bf dbea ebb6 919f b7bf
000001c0: 90dd b915 6be3 a6bf 4e00 d227 998d 97bf
000001d0: c719 f0fa 49a6 a83f b2e5 2924 de4d 9ebf
000001e0: ca0c 673a ce1f b3bf d694 ad3f e13e b03f
000001f0: 6514 b309 55c8 c23f 5c2b 0d5f 5aa6 8c3f
00000200: 31e8 fc0b 5d6e d73f a2a8 b86d 31cd bfbf
00000210: 0707 488a b00c 99bf 6e64 c4e0 b312 d1bf
00000220: a6bd 4548 faa2 c9bf 0ce3 26ae c280 95bf
00000230: 32e9 7006 0589 b3bf 92cd 9799 d76c a63f
00000240: d658 4650 ac18 b0bf 5972 4f3e b1db a3bf
00000250: bf08 d069 57af b3bf a640 8678 6021 913f
00000260: 022e 8b43 1960 91bf be18 36eb 6194 b9bf
00000270: 1850 289f 2348 bdbf c25f fc9c 9a70 ca3f
00000280: ee81 e8d0 835c b2bf 2388 a40c 3419 b9bf
00000290: a7d6 8040 2686 c8bf a0c3 198b 77df 9e3f
000002a0: 776e 38b7 f576 b7bf 04a9 5e10 0fe5 8bbf
000002b0: ba3a 0f9d aa41 81bf cf49 81d9 1384 d0bf
000002c0: 3324 a1e2 d56d bbbf 1a35 cae0 b0c4 b6bf
000002d0: 156a 029f ceae c83f b24e 35a4 59c3 c93f
000002e0: f617 4507 5f4b c7bf bcc4 1993 506b 9d3f
000002f0: ad94 9e41 9c26 c9bf 120f ab4e b092 b8bf
00000300: 8799 6799 eec8 93bf 6c26 2f13 4fea 883f
00000310: c0f6 9b9f a3e8 6e3f 06b6 1c47 799c b9bf
00000320: 86d9 630d ebe9 b9bf c63d b22f eed9 c13f
00000330: 38c7 d587 9ccf cabf e9f8 1f17 490f a6bf
00000340: 6433 a8e0 82a4 cfbf 9949 1c56 2b85 b63f
00000350: 8c3f e59b 7b22 bd3f 46ab 1f1e 0ee3 cf3f
00000360: e906 2ff3 3f90 c03f 8eef 924c d02c c6bf
00000370: 44cb 2253 9fcf a43f de1e 7eb6 f2ee c8bf
00000380: d8b5 9a50 4757 97bf 0180 6fdd fd1e d23f
00000390: 2af6 d243 16cb d73f 6768 91ea 51b9 a1bf
000003a0: 6692 7bb6 a3cf acbf 5061 bc82 79ad cc3f
000003b0: 98b4 0872 7788 c7bf 3279 b1f3 8e93 c53f
000003c0: b430 7de4 49d3 cd3f b228 6b14 2edd a23f
000003d0: 26cc 2980 5271 b93f 2e5c 303e 1a38 96bf
000003e0: c057 ea05 00f8 c83f d884 ff2b 0bd3 ab3f
000003f0: 2ace da52 6150 babf 5609 f423 ee9a c03f
00000400: 88c0 4c25 56f2 af3f f19d 4003 246d e03f
00000410: 9bfe ef8c 3e46 cb3f a032 d193 8937 6bbf
00000420: 0260 259b 278d af3f 1041 307f ff77 8fbf
00000430: 8edb 3784 0d72 c4bf 16bd 99df f2f4 b03f
00000440: d82f dbb0 ab14 843f e809 387d 247b b23f
00000450: 833c 8225 43e6 ac3f 28af e7aa 822e 873f
00000460: 0f44 86ac 0429 b0bf d2ae 2891 004d 9bbf
00000470: 632f 50f3 96bc be3f 795f c778 94a1 db3f
00000480: 7f46 8699 8698 c1bf ca3e d604 7554 963f
00000490: 40cb 0502 1966 523f 9cfb a279 1546 a1bf
000004a0: 54f4 f2f1 9043 d33f 8d30 05a1 a3ad b93f
000004b0: 843c 53ee ef52 8d3f f802 8b00 8464 743f
000004c0: acad 798b 513f 9bbf 0482 0622 5d73 9dbf
000004d0: 6aa8 35f4 17b0 c3bf d91a 850a 14bd d1bf
000004e0: 685f 274d 0516 c93f 411d 4788 151d a1bf
000004f0: 887d 2f07 39f6 bdbf e372 22e3 0857 c83f
00000500: 21eb 187a 6662 bc3f e4db 7e01 0977 cb3f
00000510: 5486 bc00 020f bfbf 5309 111a f172 b1bf
00000520: 1e32 d66b 2804 c03f d0ba 25c8 7099 b7bf
00000530: aa01 ddd5 1a6a bd3f 9eb0 bec1 e50d be3f
00000540: b056 a277 f198 ab3f a111 4495 fc6f a6bf
00000550: b44a 41ce c3d7 b8bf 1cb6 cd05 b743 bdbf
00000560: cc8f 0b71 e094 bebf 14b8 4b6b d579 9a3f
00000570: 9ada 562f e894 cf3f 6e76 f1a4 284c abbf
00000580: a06e 0da5 b911 56bf 84f5 85f7 4407 b23f
00000590: aec7 e8f3 96b3 b7bf accd 28da ef44 d7bf
000005a0: 8741 933d 7f76 c93f e463 e330 bada b13f
000005b0: 23b4 102d 8469 bdbf 50a9 f3be ad79 b4bf
000005c0: 9ce0 16bb 1a1c cc3f f0a1 beb3 b626 c7bf
000005d0: 7431 2d1b 30da b7bf f4bf 44fb aabb c73f
000005e0: 7ab5 42dd 2b1f b83f 8074 8a88 98f0 85bf
000005f0: b833 075a 058a ce3f ef5a f1f8 c0b8 be3f
00000600: 00ae d2aa 3d0d b93f ee9e b3f2 1f22 8e3f
00000610: 1b33 d524 d652 983f b89f cf11 2764 d23f
00000620: aa23 1a26 ea1a b83f 017e 79e5 42c8 84bf
00000630: 89a9 619e 9238 d7bf ba81 859c d275 b93f
00000640: 3cdc acf8 941a aabf 842f 93d2 8c95 cf3f
00000650: 8176 8a2c c8b4 cebf d889 a84b 1a25 bf3f
00000660: b606 6daa dc0b b83f 7f24 29de 21fe d0bf
00000670: c8e8 e5ac f00b d33f 9e14 6d7e 7874 b73f
00000680: e474 92e7 d554 b8bf d739 d800 505c ce3f
00000690: 4ccf 7cf4 c059 c63f b71c 12dc 8033 d2bf
000006a0: dd75 e18f 78bc c43f f05f 874f 21d6 56bf
000006b0: 8cd3 6658 a346 bbbf d0bd 138b d74a b0bf
000006c0: 8649 01fe 8667 b0bf 6d37 0186 43a5 c43f
000006d0: eb65 dedf fa7c ce3f fbb6 674d 476c a73f
000006e0: 1826 9a60 4126 cf3f f251 568b 9fcd c53f
000006f0: c4bc 0c1e f8ce d43f 541e efb6 f028 cd3f
00000700: 2360 83ec f79e a3bf bf24 ebca a137 a6bf
00000710: 92ea b792 61ef b43f 50b9 ca38 8d57 c5bf
00000720: 101d 9d66 5fd2 ad3f c7fa bcff 1b16 bf3f
00000730: a28b 6dce 3577 c23f 420a fd2b 7e68 b9bf
00000740: 7067 825a 182f 95bf e693 9f76 c887 d2bf
00000750: 2d41 585c ead2 de3f 626d ae5d a481 a93f
00000760: b2c8 dd0e ab2d c3bf 67e5 a583 36c2 c6bf
00000770: 9592 36c7 a36f bd3f 17c5 79f8 fde6 9cbf
00000780: b8b2 ad4a 39d3 d03f 6598 d899 d119 c3bf
00000790: 7b36 af22 6a1b b6bf d784 9b74 1ffd dbbf
000007a0: 28c6 7c0c deea c83f 54e1 ee3e 2d27 ce3f
000007b0: ce84 6e8e e2d9 d03f 4431 6c3d fe25 84bf
000007c0: 29d0 519f f215 b2bf 6fc0 54ca dd4c 91bf
000007d0: 6147 d8f3 ae97 cbbf fb1f fcc7 7103 bdbf
000007e0: 0553 217d c536 c7bf 0b01 a1ca e0e5 b3bf
000007f0: 68c2 654a 098b bbbf 1b76 70e5 a9de bbbf

ubias f8 [942]
0.7250272530660463 0.3732637795185938 0.014067243221657446 0.5919814155267883 0.5874447348597126 -0.2802586465784676 0.2249900429802892 0.07759079014815509
0.10712553193381873 0.37493930657959634 -0.7661555595029338 0.8664506142701173 -0.24929248960328532 0.0824131115758833 0.20443121937674935 0.44016160501527807
0.038380571149033677 0.14519822120724907 0.27495716525924085 0.34220692441122313 -0.6411725721700521 0.724112129006339 0.0795047491070696 -0.3615547490806834
-0.5756173075073399 0.13676504994310473 -0.16260401992023493 0.048012424319180534 -0.1647777187135349 -0.19008930748241043 0.26803327591072934 0.32074697343605
-0.5240253158931083 0.42184808913910843 0.09661626295289653 0.012233250432039728 -0.3566910283482709 -0.8277049490946861 -0.26318881868456334 -0.053214103586487545
0.1736782359711282 0.27288069139921844 -0.17500598180507024 0.3258898823214469 0.3753494593662927 0.2782631840706197 -0.0758894752227782 0.033373501981887606
-0.39863872459879024 -0.5576157634491612 -0.39686757378444765 -0.5346827524734066 0.22831360192906416 -0.4070700773734551 -0.21581189206112786 0.36054806368857656
-0.23115229608969684 -0.4647835852871856 -0.1053148752514719 -0.45366167458615686 0.06205505610984485 -0.8354427940102609 -0.1658673296534971 -0.15743235109672388
-0.12823618535756703 0.5483966278163976 -0.35102587851104095 0.3414190717963095 -0.13429326555457935 0.08268045447988458 -0.7858040669780182 -0.4908504592660498
0.29498246776088677 0.05072834737025615 -0.08141945721250873 -0.31227149785408737 -0.1458198580552878 0.2152624502947499 -0.16197126500793857 0.07574483229365035
-0.163894302773789 0.10286408832601669 -0.05850780058008603 0.049014476792109164 0.15707008747650855 0.5423658227483646 -0.75832129620899 0.004877619423415073
0.07517570928845625 0.21240991562565842 0.14491801644168056 0.029341113185653397 0.3087908080517762 0.1839390781495407 0.39348674367768904 -0.014389154919794209
-0.2722009923727608 -0.319553136035815 0.3840369652072519 0.08198873780022853 0.43965962568843736 -0.1575626724090131 0.2418127841148427 -0.40054007925671437
0.18072380268399277 -0.3537928464576038 0.025177837784042537 0.12406150895286407 -0.16616296478400777 0.25176256019361565 -0.06978139394245252 -0.7402935968488015
-0.522539246680141 -0.13699215021029074 -0.03892018648447971 0.22923987749735705 -0.25640067918487014 -0.20336619406316137 -0.8038953654235306 0.2779933662020793
0.171820084191122 -0.13308632347173052 -0.24555072801592337 -0.382787781409863 0.17392419146244625 -0.2990282438335182 0.5301046791741294 0.12436063530028281
-0.20612659573789457 -0.15684548812804688 -0.1886659887442692 -0.026446990502809842 -0.03282617606018809 0.20156054026228268 -0.1233824139236325 0.10086576872483552
0.7528617202778277 -0.11434292441988458 0.21504348702563666 0.17861245983290094 -0.3446185513452207 0.3079041381773191 -0.3000644786842637 -0.009953635666076316
0.187878690984793 0.5634335617741856 0.002376224930455219 0.3064421777407499 0.4294667166423641 -0.43053406171501823 0.14990257036171648 -0.4096394181064632
-0.02701445653156848 0.36249108392835205 0.6797441191782757 -1.5953105612454992 0.34926342409411576 -0.4131716528355731 -0.0016657752619220175 0.6235685669063082
-0.21816930626806874 0.32685723714607573 -0.030131392685884387 -0.06670450943476787 0.8839265965261337 -0.14782958036743007 0.2888387603579317 0.48393198414055616
-0.1380015498603271 -0.5124179297518338 -0.04292231777279617 -0.6149957604485189 -0.4392177580371984 -0.15296612199314139 -0.7745889313063535 -0.207817241620993
0.22488363214607351 0.22976127517690947 0.43335631473376185 0.06694030847398186 -0.6970814790699483 -1.382420078816897 -0.17191682929367805 0.6032058396576463
0.1999027030067845 0.12122555575508734 0.0399301115211026 -0.03509075905857154 0.622282776587759 -0.44550669602793486 -0.475041612993401 -0.3500581035676371
-0.001010252469470986 0.6335537258961478 -0.2029280266366379 0.8516443717347458 -0.08909149955749181 -0.418521862370416 -0.7427846258867004 -0.12103305509046017
-0.3566260271066816 -0.0387541165759345 -0.17638567765423172 0.06575324505409519 -0.33467836173171944 0.22345662355498858 0.2269125321964946 -0.13064606900363354
0.3230014285563553 0.0776021708512216 -0.18741509455067323 0.5991848951804494 -0.09367495770413668 -0.11867981737949253 0.27901414368261124 0.01007640310857588
0.6161378661883367 -0.16525210504004909 0.49290510081938893 -0.015471101608786621 0.2962087264563675 0.34955919371549304 0.24000733549140443 -0.09124919751695418
-0.6409988061557131 -0.2523621288484507 -0.1893243282534463 0.2634345071911243 0.3072240931600384 -0.428910844657258 -0.13421560741844293 -0.4648532085619992
-0.10283652475592325 0.41432905847557927 0.11679301428426492 -0.1570762935097574 0.11952418791461104 -0.7958854145782993 -0.06343885193248851 0.1418192830755516
0.08990663915041582 0.01920319171780196 0.14997114983013626 0.37219734209643435 0.3914703930100059 -0.5175643019048172 0.06115367911086782 -0.19255805147395463
0.24935216387305567 0.04875942625778153 0.03390552418089365 -0.27011458065879884 -0.1999422237499022 0.19148346144311498 -0.05897753523764074 -0.10084902180308122
00000000: 8913 945a 6c33 e73f e813 74c3 8de3 d73f
00000010: 4eb9 a76c 49cf 8c3f fddf 7002 83f1 e23f
00000020: 63c1 8de6 58cc e23f 8972 5ef6 c1ef d1bf
00000030: 3353 4346 79cc cc3f 5a39 2872 fddc b33f
00000040: 43ec 3830 946c bb3f 59a2 ef6e 01ff d73f
00000050: 7dd6 f6a9 5884 e8bf db74 7ca3 f6b9 eb3f
00000060: 1805 fef8 d0e8 cfbf 72e2 fa92 0619 b53f
00000070: c494 c05c cd2a ca3f 17b6 9f94 9b2b dc3f
00000080: dc17 c643 9ea6 a33f 8ee1 c2f5 da95 c23f
00000090: 34b7 25f0 e598 d13f 90e6 33df b7e6 d53f
000000a0: 9a00 9257 7c84 e4bf 5a03 1733 ed2b e73f
000000b0: f7a2 4a59 6c5a b43f 1cf6 c087 b623 d7bf
000000c0: e02d d8fc 746b e2bf 8ee7 5e64 8481 c13f
000000d0: 96b5 e061 35d0 c4bf f34e 81a0 1595 a83f
000000e0: a1f7 7db0 6f17 c5bf 1a66 7aaf d854 c8bf
000000f0: 58af 910a 7527 d13f 65b9 4c50 1e87 d43f
00000100: da2e 41bd d0c4 e0bf 52e2 ae20 8fff da3f
00000110: 2bf9 a4e9 d7bb b83f 0a30 3c14 bf0d 893f
00000120: 5f13 629b 06d4 d6bf 2f2b e316 8f7c eabf
00000130: a213 3bea 15d8 d0bf 090a 2e05 e13e abbf
00000140: 90f0 c2a3 163b c63f ae3f 5193 e076 d13f
00000150: d183 3a94 9866 c6bf ecbe aa3c 61db d43f
00000160: 242b 23bd b905 d83f aae7 d062 10cf d13f
00000170: 6643 311e 7e6d b3bf b161 21e7 5416 a13f
00000180: 868a 44ff 4b83 d9bf 6af1 7703 fdd7 e1bf
00000190: fdcf 8f40 4766 d9bf 3279 f300 1f1c e1bf
000001a0: a936 c24e 6139 cd3f 8df2 5fa7 6f0d dabf
000001b0: 49c6 3e5d b99f cbbf 8d6d 8b2f 3813 d73f
000001c0: 0adf 0c00 6696 cdbf 71ab a1a6 03bf ddbf
000001d0: b2c5 fc68 eaf5 babf edf3 f2f9 ca08 ddbf
000001e0: 1022 1629 aec5 af3f 727e be86 f2bb eabf
000001f0: 6616 2b02 243b c5bf 167b a547 be26 c4bf
00000200: 4624 2317 0b6a c0bf daa8 b615 778c e13f
00000210: 344b 103f 3577 d6bf 0022 e660 cfd9 d53f
00000220: 95a2 d08f 8530 c1bf f76f 02d8 8b2a b53f
00000230: 0e80 1792 4e25 e9bf 8b8d 710b 186a dfbf
00000240: dc49 fb24 fee0 d23f d6e9 dee1 10f9 a93f
00000250: 265d fcd1 e7d7 b4bf 3a66 b097 41fc d3bf
00000260: a637 baa0 39aa c2bf bd50 0950 b88d cb3f
00000270: 80e8 0c73 79bb c4bf c7cf 8a69 0364 b33f
00000280: bb02 350f 7dfa c4bf 6908 4b07 4d55 ba3f
00000290: d8ce 1a04 bcf4 adbf d58f b4ed 6c18 a93f
000002a0: 791b 7264 df1a c43f f783 e591 0f5b e13f
000002b0: 7e7e e205 2b44 e8bf 3793 7efe 8dfa 733f
000002c0: 45f7 d81c b73e b33f 4eaa 7a84 3f30 cb3f
000002d0: 40ee 9b6e ac8c c23f 0c12 3ec6 980b 9e3f
000002e0: 97d1 7885 3ac3 d33f c0e8 8dd2 508b c73f
000002f0: 5955 e005 e32e d93f c578 61ae 0f78 8dbf
00000300: 1381 0bb6 bd6b d1bf 87ea 26ff 8e73 d4bf
00000310: 8f4b 81c7 0f94 d83f 6807 7ec3 36fd b43f
00000320: 2905 6d20 6223 dc3f d795 887e 032b c4bf
00000330: 1e94 c3a7 b8f3 ce3f ff44 49db 72a2 d9bf
00000340: 0779 1123 f521 c73f ae06 46c0 8aa4 d6bf
00000350: 3140 7717 38c8 993f 411c a5bb 7ec2 bf3f
00000360: 12e0 c6f9 d344 c5bf 46e2 98b6 e01c d03f
00000370: ef24 da84 31dd b1bf 05ec 7c32 7cb0 e7bf
00000380: 0dc4 eb39 a4b8 e0bf 2320 7b72 f588 c1bf
00000390: a1ca 35c0 58ed a3bf 1b25 6578 bb57 cd3f
000003a0: 6d5b f164 de68 d0bf 8c7f 4e48 e707 cabf
000003b0: 12cd fcc5 82b9 e9bf c9f1 15b0 a4ca d13f
000003c0: 82cb 3255 33fe c53f 1790 6dff f808 c1bf
000003d0: 542f 2bcd 346e cfbf 38ae 9d52 987f d8bf
000003e0: de3f 28dd 2543 c63f fa18 f65b 4723 d3bf
000003f0: 7b4d 9016 9ef6 e03f 7d45 863d 19d6 bf3f
00000400: 57d9 c335 5b62 cabf bc7e 0451 8313 c4bf
00000410: 0817 c305 3526 c8bf 5d15 267d eb14 9bbf
00000420: ac32 43b1 97ce a0bf a198 4b5c bccc c93f
00000430: fa1a b468 fd95 bfbf 7e85 f5c9 56d2 b93f
00000440: 3f1d 6076 7117 e83f 5093 e9f0 9345 bdbf
00000450: ab17 ff83 8b86 cb3f 63f9 d1e8 c5dc c63f
00000460: 00d9 e7f7 3a0e d6bf e093 f18e b3b4 d33f
00000470: 11f9 a8a4 4134 d3bf 7df9 4b5d 9262 84bf
00000480: 938e b2b0 680c c83f db3e 29d2 a507 e23f
00000490: 37e5 a70b 4e77 633f 12bd e0a6 bf9c d33f
000004a0: d5c3 acf7 617c db3f b952 b8bc de8d dbbf
000004b0: cf1b a5e6 0130 c33f dadc fa3f 8837 dabf
000004c0: 1109 4a7d ada9 9bbf 5616 a4cd 0d33 d73f
000004d0: d19b 30bd 76c0 e53f 8734 f85d 6486 f9bf
000004e0: cd15 0bfa 545a d63f 0c09 2484 6771 dabf
000004f0: f4ab 6f91 c44a 5bbf 48a3 3511 46f4 e33f
00000500: 50c8 b4c9 f8ec cbbf 4236 009e 3aeb d43f
00000510: c1db ac88 c3da 9ebf 059f 84f6 8b13 b1bf
00000520: 5d9e 046e 2049 ec3f 379e 8766 14ec c2bf
00000530: e57c 6391 557c d23f 26d0 57db bdf8 de3f
00000540: 0045 b9e7 08aa c1bf 7f61 4549 ba65 e0bf
00000550: 5b92 34fe e9f9 a5bf e1c2 c996 0bae e3bf
00000560: bee6 a5cc 241c dcbf 6ba1 add5 6494 c3bf
00000570: 79bd f9b9 6ec9 e8bf e34e 2760 c199 cabf
00000580: e38d bca2 fcc8 cc3f 9cd3 6245 d168 cd3f
00000590: 55fb d21f 1cbc db3f 2c0e ae03 0023 b13f
000005a0: 6b16 68d1 7d4e e6bf 15a3 3d84 641e f6bf
000005b0: ed63 b9e3 5e01 c6bf f6be 4255 764d e33f
000005c0: ede7 e569 6996 c93f 8a53 6855 a308 bf3f
000005d0: 81b0 3736 b871 a43f 55c5 187d 6af7 a1bf
000005e0: 3adf c991 bde9 e33f 11b2 6584 2e83 dcbf
000005f0: 80ed 02f0 1467 debf 4475 a11a 5a67 d6bf
00000600: a00e 4b54 4e8d 50bf f173 9f76 1246 e43f
00000610: 844f ecaa 8bf9 c9bf db8a 8db2 ab40 eb3f
00000620: 6d76 f354 b3ce b6bf 4eaf e2eb 0fc9 dabf
00000630: 8af5 8443 e4c4 e7bf d236 59b5 05fc bebf
00000640: bfd6 d4f8 f5d2 d6bf 6cda 8e5e 94d7 a3bf
00000650: 13fd 804e ce93 c6bf 80fb 1c65 34d5 b03f
00000660: 0f43 94ca 5e6b d5bf 1e23 1f05 3a9a cc3f
00000670: 2612 6b48 780b cd3f 415c dca8 02b9 c0bf
00000680: 2e7e 0d2f 0eac d43f f393 e761 bcdd b33f
00000690: 129a efc2 37fd c7bf bbd4 21cd 852c e33f
000006a0: 8f1f cbff 14fb b7bf 9115 57ee cc61 bebf
000006b0: a83f 8f23 5edb d13f 9f4c 80ee efa2 843f
000006c0: 6b65 23c2 66b7 e33f 59ff 5e21 fb26 c5bf
000006d0: 4341 03d6 c18b df3f 41eb 8a1b 50af 8fbf
000006e0: c7df 3a72 15f5 d23f 068c 4186 2d5f d63f
000006f0: d52a 5e74 8fb8 ce3f ba1e 1f7f 1b5c b7bf
00000700: b5d7 a6ed 0f83 e4bf 4fcb 897c b326 d0bf
00000710: b2c5 1793 c73b c8bf 3785 4168 1cdc d03f
00000720: 8e99 2a3e 8fa9 d33f 5ff8 ac78 4673 dbbf
00000730: 63cc 3c1e fa2d c1bf 9cb9 0dac 27c0 ddbf
00000740: 4c36 a996 7e53 babf 6dd8 fb06 5e84 da3f
00000750: c88e c0a0 25e6 bd3f 91f7 cc73 131b c4bf
00000760: 3799 2c1e 2399 be3f 3345 5fb0 e477 e9bf
00000770: f587 5852 873d b0bf 6936 605f 2227 c23f
00000780: a524 d81a 1f04 b73f 478a a061 00aa 933f
00000790: f495 ee2f 4132 c33f 7b96 fdcc 14d2 d73f
000007a0: b122 d5d5 d90d d93f ab43 c802 e38f e0bf
000007b0: e65c 9ff7 884f af3f 57c0 d402 bea5 c8bf
000007c0: 03c4 828e c5ea cf3f 023c 4cda fef6 a83f
000007d0: 3f77 059b 105c a13f 018c 86aa 8e49 d1bf
000007e0: 3f34 0cf0 b497 c9bf 4bc0 4fb2 8782 c83f
000007f0: a4b5 16b2 4d32 aebf ba52 7ad2 3dd1 b9bf
