offline_resampled_model_testing/model_10.npz (npz, 974452 bytes, 5 tensors)

imat f8 [1595, 50]
0.08366384498063355 -0.29088968785938973 -0.11471831594410045 0.1319533923974281 -0.281188639657616 0.030825618859584673 0.038492925276979596 -0.45327949249751653
-0.013573236171796538 0.06954099588884587 -0.11596056303641812 0.0011938013686032534 -0.0624807184730488 0.049306511038148315 0.05628223436641637 0.059306196246979956
0.1341143433838306 -0.18685879155021118 0.22191250668910212 -0.25408836306853144 0.14693812990109736 -0.19889853127474966 -0.6442579991575337 -0.17770847880828344
0.23985200860355915 0.06732191258348219 -0.28132880198879734 0.09438330084763569 0.11883306394000195 0.32340702380066894 0.007768783998420334 0.37759926933729593
0.14091918329854336 -0.09726854990169718 0.10822644585099683 -0.11891197871854559 0.08866912200477622 0.2614131305489885 -0.13904247688282817 -0.4060011221565748
0.22909200878276886 0.0976386507927115 -0.0181233036159496 -0.4046875245523406 0.25147766413382194 0.07711892043083166 -0.018547420522953474 -0.019783096151061625
0.10635987267329536 0.06766323741454117 -0.1125872395069344 -0.1679130335772607 -0.15991683703276627 -0.002413877786072993 0.23160183014297386 -0.14200564303931473
-0.046795955381767174 -0.03796040304472156 0.14594590382719974 0.3296366272682821 0.0368205116408981 -0.3254756789029106 -0.13582641272499849 -0.1524134517535216
-0.15956671629505587 0.26792219684946056 0.2504793596862636 0.2419750495698344 0.22894333584217033 -0.2657316724168787 -0.12568565062800935 -0.2327252286923623
-0.4281179317508368 -0.17628816647972995 0.05694070350884148 -0.41309089906802277 -0.2174158699657646 -0.014078065966189171 -0.16388382721950118 0.13309901964263016
-0.23473506314818665 0.29726361334258034 0.3548514359983588 -0.21046328144089543 -0.20509868669121922 0.2437772295143937 -0.15638761734171486 -0.14954790090623743
0.03021336770475752 -0.3356630213527948 -0.08638595735134683 0.031430010421869256 0.11421989235227384 -0.3161444622405506 0.013414998918837892 0.14610699682132983
0.13710059342196723 0.09535747103590606 0.23116450804830344 0.14534539479518974 -0.045225227224568926 0.011782831607179634 0.0031313224966215414 -0.119206375220444
-0.028187166641144498 -0.055641514784109995 -0.06687620558788374 -0.04027232479896824 0.1298520517769446 -0.06353080432448885 0.04791664154565795 -0.16903547664601878
0.22192995825792217 0.14138579411896032 -0.20243637653641577 -0.024101226318590078 0.10966000646205087 0.16192084158610076 -0.23730590656451234 -0.5460445572522792
0.2301367915604942 0.17964945251592757 -0.17226948033663497 -0.07323041558781052 -0.10243125790571189 0.16599338548460832 0.003918373265755377 -0.2567443356495357
-0.023455086466857858 0.1097471608911917 -0.2653837820910254 0.2164092159834733 0.08899616226453015 0.10459731875252229 0.024233847342821614 0.2787782985359277
-0.21326225922414402 -0.14309916307608486 0.04705555175401978 0.09224255710339786 0.3101407503449671 0.20282512610068787 0.2011379197579638 -0.34079510758986953
-0.1820831182919117 0.13673198521371527 0.17384726737036585 0.19113967895848374 0.21808046049398416 0.2224314048195805 0.20533269618545158 0.033769002609210556
0.20184481796171466 0.07071323420832423 -0.17893270174744974 -0.30645039978834 -0.038567568078359926 0.15592475035299336 -0.1416728066225109 0.05087856149508717
0.03898087353305034 0.09343831063119591 -0.2699427865127677 0.041765847216517854 -0.08750850500821075 0.14315896821080787 0.1769160045871363 0.15648595522615516
0.22443522790671727 -0.16045240667129743 0.08536554840713176 0.14212861092363577 0.05854817315338306 0.15091808929190756 -0.08829467690625978 0.19321788506762266
-0.08680197682489851 -0.016784199688489855 -0.1600185533846258 -0.15534715837332977 0.0400899923635003 0.12517619291525195 0.17099042530228353 0.11955429685941933
0.013203361516570769 0.04212871165329131 0.024217420796802835 -0.1477319999936831 0.12210113887797808 0.08650551737096099 -0.03772812941611352 0.02757689141051494
0.23308151748014697 -0.1427303632341888 0.030910726509611866 -0.2708772495604192 -0.07259702955395116 0.15867298774732513 -0.04070214173796385 0.03747103896099439
0.02268665878592592 -0.008990254971359097 0.384533548852119 0.2013758462708749 -0.23545490790975265 0.13648514993050193 -0.11925431707632816 0.2651775124249056
0.23933663725694826 0.1255290184405028 -0.1844918834562935 -0.0453791359268311 0.18299107541955842 0.15292179421745433 -0.11518533775787271 0.08229508204329297
0.13935107868443097 0.22628056407420416 -0.11693132404441413 0.04571676060196204 -0.09673199360371214 -0.31881510660297163 -0.43277932993421236 0.014363862950032934
-0.12320185812544687 0.29671061804894816 0.2565377406842806 -0.0019876683219449062 0.168574388001487 0.39256766132213394 0.18806145025711477 -0.0057698989945639285
0.11228000097057468 -0.10740473247018371 -0.014045626955610409 -0.14293348422129087 -0.4735131987069119 -0.15130035828226673 -0.21918339067710213 0.032235365722870994
-0.13048294878747108 -0.06670784312039879 0.03158790565360554 0.23381583347724572 0.223038954671683 0.11298484786994112 0.11039326892050816 0.09569036455809535
0.5204101422334508 0.0031419422110811057 0.244687122508002 0.398938659923603 -0.0503806554731063 0.2554110578097558 -0.03137915653368378 -0.0890708197213543
00000000: c3a7 0c66 fe6a b53f ee61 06c8 ef9d d2bf
00000010: 5a6b 3bf7 2d5e bdbf 10bb 7848 d9e3 c03f
00000020: 2084 d5a2 fefe d1bf 9e04 8643 c090 9f3f
00000030: b54d 623e 58b5 a33f 1c5b 0efd 8702 ddbf
00000040: 5085 abeb 48cc 8bbf b7e8 124f 70cd b13f
00000050: 59fe dd69 97af bdbf 0030 8275 2a8f 533f
00000060: eed4 f104 79fd afbf 0005 c7f8 b33e a93f
00000070: 762d e667 06d1 ac3f 8e70 a9ba 615d ae3f
00000080: 5208 61a7 a82a c13f 82d0 5627 fdea c7bf
00000090: 28cb 6607 a167 cc3f e61a 6bd6 fb42 d0bf
000000a0: 5df5 3a5f dece c23f ec13 86cf 8175 c9bf
000000b0: 142d 92f3 c29d e4bf d80b 5ac4 26bf c6bf
000000c0: 7085 6a7a 78b3 ce3f 78a8 d944 023c b13f
000000d0: 5fbe fd84 4a01 d2bf 18db 6d06 8129 b83f
000000e0: f247 4efb d76b be3f f750 a15f b3b2 d43f
000000f0: b017 3f13 29d2 7f3f 0605 3320 962a d83f
00000100: 14b9 d2c9 a309 c23f 7fd3 c178 97e6 b8bf
00000110: 680a 7e75 bab4 bb3f a4e4 b2f3 0371 bebf
00000120: b4f0 2c03 05b3 b63f 0efc 9c23 feba d03f
00000130: feb8 7bd5 24cc c1bf 8650 7321 ecfb d9bf
00000140: a29b bf0e e352 cd3f 58f2 fabb d8fe b83f
00000150: 3fce 4d51 ea8e 92bf c64b c380 66e6 d9bf
00000160: 6d45 c8c5 3518 d03f 463b 27c9 10be b33f
00000170: 4af4 4852 18fe 92bf f502 ee1b 0542 94bf
00000180: 2610 bd8e 663a bb3f 9041 d6bf 6052 b13f
00000190: 6913 a16f 84d2 bcbf 87ab e49d 2c7e c5bf
000001a0: d457 91a8 2778 c4bf 8028 bac4 44c6 63bf
000001b0: 7033 14f7 20a5 cd3f 6cc4 59ac 3d2d c2bf
000001c0: a047 e6b3 a3f5 a7bf 3c78 3dc3 8b6f a3bf
000001d0: 5824 f6f9 5aae c23f b995 6b39 c418 d53f
000001e0: 76a8 a35a 23da a23f 6e02 22f1 97d4 d4bf
000001f0: 731e 4b88 c262 c1bf 983c 60b3 4882 c3bf
00000200: 5a39 02a2 ae6c c4bf 6dd1 5524 a325 d13f
00000210: c53b 8b94 da07 d03f 7cda 2cd6 09f9 ce3f
00000220: 6525 0ae6 034e cd3f 26ae a26a bf01 d1bf
00000230: 4a0b 83a7 7716 c0bf 630a 18b7 f0c9 cdbf
00000240: 40dd ecc0 4866 dbbf 1ee3 d952 9c90 c6bf
00000250: 0c6f c3f6 5427 ad3f ea6e 71cf 1470 dabf
00000260: 4d32 9181 48d4 cbbf 6861 5307 f6d4 8cbf
00000270: 2223 202f 25fa c4bf 3c54 3f80 6309 c13f
00000280: 1a15 b96d cc0b cebf 1038 66f6 5d06 d33f
00000290: 384d 23cc e2b5 d63f 2414 66f7 75f0 cabf
000002a0: 884a e57b ac40 cabf 1b0c 239e 1734 cf3f
000002b0: 16b3 fd6a 8204 c4bf 56f3 c9b7 6224 c3bf
000002c0: 709c c6c8 40f0 9e3f 96f4 cbc0 807b d5bf
000002d0: 125e a8dd 631d b6bf a6ee bf25 9817 a03f
000002e0: eaa5 34ce 833d bd3f 769e 88fb b53b d4bf
000002f0: f8ea 0ead 5279 8b3f da3d 8852 a2b3 c23f
00000300: ac38 8122 838c c13f b64a 87e3 5869 b83f
00000310: 3b1d 0871 cc96 cd3f 9180 a28a ad9a c23f
00000320: 5473 c4cf c227 a7bf c0c3 41e3 9821 883f
00000330: 4043 ebf6 dba6 693f 32e8 0b1b 4f84 bebf
00000340: 1cfe 8fbb 18dd 9cbf f765 986c 0b7d acbf
00000350: 9e6a e18b cc1e b1bf 1e13 e4fb 929e a4bf
00000360: 30a9 d9f5 fd9e c03f bebc dc06 8e43 b0bf
00000370: d9d9 beb0 8788 a83f 637a 075a f4a2 c5bf
00000380: c036 5c6c 3368 cc3f fb11 ee00 ee18 c23f
00000390: 9c50 5f68 6fe9 c9bf 91cd 53eb fdad 98bf
000003a0: 2804 6f9d ad12 bc3f c498 9377 d2b9 c43f
000003b0: 9ccd eb39 0a60 cebf b8d5 716f 3279 e1bf
000003c0: 9ae9 ad54 1f75 cd3f 686d a6d5 c0fe c63f
000003d0: 9287 1224 ed0c c6bf a0aa 0580 3abf b2bf
000003e0: 740d cb56 ef38 babf 891d 0171 453f c53f
000003f0: 6ea2 7a50 b60c 703f 7a12 43cb 7f6e d0bf
00000400: f434 3335 9c04 98bf cd44 dbd2 6318 bc3f
00000410: 4c10 3e42 0cfc d0bf bcdb 9914 4cb3 cb3f
00000420: 634a 65d6 73c8 b63f 4697 4acf e3c6 ba3f
00000430: 3ab9 2cf7 c1d0 983f 24f7 c2ee 80d7 d13f
00000440: e95c 6b7e 2d4c cbbf ad95 bfc8 1251 c2bf
00000450: 92eb c14f aa17 a83f 45fa 0e4e 359d b73f
00000460: bfdd f896 58d9 d33f 7e6b b479 2cf6 c93f
00000470: 5447 ac29 e3be c93f 020f 6f48 96cf d5bf
00000480: bcd5 1be7 7f4e c7bf 22b0 6706 6f80 c13f
00000490: 7566 ed93 a040 c63f bd1c 0cd7 4377 c83f
000004a0: aaf0 db7e 0fea cb3f f6d6 a6dc a178 cc3f
000004b0: 1840 757f 5748 ca3f 3f73 a6b3 2b4a a13f
000004c0: 1e9e 010e 0dd6 c93f 3ab3 5134 431a b23f
000004d0: 1659 184b 44e7 c6bf 8ef8 3b23 e29c d3bf
000004e0: 0066 2ad7 20bf a3bf d497 b39b 57f5 c33f
000004f0: 438e 96a3 5522 c2bf aeba 603b c10c aa3f
00000500: bee8 fc11 4df5 a33f e9be 5ab8 92eb b73f
00000510: b842 f71b be46 d1bf 5cf4 c447 5562 a53f
00000520: 72d2 2117 f566 b6bf 5819 4c77 0853 c23f
00000530: 409d eb02 2fa5 c63f 6465 fd55 bb07 c43f
00000540: 02ff f625 4bba cc3f 13de 9b57 b489 c4bf
00000550: ca1d 9d3e 84da b53f 2218 df33 4531 c23f
00000560: e75f deb1 06fa ad3f 3118 f1b0 4851 c33f
00000570: 5e28 b9dd 7a9a b6bf a611 af18 5dbb c83f
00000580: 36eb b083 a738 b6bf baa2 0193 e02f 91bf
00000590: 3525 c5ea 7c7b c4bf cbb7 5e6a 6ae2 c3bf
000005a0: 3f3d 32ec ac86 a43f 9086 6703 c605 c03f
000005b0: b61c 4da6 03e3 c53f e983 1b43 1c9b be3f
000005c0: 0899 492f 5d0a 8b3f 3a08 8cfd e491 a53f
000005d0: f050 4399 73cc 983f 4bd4 45d6 e1e8 c2bf
000005e0: 7407 492e 0542 bf3f 7e26 08c0 3925 b63f
000005f0: 5682 f6f3 1951 a3bf ee1b efda 1d3d 9c3f
00000600: 5d8c 707b 9dd5 cd3f 6257 1e11 fd44 c2bf
00000610: d449 d1bd 0fa7 9f3f 63ea 0588 0d56 d1bf
00000620: 3591 b80b b895 b2bf 4612 917e 654f c43f
00000630: 638e 483f e9d6 a4bf f6eb c46d 672f a33f
00000640: 640c 2ae6 2b3b 973f 4a71 ad98 7b69 82bf
00000650: 0638 229a 329c d83f 9407 f808 afc6 c93f
00000660: a4d9 93ec 6223 cebf 36ab ab6b 5878 c13f
00000670: a8e8 bf6f 7387 bebf 80f9 df19 abf8 d03f
00000680: 1e69 e03a 95a2 ce3f 0452 73ba 5511 c03f
00000690: a33e e916 6e9d c7bf f4f4 7321 ef3b a7bf
000006a0: 0d85 3166 406c c73f d83a 81fc f092 c33f
000006b0: 4416 a64a c97c bdbf 6a61 ff5d 4a11 b53f
000006c0: 8054 ce92 41d6 c13f 5ca6 35f3 c2f6 cc3f
000006d0: a313 a614 36ef bdbf cd37 54ef 2f68 a73f
000006e0: 333c 018d 6dc3 b8bf 3027 157a 7767 d4bf
000006f0: 6ff1 1c13 a8b2 dbbf 99bc ea0c cd6a 8d3f
00000700: b489 742f 288a bfbf 025b 3988 4efd d23f
00000710: 0c70 9b45 1d6b d03f 707e 044e 7148 60bf
00000720: d26d b475 d893 c53f 1621 b61c d41f d93f
00000730: c90e 3fc9 6512 c83f 82db b977 2da2 77bf
00000740: f1d8 29d4 61be bc3f 3323 6565 e07e bbbf
00000750: 04c8 6823 f4c3 8cbf 62ec 1df8 a44b c2bf
00000760: 10ea aa4d 0a4e debf 7803 5965 cf5d c3bf
00000770: f86b 648b 330e ccbf 2fd1 1b63 2781 a03f
00000780: 9229 dd4e aab3 c0bf 58bc 96e4 c313 b1bf
00000790: 0976 763b 4a2c a03f 2e2f 095f aded cd3f
000007a0: 8442 065c 8a8c cc3f b080 8b32 93ec bc3f
000007b0: 384d b6b7 bb42 bc3f 12c0 51ea 297f b83f
000007c0: b8c7 ac2b 33a7 e03f 0049 5c61 21bd 693f
000007d0: a64c 765a e851 cf3f 1ed8 5e04 3688 d93f
000007e0: 5c50 3747 7ecb a9bf 4219 159f a758 d03f
000007f0: 582d 2dc6 ed10 a0bf 3e2b bb61 58cd b6bf

gbias f8 []
3.52925994838245
00000000: 0915 cba3 ec3b 0c40

ibias f8 [1595]
-0.13086767682830305 -0.20917813355242051 0.3002750862300479 0.8539612559179215 0.3537930386371206 0.4253697104473142 0.7324369877595107 0.10517575975831786
-0.24478177125677253 -0.7469449612868374 -0.6763662145129342 0.9979512437213742 0.02577337833324867 -0.6273307924694395 -0.4756378933543284 0.24382218525727334
0.08016617541856144 -0.6410499569853749 0.082723702982091 -0.5513662145129343 0.35058033475457423 0.29674427333462416 -0.3795963354813363 0.16705143163309702
0.5304767683512381 0.0809364340502279 -0.08721737668034833 -0.1280727755129051 0.12898528356784164 -0.5406696341272159 -0.18412380691362748 -0.8948242402416822
-0.23522664372553337 0.6423513891630355 0.6165797741094978 0.5206279225845881 0.5546847093060171 0.31027359428787954 -0.451068186712894 -0.3434079587059598
0.38134083698693627 0.3372500496322592 -0.44980995030847937 -0.29627759712812296 -0.8165553032217 -0.5881164813427868 -0.4344375046699549 0.32391044955284776
-0.012460971424161783 0.18199797687311284 0.7113779291019567 0.9502294416465219 0.7132514528623941 -0.6891229974713139 -0.2239468562168277 0.22309972487419946
0.2354334900095542 -0.4981976891010866 -0.05272450861140867 -0.4508647225771045 -0.10586099273753063 -0.12621921082797763 -0.19681213351669993 -0.006783482854758861
0.5280357390478266 0.9342460647146357 0.0694904560233409 -0.05868376200289052 -0.16521858395710076 0.17618749498917258 0.772186918552308 -0.6044655182762138
0.7414142683512394 0.1724612250518119 0.0720261555595569 -0.0044022660012096575 0.5670632362829444 0.05550769614610167 0.132280627587293 -0.9900623354797782
0.1838330295458354 -0.09079177829552959 -0.02740805291520635 0.7942657785200384 0.5261650499631408 -0.5461930437643765 -0.4756378933543285 0.0589169548415692
0.4071265311286921 -0.018006122081507724 -0.6644230466930198 0.3443386967785266 -0.11888088461704881 -0.47954458361996927 0.4600218619785275 0.1516780922905095
-0.2940742709664143 0.35795591190659903 -0.2767375390391352 0.21566694020504815 -0.1286342761944463 0.10174459316167501 0.5853264135780191 0.5910264035226525
-0.7609681169148531 0.6628405009054446 0.3460579582132555 -0.21086212790609643 -0.44847248064341877 0.6869407121600161 0.26208848508492916 0.20525439026627462
0.35526227065350396 -0.9442248202226593 -0.3120945736935172 0.06472157055137885 0.6903815382336365 0.06830036498123648 -0.07947761062290593 0.5612560697821734
0.39200916546920106 -0.40414227025033844 0.8143479817620775 0.6540197580220747 -0.43990803026875275 0.6850598510424227 0.3039576637875054 -0.14764288150654126
0.2386928222262237 -0.3782978400156044 -0.01946251469089233 -0.244440214936236 -0.08502765940419733 0.26325761569744555 -0.6969449612868373 0.7324369877595112
0.19109620347841372 -0.08810245483464378 0.40121147683718983 -0.5102511324438542 -0.44012283764108756 -0.03379456707588269 -0.09042979374892211 0.4915792888569454
0.6211852414436281 0.6048856611247826 0.9465029430761193 -0.12096289208919239 0.18460609940713207 0.2750313952897835 0.09956117474307472 0.33722961459069983
0.19449221430938696 0.279536470971559 0.375711588093797 -0.10730928515695316 -0.22246975736456243 0.34222158610850795 0.39250919780810595 -1.0159599718449728
-0.41844401009386645 -1.3469449612868374 0.0998646491678831 -0.8318754149606746 0.31579629931319503 -0.16922374296916085 0.17331225950156384 -0.652323608208609
-0.7606426184902881 -0.8750367807981551 -0.3920683032230959 -0.3322074505331821 -0.23515215952644652 -0.06449081576624906 -0.024215129695820733 0.08837129624072192
-0.34104995698537477 0.3592046295740554 0.18975680157649538 -0.010468149334708209 -0.15121712810927143 -0.33951478986726424 0.15632970382343805 0.6583624639273913
0.14602404817638015 0.1981783806494211 -0.20841813489313613 -0.5170656136293884 -0.17632780859778027 -0.17929732472677054 -0.5813253429242863 -0.03856784991107506
0.311982821147141 0.35616899219418835 0.29424837778177926 -0.29796673241783533 0.33997892616823056 -0.5969449612868374 0.28338594026078373 -0.8341417900267909
0.5619917668559037 -0.037317688013924585 0.019160632262027896 0.10452730398923904 0.3142783439986619 -0.08636230435995285 0.12898528356784175 -0.13624632375007503
-0.32558383283152065 0.2236660464557952 0.2922833763479584 0.5600919697312474 -0.38830229304990804 0.23765136750268695 0.4762639810356026 -0.024826622869957553
0.13269071484304676 -0.0672228557709621 -0.44823106522884415 0.06472157055137877 0.36523230801698275 -0.040176885947673754 -0.605185763159474 -0.7432326991177
0.08837129624072189 -0.9969449612868374 -0.6589273005883223 -0.4077166236520415 0.22971643692188712 -0.7507732316487599 -0.7351549526839132 -0.14104995698537504
-0.2306368780770076 -0.15604788386672136 -0.2563339535442048 0.3322870952594471 0.5666953079836621 0.23863461402963998 -0.8635190510228021 0.16085254700884036
-0.0416324158909681 -0.05868821486261846 -0.6259528239601463 -0.06631109539075322 0.33456041720851776 -0.4091950025895406 0.14766544434631615 -0.3073463159292338
-0.16652328458342486 -0.018006122081507724 0.26071264229838165 0.1569915589482242 -0.3631024548346435 -0.05746203709261124 -0.04823106522884444 0.09406746680968325
00000000: 2160 0aa4 45c0 c0bf 07af 525d 59c6 cabf
00000010: 3d58 cafe b437 d33f 70fe 468e a653 eb3f
00000020: efed 9f8e 8ba4 d63f 1022 c5e0 4139 db3f
00000030: ead9 99b1 1f70 e73f 1272 7e70 ccec ba3f
00000040: 9636 1a53 0255 cfbf 4d72 941e f9e6 e7bf
00000050: d779 6ec2 caa4 e5bf 8025 5972 37ef ef3f
00000060: 62e8 3124 5664 9a3f 9bc2 ad06 1813 e4bf
00000070: c47d 2ceb d970 debf 2210 dcbb 9035 cf3f
00000080: f209 ab3d c585 b43f 2e57 0b33 7b83 e4bf
00000090: 4a7f e96e 612d b53f d879 6ec2 caa4 e1bf
000000a0: 7110 1980 e86f d63f f8d6 4fb1 dbfd d23f
000000b0: e0b8 a46d 4e4b d8bf dd9b cef9 f061 c53f
000000c0: 1a67 6b6a aaf9 e03f 72f3 4c09 40b8 b43f
000000d0: 8f29 7cc4 e053 b6bf 05fe 2a4f b064 c0bf
000000e0: cb69 4bfb 9682 c03f a088 9067 2a4d e1bf
000000f0: 4ff5 8d70 5e91 c7bf be31 f071 66a2 ecbf
00000100: 2479 f91a e81b cebf 5eda 1f80 248e e43f
00000110: 8e9c a581 05bb e33f c553 9ce3 fba8 e03f
00000120: 85f0 c125 fabf e13f 1bd8 11c7 85db d33f
00000130: 6baa 8c19 4dde dcbf 7d01 f55f 65fa d5bf
00000140: fd3d df65 e367 d83f efac 6f3b 8195 d53f
00000150: 2461 7fac afc9 dcbf e2f9 8c4f 36f6 d2bf
00000160: 55cd 5696 3821 eabf 3c63 b3a7 d9d1 e2bf
00000170: c4a6 adf6 d2cd dbbf 7c60 eae4 f2ba d43f
00000180: b400 f245 2385 89bf f9d8 4daf b54b c73f
00000190: ffd9 92a5 9bc3 e63f 4d2e f292 4768 ee3f
000001a0: 7eca fbb5 f4d2 e63f f1f1 21ac 4b0d e6bf
000001b0: 1a24 bf63 4aaa ccbf 8767 0a23 888e cc3f
000001c0: deb1 fc41 af22 ce3f bf71 688f 78e2 dfbf
000001d0: 130a 5ef0 b4fe aabf b8e1 98b5 f7da dcbf
000001e0: 5cd3 babd b419 bbbf 3109 517b f327 c0bf
000001f0: d181 74d6 2331 c9bf 2806 3a50 ffc8 7bbf
00000200: 218c ca34 abe5 e03f c3b6 cb00 58e5 ed3f
00000210: bf1e 0164 20ca b13f 94a2 374d cc0b aebf
00000220: 40c2 64ef e125 c5bf 16a9 78d4 4f8d c63f
00000230: 0499 3257 c1b5 e83f fcca 1112 c857 e3bf
00000240: 2567 6b6a aab9 e73f fb7a b69c 3513 c63f
00000250: 5dbc 955e 4e70 b23f 9e49 0e48 1c08 72bf
00000260: 602c d3cc 6125 e23f 4664 3f37 816b ac3f
00000270: 21de b054 92ee c03f 8862 fc34 97ae efbf
00000280: ae77 e938 d787 c73f 3c65 8646 213e b7bf
00000290: 8ae0 ab4b db10 9cbf dc6a e210 a06a e93f
000002a0: 077a 3c16 58d6 e03f 86a9 88d5 697a e1bf
000002b0: c67d 2ceb d970 debf ecea 72f4 5c2a ae3f
000002c0: b206 2270 5c0e da3f 7616 df65 3270 92bf
000002d0: 9b2a 081f f442 e5bf 5a4e 5a2c a509 d63f
000002e0: ffbd 8c47 fa6e bebf 05ca e7c3 dbb0 debf
000002f0: a923 2989 ff70 dd3f f225 f40e 306a c33f
00000300: a754 19e4 1cd2 d2bf e61d c3e9 bfe8 d63f
00000310: 36e9 ef5d 11b6 d1bf 2f29 816b f99a cb3f
00000320: ef2b b384 1677 c0bf a599 2c04 ef0b ba3f
00000330: 97ae 7975 feba e23f 2c79 4634 b0e9 e23f
00000340: 0156 eece d959 e8bf f24c 3b48 fd35 e53f
00000350: 51f9 4247 d025 d63f ee2b a9bb 87fd cabf
00000360: 1b3f 61eb c5b3 dcbf 3f95 a016 6bfb e53f
00000370: e344 06c8 0ec6 d03f c6eb c69e c645 ca3f
00000380: 7368 7df6 9dbc d63f 8cb0 5df8 1637 eebf
00000390: 3774 d184 5bf9 d3bf 712a ddc4 9791 b03f
000003a0: 7638 0f06 9b17 e63f d836 e6f9 217c b13f
000003b0: 08bd 630a a558 b4bf 72ab 0c4a cff5 e13f
000003c0: c409 5b9c ad16 d93f 6a02 6a8a 77dd d9bf
000003d0: 4f6a a77f 230f ea3f 8b90 f4d7 baed e43f
000003e0: ef21 d002 7427 dcbf 6df4 00a3 02ec e53f
000003f0: 5f7f 55d8 0a74 d33f ec65 c741 f6e5 c2bf
00000400: 8933 a084 7c8d ce3f eeec c024 0836 d8bf
00000410: e096 6140 fbed 93bf 633a 7d24 d149 cfbf
00000420: 097e 6568 5fc4 b5bf 54fb 7578 36d9 d03f
00000430: b2d8 fa84 5f4d e6bf eed9 99b1 1f70 e73f
00000440: a42e 2a24 d775 c83f fb4c 36ea e18d b6bf
00000450: faea f2e6 72ad d93f 77fc d22e fa53 e0bf
00000460: 3d09 79fa f82a dcbf 902d bf80 854d a1bf
00000470: 4753 bc2e 6826 b7bf 6304 42fa 0876 df3f
00000480: 8e43 18df bfe0 e33f 7e35 8b2c 395b e33f
00000490: c18c 428a c049 ee3f 067b 8d91 6cf7 bebf
000004a0: c641 cc33 2ca1 c73f c224 0948 1d9a d13f
000004b0: 820c 7955 d77c b93f 2f39 7a85 2b95 d53f
000004c0: 4e89 e4f1 1ee5 c83f a22c 37f0 ece3 d13f
000004d0: 46d4 e59d a80b d83f 8966 4e0e 9f78 bbbf
000004e0: c06b 1d96 e379 ccbf 0290 145e f5e6 d53f
000004f0: b9c2 fde5 de1e d93f 67e8 513e 5f41 f0bf
00000500: 24db a362 c9c7 dabf c0d2 e328 168d f5bf
00000510: badb 33ca ba90 b93f e647 b330 b99e eabf
00000520: 3bdf 6fae 0136 d43f 4b2f e1a4 1fa9 c5bf
00000530: ed0c 479b 182f c63f 2a45 75c2 d5df e4bf
00000540: c881 4b30 2f57 e8bf 0368 8a22 4d00 ecbf
00000550: d50c 09a7 a517 d9bf 76c3 e109 e342 d5bf
00000560: 80fb 5f49 7719 cebf 29c0 9b58 7882 b0bf
00000570: 9fa2 72d8 d9cb 98bf af4f 4253 809f b63f
00000580: 267b e332 c3d3 d5bf 44e9 256a 35fd d63f
00000590: 4e78 7b6c f349 c83f 4c75 5638 5370 85bf
000005a0: bb84 e935 155b c3bf de3e bf3d 9cba d5bf
000005b0: fd52 a89a 9c02 c43f 926d 6f28 4e11 e53f
000005c0: 286d ac7f eab0 c23f a9ed d4bf e85d c93f
000005d0: ed31 a108 72ad cabf a594 8d2f cd8b e0bf
000005e0: 9bc2 a6dd e891 c6bf 551b fbf8 36f3 c6bf
000005f0: f343 069b 379a e2bf db17 174c 2abf a3bf
00000600: 1169 6fcb 86f7 d33f 3fb1 5407 79cb d63f
00000610: a852 de25 f7d4 d23f 1ef5 c10e e311 d3bf
00000620: 2231 4ef8 36c2 d53f 80a5 c751 2c1a e3bf
00000630: dd3d 64c8 fe22 d23f fc8a 8c1f 4ab1 eabf
00000640: 3d8e 6828 d6fb e13f e60d 2ad3 4d1b a3bf
00000650: fc8e be43 d89e 933f b83e 2c28 4dc2 ba3f
00000660: b92d 54ea 221d d43f 504c d508 d71b b6bf
00000670: cf69 4bfb 9682 c03f 6f78 5a00 8570 c1bf
00000680: 9988 8792 5dd6 d4bf ba6a 60c9 16a1 cc3f
00000690: 600d a555 c5b4 d23f 0aef 97fe 45ec e13f
000006a0: 4c1d 67dc f1d9 d8bf 2e09 a329 5c6b ce3f
000006b0: 23e2 b3eb 1b7b de3f 2bb6 2f75 266c 99bf
000006c0: 71eb 5d64 02fc c03f 587b 145f 8435 b1bf
000006d0: 5c62 8d59 d1af dcbf 6b2a ddc4 9791 b03f
000006e0: d708 9854 f75f d73f 4e98 6696 1092 a4bf
000006f0: b1ca 9888 ae5d e3bf 13e8 00f1 8fc8 e7bf
00000700: ad4f 4253 809f b63f 4d72 941e f9e6 efbf
00000710: 2efd ceb4 ee15 e5bf 6bbf 2777 0718 dabf
00000720: 8771 f723 5967 cd3f d498 9495 5506 e8bf
00000730: 7ca2 e8ad 6386 e7bf bc5c 2dcc ec0d c2bf
00000740: 10d0 4b5c 8285 cdbf 46a6 e886 60f9 c3bf
00000750: 5be9 d486 c667 d0bf 1a6b c117 3144 d53f
00000760: 6ac4 d232 5e22 e23f a6b6 793b 948b ce3f
00000770: 60b5 73b4 f2a1 ebbf 85cd 70f6 d096 c43f
00000780: 2e0d 6911 d850 a5bf 03bb fdb6 610c aebf
00000790: f1ec 7737 ce07 e4bf 5ab2 1092 c3f9 b0bf
000007a0: b996 9c18 7069 d53f f1c1 733c 4030 dabf
000007b0: 01be 1b87 b3e6 c23f c093 dde1 8fab d3bf
000007c0: ba76 a78e a250 c5bf 7616 df65 3270 92bf
000007d0: a4d1 1414 84af d03f 7e20 b7a5 4c18 c43f
000007e0: d32c 2714 123d d7bf 330b 2604 aa6b adbf
000007f0: 3d46 9eff bdb1 a8bf 00ae 9035 ce14 b83f

umat f8 [942, 50]
-0.21144255538166484 0.39817607180099845 0.2845151086617762 -0.08895255053773125 0.20220601173732058 0.2513600127562423 0.02276266627793002 0.1565230848943877
0.34636272606617424 -0.035478926937448516 0.26626584943388765 0.05500622920404853 0.12298425287994022 0.22302872917121774 -0.44259423954690946 -0.04189396301428447
0.26865822638573894 -0.09728222009445386 -0.14538443775208526 0.12219071327528999 0.021918545020517648 -0.07385434635441396 -0.33277482265045194 0.14536571993835423
0.016424919230815002 -0.12671639365113993 0.15720611759553463 -0.1794992164633191 -0.23721114141946115 -0.03905520638609351 0.02886924176812307 0.11857118287654111
0.1259926571483448 0.010881411638039004 -0.1422787611431385 -0.04944405422271586 -0.05132239408902298 -0.2521671272051388 -0.33624908463967823 0.29695721448843254
0.19552130235055898 0.03235004562243401 -0.20450617274333258 0.31814467629275944 0.029908005483109512 -0.26727945989789115 0.03702312366331624 -0.09848519742197012
-0.10484734222658894 -0.15453713157305318 -0.013530914686178112 -0.10759842532448001 0.001188141738209197 -0.03212469208441235 -0.20869619450168278 -0.013660251284754482
0.06877398423640972 -0.04158109075302659 -0.17551868434783757 -0.18111966999129464 0.14166533928078806 -0.1804962874811498 -0.12638155994056993 -0.1323036081332008
-0.048192370235610196 -0.017891019533778106 -0.3114539862965727 -0.0070240173113683725 0.15857706092040091 -0.032133232986267427 -0.1217528494280907 0.04704693016246695
0.030152795081615523 -0.0006301176270064046 -0.11308396783490049 -0.10844670823328036 -0.043248896769782386 0.22613044984670833 0.0762418592667915 -0.1255138040940615
0.1494891109870387 0.15080312230616308 -0.11046795865547182 -0.17838910919904 -0.13485433147339526 -0.2212500639270556 -0.0734702390875115 -0.12682336225088262
-0.26554199895681746 0.07714399086953289 -0.2030196251843646 0.04188359625392228 -0.3014413239620024 -0.02052821177320858 -0.1565558966000672 -0.024933357043668614
0.152881408889526 -0.003157458174481438 0.1466413182628234 0.004453015364483379 0.19016411345139841 -0.06469656087538406 -0.05214065180779877 -0.018025609180355638
-0.1579269788700246 -0.0417842617564366 0.31809670236238086 0.005456529810815042 0.03509544409000728 0.04877819946887438 0.040271942159335286 0.09403003369246651
0.016158238215239342 -0.1503305307856158 -0.057586198864232496 -0.28485790455755355 0.16293471398291234 0.3099710044573303 -0.08132502179721883 -0.005554429816902774
0.47090798130642675 -0.06864582106212762 0.08130750524457916 0.005784256753889376 -0.16219340785765657 0.275479406330636 -0.03638681590988605 -0.3254988457373291
0.09603865735500755 -0.2320605346545934 -0.11416921879659819 0.33895207259585997 0.18866152815224557 -0.07220120904176797 0.01883288928259083 0.08346665335831875
0.0364904467615672 -0.03277297289617864 0.013407816942137418 0.029847751243800937 0.1775785256363568 0.394416680595807 0.1530577415333081 0.1252170141582772
0.09725695200399427 -0.051547235807448535 0.13220733992358188 -0.013474878701803637 -0.08794754554470519 0.23935782971314173 -0.10867511611394215 -0.13965081031721055
-0.0772809701153303 0.15116780756933085 0.14311448642605765 -0.45970180056855126 0.2336189706712328 -0.07147907053609209 0.07618968838949217 -0.3000960483123276
0.002120890123948893 -0.0006973425915224318 -0.3073615312999895 0.06899434756382292 -0.27427247844665203 0.0763151022113172 -0.12619225391342964 -0.05447668492601787
0.13778691077101446 -0.10818716310574551 0.41890640237798177 -0.09654596967917727 -0.08364783645733657 -0.21905974436156306 -0.43828305241675664 -0.06354655826906055
0.2166040415878705 0.5307290895817269 -0.08758706737968043 -0.09674600905454707 0.2883044086971179 0.34252410708795156 0.4997963709463195 0.15126428152484417
0.13776253818597278 -0.38914753591324946 0.15584808623638982 0.19412165542598092 -0.46435455239680185 0.2111367234936809 0.04939754762284747 0.4732510392886152
0.16883552923300735 -0.38558018878003497 0.19693053818132966 -0.4262864344002265 0.22598795025489216 0.15016604004125558 0.30410790094155454 -0.4231686849198011
-0.2132963355490996 0.004989659945544053 0.2862612657622296 -0.16958960886367547 0.18517493606104093 0.14747851385639443 0.034494444527472135 0.49297762492423525
0.5561323546090585 0.22119897041252795 -0.45909836930705045 -0.17467614909528495 -0.27174632777969765 0.08081786757862895 -0.054794531641428744 0.03673800955725767
0.0716374889235406 -0.20823027243163478 0.08542642538292158 -0.004157800784787127 -0.00827329927939071 -0.1507579505961315 -0.019760763389626387 -0.3168582831094035
-0.18117007488863063 0.01183286197027536 -0.011050197281559176 0.05842051690616613 0.05533953845798145 0.27631318727945386 -0.15800006623171178 0.20553390013039152
0.10464490223681996 -0.290750371217377 0.20632594133239782 0.03198457668826786 -0.12821883096383957 -0.13683622034575801 0.017523450463424198 0.06660361464715311
0.03336989216094648 -0.2928267671189686 0.1328051993421231 -0.354739940658382 0.217880465040953 0.15930694470320922 0.13206452456632253 0.36650938762727475
0.10909386005726132 -0.39474897415035193 0.06678951477299477 -0.174065427082739 0.17687702595032725 0.3864509605466929 -0.07194408938571852 0.09436526219434438
00000000: da67 2cb6 8c10 cbbf a2d7 9b7d b77b d93f
00000010: cee4 badb 7e35 d23f 5b91 7427 98c5 b6bf
00000020: 79b2 bbf7 e2e1 c93f 60da 934e 4816 d03f
00000030: 2613 efac 184f 973f e85f 58cd f208 c43f
00000040: ee7c 4091 ce2a d63f c67a c93d 4b2a a2bf
00000050: a40d d7ea 7f0a d13f 22ed 03c7 c629 ac3f
00000060: 9ad6 0a60 e57b bf3f dced ed94 348c cc3f
00000070: 3620 10ca 7653 dcbf 9ca5 1722 2073 a5bf
00000080: 0133 0846 b231 d13f 50b7 c9d1 7ce7 b8bf
00000090: 020c bf0e f59b c2bf b26c 64fd e347 bf3f
000000a0: aef6 27a8 d071 963f 6479 4252 1ee8 b2bf
000000b0: 29d1 0dc5 2e4c d5bf 0020 8c0a 589b c23f
000000c0: 3c40 beab b1d1 903f 77a2 4c27 3e38 c0bf
000000d0: e1e7 e67e 541f c43f df0c 2f90 d4f9 c6bf
000000e0: 7a5b 5247 ef5c cebf 1267 5544 0bff a3bf
000000f0: f482 0405 e68f 9d3f 58e9 b358 ae5a be3f
00000100: 0280 fe02 8720 c03f b820 f558 fe48 863f
00000110: f338 03c1 3036 c2bf b886 bc27 bb50 a9bf
00000120: b45d 54c8 ed46 aabf de3a 1e97 8123 d0bf
00000130: 3597 75e1 1a85 d5bf 3580 22d5 5801 d33f
00000140: 5c2c a28f d706 c93f 8be6 f167 2f90 a03f
00000150: 77a1 e11d 422d cabf eaba 047d 7b5c d43f
00000160: b011 c145 34a0 9e3f e8da c94e 1b1b d1bf
00000170: 5acf a8e2 b1f4 a23f 6645 116e 5336 b9bf
00000180: 4d8b ef81 46d7 babf 5ddc 0f6b dfc7 c3bf
00000190: dc2e 7fa0 18b6 8bbf 45a7 de05 928b bbbf
000001a0: 18d9 267a 6d77 533f ec11 cbcb a572 a0bf
000001b0: d999 1791 8eb6 cabf d06f 2fe4 e7f9 8bbf
000001c0: 736a 1cfd 2b9b b13f aa1f d5e1 1d4a a5bf
000001d0: 4832 8e70 6577 c6bf ae30 a3e9 ed2e c7bf
000001e0: 8007 98ff 1622 c23f 41f6 e399 801a c7bf
000001f0: 2690 615d 452d c0bf 3a96 091b 53ef c0bf
00000200: 6247 289c abac a8bf 56a0 28ff 0552 92bf
00000210: 3291 56b3 dcee d3bf 84ca 384a 37c5 7cbf
00000220: 1043 46cd 404c c43f 6adf 9461 c473 a0bf
00000230: d60b 7dda 312b bfbf 7d98 d904 8916 a83f
00000240: a6bb 08d3 5fe0 9e3f 004d e14c cfa5 44bf
00000250: 3085 8d27 12f3 bcbf e585 38d9 29c3 bbbf
00000260: 20b8 6d2a b824 a6bf 3256 5cb3 d7f1 cc3f
00000270: 4019 2324 9684 b33f e6e8 e319 d610 c0bf
00000280: b212 668d 7522 c33f bb46 3847 844d c33f
00000290: a45e aecd a047 bcbf 3a79 fc4e 74d5 c6bf
000002a0: 827a b31f e842 c1bf 90fd 660e ec51 ccbf
000002b0: a133 1c12 f2ce b2bf 233f 9e78 bf3b c0bf
000002c0: cff9 4ede a3fe d0bf d418 de65 b5bf b33f
000002d0: 9177 4e0d 8cfc c9bf 9686 4c48 c471 a53f
000002e0: 7c1a 058d d04a d3bf 335d d8f8 5805 95bf
000002f0: e455 f20b 060a c4bf 6004 5444 2188 99bf
00000300: ce67 ac35 9e91 c33f 10e1 2173 abdd 69bf
00000310: 0e30 1789 24c5 c23f 70a2 be35 533d 723f
00000320: 75c3 1234 4c57 c83f 449a 1f2d f48f b0bf
00000330: 2afd 9cf4 2db2 aabf f62f ae27 4e75 92bf
00000340: 3890 b384 f336 c4bf e479 762b bf64 a5bf
00000350: e828 6745 b25b d43f a0c2 6411 9659 763f
00000360: dcd9 35b1 07f8 a13f 4c02 f4c6 74f9 a83f
00000370: 929f 0a25 869e a43f 3609 8d2f 5a12 b83f
00000380: e71e c802 c98b 903f e242 a8e4 073e c3bf
00000390: 184a a531 f07b adbf ea3b 05a6 1c3b d2bf
000003a0: d348 f871 0bdb c43f 6c8f b69f 90d6 d33f
000003b0: c32d f774 b7d1 b4bf e89a 95e6 3dc0 76bf
000003c0: 20bc c83a 5b23 de3f 3b0a 78c4 c592 b1bf
000003d0: 76df f193 91d0 b43f 7817 6f99 3bb1 773f
000003e0: e80d 30eb c0c2 c4bf 4757 3a60 74a1 d13f
000003f0: 3554 adf0 4aa1 a2bf 08f7 541c f9d4 d4bf
00000400: 6cd3 7d4c fd95 b83f 0752 84db 28b4 cdbf
00000410: 44f6 f0a4 313a bdbf 117b ad08 64b1 d53f
00000420: 0cb1 b69a 0f26 c83f d8e8 9047 c77b b2bf
00000430: 784e 3bce ed48 933f 2b05 7b12 125e b53f
00000440: 1f2b ea36 e0ae a23f b045 907d 9ec7 a0bf
00000450: f3c6 37ba 8e75 8b3f 4a19 cead 6890 9e3f
00000460: 143f 0aa4 e4ba c63f c1f9 0976 1f3e d93f
00000470: c080 2465 6597 c33f 7b35 5b72 1c07 c03f
00000480: ad71 2ae4 d4e5 b83f 8a00 fc37 6664 aabf
00000490: ffa7 a18c 2bec c03f bf08 bc9a b798 8bbf
000004a0: 40c3 e0f7 ba83 b6bf de69 5401 47a3 ce3f
000004b0: b42f 99e5 21d2 bbbf 8a0e 96e7 13e0 c1bf
000004c0: 809d 3f87 afc8 b3bf 2af1 db7a 7759 c33f
000004d0: 0952 6453 9351 c23f e6ab d619 c16b ddbf
000004e0: 570a 61f7 39e7 cd3f dc0d 4dce 734c b2bf
000004f0: 72e0 ecdb 2a81 b33f 1442 4a0e c634 d3bf
00000500: 008c 1037 d45f 613f 0010 f6cf bbd9 46bf
00000510: 07d8 3eb3 cfab d3bf f63d 6512 9da9 b13f
00000520: 52c2 4727 ae8d d1bf d741 30f4 6289 b33f
00000530: e689 c859 1127 c0bf 40b1 4d38 5ee4 abbf
00000540: 4408 ca61 00a3 c13f a9dd 6267 27b2 bbbf
00000550: c719 93cc 5ccf da3f 1f2a 5596 3cb7 b8bf
00000560: 9325 f7d1 f169 b5bf 9c96 f352 260a ccbf
00000570: 7358 215c d40c dcbf 2afa 8955 9644 b0bf
00000580: e891 6665 aeb9 cb3f 8842 5992 bbfb e03f
00000590: 35c2 f225 1b6c b6bf 8d65 e8b0 58c4 b8bf
000005a0: 2d64 a955 9473 d23f da32 823b eaeb d53f
000005b0: 6bee f7ea a9fc df3f d0df 19c3 a05c c33f
000005c0: c6b4 0fee 33a2 c13f c43f 0411 cbe7 d8bf
000005d0: 11c6 c380 d4f2 c33f fcfe bf78 fad8 c83f
000005e0: 39c0 1228 fcb7 ddbf 06ea 3135 8706 cb3f
000005f0: 06e1 15a7 a24a a93f 2eba 22ba be49 de3f
00000600: 03b4 3a12 679c c53f aced 3287 58ad d8bf
00000610: 5c47 8916 0535 c93f 168e 9ee5 4648 dbbf
00000620: 5442 d153 2ced cc3f ed37 790b a438 c33f
00000630: a3f2 3ffc 8076 d33f fcff 9a1b 3215 dbbf
00000640: 8a1f c558 4b4d cbbf b061 8ca4 0970 743f
00000650: 9fdc a3c5 1a52 d23f 28cc e7bf 1cb5 c5bf
00000660: 5be5 35f3 cfb3 c73f 641d f070 93e0 c23f
00000670: 7842 477e 41a9 a13f e865 2d06 f28c df3f
00000680: 6163 6914 d6cb e13f b253 ea73 3f50 cc3f
00000690: 8b86 7420 de61 ddbf 34b3 e0bd c95b c6bf
000006a0: 2ccd a7b5 4a64 d1bf 77c3 2ed2 7ab0 b43f
000006b0: eb94 cc62 070e acbf ec19 230b 53cf a23f
000006c0: 781b 18a0 d556 b23f fac5 1021 4aa7 cabf
000006d0: 72dc 3b97 81de b53f 1098 4d26 c507 71bf
000006e0: 4c16 ae6e 97f1 80bf 2c10 b659 094c c3bf
000006f0: 7c7f 0262 2a3c 94bf 73fb daf6 6747 d4bf
00000700: 8e8c 54bd 9430 c7bf 507d 71d9 d33b 883f
00000710: 3058 825f 7ca1 86bf 3107 0e43 4be9 ad3f
00000720: 909d b4c7 7655 ac3f da66 b481 1daf d13f
00000730: 9792 9d9e 5839 c4bf 20c2 a351 ef4e ca3f
00000740: c6dd cc20 02ca ba3f 726c eb71 a79b d2bf
00000750: 6d66 2b71 e368 ca3f c67c b44d 4860 a03f
00000760: 244b dc82 7969 c0bf 378a a569 d983 c1bf
00000770: a42a 9dda aaf1 913f ee74 b43a ef0c b13f
00000780: 062f 01c7 db15 a13f 18d7 0a7b acbd d2bf
00000790: 10e3 f4c1 c2ff c03f 649d ed26 0fb4 d6bf
000007a0: 92e2 e4cf 81e3 cb3f ca52 c382 2b64 c43f
000007b0: bfb0 fc86 7de7 c03f fd4f 62ca e374 d73f
000007c0: 32ed 2341 93ed bb3f 6abd 8633 9143 d9bf
000007d0: b86c aa1d 1e19 b13f 2da2 57a2 c647 c6bf
000007e0: 3b69 ef08 e8a3 c63f c292 43cf 9cbb d83f
000007f0: 795a 0d87 ed6a b2bf 08d0 0063 5228 b83f

ubias f8 [942]
0.43823934073356186 -0.08699331812659797 0.10158488502690652 0.02625780086041882 0.049806702448720694 -0.11572021108489003 -0.12812058716872882 0.29374321354188604
-0.36797960699425636 -0.8029347975314629 0.06676676004450915 0.4528128079734491 -0.14085422784727694 -0.1642097642684849 -0.051864364321189974 0.2730139585085105
0.16377592382773565 0.48148022760177916 0.22416929749005246 -0.04754820774701709 -0.5597428424111968 -0.8515706002261012 -0.1585902836178705 0.1440351766023874
-0.054789383606341946 0.40992957677404035 -0.2108637053918265 0.19520771217376434 0.09322374279074476 0.21791244949001812 -0.010144779252535222 -0.09942933660922249
-0.09672410932970146 0.08956695797483168 0.25726338812622995 -0.20045364424698903 -0.6855912498696525 -0.5573832863486634 -0.34280447817887116 0.5327091794181628
0.14676383044902 -0.4308710004467376 0.2370630754110187 -0.3982429572423554 0.04303642194558818 -0.3224945940939233 -0.21310082994667112 0.31429177572493927
0.3728606147612785 0.4378977018672357 0.1482307490922641 0.35807981046842985 0.12181335230248214 -0.12696471031896667 -0.3413391477624254 -1.2590961596855688
0.10059618211321109 0.22696043701648513 -1.6441080041859466 -0.15513796852323644 0.4088146375255253 0.12788715465619654 -0.2815365024365648 0.6479548339377416
-0.020000601744826388 -0.10367709311177567 0.0882997846143944 0.0475987628633489 0.6027520992226536 -0.17025916096198143 -0.3560979407066647 -0.1909848870508506
-0.03870321557175 -0.07987930351885753 0.1534985801948178 -0.31201677044004106 0.14211738416974481 -0.6545459234460664 -0.4155728516783165 -0.386344536854906
-0.0783713157588756 -0.17290679278821028 0.16454674131743102 -0.11592101957588662 0.05691630768986285 -0.5245389324033146 -0.18362999713382364 -0.20674285719853658
0.025375524116322924 -0.362901216881618 -0.2569769374510068 -0.09377701962463676 -0.3616433585484009 -0.02449076036978388 -0.12930762861731057 0.18564189076361998
-0.46306351078806135 0.6466743833719251 0.06666599564374767 -0.18828233159704463 -0.38940564239108033 -0.17375870224947304 -0.45667491003433275 -0.04766905276838113
-0.033703237211202636 0.1795903820498909 -0.05342256796936945 -0.44910685769165126 0.7688772134191196 0.4525590708302244 -0.46443214339079253 -0.44908770328636705
-0.10920409937621767 -0.013738988099724198 0.09428732836991773 -0.06361368598976477 -0.14191651747742326 0.5324117864821768 0.03175473309434941 0.10682750384606776
-0.03872691374509023 0.28832696957439846 0.10426940109611359 0.20415000366981093 -0.016962812511809172 0.3224734060951651 0.2210710012468547 0.5717981040884096
-0.3571791091822129 0.05433649092802564 0.5219143490855579 0.08323603357272312 -0.00546808782184756 -0.3141876409235702 0.2625063743701228 0.04771900641020367
-0.1418809565498618 0.1946695791147105 0.09889391719969212 0.48269338387168653 0.4957464842761236 -1.4742938436517914 0.15147645291578637 -0.0343570244612793
-0.6870568914561787 -0.185793606581383 -0.48271289395171607 -0.46927104818854537 0.22850701438754445 0.11674392751639988 -0.5240891828463955 -0.0993768576017967
-0.9292608028314606 -0.5313556858148083 -0.23069696308938195 -0.08255865312138368 0.12169226384904257 0.3445084824801077 -0.004827217396724002 0.15479106997521166
-0.10242422031542807 0.04438311256930518 -0.20708470362620784 -0.10883609824480087 -0.6538722743390075 0.32400649292286476 -0.2770865399101316 0.2736204383785327
0.02394110369213756 -0.10802895516401036 -0.016599794533085334 0.1368031190131452 0.23040215641243927 0.011306971670638924 0.01275805165840262 0.33650141539924844
0.14726426192583558 0.4421580314380341 -0.2556716628727574 -0.02309346731675109 0.1706716901255288 0.0802649772281378 -0.01976630541015872 -0.35296866850795394
0.32208445312699613 0.3710494148411714 0.18347321108774325 0.8180240189831386 0.281056507840474 0.518192679455695 0.01473827661829931 -0.7416385608894822
0.2630060133961374 0.3193656876431306 0.25528571142904916 -0.0763894434877435 0.05111105289305278 -0.5996571696026133 -0.3601018213090968 0.5176753170960139
0.05049699297743601 0.1156810834992684 -0.697656495344871 0.050287596870096075 -0.4179149357430299 -0.2674121448751013 0.43426108429686094 0.22531027654857685
0.005516242579967522 0.23783241384834564 -0.1500706821977957 0.312936683097928 0.0436942215318873 0.35090246171016753 0.05085369242928179 -0.6428363079736142
0.13626576625274409 0.16403892116935812 0.1737494965409698 0.09161820575941564 0.06438792197304088 -0.0191493505697078 0.0524272822120719 0.25142805541094193
-0.20501824753828768 -0.4133130557970082 -0.8299112410491313 -0.27997925950848457 0.17600743621373952 -0.23205756364198624 0.3149424982117735 0.33575025605439907
0.9225126539202803 0.13235690676882386 -0.0506341126353041 -0.3853949157813739 0.14992028405587546 0.03372296636673553 0.2586187341801605 0.0008205830983587416
-0.6522769278931532 -0.15891203274152144 -0.34914065134888395 -0.3818380050517373 -0.6806623673432783 -0.08504411498934467 -0.21999691110731168 -0.43772034985290664
0.08249251822604275 -0.10620718831262826 0.47022665057881846 -0.08691434169353562 0.15739491597044017 -0.4132112057699774 -0.08430657467536676 0.2562410649052014
00000000: 245c 1105 1d0c dc3f da02 53b0 3145 b6bf
00000010: 2e5f f58e 7701 ba3f b96d d72f 53e3 9a3f
00000020: 7618 479c 4380 a93f 9e87 18fa d69f bdbf
00000030: c2c0 ea61 4166 c0bf e865 e555 b0cc d23f
00000040: 2aa8 6856 fa8c d7bf faf9 0651 a4b1 e9bf
00000050: 2cde d95a a017 b13f 552d 5d92 e2fa dc3f
00000060: dbbe 0de7 8207 c2bf 0dc7 9b57 d304 c5bf
00000070: dab7 2c49 f78d aabf c050 c989 0f79 d13f
00000080: 082d 5b06 9cf6 c43f 0919 ce71 92d0 de3f
00000090: 5158 be5c 94b1 cc3f 2382 831a 3d58 a8bf
000000a0: 0070 4ad2 69e9 e1bf 2699 c6fc 1040 ebbf
000000b0: 3712 cdb8 af4c c4bf 1c8c 7da2 be6f c23f
000000c0: 98b4 83a5 5a0d acbf 8516 7a43 493c da3f
000000d0: 7f1f 49f7 94fd cabf 614d dbf9 90fc c83f
000000e0: 1139 7fde 82dd b73f 6db6 f91d 8ee4 cb3f
000000f0: c810 eb38 c9c6 84bf e0e4 ff74 3374 b9bf
00000100: aa48 4e46 e9c2 b8bf 0dda 4d33 dced b63f
00000110: c275 9ddb 0077 d03f aed1 330b 77a8 c9bf
00000120: 3fa5 930f 5df0 e5bf 5e8b 4679 15d6 e1bf
00000130: 96d6 ac31 82f0 d5bf 0129 fc1e f40b e13f
00000140: 49d2 013e 28c9 c23f a1aa edf5 6393 dbbf
00000150: 7d60 fd35 1558 ce3f b1f7 4d07 d07c d9bf
00000160: cc18 96b1 de08 a63f e14a b15d c0a3 d4bf
00000170: 5c8a af53 e346 cbbf 00fc 8840 5b1d d43f
00000180: f06e 97c4 f2dc d73f 7dda 2015 8406 dc3f
00000190: 1172 cea5 39f9 c23f 5a77 d494 c7ea d63f
000001a0: 18f4 5aec 282f bf3f 2a75 482f 6140 c0bf
000001b0: f7fb 1e27 80d8 d5bf 3ee6 c503 4225 f4bf
000001c0: 0059 47e0 abc0 b93f bb5f 3c23 0a0d cd3f
000001d0: a720 d131 444e fabf 3b6c 969a 8fdb c3bf
000001e0: 2116 93de 042a da3f 7ed6 6935 9b5e c03f
000001f0: e818 a6ad b104 d2bf d986 a1c6 0bbc e43f
00000200: 74d0 93a9 097b 94bf 9269 42fc 948a babf
00000210: 9ba4 298f d09a b63f 5702 a873 dd5e a83f
00000220: 6e36 38c5 be49 e33f c78a 165c 0dcb c5bf
00000230: 4084 6004 4fca d6bf b8f2 f459 3172 c8bf
00000240: a9eb 426a e8d0 a3bf d8a1 3d54 f872 b4bf
00000250: 8da7 f56a d7a5 c33f 2afc 3530 15f8 d3bf
00000260: 23df 9906 e730 c23f 8cca dd4a 0af2 e4bf
00000270: c215 c4df be98 dabf f6ec b16f deb9 d8bf
00000280: fafc 207e 2410 b4bf db0b 244e cf21 c6bf
00000290: 1e95 4f1c de0f c53f 2f56 fffb ffac bdbf
000002a0: 5a29 4660 2224 ad3f ebd4 04df 05c9 e0bf
000002b0: 6b8e 2010 3081 c7bf 48b6 2cc9 8c76 cabf
000002c0: bd3a cb98 0afc 993f 8ad9 8b06 c639 d7bf
000002d0: 7669 8b65 4f72 d0bf 5d77 6750 c501 b8bf
000002e0: a4fb 712f 2a25 d7bf b39c 5e1b 1b14 99bf
000002f0: d36f 0402 278d c0bf 0a76 cc0c 1dc3 c73f
00000300: 0b90 b322 d5a2 ddbf cec9 f779 8eb1 e43f
00000310: 9290 0bcf 0511 b13f 13dd 4fac a219 c8bf
00000320: d8a4 bca4 05ec d8bf 1e48 c7a3 b93d c6bf
00000330: af13 e066 293a ddbf 39ce 57fd 1368 a8bf
00000340: f4d1 2efb 8c41 a1bf 6d4b ca50 d1fc c63f
00000350: 68f3 97ec 335a abbf 5c7a 8cb0 2abe dcbf
00000360: 99ca c862 a49a e83f 6255 2e52 baf6 dc3f
00000370: d8c6 c498 41b9 ddbf 0aa5 a959 dabd dcbf
00000380: 08f5 68c3 ccf4 bbbf ca2e 8cc4 2f23 8cbf
00000390: 91a8 c6df 3623 b83f 0670 e78c fc48 b0bf
000003a0: 8ff3 a908 522a c2bf af44 5e71 8409 e13f
000003b0: 3252 4408 2842 a03f 7009 551b 0c59 bb3f
000003c0: b635 0598 03d4 a3bf f51d 38f6 f273 d23f
000003d0: 9f6a ae43 66b1 ba3f 2fbc 9e5a 9621 ca3f
000003e0: d812 f213 b35e 91bf a18a 407f 67a3 d43f
000003f0: ea7f 39f8 0d4c cc3f 4b2f 9f89 2b4c e23f
00000400: 0f21 30c4 05dc d6bf 93d1 0717 fed1 ab3f
00000410: d356 94b8 85b3 e03f 9f29 0bea f44e b53f
00000420: d125 dda5 b465 76bf 78be a47a a61b d4bf
00000430: 4451 3a89 e7cc d03f 72df db27 a06e a83f
00000440: f946 27ba 2729 c2bf 2c71 e9c9 eeea c83f
00000450: e260 259c 1c51 b93f ad5d 6eca 72e4 de3f
00000460: dfaa 4476 4fba df3f 78db 3224 b596 f7bf
00000470: e095 b195 9463 c33f 0fec e570 3e97 a1bf
00000480: 7376 e9bb 5efc e5bf c855 09bc 15c8 c7bf
00000490: 2954 389f c4e4 debf fc7b 3b6f 8908 debf
000004a0: cebd d9c4 b73f cd3f 2b85 b016 eee2 bd3f
000004b0: 7d67 90ad 56c5 e0bf e703 6101 c370 b9bf
000004c0: dcb4 b326 81bc edbf bac8 a3a3 dd00 e1bf
000004d0: 6db1 e063 7a87 cdbf 997c 285b 9022 b5bf
000004e0: 4368 6865 3927 bf3f f095 5c4e 6d0c d63f
000004f0: 9702 984d b4c5 73bf 1dd1 a09b 31d0 c33f
00000500: 37b4 9244 7938 babf 33af f521 62b9 a63f
00000510: fac7 c966 c081 cabf feed 95ba aedc bbbf
00000520: 7a82 418c 85ec e4bf 2ce7 b2ba 85bc d43f
00000530: 23da c42e c9bb d1bf 3f97 964c ff82 d13f
00000540: 482f 8d45 0484 983f 5152 731d c9a7 bbbf
00000550: 7a47 8f5a 89ff 90bf 137d 13bd c382 c13f
00000560: 2212 5c5f d17d cd3f 1b69 560c 1c28 873f
00000570: ca71 11b5 e420 8a3f 8fa3 8c3b 3d89 d53f
00000580: 42a7 6b2a 8ed9 c23f 8a2a 2c33 514c dc3f
00000590: 055b a3ad ec5c d0bf 3cbb 815b d0a5 97bf
000005a0: c299 b8e7 91d8 c53f 6c83 35dc 3e8c b43f
000005b0: 8f90 324d 9e3d 94bf e646 f0e5 0997 d6bf
000005c0: 67c0 2e1c 089d d43f 5056 7c0b 46bf d73f
000005d0: e72f a8d8 0c7c c73f 8500 1cb5 402d ea3f
000005e0: ee2d 606f d4fc d13f 063e 69d0 0895 e03f
000005f0: 0998 9900 1a2f 8e3f 6e21 8fca 80bb e7bf
00000600: 1004 8c2c 17d5 d03f 3513 f9c7 7c70 d43f
00000610: b753 6ee1 9956 d03f 931c 8a31 428e b3bf
00000620: 4792 4759 3a2b aa3f 2f2a 883b 6430 e3bf
00000630: b52a 7082 e80b d7bf 3ff6 9bd3 cb90 e03f
00000640: ecd3 c4ea bdda a93f 062c 6586 469d bd3f
00000650: 6e24 ebb6 3353 e6bf 4d2a e7bf 4bbf a93f
00000660: 29ae 6149 1ebf dabf 6dac 32d4 471d d1bf
00000670: cac0 be00 efca db3f 114b 9d96 f7d6 cc3f
00000680: ffea a417 3398 763f 1825 b4e3 4a71 ce3f
00000690: 6760 1020 8435 c3bf cef4 e794 2707 d43f
000006a0: 72dc 01c9 165f a63f 5163 4899 2f75 d63f
000006b0: e9ad bac3 7e09 aa3f a5b2 ed72 1d92 e4bf
000006c0: 6b59 cf18 2871 c13f 1bc5 d834 3aff c43f
000006d0: d782 ab6a 6c3d c63f 9b73 746d 4a74 b73f
000006e0: 38b1 2113 ba7b b03f c302 bf29 e39b 93bf
000006f0: dbbb 09ad bfd7 aa3f 1a5c d2b2 6517 d03f
00000700: 844d 21b6 093e cabf 3d1c 6a9a b873 dabf
00000710: fb70 dc04 a28e eabf 5a6c c920 2eeb d1bf
00000720: 4d06 3263 6987 c63f d3dd 50ef 0fb4 cdbf
00000730: b12a 7c94 0428 d43f 3125 58a4 ee7c d53f
00000740: 0b7b d741 3985 ed3f 9564 fc34 12f1 c03f
00000750: e945 a9e3 b6ec a9bf ddd7 d46f 4faa d8bf
00000760: 3d75 837e 9630 c33f 3da6 56fb 2244 a13f
00000770: 01f3 5b97 358d d03f a5d7 19c9 8ce3 4a3f
00000780: f190 27dd 73df e4bf 6069 c8bf 3a57 c4bf
00000790: 98d8 cf07 5258 d6bf 474b 04ac 0870 d8bf
000007a0: 286f eb71 fcc7 e5bf 24b4 987c 73c5 b5bf
000007b0: 68a5 36d9 db28 ccbf c65c da36 9c03 dcbf
000007c0: c00e f2cb 3a1e b53f 4c21 67f0 6430 bbbf
000007d0: ad64 7c85 3118 de3f f089 20af 0440 b6bf
000007e0: a729 5340 8425 c43f 9edb c769 0d72 dabf
000007f0: 0a88 119d 1d95 b5bf 503e 6aec 4066 d03f
