offline_resampled_model_testing/model_7.npz (npz, 967444 bytes, 5 tensors)

imat f8 [1575, 50]
-0.040391888004851856 -0.01148099631795678 -0.009656939557238411 0.1717136976694945 -0.03618985373023667 0.23494430201625932 -0.017327284181347817 0.06863065225190954
-0.11196743471828573 0.3320307334737038 -0.06109870312435216 0.01043120021240311 0.19879394348899365 0.07739624418550098 0.012012234109951003 -0.3252871210068411
0.07297576053422629 -0.2853090245343479 -0.025479694220348185 0.0264749457128007 0.03300327323246786 0.5434797797438078 0.06908417129854044 -0.11070479487008651
-0.052644174544106095 0.2015394646589463 -0.07530237713629083 -0.07163271532245075 0.2874613734557199 0.30113676534621564 0.15011428452634043 0.28896195254586743
-0.3788518553453333 0.044302221983544596 -0.2600509545361758 -0.20541713103841888 0.15460916931586485 -0.09563696247987269 -0.2352509258274414 -0.23059215211888773
-0.04187526982815283 0.22849057773885717 0.14673492184953105 -0.15597742003826837 -0.04690986868682544 -0.19693415939050496 -0.1269702170927743 0.030649393123652738
0.021449235538000683 -0.22007644978117463 -0.1887413893311145 -0.1932949207807203 -0.027132154318416854 -0.37363110833445057 0.12167424278194074 0.14671402990043603
0.21952090834799853 0.3228584490336913 -0.12813864031660954 -0.2583683469182785 0.10412254973409465 -0.05100345921813225 -0.42194124467595356 0.02426760070278999
0.007695197701453296 0.09611663949238745 -0.3741185514025253 -0.27293330235010826 0.12644156506828225 -0.05415378280654905 0.27038966413881044 -0.051233405909350875
0.015835304104285162 0.198607130610769 0.2776879965298214 0.3563093126068875 -0.01321335727394074 0.12451092196620119 0.08230753978888994 0.09227755218591681
0.1842256157679642 -0.3187290587390312 0.1563059230865205 -0.3503918525685252 0.11410034071075063 0.0816911824447876 0.03165607873807816 0.04180547577699838
-0.15266710710892062 0.026038252886037658 0.22374650897490403 0.0011723085275225226 0.3040466655567329 -0.01124521568512912 -0.25723846875989115 -0.2394170149330324
0.024479068250950732 -0.12365638646696618 0.07242680698055623 -0.21939984162317983 -0.34815661017995114 -0.33770187135345153 -0.04981135310231056 0.10109369169212047
-0.30222196139279456 0.04533178401005779 0.014289884880183014 0.13076179060876172 -0.13324385671221875 -0.1104479327026697 -0.13025401901781972 0.3502689182775428
-0.3217280199213808 -0.13534205632283916 0.3619491062544262 0.007228143415422009 0.10339436734996764 -0.13672231841282703 -0.36070348101953675 -0.10095456529279578
-0.1740564463742868 -0.05207836175839135 0.3226671098784021 -0.18669105909942119 -0.07375132824266806 -0.46578469915496623 -0.16153625456309617 -0.12084811631695441
0.34842241648299666 0.1148413256573905 -0.043207221212939254 0.10760440042742833 -0.033572756483368334 -0.014811684776241497 0.15646474923578133 -0.043215128953837965
0.020191859492236945 -0.26350654709315097 0.23579958999076825 0.4682105897370812 -0.48762757771877435 0.04588017181220351 -0.08861268711449516 -0.012066188288923349
0.028045814892283687 0.046572689549424756 -0.017827467586388052 0.07836192222045688 -0.30232783680126407 -0.21393642200784962 0.10548112929244818 0.10197942327179743
-0.02177240433934824 0.0010251850968812717 0.28807078970505584 0.03626657421222401 -0.00225165847608344 -0.12027240018664753 0.25438304671452355 0.16821202206220515
-0.16631333450966101 -0.010726011729888435 0.11284146654212607 0.09932894511425283 0.05791910198581045 -0.01680732375788592 -0.03598217733757525 -0.17348737489640742
-0.0032265462725152433 0.18133188464864702 0.06895413751562954 0.11090774837566969 0.04605390327066938 -0.1315479787051479 0.036534245532979445 -0.006198055981897613
0.11367731863764324 -0.12003544112921416 0.10337264472015506 -0.019613063276955167 -0.04385995735798264 0.07399839144218315 -0.03296106022518304 0.09515004085312884
0.003547199522226152 0.02201178165420671 -0.0009714531049601141 -0.03166650920213435 0.06126764878191268 -0.21649386851589758 -0.049017315748859334 0.03703036275830157
-0.030952669427648127 0.044583099788935016 -0.15992724367822345 0.09647449452968053 -0.09489554983619952 -0.004097113135266339 0.20868425342579472 0.031986873544573524
-0.03549833907306289 -0.21590274212098015 0.017542887638831293 0.31610980905343417 -0.13369313191616558 0.09492238683343307 0.018630600756073666 -0.18224713840876708
0.01760598429531611 -0.20757655415148984 -0.14620544416807502 0.0563985416368349 -0.22505610649532398 -0.09162522616498667 -0.3942363344349673 -0.32061866118527355
-0.06117264597736538 -0.3362637786080889 -0.09541708218173889 -0.06072265642999319 0.11963116954480205 -0.16115134512482066 0.027177404977693997 0.1130029929367131
0.16925922627270928 0.0011101908295045593 0.09676958249160154 0.039581045977901685 0.08101949363646391 -0.050572688164538256 -0.10066319722218098 0.12018034529939196
0.15978051097315818 -0.0033764546980018517 0.25375185072092593 -0.01617339939985865 -0.07510668681124012 -0.20488299898437579 -0.043132331662304874 0.1930779528537692
-0.018775867847527425 0.22697450394519353 -0.10422649141714423 0.21262193862386078 -0.30795767628970805 -0.14547280722793748 -0.0933366904852783 -0.3039672975920782
0.006838788816033559 0.01965211746923979 0.24457464367577517 -0.09718088235438835 -0.05594487819935715 -0.1075088552823185 -0.14678935993836228 0.00804482462593478
00000000: 3452 02dc 3eae a4bf 1860 b03d 5983 87bf
00000010: 284f 9f7c 04c7 83bf cc02 e2e5 b6fa c53f
00000020: d4d0 6ffc 7987 a2bf f64b c5a6 a712 ce3f
00000030: 2eaf 8c5b 3ebe 91bf 5ed3 ec46 c791 b13f
00000040: 5f01 55d6 e5a9 bcbf 3455 62d5 fd3f d53f
00000050: 9e84 7e47 5448 afbf d892 29fe f35c 853f
00000060: facb f676 1472 c93f 2226 9c81 3dd0 b33f
00000070: 40ab 3bc5 de99 883f 3c33 a212 81d1 d4bf
00000080: c12d e518 8aae b23f 643c 68c8 8042 d2bf
00000090: 91cc 8d55 5917 9abf d6d9 ff87 3f1c 9b3f
000000a0: 9d88 6316 cee5 a03f 982e 01b5 2f64 e13f
000000b0: a403 6610 80af b13f 8d37 7a41 2657 bcbf
000000c0: f2d3 fb5f 2df4 aabf 7e21 c890 0bcc c93f
000000d0: 7f86 1c3f 0447 b3bf e033 a289 8556 b2bf
000000e0: 7dc1 7663 c465 d23f 1541 b223 d345 d33f
000000f0: 3bfe 59e3 f136 c33f 6e42 fe45 5a7e d23f
00000100: 202d 2fda 1b3f d8bf 0e71 1ee5 c7ae a63f
00000110: 7db1 41c2 aca4 d0bf 5d90 ecc9 1b4b cabf
00000120: 77ca efb6 3bca c33f 0ccc 23fa a97b b8bf
00000130: aa2b 64cc b31c cebf fc4d 082c 0b84 cdbf
00000140: 829f d8e4 ac70 a5bf 9490 6ae3 2d3f cd3f
00000150: 572e 43bd 35c8 c23f e649 fd6e 11f7 c3bf
00000160: 3e38 bdff 9104 a8bf 8013 0677 2335 c9bf
00000170: cb5f fd60 8f40 c0bf 94ef 6ef4 8d62 9f3f
00000180: 78c0 a3d4 c9f6 953f fe07 3711 772b ccbf
00000190: 2814 4a87 ad28 c8bf ac38 9e51 e3bd c8bf
000001a0: 3cd9 de0d 88c8 9bbf 0424 c473 92e9 d7bf
000001b0: 7995 830d 0b26 bf3f dcb3 247c 86c7 c23f
000001c0: 7849 12d9 4219 cc3f 3291 f57b b6a9 d43f
000001d0: 66c2 c1d2 d866 c0bf 487a 1564 1b89 d0bf
000001e0: 6a52 e281 c6a7 ba3f 5645 a61a 201d aabf
000001f0: 4fdf add9 1501 dbbf 3fc5 7b1d 9bd9 983f
00000200: 5c87 6ce7 ff84 7f3f 47a2 389f 199b b83f
00000210: 8b72 c6ef 8ef1 d7bf ca4f e53d bd77 d1bf
00000220: d262 69b9 3c2f c03f a2b6 376c 0bba abbf
00000230: 71c4 2973 104e d13f 3fcc afd5 433b aabf
00000240: 491f 0045 2137 903f 36e2 5c5d f56b c93f
00000250: 0d97 e5df a3c5 d13f 6009 3a93 c5cd d63f
00000260: 6040 e5ca 9a0f 8bbf c9f2 d6a1 f2df bf3f
00000270: 3085 9b5f 1b12 b53f 471f cb6c 809f b73f
00000280: fe88 6779 b494 c73f 876a e490 0e66 d4bf
00000290: f9f1 e91d d501 c43f 4f44 e4f2 d16c d6bf
000002a0: 73ac d00f ae35 bd3f 8ad0 f89c b6e9 b43f
000002b0: 7c9e ccbd 3935 a03f 0609 83fe 8667 a53f
000002c0: 5497 1a84 988a c3bf 7cae 5c92 c5a9 9a3f
000002d0: d918 52c1 b9a3 cc3f c086 56b2 0435 533f
000002e0: 8089 4125 8075 d33f 2e30 d54c bb07 87bf
000002f0: cb32 a656 9876 d0bf 0a25 9f7c 37a5 cebf
00000300: aa2b 4c76 0a11 993f 2f31 d1e7 f1a7 bfbf
00000310: 3ecf 552f 908a b23f 1473 4244 4b15 ccbf
00000320: acfb a6a9 3248 d6bf 6eb5 504f e89c d5bf
00000330: 417e 16a9 df80 a9bf d949 a6b3 46e1 b93f
00000340: 6829 14c8 9a57 d3bf 02c7 9543 ba35 a73f
00000350: c1bb cae1 0344 8d3f 7192 1d67 cdbc c03f
00000360: e166 7c7b 220e c1bf 0e68 ded2 5046 bcbf
00000370: 1353 ede7 29ac c0bf 82ab 3353 ce6a d63f
00000380: 083a f11e 3197 d4bf b909 d774 e352 c1bf
00000390: d877 8b95 2c2a d73f 10d3 47f9 419b 7d3f
000003a0: 27d5 5ba2 0d78 ba3f b1b2 1bef 1d80 c1bf
000003b0: aa10 a20d c415 d7bf 1880 508c 28d8 b9bf
000003c0: f6f2 6a4c 7b47 c6bf a6c0 29d9 03aa aabf
000003d0: 7a0b 1bf3 93a6 d43f a4d0 a41c 7ee5 c7bf
000003e0: f0bc d6f6 5de1 b2bf 0242 76a0 6acf ddbf
000003f0: 0cc1 3b51 38ad c4bf 6451 5df3 e6ef bebf
00000400: 7e37 ff88 8d4c d63f da82 edb9 3d66 bd3f
00000410: 7a08 1fc4 411f a6bf 7ed2 bd44 f68b bb3f
00000420: 41e9 43c6 7230 a1bf 3a71 b3ad 9655 8ebf
00000430: 17e6 7872 0907 c43f 132b 191b 4b20 a6bf
00000440: ee88 a8c0 2cad 943f 8301 8390 4add d0bf
00000450: ddd4 b553 ae2e ce3f dcf1 a38c 29f7 dd3f
00000460: 6782 bb4c 4a35 dfbf c2c1 ef1a 9b7d a73f
00000470: 2cdd 2a31 52af b6bf b8d8 b460 28b6 88bf
00000480: ae13 02c7 0ab8 9c3f e4c9 0025 60d8 a73f
00000490: 3522 0419 5d41 92bf 5645 30e5 860f b43f
000004a0: b4d6 eeda 5659 d3bf 4636 f9c7 4462 cbbf
000004b0: 8cfd a7b0 cf00 bb3f 503b d1cf 521b ba3f
000004c0: 2004 5f52 814b 96bf 2031 a91d f0cb 503f
000004d0: b8d4 2d77 c06f d23f 10e2 5b4c 8891 a23f
000004e0: 007e 87f0 1172 62bf 50bf 6909 2cca bebf
000004f0: 0fed 92d4 cf47 d03f c68d c6b6 f887 c53f
00000500: 30c9 4d5e c149 c5bf 9064 c5ec 84f7 85bf
00000510: 345d 6ea8 2de3 bc3f 58d8 cf2a 9f6d b93f
00000520: 367c af91 92a7 ad3f 945d 7e67 f035 91bf
00000530: 60b9 ce85 416c a2bf 9077 b994 d534 c6bf
00000540: a002 06d7 8e6e 6abf a4dc 2419 e235 c73f
00000550: 32b3 8d75 faa6 b13f ec80 2540 7364 bc3f
00000560: f024 cd90 6094 a73f b05e 326d 90d6 c0bf
00000570: 8e11 7fdb 9db4 a23f 903f dbfb 2163 79bf
00000580: 747c d8ed f419 bd3f e0ca 0286 a4ba bebf
00000590: 90c4 5f30 a176 ba3f 5046 6565 7215 94bf
000005a0: 0fb9 e9f4 cf74 a6bf 8266 33ff 8ef1 b23f
000005b0: dad3 6aa7 45e0 a0bf 6860 adc9 c05b b83f
000005c0: 0055 173e 040f 6d3f 8477 53a9 418a 963f
000005d0: 4012 5fa8 23d5 4fbf 15a5 cdba 9736 a0bf
000005e0: 0c6b a427 795e af3f 0cb8 8732 12b6 cbbf
000005f0: 1b7a 2830 cc18 a9bf 2808 03ca a4f5 a23f
00000600: 909f a97b 0eb2 9fbf ac76 1897 98d3 a63f
00000610: ad2f abf4 7e78 c4bf 2332 e76e 8db2 b83f
00000620: 2819 1523 134b b8bf 40a0 c86e 22c8 70bf
00000630: 1ab5 d365 2ab6 ca3f 10eb 8c5f 9560 a03f
00000640: b222 c39a d62c a2bf d45e 4378 b3a2 cbbf
00000650: c6a6 be42 c3f6 913f 5313 f5a2 243b d43f
00000660: afce a346 db1c c1bf 749c 1b63 d54c b83f
00000670: 7605 cf73 e613 933f b5ab a0cd df53 c7bf
00000680: 1c91 0c9b 4d07 923f 6a9e bf57 de91 cabf
00000690: 047a 9928 dcb6 c2bf 229e be07 45e0 ac3f
000006a0: 1ecd 9474 a3ce ccbf 3602 de35 c074 b7bf
000006b0: 34c2 d208 2b3b d9bf a5cb 1122 0485 d4bf
000006c0: 40e0 c363 0552 afbf 41df fc82 5885 d5bf
000006d0: b447 73ff 406d b8bf ff72 fc3e 0a17 afbf
000006e0: b2f3 c6f8 25a0 be3f e43d 8276 9ba0 c4bf
000006f0: f001 47c6 64d4 9b3f bf67 039f c3ed bc3f
00000700: 409b b14c 49aa c53f 80cb 8553 7a30 523f
00000710: 738b 0c30 e4c5 b83f 907a 0884 f743 a43f
00000720: d2d0 818b b1bd b43f 5999 79d3 a9e4 a9bf
00000730: 90e5 fa33 10c5 b9bf f3d0 ae9c 23c4 be3f
00000740: 357d 9512 b073 c43f 0095 2350 f0a8 6bbf
00000750: 9f55 0967 783d d03f 683d f375 c28f 90bf
00000760: 59b0 901b 313a b3bf 4478 122a 9b39 cabf
00000770: 1c97 c7e3 7015 a6bf e9f3 8a42 c7b6 c83f
00000780: 8cc4 6f29 fb39 93bf 0637 bc23 800d cd3f
00000790: 0f72 035c 96ae babf df9a 6618 3237 cb3f
000007a0: 54da 0d1d 94b5 d3bf ba2a c05a da9e c2bf
000007b0: 6bb1 26d1 e9e4 b7bf d088 8d40 3374 d3bf
000007c0: 4022 f264 fd02 7c3f 6265 4f47 af1f 943f
000007d0: e757 02d0 384e cf3f 762e 82a7 d8e0 b8bf
000007e0: 1569 7d9c cea4 acbf e3cb 7749 b385 bbbf
000007f0: 5003 2b66 fec9 c2bf 6f12 5d15 ce79 803f

gbias f8 []
3.5293199687893884
00000000: b28f 981b 0c3c 0c40

ibias f8 [1575]
0.37393780552054423 -0.3555336086996846 0.4953192193453884 -0.3796290738851209 -0.19634497157604994 0.24826669639105928 0.4044987795850595 0.1944452418170004
0.43684502730928554 -0.03834263649640823 0.31204560370198076 0.5569511411657739 -0.0853533058382707 0.20656325163978648 0.09633457193627654 -0.4077666406578235
-0.5685866527952838 -0.3776910816344217 0.6141852022791197 -1.0273117517490196 0.27533285845489397 -0.5410999739911567 0.14401302534232235 -0.018543304723605998
-0.5614472557033028 -0.3460359130800118 -0.6018766380569388 -0.032314885366109145 0.9182831537722833 -0.07155109780126746 -0.1764074785427045 -0.06533305435997769
-0.6646599843946942 0.3437924266151325 -0.2288134487464866 0.2564191030248302 -0.27419654110969083 -0.5528799791929255 -0.9127792338283902 -0.4396913998378491
-0.25846880962783153 0.3006182101914654 -0.0578338173440508 0.2392406860955684 0.5583842218929267 -0.02233902383953399 -0.283815627748217 -0.7801745155336303
0.08653760460374713 -0.4363302640544836 -0.16889633384441574 -0.19623747074005102 -0.08227425896233288 0.6370331537722832 -0.7987844899523897 0.12425780320864652
0.3135812058452821 0.8813032560102666 -0.3969699697897277 0.4475531335826597 0.310128150338033 -0.4574755416841726 0.15862976299642473 -0.7307019521772542
7.093320819990205e-05 -0.027255182254924393 -0.9034559750315104 0.5934322017311978 -0.13258380189690025 0.3171460296500816 0.7503111862053166 0.28489901756470687
-0.11937926151528608 -0.4369485625112538 0.5854613040343796 -0.6966137236660459 -0.02535781084487642 -0.7218472462455411 0.3219744713202491 0.14477887999161135
0.7513733192775434 -0.2940449752915991 0.38703315377228326 0.6063249259850396 0.17650501170397936 -0.611110216497999 0.3343656073834337 0.4104062594396856
-0.790808875017506 0.22861454310394808 -0.419044975291599 -0.21315497269071476 -0.399913303856644 0.7434549142057103 0.09972696839374406 0.6926346957965716
-0.12414220835083928 0.06715518945231229 -1.0159927102487571 -0.021972243289991266 -0.9271009286014384 -0.4207315102519468 -0.57443330732449 -0.09853762043800772
0.7271460296500808 0.03812708085454939 0.405703909478477 0.35926487733102025 0.15301002340795872 -0.15658135647308183 -0.8637094506869175 -0.08048084174706353
0.27949877958505964 0.35267149367370343 0.41753571214212837 0.22789093746419256 0.2233779893327002 0.09223335934217637 0.2942007829831959 -0.858584905880986
0.5102431255198188 0.05890555980522742 -0.11315497269071481 0.4236120280895508 0.3613387873911036 0.6129913202746998 0.1455905534197417 -0.7619472438811008
0.24165736350359188 0.22734366048092716 -0.7996390201239844 -0.012206538282717588 -0.5551815089657949 0.20774972581586845 0.6391565724939078 0.16169687167321126
0.24155370720781905 0.01631106300280029 -0.15862940569604983 0.28958115422164854 -0.4174031560110961 -1.1965147097381525 -0.038154972690714814 0.5687022476530913
-0.2461125671617239 0.43027761969190065 -0.2499164001474782 0.04812336194306067 0.18687827545576063 0.03706002898128224 0.535231246916635 -0.0753159429910867
-0.24828441670167814 -0.37077214948734716 -0.4439457802749707 0.43502245308859605 -0.3110244149677551 -0.2092342565303368 -0.7591137236660459 0.020111944444089817
0.7327873830043374 -0.6111102164979989 -0.334276548763421 0.15975221048840846 0.03820965795036982 0.6456364394663423 0.36874567887432946 0.021096101245852213
-0.10990258426995611 -0.13500145605061273 0.3694226528823086 0.3824326586828998 0.6949037920417697 0.3340390850999584 0.6105674248572245 0.0034400267519528326
0.44126516529133486 0.08829430577825034 0.5370600289812829 0.34286027619761156 0.23635441008620667 0.28533558552765154 -1.258468809627831 -0.501206932096043
-0.294037045766292 0.03848836382147724 -0.5077666406578234 -0.5434559750315107 0.49554925597780214 0.14814899134671308 -0.016251716059650673 -0.49992906679180005
-0.22842381794425476 0.5726687396295386 -0.5077666406578233 0.016352368315865756 -0.9208165258946657 0.41920502971010204 -0.19849498829602064 -0.3600813750359329
0.12443445961500338 -0.14511636659166774 -1.096989976592041 -0.2641233612648635 -0.5866015497900859 0.479417866939625 0.5583517263794224 0.2003609798760151
-0.19644269960877606 -0.07349498829602064 0.5692367837497185 0.31861608457079565 0.1078966848728568 -0.3108456875337614 -0.074524850644341 0.503612028089551
-0.6862133125262588 -0.5569403801374094 -0.3149829846257312 -0.19636525475265348 -0.08210627229696428 0.41209472445120965 -0.0734408032064233 -0.7750082086733014
0.33894200084366777 0.07998301512066347 -0.5103023263203602 -0.14109997399115698 -0.8338317380850659 -0.43011698604391113 -0.02233902383953399 0.12945581185103017
0.3992935126032745 0.24351619976323918 0.265731639079868 0.194012997386145 0.532730578946293 0.33962433303272554 0.022332130739577537 -0.5429122824837365
0.6417497545495745 0.36635659249144764 -0.5373517905178664 -0.6449544569291485 -0.6045088663478916 0.08385282996218776 0.5641825913118158 0.704568124590933
0.42019429463160335 0.1983318772827206 -0.47958151925500825 -0.0379401723858839 -0.28913663979086224 -0.09151139959014631 0.16428835804173422 0.38708266073623
00000000: 40b8 5cd5 98ee d73f cd9d 7f09 10c1 d6bf
00000010: e1cb 0a62 4fb3 df3f 94a1 3cbe d74b d8bf
00000020: 899b d3ff d421 c9bf 75c0 d7fe 33c7 cf3f
00000030: 59be 65d9 4ee3 d93f 08c1 3be9 94e3 c83f
00000040: c2ab 6dd8 44f5 db3f 50c7 9663 a5a1 a3bf
00000050: 68ad b01f 8ef8 d33f 30dc 1833 8bd2 e13f
00000060: be4c 2ed9 b6d9 b5bf 2395 2c25 aa70 ca3f
00000070: 74c2 f0eb 61a9 b83f d39b 8140 d918 dabf
00000080: cb54 d6a2 dc31 e2bf d515 e736 172c d8bf
00000090: 183b afb9 67a7 e33f a8ef 8872 de6f f0bf
000000a0: 68fd a4b5 0d9f d13f 2d12 85e4 b050 e1bf
000000b0: a68a 05d1 046f c23f 62fe 631d 04fd 92bf
000000c0: 9c96 353c 60f7 e1bf bae3 7ad0 7325 d6bf
000000d0: 99ca 95cb 9242 e3bf 2e92 a49f 938b a0bf
000000e0: 266e 3d5a 9362 ed3f a1a1 0c39 2c51 b2bf
000000f0: a62c 8e2f 8594 c6bf beea d2c3 aab9 b0bf
00000100: 31ec fd03 e544 e5bf 952a 3bf3 b100 d63f
00000110: 1925 a053 c249 cdbf 58ec 63ab 2b69 d03f
00000120: 2a84 2fa6 6f8c d1bf 96e5 a75a 31b1 e1bf
00000130: 1259 b8cb 7c35 edbf 94b4 a865 e723 dcbf
00000140: 37ce 18c3 c08a d0bf 74ae 5629 543d d33f
00000150: 10ea 30e4 649c adbf bd97 5355 709f ce3f
00000160: aa3d 7496 48de e13f 7aee 4283 0ae0 96bf
00000170: 666d d105 092a d2bf 7d77 ac8b 30f7 e8bf
00000180: aeb3 a515 5427 b63f 8a9e 97c5 d5ec dbbf
00000190: 0d56 2323 659e c5bf f304 8a37 4f1e c9bf
000001a0: 21bd 8b03 ed0f b5bf 256e 3d5a 9362 e43f
000001b0: c4b8 9c7d a48f e9bf 0ecf 0d01 5ccf bf3f
000001c0: 0dba efe7 b611 d43f 6384 cde2 a233 ec3f
000001d0: 5b6c 6fbb f467 d9bf 106e fde5 b5a4 dc3f
000001e0: 2a55 d1bd 23d9 d33f ce37 907e 4747 ddbf
000001f0: c4f5 1ee6 fa4d c43f 7030 770f e961 e7bf
00000200: 7451 d83c 3f98 123f 1dc6 b951 c8e8 9bbf
00000210: 2d5b 4481 1ce9 ecbf 4785 5a87 65fd e23f
00000220: 1d32 908a 81f8 c0bf 6fd0 59dc 1e4c d43f
00000230: c564 d29a 8c02 e83f a996 c616 c93b d23f
00000240: 765e 07a8 a38f bebf 7248 811a f7f6 dbbf
00000250: 69d6 3c58 19bc e23f f4e4 22dd a84a e6bf
00000260: 3e8b 1be1 65f7 99bf dba1 6a65 5f19 e7bf
00000270: 39e9 1dd0 3a9b d43f d594 5b45 1d88 c23f
00000280: da49 2c0f 400b e83f 128e 1b04 a2d1 d2bf
00000290: 4bdc 7ab4 26c5 d83f 285f fb87 0367 e33f
000002a0: d4a1 6c5a b797 c63f 4788 4303 378e e3bf
000002b0: 169e 2701 3f66 d53f 3d7f 979d 1844 da3f
000002c0: 92c6 f269 4e4e e9bf 86be 02c9 3d43 cd3f
000002d0: 108e 1b04 a2d1 dabf badb 5782 a948 cbbf
000002e0: 972c 53f8 2d98 d9bf 620c d2f5 61ca e73f
000002f0: 70c5 c7e3 b487 b93f 89ad d03c 102a e63f
00000300: e489 eba4 c8c7 bfbf 4b51 741e 1531 b13f
00000310: 93e2 7792 8141 f0bf a3ac 6649 e47f 96bf
00000320: aee6 0d91 cfaa edbf 7771 3bdb 43ed dabf
00000330: 3e23 96f5 c161 e2bf aff7 34f1 c239 b9bf
00000340: 4f6d 18c0 c744 e73f 2d77 b98a 6485 a33f
00000350: 1a71 c487 0df7 d93f 673e af1c 32fe d63f
00000360: 0eaa 3f1b d595 c33f d18b 9b9e db0a c4bf
00000370: 3349 7e00 82a3 ebbf b318 4277 649a b4bf
00000380: 5cbe 65d9 4ee3 d13f 7cd7 e374 2b92 d63f
00000390: 3000 24b5 e7b8 da3f 9553 bbbd 872b cd3f
000003a0: 7a43 6a63 a697 cc3f a990 f9fd 9a9c b73f
000003b0: f5b4 5785 2fd4 d23f 6a23 730d 8779 ebbf
000003c0: eab9 2364 e953 e03f 1601 d599 de28 ae3f
000003d0: de1d 166b b9f7 bcbf 048f b59f 751c db3f
000003e0: e4bf a7b8 2c20 d73f 6df9 29f9 9f9d e33f
000003f0: a8ac c514 b6a2 c23f ace4 b72f df61 e8bf
00000400: 07f2 8ae4 a0ee ce3f 21f8 5bd9 9819 cd3f
00000410: 4937 0192 a496 e9bf 50ed c5d5 bdff 88bf
00000420: bf43 0b03 0cc4 e1bf 5fe9 1003 8b97 ca3f
00000430: 2d50 fc7b f873 e43f 89d9 d9ab 7bb2 c43f
00000440: beb2 575c 3beb ce3f 04dd a3e8 d8b3 903f
00000450: 6a00 d3e6 f74d c4bf dadf ba64 7f88 d23f
00000460: 6626 14ba bbb6 dabf fd21 b89b ec24 f3bf
00000470: 56d5 c56f 0c89 a3bf 739d 5a0e cf32 e23f
00000480: ff0e 8cd9 9d80 cfbf 8fc1 3124 ab89 db3f
00000490: 3509 afb6 42fd cfbf f122 7013 a0a3 a83f
000004a0: e42a b598 a0eb c73f 4f45 ed38 88f9 a23f
000004b0: 67bc a947 9d20 e13f 399d 03d8 e747 b3bf
000004c0: d589 eba4 c8c7 cfbf ba35 141c bbba d7bf
000004d0: d99a de8f 9b69 dcbf 41a3 426a 68d7 db3f
000004e0: 92d1 a2f2 d2e7 d3bf fd15 8028 30c8 cabf
000004f0: f4e4 22dd a84a e8bf c1d8 95be 3998 943f
00000500: 0e9a 9d86 fe72 e73f 4688 4303 378e e3bf
00000510: 998d 3077 c964 d5bf 4b76 c1ab c272 c43f
00000520: f48c 935e 3790 a33f 72a4 13c0 0da9 e43f
00000530: bb9e d379 8799 d73f 9237 b263 379a 953f
00000540: ce72 2f65 9322 bcbf 6f2b 534b ba47 c1bf
00000550: 24fd 21e9 9ea4 d73f dec8 7dd4 c679 d83f
00000560: f5f1 95e0 a63c e63f e8c3 8578 e560 d53f
00000570: 8f78 38b2 c489 e33f a13e b44c 422e 6c3f
00000580: 9094 723f b03d dc3f 8e98 bda3 749a b63f
00000590: 5bd4 8e83 982f e13f f370 573a 6cf1 d53f
000005a0: eef5 ca7e dc40 ce3f 477b 0e30 f042 d23f
000005b0: 8b33 c630 b022 f4bf 2131 bc1e e309 e0bf
000005c0: 493c d8c1 80d1 d2bf 1f93 c72f bfb4 a33f
000005d0: 1c01 74d3 9f3f e0bf aa6f f2c8 fd63 e1bf
000005e0: b1d5 fe39 14b7 df3f 9f7f 62d0 8bf6 c23f
000005f0: 7899 eb33 4aa4 90bf 7a32 0c7c d6fe dfbf
00000600: 1e59 d9dd fd3c cdbf 23d0 8464 4d53 e23f
00000610: 1b01 74d3 9f3f e0bf 88e1 83dc acbe 903f
00000620: 86af 0a38 5477 edbf 351c 3b55 41d4 da3f
00000630: 2c5e 93a5 4868 c9bf 0d65 6bc0 920b d7bf
00000640: 24b8 8ace efda bf3f 5912 5050 2c93 c2bf
00000650: bd0a 985c 458d f1bf e97f afab 65e7 d0bf
00000660: e533 049d 70c5 e2bf d5eb e746 c8ae de3f
00000670: 50df 8e70 04de e13f c822 fbb7 6da5 c93f
00000680: 51c7 2dcd 0825 c9bf 58bc 264b 91d0 b2bf
00000690: 1854 3c0f 3037 e23f 4783 cdb7 3464 d43f
000006a0: 5b30 e0fc 1d9f bb3f 56d9 834f e5e4 d3bf
000006b0: 00b9 4184 0f14 b3bf 138a d0f8 961d e03f
000006c0: da29 ec9e 75f5 e5bf 2762 d0a1 74d2 e1bf
000006d0: 27e5 7064 ae28 d4bf 96de 9d25 7f22 c9bf
000006e0: cdda 4faa ea04 b5bf 1cd0 178d c25f da3f
000006f0: deab f637 04cd b2bf 9844 cc03 decc e8bf
00000700: a251 37ca 39b1 d53f ccc0 2d52 c479 b43f
00000710: 1fcc 538b 6554 e0bf 8a15 e15e 900f c2bf
00000720: 7826 aee5 bfae eabf dccf 2065 0987 dbbf
00000730: 7aee 4283 0ae0 96bf e4b1 160f 0292 c03f
00000740: aeb4 8860 068e d93f 9ac0 03f1 892b cf3f
00000750: 9312 d746 bf01 d13f ddde 62fb 6ad5 c83f
00000760: 44e9 c4ff 200c e13f a049 d3b2 67bc d53f
00000770: a6b7 b4ec 3bde 963f daa8 3b94 895f e1bf
00000780: d634 00c8 3689 e43f 612f dbeb 6272 d73f
00000790: b814 d761 fc31 e1bf bc71 7d87 77a3 e4bf
000007a0: 3b66 63fa 2258 e3bf 6659 5d0a 6177 b53f
000007b0: 5d04 55a6 c80d e23f ee81 9d73 d28b e63f
000007c0: 4525 5a9c 76e4 da3f 3b7f 575f f062 c93f
000007d0: 1ed7 3daf 76b1 debf e435 34ef e46c a3bf
000007e0: 9288 fef6 3681 d2bf f86b 7384 4a6d b7bf
000007f0: 878e 73a2 6607 c53f 467d 2d5a f6c5 d83f

umat f8 [942, 50]
0.191801471403503 -0.0780847222709968 0.24040390082482221 -0.03298130585531422 0.018112779156250924 -0.1851081013182771 -0.13348776417399305 -0.052230472563627936
0.030281433455972662 0.13341401267545763 0.1747723982330261 0.0456167086197735 -0.01604881915503837 -0.18092948878944656 0.18031755682594622 -0.053079892267048914
0.21218442427777087 -0.11292475703566457 0.08719719542390017 0.030209823635651993 0.2818321015103169 -0.08093908493568389 -0.06890323115572107 -0.07332582787709976
-0.20918231504236512 -0.0252885314251101 0.042368881895721786 -0.3323631260964387 0.02485921105909618 0.2628309312532746 0.05674245597332909 0.04039627155518443
-0.02885441583552888 -0.07860268923094982 -0.023535874149729623 -0.09046360343300222 -0.08980689687374067 0.17584287174390337 -0.12916978510121893 -0.21416368705052327
-0.09811358761321018 0.12663622415955306 0.2679388801513727 -0.07882548784166307 -0.27679312081340707 0.0013522959553783354 -0.12728540568587224 -0.24562764206784202
-0.06910103279975752 -0.1752843718110286 0.22697569501253023 0.05408152784923155 0.1944825713806372 0.48374992656939386 0.1668041995175551 -0.16676164197066606
0.08418596088578158 0.16119684589041533 -0.06380501474627892 -0.06590972355162622 -0.004172984895737447 -0.021442307482296016 0.024471037148194964 -0.13469491121018645
-0.11311885942653577 -0.009537433617531269 -0.22342658241271693 -0.04728327731167843 0.05311382572027266 0.020150866276644704 -0.11314386345597086 -0.08017660321818436
0.03815635987194517 0.025191061979978682 -0.04527598473419607 0.007260982606367367 -0.047862764762366006 0.15543154492928357 0.008173875093264032 -0.03639822280245383
-0.20212907745186623 -0.2149908047340515 0.0357861602753565 -0.02221177835138216 0.1121302631015464 -0.06343358197035787 0.037791414879438844 0.08811118225222879
0.199554191412015 -0.06510777928450305 -0.07513432749014606 -0.13995253152108375 -0.16144170800038427 -0.07553105432532799 0.04230746572941486 0.11994381042550104
-0.2699367677196573 0.0866786120805234 -0.008277331841585703 0.04307181391189749 0.09413664644373124 0.05714309777870025 0.0001250169189352529 -0.036264712072149895
0.030518464206724757 -0.04112577444354173 0.07817306303712218 0.02031899223744514 0.06670121852718938 0.06006095076980657 0.17629525668423518 -0.0309900451021856
-0.36108324096566724 0.1613803199235913 -0.0724638570224237 -0.07862105815033169 -0.045618605964426254 0.055767523250133136 -0.05646328258829525 -0.012586417881427312
0.06398324602319727 -0.2306657583409581 -0.08509591533609681 0.1992584726352577 0.04396541119667467 -0.02266266216809822 0.0077167689489979095 -0.10589663796801532
-0.21162414991691214 -0.04041290507923593 -0.18545091713162676 -0.1878958801495948 -0.38373663805924896 -0.02690389537540043 0.066623381828567 -0.20648324335572776
-0.21899468197234406 0.3560461820972371 -0.593156437357435 -0.1201496974420733 0.17353615369348357 0.0416867265298901 0.04603870857237824 0.026648611946676382
-0.004206422633313903 -0.164323214304878 -0.14991109117988358 0.006493432504678997 0.24381125902373227 -0.17092146266655156 0.43698012781489703 4.7002313047564415e-05
0.011655609392748362 0.12012371411043918 0.2286099813877115 -0.18179590238884433 0.20023814028703538 0.05019945375021492 0.1246932414181923 0.10535211177799236
-0.08452970857072734 0.16002289084623525 -0.03900923086471522 -0.011489986606497244 -0.17598102789268902 -0.07509341953645648 0.04677422217701381 -0.07132460712816407
0.16719238781153653 -0.012192919056353682 0.033017211100886706 -0.004894856535295828 0.018687499060252945 -0.11216445205885409 0.06467891764479147 0.0806262698416239
-0.04103719701966516 -0.07528903598836467 -0.10818968050876814 -0.1168396383073473 0.004021021469299233 0.17272726875112332 -0.2531127099020355 -0.14458047007597058
-0.00955093877302813 0.0530345688589093 0.07442630004269751 -0.06327477344280996 0.12326171226134733 -0.19799525334425871 -0.04098771070038412 -0.2207005550884524
0.27322942710233306 0.039247780023040746 -0.04217586673473978 0.11345542533685846 -0.13865227656266021 0.06110903942015742 0.035799589230669365 0.1695206893546142
-0.03039946028355288 -0.015118524054959673 -0.01832842452553602 -0.08593273702408294 0.06309296627223979 -0.23532072588111724 0.13665287417525274 -0.18302480306866287
-0.18690300518978986 0.06128360528617315 -0.18969378947313417 -0.07736813587004579 -0.088546168831141 -0.18735223382462596 0.02876600790361355 0.17594011172014082
0.15239094194049294 0.18754359605059956 0.1507123742496589 -0.23584004108653883 0.17463744755241642 0.07547510141466307 0.13719784976288044 0.25372166898873827
0.23293227864507976 -0.05511735619588064 0.1963973246651402 0.06558348977560019 -0.09115943332092112 0.13033329633859708 -0.007980939866634087 -0.22579653049330328
-0.02759318897657294 -0.027994422250715148 -0.05527653247608739 0.09565336780903658 -0.12496138316383854 0.029017318942866042 0.39261823634778503 -0.01747926774368575
-0.07279242929416875 -0.15577730228193704 -0.18600571194056076 0.04191154392751984 0.06625430436914456 0.049685452301233834 -0.2146374276326606 0.17581375842400077
-0.21129021438741413 -0.007249909449741292 -0.22260589155272056 0.22418301367669347 -0.11374431106673419 -0.012742644787369254 0.0853413968051825 -0.08178095523522252
00000000: 4859 805b f38c c83f de9e 7840 5cfd b3bf
00000010: d8cc ef15 8ec5 ce3f 2f4f 0efc ece2 a0bf
00000020: f08b 7608 288c 923f e67d b14c 9fb1 c7bf
00000030: 1e90 c586 2016 c1bf 76e3 07d7 f3bd aabf
00000040: bd44 7a99 1802 9f3f cd75 a2da b513 c13f
00000050: 42c1 5323 f15e c63f 0e9f 58bf 125b a73f
00000060: d227 a405 1a6f 90bf 2fc8 9d8e b228 c7bf
00000070: cd24 bb4c a514 c73f 726f b9a2 492d abbf
00000080: c12e 7ff5 db28 cb3f 2c7e 600a a3e8 bcbf
00000090: d208 a62e 8e52 b63f aed8 21f2 52ef 9e3f
000000a0: ecc8 bc82 8909 d23f 6e55 c482 6cb8 b4bf
000000b0: 890d 6764 a4a3 b1bf 3a2c af40 7bc5 b2bf
000000c0: 6a17 0171 7cc6 cabf 3b26 bd9d 3ce5 99bf
000000d0: a66d 38c4 5fb1 a53f fac0 3efd 6f45 d5bf
000000e0: 8441 036a b174 993f e00a 87d3 38d2 d03f
000000f0: 757c 66e1 580d ad3f bf71 6bf2 d1ae a43f
00000100: 4d64 6f11 038c 9dbf 88e4 9f4b 4e1f b4bf
00000110: 4e00 06c7 c919 98bf 521a 396a 9f28 b7bf
00000120: 7128 07b5 95fd b6bf 09f9 afeb 0482 c63f
00000130: 050f 52b1 a288 c0bf 21b7 ef37 b769 cbbf
00000140: 3e8b 17da f81d b9bf ce89 a0a4 9d35 c03f
00000150: b8ed e41d e925 d13f 3606 5f3c e82d b4bf
00000160: e3af 697e fab6 d1bf 0082 c8b9 f027 563f
00000170: a5e6 565f e34a c0bf 9765 d600 ba70 cfbf
00000180: 06aa fef3 9ab0 b1bf 9fd1 36e2 b76f c6bf
00000190: 7468 8821 8a0d cd3f 4a3e dcf2 92b0 ab3f
000001a0: ad64 dc0d cee4 c83f 6cb5 8340 c2f5 de3f
000001b0: b8b5 e10a d759 c53f fee1 3e0b 7258 c5bf
000001c0: 9169 c90c 368d b53f eea9 a826 19a2 c43f
000001d0: ecf3 a783 8655 b0bf c483 24ab 75df b0bf
000001e0: e059 761a b117 71bf fc87 8ce5 f8f4 95bf
000001f0: 1ab7 0081 ef0e 993f 8eed 4acf ae3d c1bf
00000200: 203c cc89 5bf5 bcbf 55f0 ccab 5c88 83bf
00000210: 7b84 4204 3e99 ccbf 5a18 6783 8335 a8bf
00000220: 2d37 de40 bc31 ab3f 72b8 93be 6da2 943f
00000230: 0a57 4909 fff6 bcbf f3f9 b930 7486 b4bf
00000240: 5a9e 91fb 3a89 a33f c40c 6c8d afcb 993f
00000250: b683 74f3 692e a7bf ba7b 4c2d b1bd 7d3f
00000260: 2875 b3e2 7781 a8bf b077 1e4d 2ee5 c33f
00000270: 7042 a8f1 76bd 803f ec5b 23b1 c9a2 a2bf
00000280: 37fb 9c98 5ddf c9bf 2b01 a395 d184 cbbf
00000290: 8c6b 1048 9052 a23f 30b6 6b36 afbe 96bf
000002a0: 81bb e9a4 91b4 bc3f f8e3 07e8 2e3d b0bf
000002b0: 9319 f475 6559 a33f 776a 2f56 748e b63f
000002c0: 5b79 f2e2 fd8a c93f 07fc bd46 e7aa b0bf
000002d0: aa8b 60d7 003c b3bf 330f f0ec f6e9 c1bf
000002e0: 5838 0934 1faa c4bf fde0 28d0 0056 b3bf
000002f0: d973 5efb 52a9 a53f 3e99 2237 a3b4 be3f
00000300: 1302 56dd a446 d1bf 4f05 26cc 9130 b63f
00000310: a845 76ac b4f3 80bf 1c12 4340 820d a63f
00000320: 82b8 d4d9 5619 b83f c8a4 4d30 dc41 ad3f
00000330: 007a 1328 df62 203f 138e b2d0 4991 a2bf
00000340: 5ca3 c476 3b40 9f3f 33ef 8300 700e a5bf
00000350: 9c2e 2c5d 2603 b43f 7c0b 977c 80ce 943f
00000360: 0279 2dc0 5413 b13f 525e a516 4fc0 ae3f
00000370: 1c09 f3cc d790 c63f 7c9f dcb8 dabb 9fbf
00000380: d832 c5e1 fc1b d7bf 8a19 253e 1ca8 c43f
00000390: 04a7 0dc8 fd8c b2bf be57 8879 8220 b4bf
000003a0: f2a2 6969 525b a7bf 6294 1391 8f8d ac3f
000003b0: 3077 4860 c1e8 acbf b26a 6569 e8c6 89bf
000003c0: a05b 29bd 3461 b03f 7ed3 30a0 7486 cdbf
000003d0: ce47 648d d8c8 b5bf 06ad b537 4d81 c93f
000003e0: d664 7d66 a282 a63f a5bb 6883 e134 97bf
000003f0: 338b 4464 9e9b 7f3f e237 d4c4 0a1c bbbf
00000400: 9ced 7709 8016 cbbf c5a7 4d13 00b1 a4bf
00000410: 38f9 0b0c dbbc c7bf b4d7 25e2 f80c c8bf
00000420: 2274 af1d 248f d8bf 0ce3 16db b18c 9bbf
00000430: 0a45 1ade 3a0e b13f 1843 b1fc 0a6e cabf
00000440: 88d9 888a 0408 ccbf 734a feec 75c9 d63f
00000450: f695 7b35 23fb e2bf f253 236d 21c2 bebf
00000460: 0ec1 64c4 6e36 c63f 9a10 3f6e f657 a53f
00000470: b03d 56b7 6292 a73f 2dd8 2d13 c649 9b3f
00000480: 50b3 4afa c03a 71bf d6de b407 8b08 c5bf
00000490: 616f f660 4930 c3bf cc2b f183 db98 7a3f
000004a0: 61a6 f313 3535 cf3f 6e2d 2b26 c1e0 c5bf
000004b0: 68e1 7d7f 7bf7 db3f 0048 d32d 8ba4 083f
000004c0: ca22 4169 e5de 873f 5e11 947f 6dc0 be3f
000004d0: ccb8 cc84 1743 cd3f 5348 a78f 1645 c7bf
000004e0: 2deb f843 67a1 c93f ccba 4428 beb3 a93f
000004f0: e261 ec71 e5eb bf3f d4a8 a622 5bf8 ba3f
00000500: 0408 da2d bda3 b5bf f5e1 654d a17b c43f
00000510: a4b4 9c95 04f9 a3bf 7dac a6e5 0f88 87bf
00000520: f9fd c1db 8b86 c6bf 9ccb 0d85 5239 b3bf
00000530: 069c 1775 caf2 a73f acf8 0357 5442 b2bf
00000540: 9b35 e566 8f66 c53f 88f0 b7e4 99f8 88bf
00000550: cc51 c4c3 a1e7 a03f 54a6 cd0b a10c 74bf
00000560: 6a34 3bd5 d022 933f 72d5 5d3d cfb6 bcbf
00000570: 1e6a 062c cc8e b03f 2712 2b58 eca3 b43f
00000580: b5e9 3cd6 d302 a5bf b040 516b 2446 b3bf
00000590: d3c2 8ca3 51b2 bbbf 0d12 68d9 33e9 bdbf
000005a0: ca80 50bb 5878 703f d4ec 3459 ed1b c63f
000005b0: 9ecb cea6 ff32 d0bf c2ec 4ee3 9c81 c2bf
000005c0: f4f7 684d 718f 83bf 5bea 9cd5 5827 ab3f
000005d0: 944a a51c 9a0d b33f f842 998a c632 b0bf
000005e0: 52ee 025f 148e bf3f d43b f090 e857 c9bf
000005f0: 74fb fd59 57fc a4bf 7f2f 2871 ea3f ccbf
00000600: c565 6d47 977c d13f b074 47f7 4818 a43f
00000610: 39c1 9c40 1398 a5bf ce25 602d 6a0b bd3f
00000620: 1c21 ad98 5bbf c1bf bd5e 991b af49 af3f
00000630: 6c73 e9e1 5254 a23f 3100 639c dab2 c53f
00000640: 3c86 ef3e 0921 9fbf 22ea 09f3 75f6 8ebf
00000650: 1291 b2bf afc4 92bf ac98 2c17 b0ff b5bf
00000660: e634 bf52 dc26 b03f 127d dd52 fd1e cebf
00000670: bc59 be64 d77d c13f 24b4 c453 5b6d c7bf
00000680: dc39 680b 70ec c7bf 3f5d f890 9060 af3f
00000690: 434d 05d7 e247 c8bf 0278 50ed 65ce b3bf
000006a0: 3adb 5033 f6aa b6bf fcfd 8d72 28fb c7bf
000006b0: afe0 ba1c d674 9d3f 6d40 f2a0 3485 c63f
000006c0: 97a7 ebdf 8b81 c33f 9847 ceb5 6d01 c83f
000006d0: 349d 4007 8b4a c33f d6e8 c6a7 0130 cebf
000006e0: 6980 f216 855a c63f b0fe 3c14 5652 b33f
000006f0: 6d13 e8fa b28f c13f 78f6 a5cf f93c d03f
00000700: ee4f 7b93 b9d0 cd3f de48 9b94 5738 acbf
00000710: beb5 3a2b 8c23 c93f 9c66 be5f 14ca b03f
00000720: dfd2 d580 3956 b7bf d254 adee c2ae c03f
00000730: ce8f bf9d 4f58 80bf bc6e 0295 e6e6 ccbf
00000740: 65a6 fc90 6341 9cbf 4421 26e0 91aa 9cbf
00000750: 0931 71a6 344d acbf 62f8 7d36 bd7c b83f
00000760: d09c f31d 78fd bfbf 9643 824f b7b6 9d3f
00000770: e852 3b3d a820 d93f 12c5 44cd 15e6 91bf
00000780: 3900 374f 86a2 b2bf 8648 61b9 82f0 c3bf
00000790: 2ab3 d300 09cf c7bf 91b4 fc0c 6e75 a53f
000007a0: ae15 7cc6 0af6 b03f 6808 7121 5f70 a93f
000007b0: 2105 173e 3d79 cbbf 4218 4fb3 1081 c63f
000007c0: 741f 61c8 8e0b cbbf b804 c5bf 14b2 7dbf
000007d0: 6bd4 0e90 597e ccbf fcb1 076c 07b2 cc3f
000007e0: 9e3e 23e0 581e bdbf 62a7 02d5 d018 8abf
000007f0: 99f1 450c efd8 b53f 76c1 2bc0 98ef b4bf

ubias f8 [942]
0.666407621369003 -0.1433829988467458 0.37172255117160596 -0.589893288475068 -0.4396562179225858 0.4086163122683332 0.06802834886937636 -0.2070604028449892
-0.5248098569240562 0.24514974627883174 -0.15695172624319828 0.17283199455967063 0.12277163169193976 0.5141263259450239 0.059108501281457414 0.48831232660888924
-0.37259978982853303 -0.08094345958744124 -0.411281913761492 -0.10418681780183933 0.035328162396221614 -0.010520502521457501 0.6757320265410244 -0.05373108585376762
-0.16497808844716674 -0.7859823292230126 -0.3815742759524096 -0.2982898368283617 0.3065807209358821 0.5165885746832152 -0.2137875387827737 0.28007729919732877
0.04682662603940894 -0.13333046620703906 0.08903037203888144 -0.5400297668059039 -0.4609133871804094 0.28761766209377254 0.16579491857249687 -0.041442375180689016
-0.16176961391073347 -0.296800121740618 0.20440138428948512 0.23754997547062642 -0.39449110714840663 0.0542910250189638 -0.4800841019466874 -0.3968786018763252
-0.004129192594608379 -0.08381645758459916 0.22155633755284873 -0.22446933943629768 -0.35733385156323955 0.2279480562983128 -0.44408081397046073 0.13419775863111932
0.16600481403277093 -0.7838769074171428 -0.07380075958738795 -0.1331703244721788 0.33227144161810684 0.06388241869104902 -0.739535367367749 -0.09598743845609234
-0.2441282510468071 0.2919539459346015 0.26144902385040614 -0.2259187481328524 -0.059972017088683785 0.6702018722304193 -1.427379944790016 0.6501187378723144
0.37238037562117704 0.13027525909264645 -0.3985065059924002 -0.4143642423091638 0.2501837791486166 0.5059567312563178 -0.03808201246329211 0.6391788259421525
-0.3043229557482368 0.20787848334079786 -0.46309950554576423 0.29646020362420505 -0.03767907899396659 -0.04844147639156962 -0.13764196452219762 0.31858688932703333
0.13983183388662146 0.09263058495898191 0.009900857980533745 0.18983543176919795 0.25223283475675734 -0.013710265415763668 0.03037439306250169 0.12385942098069139
-0.1227334499196269 -0.5028336132262953 -0.5003599415750964 0.38832154491128473 0.043874228540468546 -0.13571355602621568 0.3933225557396289 -0.14337359837701186
-0.18424231310349276 -0.4222156634582946 -1.6089301982271749 -0.5351533373248061 -0.15807166232868286 -0.2460121363267309 0.7799806490655127 0.07958010270054403
0.587376230590685 0.019634053629915806 0.2061085267001513 -0.42017976819701214 0.23097864268761578 -0.05973034762960696 0.08794853622154261 0.32663559335722897
0.35780792691654606 -0.34595038121574667 -0.13241543015361493 0.14015538162607238 0.395775140868897 0.10291184990407727 -0.11142007569412778 0.01223687694184188
-0.27860002480466955 0.16411191608776857 -0.12296418392892755 0.4691032108339838 -0.41147646004991606 -0.07361965102222988 0.1045986147972234 -0.37410770766068246
-0.51475100971276 0.5215348456525593 0.2961323882095766 0.16570563931400137 -0.07062281493265975 0.46057050521488674 -0.36442657889458085 -0.09368889414132482
-0.4794522272604451 0.17071464620030796 -0.1922690473839938 -0.24657171556807508 -0.7720140434596676 0.46298850103925226 -0.05334711281462328 -0.23278965519949116
0.17161422758469305 0.07439818449990107 -0.08123473064106 -0.049140253580404754 -0.1946320269803529 0.11628855616149422 -0.06503697117089814 -0.26803779596937066
0.06847368266506013 -0.08902799561477563 -0.0007010736528529254 0.10568299752573519 0.15471776538288579 -0.734704481675164 -0.44263551825113223 0.09841133661356603
-0.006419254640238894 -0.339594644364906 -0.1188204086199826 -0.32214872580783854 0.25199658026726535 -0.08895106415699797 -0.4652476194054632 0.5563093201638263
-0.1871604949380557 0.494721828810511 -0.31506208780884903 0.115902497455775 -0.15427963426345298 -0.22508883983411263 0.06592191685677401 0.2726159714654882
0.17774381013344057 -0.6212563595150986 0.18137616665783896 -0.06575908499102555 -0.046658997709696434 0.6491491088501489 0.7705737819228313 -0.7316333256464116
-0.46013058867516055 -0.003593429287861621 -0.11495924542711403 0.4852175675201826 -0.0004935915236757848 -0.20451400490184957 -0.1775813616438302 0.38789656683822027
0.13837407219173495 -0.33782521928946674 -0.07515256480307386 0.3413645036963545 0.006724125077858251 0.031116251833492967 0.7794259316535114 0.334271104702386
0.17638348283931576 0.6395449326461202 -0.46627816223387686 0.319744061884625 -0.23581700218526325 0.2785296943197283 0.14296900035032795 -0.05839241901260373
0.06087304825197694 0.286637809656328 0.32737106172018965 -0.46815022070492385 -0.12287143275922079 0.013612920861350753 0.11372725790577817 -0.8780011065447866
0.23080661233302405 -0.025183075065122577 0.11034665755108893 -0.281171949966482 0.10895771150668422 0.15655139319055764 -0.6316155275130056 -0.28191659335975605
0.26741051808627736 0.20099040096505644 -0.377195777419688 0.3195507267308603 0.43834992410923335 -0.4276425843640754 0.08395908691301034 -0.040582313869290045
-0.2733544400603678 -0.4144271759489447 0.6488899449209151 0.3551419345512931 0.14745524733251322 -0.4135727344365038 0.30711845522363085 -0.3701134599900066
-1.261989423023269 0.2651429453411726 -0.5994371997419911 0.18110427855603267 -1.0831921503509245 0.07192117786848483 0.18049756333894867 -0.3293492320637475
00000000: 79b8 7213 3653 e53f e5b1 6cc5 5f5a c2bf
00000010: 5bef 1d62 4dca d73f 812b c4e3 67e0 e2bf
00000020: bc79 5dd5 5323 dcbf cf7e 7308 c526 da3f
00000030: 1848 984d 4e6a b13f 3106 428d f480 cabf
00000040: ae6e 830a 3ecb e0bf b2f4 711f 1161 cf3f
00000050: bff4 a181 fe16 c4bf c209 2bda 5b1f c63f
00000060: fb51 fe2e f66d bf3f d849 7e0d b973 e03f
00000070: 03c0 d62f 7843 ae3f d634 4158 8240 df3f
00000080: 6ad7 f3c9 acd8 d7bf f3ce c0e7 b5b8 b4bf
00000090: 7fae 4260 7152 dabf 161a 22bf fcab babf
000000a0: 8135 3d6c 8816 a23f 2f1d 23f2 c58b 85bf
000000b0: e74f 5bc5 989f e53f ff7e 0a11 a482 abbf
000000c0: 67f5 3783 001e c5bf 54e5 e769 c426 e9bf
000000d0: 7b78 0d83 b66b d8bf 1f0c 7a41 2e17 d3bf
000000e0: e33c 80be 049f d33f 9f0d 38c3 e487 e03f
000000f0: d9a2 aedb 635d cbbf e3e3 1956 c9ec d13f
00000100: 75b2 d7d6 a8f9 a73f 9db7 f503 f910 c1bf
00000110: 31f9 41c8 b1ca b63f 1988 6981 ec47 e1bf
00000120: d49e 0edd 9a7f ddbf 7d76 1ce9 5368 d23f
00000130: 5551 8e94 c438 c53f 6ba5 235c ef37 a5bf
00000140: c2d7 9de0 ddb4 c4bf 14c9 14f0 c5fe d2bf
00000150: 56e6 6316 d329 ca3f bded e79f 0968 ce3f
00000160: aaf9 f0a0 573f d9bf f574 d881 08cc ab3f
00000170: 0232 4cab b2b9 debf 16a0 e281 7566 d9bf
00000180: 4f93 71b2 c5e9 70bf bc42 31d0 fe74 b5bf
00000190: 2b69 0144 f55b cc3f 1db4 ea4b 69bb ccbf
000001a0: f7f0 8dcd 8ede d6bf 7377 7ee3 662d cd3f
000001b0: 2630 32ef d16b dcbf 4632 4264 642d c13f
000001c0: 7de9 9f4f a53f c53f aa47 2e06 8515 e9bf
000001d0: bf08 d948 9be4 b2bf 84ee 33a6 b90b c1bf
000001e0: 2e40 c96f ef43 d53f 6643 1123 995a b03f
000001f0: f38d 2213 46aa e7bf 1ee8 fefc a192 b8bf
00000200: 9b4a 2333 983f cfbf 858b 6e9a 5faf d23f
00000210: 348d c0af 94bb d03f 9855 64d1 e7ea ccbf
00000220: aa60 24f8 a6b4 aebf ea52 5e32 4b72 e53f
00000230: 336e 5d5a 8cd6 f6bf 59b5 b5cf c5cd e43f
00000240: 09c5 bd7f 14d5 d73f abf2 a314 dcac c03f
00000250: efc1 9e6e 2181 d9bf 2061 5699 f184 dabf
00000260: 31b6 5bd3 0203 d03f 76fb bd2b cc30 e03f
00000270: 1e00 314c 7c7f a3bf 7af3 3627 2774 e43f
00000280: 3d16 97fd 067a d3bf c9d2 be1b c39b ca3f
00000290: 9338 c71b 6ca3 ddbf dd69 c837 34f9 d23f
000002a0: 6d83 0b18 ac4a a3bf b455 be39 52cd a8bf
000002b0: 420b 177c 409e c1bf c303 a643 ba63 d43f
000002c0: 8cca bd70 02e6 c13f e017 0255 a3b6 b73f
000002d0: fd71 d4a9 e646 843f 290e 8905 874c c83f
000002e0: 417d 1030 9524 d03f ed37 a4ac 2014 8cbf
000002f0: e66f 5b03 771a 9f3f 72df 6942 40b5 bf3f
00000300: 72b1 8799 756b bfbf cf5d 8484 3617 e0bf
00000310: 6f64 29da f202 e0bf 7579 ee9b 42da d83f
00000320: c4e4 6fd1 ae76 a63f afd3 60d2 0f5f c1bf
00000330: ef92 6b5e 322c d93f 2ece 11ea 105a c2bf
00000340: 82d1 a88a 4095 c7bf 6963 9ad8 9405 dbbf
00000350: 93eb 6e97 2dbe f9bf 34f8 44e4 f91f e1bf
00000360: 5822 1036 b13b c4bf a8a0 f85f 537d cfbf
00000370: b1f9 67fa 99f5 e83f 3edb 8292 5c5f b43f
00000380: 3fb6 9a3c c9cb e23f 4ae1 e908 f31a 943f
00000390: 5b4c cda2 c361 ca3f b535 b6ae 39e4 dabf
000003a0: cb79 354a b590 cd3f 03b6 4be3 f994 aebf
000003b0: fe76 cd96 cb83 b63f 5572 cbf9 98e7 d43f
000003c0: baca 1638 53e6 d63f 3710 5711 0d24 d6bf
000003d0: 216e ff22 fdf2 c0bf ea9f 388e 9cf0 c13f
000003e0: 5882 a641 6154 d93f ad78 b555 6e58 ba3f
000003f0: 2560 39ad 0686 bcbf dac0 29d2 a50f 893f
00000400: a3da cc32 95d4 d1bf e58c 3d88 9e01 c53f
00000410: b4d7 8dac 947a bfbf 63c1 3e79 c905 de3f
00000420: 533f bf5c a155 dabf c7c0 7bc9 bcd8 b2bf
00000430: 56cf c28d f9c6 ba3f e062 6574 61f1 d7bf
00000440: b993 091c d778 e0bf 36ab 39d8 69b0 e03f
00000450: 6160 a942 d5f3 d23f 73e6 cea6 d735 c53f
00000460: 5fbb 7c38 5614 b2bf d49b 59b6 fc79 dd3f
00000470: 0c4e 89db c352 d7bf 85dc 55d0 fefb b7bf
00000480: 7cfd 0465 58af debf c873 303f fad9 c53f
00000490: d60e 46ab 459c c8bf 37e3 3d77 a98f cfbf
000004a0: aac8 96cb 56b4 e8bf 44cf 9885 9aa1 dd3f
000004b0: a7e9 bf11 5050 abbf 35e7 f629 0dcc cdbf
000004c0: 5995 807b 74f7 c53f be10 4f69 c20b b33f
000004d0: c718 679f cccb b4bf 5108 174c e928 a9bf
000004e0: 4d41 51c7 b3e9 c8bf 66d8 9c39 16c5 bd3f
000004f0: 29bc 3550 43a6 b0bf 8bf1 f1ff 8727 d1bf
00000500: a6e0 aec3 7d87 b13f 5b09 98e9 89ca b6bf
00000510: a99d 9e34 08f9 46bf a1c4 1d7a 0a0e bb3f
00000520: 4200 37af cacd c33f 6c9f 20f9 b282 e7bf
00000530: a6f1 bbec 2354 dcbf 0798 4f40 7c31 b93f
00000540: 3690 e98b 134b 7abf db6a dc2c ebbb d5bf
00000550: 3bc4 1ea9 036b bebf 37bc 72b0 159e d4bf
00000560: 5ee9 bc43 b620 d03f 12ab 7f37 7fc5 b6bf
00000570: 3ada 78f3 9dc6 ddbf 3c09 1234 49cd e13f
00000580: 0a5a 6e06 e0f4 c7bf eff0 d6be 85a9 df3f
00000590: 9c4d d62c fa29 d4bf 22e7 183c c9ab bd3f
000005a0: fad8 cc5f 6fbf c3bf b71b e40a b6cf ccbf
000005b0: 444e fd3c 42e0 b03f 4af0 7342 8a72 d13f
000005c0: b976 cb25 4fc0 c63f 6a94 5104 55e1 e3bf
000005d0: a4dd 0890 5537 c73f f78a 735f 96d5 b0bf
000005e0: b65e 742a b0e3 a7bf 58a5 175a d4c5 e43f
000005f0: 626f 1059 8aa8 e83f f014 ca4a 8a69 e7bf
00000600: 50f0 8f91 c772 ddbf a507 b3a8 f76f 6dbf
00000610: 8277 7b17 f86d bdbf 2368 fcfb cd0d df3f
00000620: 009c d3b9 8b2c 40bf 8c4f 50d1 832d cabf
00000630: d8d7 516e fcba c6bf de40 331f 4cd3 d83f
00000640: 9dc3 56d9 3db6 c13f ba2f 27ab ed9e d5bf
00000650: 482b 0ad0 323d b3bf 0208 d980 ead8 d53f
00000660: 079b db94 c18a 7b3f 5ced fe4f f0dc 9f3f
00000670: af65 c3a6 0ef1 e83f 5773 aca1 b264 d53f
00000680: 66ba 2ce5 bb93 c63f 1834 41ef 2677 e43f
00000690: fe8a 685c 80d7 ddbf 589e 38cc af76 d43f
000006a0: d8fc 1c64 402f cebf ea5b 0436 6ed3 d13f
000006b0: 2a59 6ce6 ce4c c23f 01a7 fc73 9ce5 adbf
000006c0: b26f e68e c02a af3f 1858 911c 4658 d23f
000006d0: 47ae efc0 a5f3 d43f babd e257 2cf6 ddbf
000006e0: 9b42 5091 8074 bfbf a765 384f 17e1 8b3f
000006f0: ae7b 5ec5 3a1d bd3f 00c6 cec6 9518 ecbf
00000700: addf d531 128b cd3f 5108 458f 97c9 99bf
00000710: 7da3 67b5 ad3f bc3f 5026 6aa2 b8fe d1bf
00000720: 5176 910f a7e4 bb3f 7bc6 f244 e009 c43f
00000730: 7f0d 4ac4 3136 e4bf 3483 2be5 eb0a d2bf
00000740: d85d 7201 411d d13f 5638 7aaf 0dba c93f
00000750: 1e3d 0dc2 f923 d8bf 8736 2ee4 8473 d43f
00000760: 1235 10d7 ec0d dc3f b71e 8e00 7f5e dbbf
00000770: 874f 7ebc 577e b53f e5ad ba7d 34c7 a4bf
00000780: 9ca4 119f a37e d1bf 098f d18f f985 dabf
00000790: 2e6f 84d8 b4c3 e43f a380 953c a5ba d63f
000007a0: 9757 7544 d0df c23f 4e03 3bc6 f977 dabf
000007b0: 09bf 4b2a d4a7 d33f dbda 9d5d f0af d7bf
000007c0: 8e86 3cd2 1b31 f4bf 5359 c01d 1af8 d03f
000007d0: b9b9 1cec 962e e3bf ba2b c8cc 6c2e c73f
000007e0: 7ea8 d04a c154 f1bf b7be d522 6d69 b23f
000007f0: 5e34 c64d 8b1a c73f f14b 2bcd 0e14 d5bf
