offline_resampled_model_testing/model_11.npz (npz, 971856 bytes, 5 tensors)

imat f8 [1584, 50]
0.20494183631102092 -0.04193209685297743 0.0726896238348865 -0.27146568728166875 -0.035866811572468515 -0.18316213313304008 0.16416944639822267 -0.011626369245158526
0.15337196931356076 -0.04885882883854292 0.03960254583115066 -0.04479608586985402 0.49757356972154865 0.19338493690429115 -0.09081559795469343 0.008444208249261911
-0.2568186631669716 -0.051743037482981265 0.23407704704880072 -0.015470461854683155 0.0926715457200743 -0.004301205282771947 -0.2622181932068964 0.19707772425975362
-0.012101774233660281 0.3477530027070867 0.01229067057188736 -0.012062871403050724 -0.11272295437039205 0.02083094498708226 -0.13232784485933072 -0.054900556630222225
-0.17705259322322353 -0.35033809764948526 0.30687731537386725 0.1761325701991401 -0.00026710767025244636 -0.11486345943735252 -0.08938485176068448 0.08103749808057628
0.42266000092640704 -0.24551246734402082 -0.07035375429346843 0.09138208579015478 0.12038657973473559 0.4827720545838481 -0.18851286640148618 -0.13082966180939498
0.10269563569315387 -0.16628596622263064 -0.06351406579420957 0.0019306740672220164 -0.17000339682361956 -0.22754845323877462 -0.006951993075100197 0.32915525252860045
0.16757768713069782 -0.030298396257952217 0.11562166872565395 0.06990973253534094 0.012559907698904485 0.36917089795728175 0.46277727124993306 -0.005089971428600695
0.27846031368486257 0.08310378283795378 0.11681703740757289 0.2771707429012981 0.13161562371051624 -0.11253137200100523 -0.028748234078321177 0.14899218112540635
-0.025806589600909948 0.061096684546772737 0.3081097603370481 -0.12294129543213259 0.07455217822408719 -0.1338147706819427 -0.12613456294226638 -0.004389235839105405
0.15094716936555472 -0.11221360428841873 -0.1577553961823719 -0.37035327033262044 0.24299053777084512 -0.39384258424812263 -0.3982143562519306 0.08945448667832623
-0.04426677349123114 0.2345205598470188 0.24298179456503788 0.2782603604745838 -0.06395338985057102 0.1393291953766012 -0.07119571747131637 0.2176021925120935
0.0055965725601500455 0.1766056522015135 0.20998277832878123 -0.30715740336040653 -0.12879487777350213 0.19936644563581063 0.5475826643306958 -0.5739634444075716
0.12684200353449057 -0.26842264935831806 -0.5692593426325017 -0.24673072139127988 -0.16949787613809703 -0.15727778379987223 0.12014659751631798 0.2976964706383749
-0.4540131756626986 -0.0676674596039742 0.02175424747823127 -0.09905410329843495 0.237897700738479 -0.158951953234149 -0.16135700490931348 0.058808160555070196
0.5078761372385039 0.1280123949889873 0.1556565974528508 0.3029675113904827 -0.29234539290637773 -0.0920822901255197 0.02606606830300364 -0.1415347360485852
-0.13296448337564135 -0.1234193055231588 0.1772556677692133 -0.012512010931030021 0.19039322292081262 0.18217683132872226 0.04679935921089598 0.023053038899442095
-0.19020916487818723 0.18839799076554878 -0.1538205531444804 0.034753070211377066 0.14703912705521113 -0.2610131419339803 -0.5358354432993317 0.18769430879893634
0.11963465920612398 0.015780360362777766 -0.11743625417620139 -0.17516195959655326 0.0976043849942324 -0.39073224180542276 0.08494792173966592 -0.15684705379704247
0.23695481016432107 -0.18059825783589875 0.07436631889744136 -0.07830173752564526 -0.07145706505477113 0.22650321754398195 -0.23781629856818576 -0.19761426334000148
-0.16420661916652304 -0.2975379954226653 -0.031512898573815576 0.047555134396920704 0.044767740194256674 0.3982482078712217 0.017872319347873228 0.39752356349366297
0.4882597336593268 -0.23004538153462595 -0.16691853028653533 -0.23304741025495276 -0.08846054877462792 -0.14603218234883455 0.15252954397267146 0.1433581658210289
0.08394122763910239 -0.2680276600374996 0.0671965120703562 -0.06944029187905486 0.10550026732361623 0.04125561226404614 0.00015670950346444168 0.030059268207144572
0.2075576368644119 0.09101896723996586 -0.16695321383608197 -0.03286133770686318 -0.24224350341591835 0.09247321722790947 0.07005365114570705 -0.08227599299650173
0.08493966677529569 0.04895974153398911 0.0790483059689221 -0.12856246677617986 0.03286247997213415 0.28784598658887717 0.0053660007247540095 -0.10783856563138453
0.06685086605664184 0.19470761768469547 0.04600928534605211 0.18458969040255735 0.10300757318802783 -0.0979355692234099 0.1922872974494684 0.0916793530982834
-0.20117276359613256 -0.1779088429910443 0.3830144462947894 -0.07304932936789083 0.03258168821491661 -0.39542137752593454 0.4402570123180285 -0.33630094950025086
-0.06307324520584845 -0.030052854596201998 -0.22687100741717237 -0.24917836597466148 0.17716619991517818 -0.41399030966791817 0.3008894206947109 -0.11820802176755893
0.09071956626965202 0.1837510124707295 0.11528431747431875 -0.3785321427900182 -0.21392063216580495 0.288569885592793 0.12478798616051065 0.33564521762749255
-0.09452572108789123 0.1122648394294527 -0.23884855583829867 -0.16966750611210954 -0.005414544783253511 0.0748100165738605 -0.1499625603753832 -0.09018143968214179
0.05924493391933042 0.09441755421202938 -0.0809585295897269 -0.23798671160970025 0.20510676273835027 -0.09067702434148789 -0.06356577498658438 -0.019994623746088874
0.1419258742125031 -0.1109141970454735 -0.21854639032554304 0.21558972264106538 -0.049749101083518564 0.09244093936786812 -0.05046417706436862 0.05469317403353993
00000000: d8dd 44ba 883b ca3f 96c1 45b1 1f78 a5bf
00000010: 061f 2185 c99b b23f 7c19 379e b15f d1bf
00000020: 205c 6e7d 225d a2bf 4404 d655 db71 c7bf
00000030: 8232 a421 8103 c53f def3 6edd 90cf 87bf
00000040: fb94 2954 b1a1 c33f 98fd f63f 0604 a9bf
00000050: a3c3 5dee c846 a43f 6a83 9937 83ef a6bf
00000060: b8b6 53d0 3ed8 df3f 847f c56d d6c0 c83f
00000070: a29d 2ee7 b03f b7bf 6867 2b72 324b 813f
00000080: 497e d38b b76f d0bf 81f9 913b 107e aabf
00000090: 28d0 e896 3cf6 cd3f 4450 c23d faae 8fbf
000000a0: 6832 238a 52b9 b73f c0bf 5d00 249e 71bf
000000b0: 5d59 0fd1 2ec8 d0bf 9e9d 3bc6 d739 c93f
000000c0: 2809 75a4 d0c8 88bf 7b9d 6dcf 9541 d63f
000000d0: b8a2 37e1 d92b 893f ba2a 6031 6bb4 88bf
000000e0: 7182 875a 69db bcbf be6f db0d b554 953f
000000f0: b5af 026b 1ef0 c0bf b49b 84fe ec1b acbf
00000100: 0c6a c8cc a8a9 c6bf 19a2 fc7b f06b d6bf
00000110: fb8f 5ac0 e0a3 d33f 7903 6216 838b c63f
00000120: 808b 4fb5 5281 31bf 2ef2 c911 b167 bdbf
00000130: 1ae8 11f7 ece1 b6bf 0a78 019c dfbe b43f
00000140: 9199 5388 dc0c db3f fa5c 00d9 f36c cfbf
00000150: 3e5d d721 b402 b2bf fcb2 e8fd d064 b73f
00000160: 3b86 d6a6 a7d1 be3f 0c10 77c2 bce5 de3f
00000170: aae8 088a 3021 c8bf 3ab7 68bf 06bf c0bf
00000180: 8078 bedc 424a ba3f f2df 5ac9 db48 c5bf
00000190: 3610 6c33 7542 b0bf d0cb 967e d5a1 5f3f
000001a0: 5d7e c8da abc2 c5bf f13c 75c6 4e20 cdbf
000001b0: 84a7 646e b179 7cbf 7aaf 3a31 e110 d53f
000001c0: 6201 e286 2f73 c53f 4f55 32f4 8a06 9fbf
000001d0: a1b8 e2b5 6199 bd3f 4851 e9ae 9ae5 b13f
000001e0: 08e9 7546 02b9 893f 7622 57f9 7ea0 d73f
000001f0: f66f 568f 249e dd3f 90b4 2ccd 38d9 74bf
00000200: 2aaa 2035 4bd2 d13f 7480 761d 4a46 b53f
00000210: 69f8 47ab b8e7 bd3f 87d2 0a5b 2abd d13f
00000220: 035a bddf c7d8 c03f 1db1 8422 dbce bcbf
00000230: c38f bc54 2d70 9dbf cc8b a500 2d12 c33f
00000240: 57c6 6de9 0a6d 9abf 4e7a 0b8c 1048 af3f
00000250: 1b77 0e00 12b8 d33f 6679 35ab 1479 bfbf
00000260: 9e69 51ff d915 b33f cc7c e6a7 d720 c1bf
00000270: 9abb 5d67 2d25 c0bf 545c 2286 72fa 71bf
00000280: 7ba6 eca1 3c52 c33f 6ec5 95e0 07ba bcbf
00000290: b876 af2d 5431 c4bf 68e5 0234 deb3 d7bf
000002a0: 344b 7b5e 501a cf3f 398a c786 b734 d9bf
000002b0: 4295 3911 587c d9bf 908d c33e 7de6 b63f
000002c0: 5778 e370 22aa a6bf d02a 640b c504 ce3f
000002d0: b811 9706 071a cf3f 8ebc 008b 04cf d13f
000002e0: fb64 e0d5 3f5f b0bf a29f c200 8ad5 c13f
000002f0: 3891 27ee e139 b2bf 9a4c 307e 63da cb3f
00000300: b03b d981 6eec 763f 9d43 3f96 039b c63f
00000310: 459a d236 b7e0 ca3f 0010 8a86 77a8 d3bf
00000320: 26fa f6bd 597c c0bf 0879 f6f5 d684 c93f
00000330: 3205 6514 cc85 e13f a48f da95 e85d e2bf
00000340: d749 78d8 5b3c c03f 4afa 1f31 d62d d1bf
00000350: d891 715e 5f37 e2bf eea2 a54d df94 cfbf
00000360: 4296 603d 1bb2 c5bf 5066 e7ac ad21 c4bf
00000370: 2aea 0e6b edc1 be3f 44b1 617f 750d d33f
00000380: 4429 5b47 8d0e ddbf e5a1 0096 a752 b1bf
00000390: fa53 dfd5 be46 963f e48d 3316 9c5b b9bf
000003a0: fe90 3b8e 6e73 ce3f b053 63a0 8958 c4bf
000003b0: 1c73 88a9 58a7 c4bf ced5 a46c 1a1c ae3f
000003c0: 3a76 fb74 8540 e03f 40ec facc b562 c03f
000003d0: 91ba bb2d 8eec c33f 620c 4bd8 d163 d33f
000003e0: 90d3 6a73 c9b5 d2bf 8740 a178 b492 b7bf
000003f0: 4639 963b 10b1 9a3f 2fd0 496b cf1d c2bf
00000400: 875f d0ed fa04 c1bf 76c0 ea58 6898 bfbf
00000410: 8cb9 0c50 50b0 c63f 3039 0cae e59f 89bf
00000420: 3c97 e91c ce5e c83f 9aa8 5206 9251 c73f
00000430: 24b1 91ea 15f6 a73f 3e09 9640 379b 973f
00000440: 8a90 461f c658 c8bf 9d2d 7ce4 6c1d c83f
00000450: 6ca5 9a52 64b0 c3bf 4ea6 fc87 27cb a13f
00000460: 5f9e f798 2dd2 c23f 90b0 1b77 70b4 d0bf
00000470: ee43 205f 9025 e1bf a4e7 f7fa 5d06 c83f
00000480: 0427 c284 60a0 be3f 867a b50e ba28 903f
00000490: f730 0d67 4d10 bebf 5938 fc03 b56b c6bf
000004a0: 7715 7fd9 99fc b83f f202 03ce c101 d9bf
000004b0: 182b bca1 25bf b53f c520 4473 9013 c4bf
000004c0: 1890 2404 8954 ce3f 5354 8ffd d71d c7bf
000004d0: 86a2 96cb ab09 b33f e682 e429 950b b4bf
000004e0: 8977 7a9d 024b b2bf 7c24 e5b3 0efe cc3f
000004f0: 402f 67b4 c370 cebf 2e5c 2297 6c4b c9bf
00000500: 51b0 8df5 b804 c5bf 7f18 eacd dc0a d3bf
00000510: 02ac 8d69 7522 a0bf beba fb85 2559 a83f
00000520: 31ae 1918 cceb a63f 28d7 1f0d e67c d93f
00000530: 1840 690c 1f4d 923f f10e 26ac 0671 d93f
00000540: 874f 01c1 a53f df3f 68be 2487 2072 cdbf
00000550: bba9 561e 965d c5bf c333 bb5e 7fd4 cdbf
00000560: 3e26 f9bb 59a5 b6bf 3d06 adbb 2eb1 c2bf
00000570: 57a9 848d 1686 c33f 3c6e e874 8f59 c23f
00000580: 38fc 7e1b 2c7d b53f b534 927c 5d27 d1bf
00000590: d458 bf65 ca33 b13f 1f2e a5c6 d6c6 b1bf
000005a0: dcca dfc5 1002 bb3f 7cac e6a2 741f a53f
000005b0: 00fc 7b62 4c8a 243f 86c5 9057 dbc7 9e3f
000005c0: 9110 2fa7 3f91 ca3f 5a81 9cdf 044d b73f
000005d0: 2cac b110 b95e c5bf a2f0 8185 33d3 a0bf
000005e0: ab7f 6bca d501 cfbf 40f1 bf23 53ac b73f
000005f0: 50de a23c 09ef b13f 6c78 2a1b 0a10 b5bf
00000600: 3cdb ee22 9bbe b53f a50e 6b51 4011 a93f
00000610: 28d3 f080 823c b43f dbfc 2523 bc74 c0bf
00000620: b8d5 7dd9 59d3 a03f 00c8 ab92 116c d23f
00000630: f857 f8d9 a8fa 753f 8264 a2e8 4e9b bbbf
00000640: 722c 6c6b 231d b13f 7c71 1ee1 2dec c83f
00000650: e34b bf6f 878e a73f 8497 ba8d a2a0 c73f
00000660: 5439 154e b45e ba3f 2400 ee32 4e12 b9bf
00000670: 0da8 fdc2 de9c c83f 548b 464f 4c78 b73f
00000680: dce3 3e74 07c0 c9bf fa69 288b b7c5 c6bf
00000690: aad3 2e06 4f83 d83f 1c3c a160 5cb3 b2bf
000006a0: 04bf a90a 8cae a03f fc3d 2777 954e d9bf
000006b0: 0466 6fbf 2b2d dc3f a7e8 ed6a f485 d5bf
000006c0: b065 6975 9125 b0bf c18a 91ee 2cc6 9ebf
000006d0: d437 a2f2 1b0a cdbf 94ae 5da2 13e5 cfbf
000006e0: 1ad0 4bcd 61ad c63f a29d 3836 d17e dabf
000006f0: a227 66b3 c541 d33f 5ed4 9d83 e142 bebf
00000700: 1e47 3cc2 6539 b73f 0697 9536 2785 c73f
00000710: be3b 4be5 4583 bd3f c525 71e1 de39 d8bf
00000720: 61bf 8b53 c061 cbbf 05d1 4ed3 ed77 d23f
00000730: 663b 7eff 1af2 bf3f 6235 3114 367b d53f
00000740: 260c b470 d632 b8bf bc16 d775 63bd bc3f
00000750: 78db 02e8 9692 cebf 8f02 f932 aab7 c5bf
00000760: 60d1 44cc 8f2d 76bf 2c13 99ce bf26 b33f
00000770: aae5 3722 f931 c3bf 4a18 247e 2116 b7bf
00000780: c43f 461b 5a55 ae3f 124c 82b3 bf2b b83f
00000790: 558d ebbc b2b9 b4bf fe84 9f3b 5976 cebf
000007a0: 9827 133b f040 ca3f e497 0b06 9c36 b7bf
000007b0: a357 b6bc d845 b0bf c852 577c 7879 94bf
000007c0: e775 1986 a02a c23f c4ef f870 df64 bcbf
000007d0: 15b4 8dff 53f9 cbbf 556d 0cac 7198 cb3f
000007e0: eb76 51d4 b678 a9bf d881 659b 35aa b73f
000007f0: 28d7 38cc 70d6 a9bf 04b5 9363 be00 ac3f

gbias f8 []
3.5298601524518336
00000000: a4df d151 273d 0c40

ibias f8 [1584]
-0.1967614935023854 -0.12788953507350326 -0.4779124902466825 -0.6169230871829754 -0.5438881219614669 0.2574536211877265 0.08783361342856573 0.5132642808478561
0.06380997125229478 0.45561619983052426 -0.3231222940123966 0.13629575232049487 0.1346417041053221 -0.011798801508479246 -0.8826767767707687 -0.4267689952636985
-0.5697494290916043 0.5341626679386785 0.11721503559385375 0.13247689399581045 0.45507126269085474 -0.6278059540243682 -0.1033195036312346 -0.36057417416658494
0.443334253646241 -0.3649300762259168 0.020133058832235994 0.2362237643557435 -0.13495921946795214 0.4000738028707551 0.12430003979130684 0.08584747385539657
-1.0798790507691525 0.5712457791204578 -0.7160101101041021 0.07959300756851927 0.5585964962352948 0.07279198331688096 -0.061890480965775534 0.17603277567203132
0.6186391013393985 0.5022381473337311 0.24207401248131685 -0.9704393833526029 0.3396720402178129 -0.6329552047696207 0.336253668352504 -0.3947008649607533
-0.18006965343423237 -0.17689228623446254 0.5832398549487421 0.3824234666015956 0.5940900836516989 -0.29687413720665023 -0.4892788548106356 0.5266328551707593
0.5375210180156914 0.05525608436598175 0.09002480198106068 0.4855993895067182 0.08783361342856573 0.2742482444030971 -0.15324010163455573 -0.2384648280415341
-0.254089828041534 -1.055638917231858 -0.1104771540691177 0.5494724728146704 0.004105241936104452 -0.05066817608497836 -0.5588811306955465 0.16576412679340136
-0.6594785916531998 -0.004870746963058326 0.4552969987817847 -1.138724813495412 -0.6896579619679378 -0.41216638657143384 0.3857211451893644 0.3906869512104704
-0.50237180641418 -0.304486294570923 0.30798221395274517 0.3512994418102166 0.5811351859632287 -0.3289299493903398 -0.6180643085315664 -0.9038881219614666
0.3331090408576766 0.3989065373135957 -0.7088557935785114 0.4653357484010325 0.7299990253566943 0.2410033324373774 -0.6048989989929909 0.28398988989589796
-0.546560116153778 0.5385119175813903 -0.1893123662045095 0.3968880998486865 0.11179356536778062 0.3541579136906553 0.5732317559398782 0.6860662295510156
0.22240198030966896 -0.2390249304481833 -0.005202714869001383 0.3194901750466137 0.3338673177049221 0.3079974464045048 -0.6359747680064873 -0.724062460306271
-0.2284595863717246 -0.0736975571694376 0.028580703354633554 0.19937193740211295 -0.7159371891361085 -0.003325575139992019 0.1651298584375831 0.16922094975706414
0.47458711304309364 -0.07990128408364724 0.7581533971550339 0.3993712099401944 0.00784687846499391 0.08394643652526072 -0.18216466325823505 -0.5458010268945986
0.6506364706373058 -0.5742129682582638 -0.10336714482924192 0.11429486025248586 0.16085469059480226 -0.3798827085079895 -0.08561531610402708 0.6004720176288509
-0.4267788548106356 -0.48712949499603964 0.5634474957154235 0.28035122850860206 0.4933694357490007 0.17285440686196946 0.3642948602524861 0.1655308259353635
0.5146028275567902 -0.24766861410845784 0.12286999497637419 -0.3737519736302178 -1.0493434434374354 -1.1354416057014933 -0.725751755596903 0.37706486872203215
-0.10486728753082168 0.401001634673436 -0.23986837877819567 0.37958040869030607 0.051334253646239746 -0.04934344343743538 0.14398759214496568 -0.43123040212050473
0.9383158869056816 -0.08831002540863893 0.2592841943619332 0.3054638577116222 0.3928958233859226 -0.1455915979174852 0.29791305514463284 0.2564399168444544
0.3608416242053285 -0.39035530144765296 -0.6560881919364767 -0.835194178786744 0.33649077049833326 0.6140493173084264 -0.1322907853186212 0.34853304669042023
0.35031533362852835 -0.08260945707842034 0.10768881336666976 -0.8962650579885675 -0.03783058967321615 -0.31737957572241227 -0.09741627942974293 0.09695640888763109
0.04648174974085786 -0.6367101178036896 0.41640019675655393 -0.314429258889198 -0.3636276333953544 -0.7741178154418653 0.14312586279334977 0.8390634244214477
-0.9622542252601178 0.09351566629428201 -0.8924184222635696 0.6108542883962002 -0.2608458304394923 -0.556837016893436 0.037712509753316165 0.2723460489840888
-0.532832179890314 -0.23549340108970382 -0.27644732542397643 -0.11533339940230838 0.7962062815643048 -0.45364210716889547 0.2539328160306901 -0.10270144022880821
0.23637335663197787 0.41280571979839004 -0.5171287649565551 0.24304680257954392 0.1350699237740832 0.5112841020814347 0.3341024216390009 0.5922828951717013
0.27443813655263477 -0.7838881219614666 -0.5585984341058933 -0.3185282996218714 0.13663791320116817 0.035305932588508684 0.09396892617908696 -0.9364122932231737
-0.2570310125915239 0.14125675969266172 0.7404304963687658 0.17318010074644893 -0.6969838166029073 0.0018571698993042468 -0.33537321056506 -0.21664542415009336
0.38431958757869666 -0.4601417113397503 -0.3565820598181453 0.47615189164316 0.0315484407555712 0.15490000975331664 0.3341804963687654 0.28335457584990664
-1.1278059540243677 0.025508672948802616 -0.5799600435576667 -0.49059108668375795 -0.2651033169459434 0.601383124108352 0.30584303425069326 -1.0199067683012224
0.19866100628059813 -0.23549340108970382 -0.4070492663157647 -0.19810553770100015 0.36918325815683023 -0.6157755175221109 -0.9751315447252062 0.7090216734295732
00000000: e938 da09 7b2f c9bf 7a17 522d af5e c0bf
00000010: 2467 fd44 1e96 debf c024 737c d5bd e3bf
00000020: 4a3c 1010 8867 e1bf 583c cfc0 1e7a d03f
00000030: 4d4a 2a81 437c b63f bd49 8e36 a96c e03f
00000040: 4df3 afab d955 b03f 9a31 73d9 d028 dd3f
00000050: 4512 5921 09ae d4bf 516e 66a3 2372 c13f
00000060: 4ab0 e779 f03b c13f ca26 e354 f829 88bf
00000070: a169 255e e33e ecbf e6ad 66e7 2e50 dbbf
00000080: 9c9e 9b27 633b e2bf ad4d b14e dc17 e13f
00000090: b39e 79f8 cd01 be3f 6505 98bb 00f5 c03f
000000a0: 4ad3 a637 e31f dd3f 8799 1883 fc16 e4bf
000000b0: 4c96 22a1 2573 babf e1f8 74b3 a513 d7bf
000000c0: f0db 26a2 965f dc3f f6e4 adad 035b d7bf
000000d0: 93f7 02b5 c29d 943f 3214 398f 943c ce3f
000000e0: 124b f4fc 5746 c1bf 583d d426 cf9a d93f
000000f0: b58f cb9d 20d2 bf3f 6634 a79c 19fa b53f
00000100: 4806 6b41 2f47 f1bf ed9c 693a a547 e23f
00000110: 4c14 d008 8ee9 e6bf 0740 7f14 3560 b43f
00000120: 75b4 5fc2 05e0 e13f 87c9 c1d3 7ea2 b23f
00000130: ef09 5def 1bb0 afbf 938a 44f3 3d88 c63f
00000140: 0bf2 883a e4cb e33f 9f43 33bc 5512 e03f
00000150: dbcc 68ff 47fc ce3f a9fe c7e4 d60d efbf
00000160: 7978 06cc 2fbd d53f 3031 0a46 2b41 e4bf
00000170: 6dfa 2e1b 2e85 d53f f465 ad6a c742 d9bf
00000180: 3a44 40bc 850c c7bf 0556 250c 68a4 c6bf
00000190: f250 d7a0 e6a9 e23f 1db7 9146 a079 d83f
000001a0: b42e 0535 c902 e33f 7e2b 9561 fcff d2bf
000001b0: 064e 0242 5850 dfbf f8a3 3e25 2dda e03f
000001c0: db47 2947 5f33 e13f 8389 8386 864a ac3f
000001d0: 7968 568c dd0b b73f 12e4 3876 0f14 df3f
000001e0: 4d4a 2a81 437c b63f 0397 2c82 488d d13f
000001f0: 9162 7a24 5f9d c3bf b3a2 d7f6 0386 cebf
00000200: 58d1 6bfb 0143 d0bf b654 1ea2 e5e3 f0bf
00000210: 7698 ae13 3b48 bcbf fd51 994b 4795 e13f
00000220: be49 b97d a8d0 703f 6745 77de 2df1 a9bf
00000230: 410b 56ae 5ae2 e1bf 70bd b647 c237 c53f
00000240: 1401 f2d8 721a e5bf 7465 9d2e 59f3 73bf
00000250: 9b05 ef05 9623 dd3f 33b4 9182 3738 f2bf
00000260: 7981 0293 ad11 e6bf 656d b51f ef60 dabf
00000270: fab1 fdbd a7af d83f 1711 9bd7 0301 d93f
00000280: 3067 df09 6e13 e0bf 20ca 5015 b47c d3bf
00000290: 4e4f 2b08 fbb5 d33f 4b63 6ba7 b07b d63f
000002a0: d18a 48d1 a898 e23f ca9c d333 300d d5bf
000002b0: 4bf9 fecc 2ec7 e3bf cd27 62c8 a6ec ecbf
000002c0: df14 1f95 a851 d53f 320a fb48 af87 d93f
000002d0: a2fe 5f58 f2ae e6bf 13b2 4297 0fc8 dd3f
000002e0: a39a 80ea 265c e73f a5d4 857b 32d9 ce3f
000002f0: 68db 4125 555b e3bf 69d7 5fee e32c d23f
00000300: c3b5 05a4 6b7d e1bf 1196 5058 7d3b e13f
00000310: bfd2 c93a 633b c8bf 6363 4158 9d66 d93f
00000320: 4069 28cb 809e bc3f eef0 3af4 85aa d63f
00000330: 354b 991f ea57 e23f f6f8 592a 41f4 e53f
00000340: ec71 ff07 ab77 cc3f 4810 9a71 5e98 cebf
00000350: 9185 6723 714f 75bf 40fc 4deb 8672 d43f
00000360: 89bc af06 155e d53f 61c4 e3eb 3ab6 d33f
00000370: dc68 b5c1 e759 e4bf fdda 6809 852b e7bf
00000380: a44d f6e9 293e cdbf b07b d6d5 d7dd b2bf
00000390: 97be d188 4244 9d3f 0eed 7007 0585 c93f
000003a0: 558d aa1b f5e8 e6bf 49d9 ee8e 3c3e 6bbf
000003b0: 5090 caa6 f922 c53f 5c98 8036 08a9 c53f
000003c0: 90e1 67a0 a25f de3f 1e34 0c1a 6974 b4bf
000003d0: bd3a c4e9 ca42 e83f af0d 6a43 4c8f d93f
000003e0: 120c 1033 0612 803f 53e2 7d7f 837d b53f
000003f0: 1a2a 97f3 2b51 c7bf 2956 14b7 3377 e1bf
00000400: 621b 5f93 03d2 e43f 6f77 f3df f35f e2bf
00000410: e0c1 85ea 4476 babf 24a4 e28e 6d42 bd3f
00000420: dfa5 c1f1 e296 c43f d1e4 5690 ff4f d8bf
00000430: 7918 b4a6 e2ea b5bf 2e21 bc17 1137 e33f
00000440: 064e 0242 5850 dbbf f832 7b30 212d dfbf
00000450: 098c e30a c307 e23f a49f 7547 46f1 d13f
00000460: ded3 d865 5d93 df3f 8e87 38dc 1720 c63f
00000470: 0da9 b863 9b50 d73f 0ca6 ef35 1d30 c53f
00000480: 2823 5959 a077 e03f 4fb5 ebea 9ab3 cfbf
00000490: 584d 1572 6874 bf3f d1a9 e365 8deb d7bf
000004a0: 7b5f bd59 1cca f0bf 1b17 30d1 c42a f2bf
000004b0: 7fb4 e9be 5b39 e7bf 246d e8af d421 d83f
000004c0: b377 5d22 95d8 babf 1928 a4c2 02aa d93f
000004d0: b833 19cd 01b4 cebf 4cbd 61a0 0b4b d83f
000004e0: 7b7c 26b9 7b48 aa3f 64ef ab37 8b43 a9bf
000004f0: d36d a577 2f6e c23f f980 8966 4799 dbbf
00000500: e877 f209 af06 ee3f 15fe 095f 7c9b b6bf
00000510: 96de c9bb 1c98 d03f 80cf be47 b88c d33f
00000520: a55c 0b86 3425 d93f ab61 d0d7 bea2 c2bf
00000530: fa72 39eb 0111 d33f d718 0ff8 8269 d03f
00000540: 88d5 bf77 0718 d73f ce6c 62cd 94fb d8bf
00000550: 0616 f5a9 acfe e4bf 475b 7624 e9b9 eabf
00000560: 438e ac95 1089 d53f f110 ffc0 4aa6 e33f
00000570: a6b8 408a e7ee c0bf 0114 478d 5d4e d63f
00000580: ed32 4e01 916b d63f 4dfc 7db4 e425 b5bf
00000590: 8d0d 8e7b 7e91 bb3f 5978 130f 34ae ecbf
000005a0: cca5 def2 875e a3bf f859 896c f24f d4bf
000005b0: a6ad 3ff6 45f0 b8bf cd5a 4f9d 22d2 b83f
000005c0: 03e5 feb5 74cc a73f 12f9 9fe5 ed5f e4bf
000005d0: e682 c702 4da6 da3f 756a f5e5 9b1f d4bf
000005e0: 16b7 56d6 ac45 d7bf 5e5c 92b9 92c5 e8bf
000005f0: 5661 f4c1 f251 c23f c81d e589 9bd9 ea3f
00000600: c0c2 7d5f c9ca eebf 82c8 6588 a4f0 b73f
00000610: d409 3f14 b18e ecbf 990e e94a 1e8c e33f
00000620: f446 c2b5 b2b1 d0bf e24d 18dd 9bd1 e1bf
00000630: 1cc6 14d8 0d4f a33f e536 651f 1e6e d13f
00000640: 4654 5c12 f60c e1bf c752 0dd4 a524 cebf
00000650: 3acf 701f 50b1 d1bf 8ac5 915a 7d86 bdbf
00000660: d707 8698 857a e93f 7140 98e7 7808 ddbf
00000670: 73e9 0e6d 6f40 d03f 9fea 083f a44a babf
00000680: c7a6 306e 7b41 ce3f 5bb1 88ae 686b da3f
00000690: 95e5 a99f 518c e0bf 44fe 3c5a 281c cf3f
000006a0: 1336 a4a4 f849 c13f 90f1 2c7a 705c e03f
000006b0: e30c 9d1f ef61 d53f d1c3 1742 fbf3 e23f
000006c0: 2d33 51f9 6490 d13f f683 f18a 9c15 e9bf
000006d0: a79c c2d2 09e0 e1bf c77d 6e85 c462 d4bf
000006e0: b9dd 4be4 597d c13f f214 a583 9e13 a23f
000006f0: db87 c7f8 580e b83f 99e8 dee9 16f7 edbf
00000700: e1da 4834 3273 d0bf 5805 9c95 b314 c23f
00000710: 3aad db4b 9bb1 e73f e311 83fa c32a c63f
00000720: efd2 4401 b14d e6bf 3b99 c2fe 886d 5e3f
00000730: 8c36 d532 c176 d5bf dcbe c689 09bb cbbf
00000740: a436 f72e b198 d83f 67b3 6e38 f672 ddbf
00000750: 8c97 508f 3dd2 d6bf 514c a2c8 4579 de3f
00000760: d4e7 9102 1e27 a03f 9831 0576 c3d3 c33f
00000770: 6d5a b797 3663 d53f 92a0 1c3b 7b22 d23f
00000780: c14c 8c41 7e0b f2bf d45f 5110 f21e 9a3f
00000790: 2924 825d 088f e2bf 8c03 4128 d865 dfbf
000007a0: 4503 16e7 73f7 d0bf 7e2c 4dd2 873e e33f
000007b0: 903b 74a9 ee92 d33f 302a 6dc2 8951 f0bf
000007c0: 6c99 7b4e b96d c93f c752 0dd4 a524 cebf
000007d0: dff7 ab5d 180d dabf 8088 cab2 855b c9bf
000007e0: 79ea 00d1 b2a0 d73f 0aeb addb 6eb4 e3bf
000007f0: 2e91 bc11 4734 efbf 6f20 7138 4eb0 e63f

umat f8 [942, 50]
0.1546068641736143 0.10389697489563857 -0.11465068009163881 0.06357793634288564 -0.16886785633271492 0.03669988487102531 -0.11722789967946093 -0.1358509250201758
-0.12298039342092093 -0.21436458215300372 0.15024703303700393 0.0922783060246495 0.18239142448683052 -0.25291465302694915 0.319768162993594 0.03758996264588851
0.3470156621977243 0.22887731817480084 -0.07571849619435321 -0.06649106288890883 -0.11214170612627976 0.04346406495362022 -0.02602077076562572 0.06854923562735021
0.12640359990776173 -0.1603846182232225 -0.17620576093292073 -0.07881938511046145 -0.20570828397189272 -0.015120948854144459 0.031204237303494246 0.05806738432443559
-0.1778174895943141 -0.02553298832581747 -0.11311340615645406 0.1340382369547144 0.12281189829917259 -0.09547846220418596 0.15407509273568926 -0.24184891960557306
-0.008129541131088979 -0.22830583253228143 0.35392944570973833 0.046019591831164955 -0.05732073856082803 0.15339514024182177 -0.09380840523242383 0.04889978498891167
0.03715972581321253 0.08733919093581768 -0.4435977167984601 0.04884167438942551 -0.1821849761303178 -0.1966479135548097 -0.1262727639195877 -0.11009684096148435
-0.2824597965819836 -0.0687261619581011 0.32689738400042245 -0.1841140222460541 0.3817566033035194 -0.2447666181116448 -0.34274841617533286 0.17529092441182448
-0.38698393323192953 -0.13598940639445878 -0.15063790901258942 -0.4024605706636726 -0.21191306012123742 0.09319932321899457 0.14226838614632017 -0.06530556951731403
-0.2555480291652586 -0.1043169972685569 0.4024538173079446 0.35744130812753094 0.10393960218586622 0.006254973086901455 -0.02791070879031734 -0.13944028566328812
0.05109356297367901 -0.14499202832926572 0.42037916045843693 -0.16206901181868352 -0.035544624237353856 -0.3977801700245398 0.08941132720472778 -0.13830171356524595
-0.20545662393836478 -0.1874602237757412 -0.06296493122151178 0.05422910441768364 -0.26669051185830484 -0.23356804116484292 -0.361154554660148 -0.313009702036345
-0.23502557812252095 0.04794278115203921 0.1541276589700949 0.48711205381928846 0.14926395482339072 0.34903687751636775 0.09031849513114198 -0.5456373669249855
-0.6205013947074496 0.3790543849816655 -0.09293959216987928 -0.13388356601163165 -0.16257436158117 0.025555548295503352 0.13294250782562264 -0.14275637791407458
-0.1566384552147954 0.4260250597818022 0.07139023373490536 -0.12722899382218247 -0.6822329731050951 -0.6772185048697483 0.43754306268062165 0.4690263064907473
0.19433810063244109 -0.4683025021703425 -0.12894753761503036 -0.35336465989551336 -0.5819674555716176 -0.08285852958353665 -0.14856318894594686 -0.119377563369094
-0.38207202236950855 0.3052626096679829 -0.2562596207947278 0.10395829164491258 0.055726740597869556 -0.18653859688430313 0.036013860907516404 0.28153375511621226
-0.24275121929705867 -0.7642027941235664 -0.04197029962946791 -0.04090671115577324 -0.10407445991738482 0.1809139828814332 -0.31843870275573427 0.20641496274546234
-0.1821160100457413 -0.004193916041039525 0.17331582109705224 -0.10894876217818858 0.10442768512020167 -0.7869060342840447 0.2772622683596352 -0.23593492689213136
0.22815725823637478 -0.07946563330624218 -0.10276156940718081 0.16763464939714712 0.0377956181234953 0.07453817072462651 -0.3333931923233993 -0.4485941147658695
-0.005164427212888699 -0.014054204891001308 -0.3281431563566597 -0.16662035790690358 0.1843967083745544 0.3480998889084163 -0.035843672300523245 0.3393379170109022
0.11663795316189396 0.03974133699919058 0.0736190741707468 -0.15228127568568486 -0.03309323409645951 -0.4214077324505454 -0.059896074866575125 0.3477222460999634
-0.05319472706172218 -0.09007817288029923 0.3899900123912545 -0.11100940528726337 0.09390828307590572 -0.14476866053540433 -0.1718073509539505 -0.18809777700262015
-0.18044818847747035 -0.18642622581893642 -0.31661632330331835 -0.1844156953502855 0.11229701770406708 0.33738563663827603 0.06414105465358204 0.03371851905800827
0.026481139071275875 0.19149213133428833 0.057575664132657106 0.21480497323109962 -0.033238989626612585 0.07127068887575125 0.09166784221714808 -0.0932270588467772
-0.07508827616113647 0.36125351162956304 -0.05724799319955025 -0.041533044541196266 0.15854450173261464 -0.1419949485458588 0.1339131186911962 0.04579535217125902
-0.153417813179142 0.04437053529012705 -0.0161930189158626 0.024682356519882175 -0.10853644261802786 -0.15088051372005484 0.0748110446028949 0.19114599055774278
-0.20012439114504205 0.01117110695569461 -0.11597691395820285 -0.47520081390144264 0.0014740389351379987 -0.09000813384471233 0.1064671453630186 -0.17423320346756183
0.19328362447461814 0.0002048164133251866 0.0003965766505544116 0.35683089460392475 0.4042111848693411 0.2082857197174349 0.22308019521836905 0.13454548174718647
0.12197233411299431 0.071111330071686 -0.1299788447633202 0.07099984829986408 0.20282811085038624 0.032394219966143945 0.007549711921765366 0.10576361685180527
0.13172346218016756 -0.21656697644221884 0.23031611601680463 -0.04957635430255741 0.28999343812843925 0.018411417102747213 0.4347888663765296 -0.3157196763977473
-0.04466152246070185 0.33273537157854455 -0.24651725842758082 -0.16115029165100203 -0.048541038525928934 -0.1731020135593984 0.25741782262025387 0.08638005426066485
00000000: d26f ae60 28ca c33f 7a81 54fd fd98 ba3f
00000010: e82e 7539 bf59 bdbf 4e01 57c5 a446 b03f
00000020: abb6 2540 769d c5bf 3677 93ca 53ca a23f
00000030: 6253 4dcb a502 bebf 87e7 0b28 9063 c1bf
00000040: 08c5 ca9f a47b bfbf 1d49 e272 4c70 cbbf
00000050: ec83 9b76 4b3b c33f 0193 8112 8d9f b73f
00000060: fff2 9e29 9a58 c73f 0a84 dbf0 c02f d0bf
00000070: c801 97e2 1477 d43f cba3 71d8 fd3e a33f
00000080: 54b2 152e 8135 d63f bcb0 2d1a da4b cd3f
00000090: 7767 db90 4962 b3bf 608a 95ec 8e05 b1bf
000000a0: d37b 54a0 51b5 bcbf 62d5 0d03 ec40 a63f
000000b0: 46ff d15d 30a5 9abf ac6d 2f55 718c b13f
000000c0: 28aa d93f fe2d c03f 816c 06b1 7b87 c4bf
000000d0: a46e 490e e98d c6bf 5d1b 57d9 812d b4bf
000000e0: c278 1628 a654 cabf a81a 8166 bbf7 8ebf
000000f0: 4e4b dcea 00f4 9f3f 7082 4619 02bb ad3f
00000100: 7071 3b37 b9c2 c6bf b26b 50d7 5125 9abf
00000110: e15e 2e0c 00f5 bcbf d026 113a 2a28 c13f
00000120: 0f2f c1be 9970 bf3f 7eac a3c8 4671 b8bf
00000130: 26c7 368e bbb8 c33f ffb1 23c8 e7f4 cebf
00000140: b9ec 508a 38a6 80bf 6c29 1b22 2039 cdbf
00000150: ff8a 9ab0 c7a6 d63f 1abe c743 e18f a73f
00000160: 58ad 00d3 2459 adbf 4c1b 5ab3 73a2 c33f
00000170: 472c 90e0 d303 b8bf ff1b 9e82 6409 a93f
00000180: b830 317e 9906 a33f d27a ba78 dc5b b63f
00000190: afb2 8ead e763 dcbf fa71 5ea4 c601 a93f
000001a0: 50b0 2659 d651 c7bf 94b3 c542 c22b c9bf
000001b0: 0e80 b4b7 b429 c0bf 9b8e 527b 4e2f bcbf
000001c0: 9e48 3041 d213 d2bf 4859 fda9 0998 b1bf
000001d0: 5281 5b01 e3eb d43f a412 245c 0c91 c7bf
000001e0: 511f 8e3f b36e d83f a094 f835 8354 cfbf
000001f0: 83a5 8e0d 97ef d5bf d433 d1d9 ee6f c63f
00000200: dbbf 5342 58c4 d8bf 1c88 88d2 1968 c1bf
00000210: 439a 5f5e 1a48 c3bf a484 3bfb e9c1 d9bf
00000220: 9372 6897 f71f cbbf 6623 3c2d e9db b73f
00000230: 0b67 e0b8 d935 c23f 18d2 52a5 ddb7 b0bf
00000240: 4d9c f41e e65a d0bf 9e74 afcb 84b4 babf
00000250: 143b dfa7 cdc1 d93f cc6b 2982 51e0 d63f
00000260: 8bc5 2528 c99b ba3f e095 878d d09e 793f
00000270: e6b1 d9f5 9f94 9cbf 9f98 55e5 2dd9 c1bf
00000280: 7821 047c ef28 aa3f 6c6d ed49 198f c2bf
00000290: eab0 85fe 7de7 da3f 7d67 ba68 adbe c4bf
000002a0: 64cc 4bad e732 a2bf 882c 50f5 3a75 d9bf
000002b0: 987b 3c26 a9e3 b63f b62a 5fdc deb3 c1bf
000002c0: 9eea 4714 674c cabf 8f75 3555 b2fe c7bf
000002d0: 162b 6440 781e b0bf 783e eecb eac3 ab3f
000002e0: 526f a514 7511 d1bf dacd 18bd 8ee5 cdbf
000002f0: 2046 44fe 271d d7bf 65ea 64d8 5908 d4bf
00000300: 863e e171 5115 cebf a12c 41ca f48b a83f
00000310: b2c1 5783 74ba c33f 020a 2909 d82c df3f
00000320: 2813 38ce 141b c33f edf7 81c5 9e56 d63f
00000330: b0eb cfe6 1c1f b73f 3f63 cd7e dc75 e1bf
00000340: 1e82 acbd 25db e3bf 95b4 b952 6d42 d83f
00000350: a38a df9c e3ca b7bf ccf3 bec0 1823 c1bf
00000360: cc60 1497 3ccf c4bf 6763 a4d0 3b2b 9a3f
00000370: abfc ad95 4204 c13f e0da 374b d745 c2bf
00000380: d6c4 3899 ba0c c4bf a783 c29c fe43 db3f
00000390: c62c 255f a146 b23f 81dd c827 0a49 c0bf
000003a0: c8a7 773e dad4 e5bf b62b 5524 c6ab e5bf
000003b0: 4584 339e b400 dc3f 06da d5e9 8604 de3f
000003c0: bda2 4a25 12e0 c83f c638 dd0e abf8 ddbf
000003d0: 8e67 7a58 5a81 c0bf a00e 74ce 869d d6bf
000003e0: 9986 a036 7a9f e2bf 2e85 c172 3736 b5bf
000003f0: 97c6 f45a 1e04 c3bf 98e2 8b2a 878f bebf
00000400: aaca 3236 de73 d8bf 64cc 4d2f 6c89 d33f
00000410: 6351 a6c0 8e66 d0bf 5a4f c3b6 029d ba3f
00000420: 34d4 c220 3788 ac3f d6a7 872a 7fe0 c7bf
00000430: f8d7 99a5 6870 a23f d86d bc27 a604 d23f
00000440: 78f5 f8d1 7812 cfbf a3b8 086b 5974 e8bf
00000450: 78af 9f90 217d a5bf 9cb1 3375 b9f1 a4bf
00000460: feab b1b1 9fa4 babf b7b3 ee7b 3028 c73f
00000470: 7475 87b9 4c61 d4bf f8ca 3235 ce6b ca3f
00000480: 50bb 9cd1 934f c7bf c0a0 d0c3 a32d 71bf
00000490: 80e0 be7b 362f c63f 6eb8 7eea 10e4 bbbf
000004a0: 7c64 63d4 c5bb ba3f 05cd 4890 552e e9bf
000004b0: fe3d c13d aabe d13f 8030 7e9d 1d33 cebf
000004c0: 5c31 3ccd 4134 cd3f 0ccc 3418 dc57 b4bf
000004d0: aeb4 e30b 954e babf 7c28 6b5c 0d75 c53f
000004e0: 6087 8b7f f259 a33f 26e1 90fd ee14 b33f
000004f0: 053c 6f66 5056 d5bf 1e3d 0617 c4b5 dcbf
00000500: 98fb b55f 4b27 75bf 0c6b 0673 73c8 8cbf
00000510: fc50 3d27 4c00 d5bf 6d6b 07de d053 c5bf
00000520: aab8 fab3 4f9a c73f 9b95 a6c1 4447 d63f
00000530: 553c 9910 1a5a a2bf 8eb1 f661 b6b7 d53f
00000540: b07e 4d22 fcdb bd3f 00f3 6bfd f958 a43f
00000550: 03d7 ec1b b3d8 b23f 917c 6eed f37d c3bf
00000560: 758a 53ac 98f1 a0bf e805 4a23 58f8 dabf
00000570: e2e1 6bc5 b2aa aebf 0cd3 c5ce 1441 d63f
00000580: e877 19da 563c abbf acb4 9af6 5c0f b7bf
00000590: 342c 3fab 98f5 d83f 3bd8 41c5 1c6b bcbf
000005a0: 4170 a28c 5f0a b83f e61d 3e8b c787 c2bf
000005b0: 5ca1 c784 c8fd c5bf 5699 5684 9613 c8bf
000005c0: 040c 111e ed18 c7bf 5028 8187 d0dc c7bf
000005d0: c4eb 7d1c 7143 d4bf 8604 33fa ee9a c7bf
000005e0: 6830 7a52 7fbf bc3f 2619 e0ec b997 d53f
000005f0: eb6d 1154 8c6b b03f 6055 3fc1 8d43 a13f
00000600: 147c 1629 df1d 9b3f 58d4 c26c d082 c83f
00000610: 6c90 fdb4 8e7a ad3f 6dda 85b7 ba7e cb3f
00000620: 07f9 cb6a b304 a1bf 7e7e e2bd cb3e b23f
00000630: d8e3 6a30 8b77 b73f 9263 d980 badd b7bf
00000640: 32d3 6c3a fc38 b3bf 7de7 800c c71e d73f
00000650: 667e 1be5 9b4f adbf b7f7 03b8 d143 a5bf
00000660: 227b f3ac 2f4b c43f 34d0 19f6 e32c c2bf
00000670: e25b a4a8 1024 c13f d8ca c407 7d72 a73f
00000680: 6237 1de5 31a3 c3bf b447 f41b bcb7 a63f
00000690: 8d26 ab1a e794 90bf c617 2ae8 5446 993f
000006a0: d8f6 7757 0bc9 bbbf 2002 047c 0d50 c3bf
000006b0: b0f3 f20d d126 b33f f67f 1ac9 7877 c83f
000006c0: 76c8 8c11 ad9d c9bf 1a53 4798 e0e0 863f
000006d0: e79e 8abc a9b0 bdbf 5650 afac b069 debf
000006e0: 60a4 3e41 9126 583f 03ae 3ce7 c50a b7bf
000006f0: b0c1 6e4b 6e41 bb3f 7a9f 620b 464d c6bf
00000700: 2944 fc8e 84bd c83f 8055 0598 7fd8 2a3f
00000710: 00cb 96be 73fd 393f 91ae a13f 51d6 d63f
00000720: 1d3d ec96 98de d93f 9b81 3441 1ba9 ca3f
00000730: 8391 6c4f e48d cc3f a7e0 f64d c938 c13f
00000740: 6d37 0832 9439 bf3f 976f 0825 5a34 b23f
00000750: c314 b793 25a3 c0bf 5a08 78ca 0b2d b23f
00000760: 69eb 6783 45f6 c93f 7804 aba6 f995 a03f
00000770: 1871 c55c 72ec 7e3f a234 7c0b 5313 bb3f
00000780: d200 177d 50dc c03f 5e41 9b78 77b8 cbbf
00000790: 6a57 049d ff7a cd3f 28cf c468 1262 a9bf
000007a0: 603d 34a3 408f d23f c837 5149 71da 923f
000007b0: 8c22 70ae 94d3 db3f f13f 354d c034 d4bf
000007c0: fc70 b704 e0dd a6bf 93be c94c 894b d53f
000007d0: 0a4b 6ca5 e08d cfbf 9ce2 30a0 92a0 c4bf
000007e0: ce29 f7f9 5eda a8bf a9ff 8def 3428 c6bf
000007f0: efef 639a 8879 d03f d785 13d4 001d b63f

ubias f8 [942]
-0.17034279011447573 -0.5778870437605623 -0.06043447489034474 -0.1355952238909565 -0.01910286378562131 -0.07285520277235287 0.007763260417263009 0.1851181997309628
0.04227289085105437 0.76292421892275 -0.027857722169783355 0.2068155062137831 -1.6028142155407605 -0.11331485308088345 -0.1715526199424407 -0.8539699350967952
0.920120902492863 0.29101038544976043 -0.07581680258825667 -0.0951076040533618 0.24413128063178416 -0.8314612146929982 0.6212192428368618 -0.31310505619583284
-0.08002434502579839 -0.6098871013401305 0.09624467509635413 -0.004395657671961669 -0.1623471872540803 0.09991655092169738 0.3466675762458066 -0.35093224352636176
-0.09850525542853054 -0.46466812250980083 0.1033974217856508 0.00840752602327402 -0.1404771331701084 0.5703348503015546 0.21970051871016436 -0.2988322654298896
0.06678098120718243 -0.26217894670348757 -0.6283237091577788 -0.16928900328731306 0.18485324166121103 0.16521590933566044 -0.3525198477259334 0.46864180300521097
0.24302206335286347 0.15458839467137492 -0.09520566462089225 -0.05176799034662007 0.1927560883959749 -0.1929791447353101 0.013579301152409165 0.614719822637746
0.48879917499165987 0.10532397082845295 0.29889218389146344 -0.17958605768645006 0.06496470154938197 -0.05550736836287911 -0.4544929938570981 0.11395803105780493
0.08856367405688384 -0.31051303214051834 -0.04216758932895317 -0.17187354352497375 -0.15925682214003894 -0.08991102974546145 0.04564010669584026 -0.3578069815298142
-0.7578482204009471 -0.001972475623927411 -0.0014829494089989054 -0.456124785062625 -0.11723356785539901 -0.11875369993881281 0.04267950144139534 -0.4807306756852358
-0.17877874192500492 0.11378564418600472 -0.12423488885605864 -0.4275104346835556 0.8246840619635735 0.7809277007958573 0.2587003168751113 0.03872554414822452
0.34202675409432093 -0.9922920971379048 -0.5083131494450512 0.2740727920036242 0.6032605429560904 0.1375035732955893 0.10530698906420047 0.05037446514614475
-0.13195955794553005 -0.4550111230596721 0.31932908811603555 0.0017073271660968063 -0.09900567166642238 -0.38122517055248795 -0.6084787680620136 0.23926454941848435
0.8988895477275395 0.5876880299518737 0.3679063217032205 0.03724862535327203 -0.36505802871455195 -0.11856678517517412 0.3180937069612429 -0.23081626104710123
-0.09411667856977947 0.19797227058874828 -0.04587570480971057 0.045972219475823126 -0.509144596887837 -0.16970678540198664 0.13091262874466797 -0.14808030014683152
0.4623159010735579 0.3358629979446266 0.12172859133631175 0.3786089716721671 0.48357692104984973 -0.156593357786652 0.08084937758611468 -0.2977596294511354
0.0071896269351557525 -0.13851407242778457 0.3836699558329327 -0.21250483571550327 -0.40677747114730073 -0.24988423733253118 -0.32722203399933636 -0.07512575104359373
-0.38458284462157694 0.4177418583311815 0.40942481910629475 -0.11081443969196904 -0.6149510476306097 -0.10620316360465872 -0.7332285362981104 -1.3626653465611007
-0.07149126517174323 0.6112091161222603 -0.039828709108467225 -0.16426586308141053 0.093526417617394 -0.1049640820474118 0.5410115150703407 -0.44698424945480225
0.25071156085683544 -0.013050847193442868 -0.2726973501265321 0.4372283570506878 0.062312865838543174 0.4540678383359443 -0.5589308072345506 -0.4034463628255888
-0.07884836922770021 -0.7900378213788931 0.49718308485514606 0.47772300967803905 0.020869210620271438 0.3441090699225708 -0.059978481757553576 1.280504708837191
0.19941972899133842 -0.1527795551520634 -0.41877081961614143 0.5046638165723959 0.3862014752315428 0.08531055132914168 -0.7722170041209774 0.02144515755576826
0.28402567107692583 -0.3452961753963866 -0.17278740497429687 -0.0385902144091058 -0.6611611737633798 -0.8986236366017835 0.9045914313043832 0.28272225901058035
0.29758152615763267 -0.24114317834109725 0.21470579710186222 0.22405446168517387 0.0681609816631677 0.12877729375243407 -0.036829749400346536 0.31884764464656123
-0.39198104096390446 -0.2833148145426161 0.34050752740688817 -0.5798002864254526 0.47496074017185785 -0.3851361223845703 -0.0023167361192108107 0.15589490968321842
-0.1554390124310818 0.18617001673413927 -0.5956179528561629 0.2216333077855485 0.10782153110688493 -0.13778013244693157 0.24076227580815168 0.028692797418674313
0.05645556189398617 -1.5239320290735663 -0.023918144149427917 0.37034882498953037 0.18894913995134743 0.15291612033814828 0.04311606227595838 0.26505411864845746
0.08694640073442611 -0.18059364129717878 0.029704248710855957 0.09005079428231509 0.24597265397287085 0.08928638361616577 0.3950087869505024 -0.5131009826171825
0.0004906890941049188 -0.06113317505961171 0.3810387982841155 -0.3678653511108217 0.1400246023899487 -0.03632450091382813 -0.14675125958378957 0.3576628062533393
-0.13659257319607898 0.11705546824819879 -0.18395390456692354 0.09650600479358544 0.8359031379556008 0.35112063514034353 0.10962117067885743 0.22139581592475305
0.13368010335124936 -0.2243737351657357 -0.5425767163219881 -0.5185544333384551 -0.11152256281323654 -0.1444383014199724 0.15143390065420573 0.33248409271428564
0.3926410617065811 -0.14806007938052984 -0.15266615475880513 0.02260048128381187 -0.29194780970239925 0.0849255180160683 -0.41253193217259027 0.6870154283488651
00000000: 1c56 53e4 cacd c5bf c47a 37f8 0c7e e2bf
00000010: 05f1 687a 44f1 aebf 957f 0d2e 2f5b c1bf
00000020: 5e72 e07c b38f 93bf 252e 4079 a3a6 b2bf
00000030: cfbd a359 5ecc 7f3f a993 de02 f4b1 c73f
00000040: 44e1 6cd7 caa4 a53f 8f2f 330d e069 e83f
00000050: c81e a416 bc86 9cbf 9137 bf35 ee78 ca3f
00000060: bffb d484 20a5 f9bf 1329 22c4 3302 bdbf
00000070: 4213 19ae 6ff5 c5bf 5b41 e0c1 b853 ebbf
00000080: cd54 1264 a171 ed3f 9665 1306 ea9f d23f
00000090: f395 9adf ba68 b3bf 4e96 02d1 f858 b8bf
000000a0: 093f 1f9d b13f cf3f adf6 9f8c 549b eabf
000000b0: a12a 742d 07e1 e33f acb1 24ca e909 d4bf
000000c0: 1a06 c5b8 797c b4bf 5742 50f4 3184 e3bf
000000d0: eff6 f3b3 7da3 b83f d6b6 205f 2e01 72bf
000000e0: 614b ede9 cac7 c4bf d8ad 898e 2194 b93f
000000f0: fecb a333 cd2f d63f 3cb0 4383 ac75 d6bf
00000100: dbb6 8cf2 a337 b9bf 9c17 6b5d 1fbd ddbf
00000110: ef61 0fe1 4078 ba3f 505a 7b0a f737 813f
00000120: fe95 669a 27fb c1bf 320e 3adf 2e40 e23f
00000130: 471f 6387 251f cc3f b0b3 c05d 1120 d3bf
00000140: 6e96 47f2 8e18 b13f 1fa3 7234 8ac7 d0bf
00000150: 594a c452 3a1b e4bf 4e81 5816 43ab c5bf
00000160: 524b bf61 45a9 c73f 7012 b07f cb25 c53f
00000170: 471f 4b68 af8f d6bf e688 5c30 3afe dd3f
00000180: 684b 27d3 581b cf3f 7a33 ba71 8dc9 c33f
00000190: 2cd0 f0ff 655f b8bf b368 0983 5581 aabf
000001a0: 18ff e143 3bac c83f dd5e b965 8ab3 c8bf
000001b0: d52a d1f2 76cf 8b3f 45d3 cde7 c8ab e33f
000001c0: 55a9 b955 7c48 df3f 9b6c 3102 83f6 ba3f
000001d0: b201 b6ae 0c21 d33f 075a 4a0a adfc c6bf
000001e0: 028b 8cd4 86a1 b03f 6776 9c37 766b acbf
000001f0: c126 38c8 6916 ddbf db83 8280 5a2c bd3f
00000200: 821b b0e3 1bac b63f e59e 810d 72df d3bf
00000210: 33ef 3c82 fd96 a5bf f462 3ec8 f3ff c5bf
00000220: 46d0 600d 8762 c4bf dc72 4ec4 6804 b7bf
00000230: fc06 4adb 235e a73f a5dd fc40 4fe6 d6bf
00000240: 1686 3ee9 4a40 e8bf c069 80c9 9428 60bf
00000250: 1243 a6cd f04b 58bf d64b af02 2631 ddbf
00000260: 8cad eee3 0403 bebf 9125 8479 a466 bebf
00000270: 53fe cc6d 16da a53f eb21 9098 4ac4 debf
00000280: 92da e4c8 38e2 c6bf ab7e 8854 0e21 bd3f
00000290: 0bb2 a890 dbcd bfbf 0f89 eab9 545c dbbf
000002a0: c14f 75d4 cf63 ea3f 82ad ee16 5cfd e83f
000002b0: 5261 1cc6 8b8e d03f f4d9 45a3 d5d3 a33f
000002c0: 104c cc2e c4e3 d53f 782b 295b dbc0 efbf
000002d0: c0c8 1ff0 1944 e0bf 2641 989b 688a d13f
000002e0: e8d5 de0d e94d e33f fd9f 3193 b799 c13f
000002f0: 222b 121a 66f5 ba3f b15d b690 aeca a93f
00000300: 44a5 e200 0de4 c0bf a9e1 36f9 e61e ddbf
00000310: 08ac 8745 e36f d43f 68a4 e295 0cf9 5b3f
00000320: 1801 ed89 6f58 b9bf 5ad6 fb41 fe65 d8bf
00000330: fe5f 2477 a878 e3bf be1a 6c83 38a0 ce3f
00000340: a997 4603 b4c3 ec3f 5f9b 9c20 57ce e23f
00000350: 473f edf4 c68b d73f 6430 6d77 4012 a33f
00000360: a028 9e59 1c5d d7bf 7d1f b890 645a bebf
00000370: 8590 1db5 a55b d43f c288 4a22 638b cdbf
00000380: f920 77d8 0718 b8bf cec5 d8c5 2757 c93f
00000390: 6d64 ad37 057d a7bf f6ac 58b6 ab89 a73f
000003a0: 0830 129c e94a e0bf 3efc 9ab2 f3b8 c5bf
000003b0: 16be 8bb9 bec1 c03f 2d00 2897 4bf4 c2bf
000003c0: 6a07 e26e 9596 dd3f b8f4 0684 c77e d53f
000003d0: 5011 c7de 9a29 bf3f 2a77 d31f 213b d83f
000003e0: 4c9b 409d ecf2 de3f a674 3b4b 400b c4bf
000003f0: aa62 a278 8bb2 b43f f9f2 a367 7e0e d3bf
00000400: 5434 e9c8 de72 7d3f 647a 8e41 d4ba c1bf
00000410: 49a7 306e 0c8e d83f 88e9 d1c3 5b33 cbbf
00000420: 81f1 d45f a408 dabf 2087 90e9 34fc cfbf
00000430: 2cb2 a3af 34f1 d4bf 16d6 d1f3 703b b3bf
00000440: 0d26 105d 019d d8bf def8 ec58 48bc da3f
00000450: 37dd 0e28 0434 da3f 61cd 66ca 555e bcbf
00000460: 6cdc c6d1 adad e3bf 4deb 696a 2130 bbbf
00000470: 609e fcb0 9b76 e7bf 7df5 ad2d 7acd f5bf
00000480: c2bf dc65 404d b2bf bb63 986b 068f e33f
00000490: 9c22 20b6 6d64 a4bf eb55 e4ee a906 c5bf
000004a0: 108f fae8 58f1 b73f 9ff6 a513 edde babf
000004b0: 9c91 7f61 f74f e13f 2112 4fd3 639b dcbf
000004c0: 7efd a680 a80b d03f 4b25 0c0f 67ba 8abf
000004d0: cff4 1f96 df73 d1bf 2fa8 9aa5 8cfb db3f
000004e0: 580c cbd1 78e7 af3f f55e f48c 720f dd3f
000004f0: a993 39dc c2e2 e1bf dfaa 81b1 10d2 d9bf
00000500: 1f08 2d1f 682f b4bf 2b9d ad65 fd47 e9bf
00000510: 96f1 6400 d9d1 df3f a249 c787 0393 de3f
00000520: b6fa 6d04 bd5e 953f 47c3 640c e205 d63f
00000530: cc8f 39e3 7fb5 aebf 9b46 6d81 f27c f43f
00000540: 28f5 18ef 9586 c93f b711 70cc 478e c3bf
00000550: ef4e b11f 24cd dabf 3de5 74bb 3426 e03f
00000560: e054 7264 86b7 d83f 615f f68b e9d6 b53f
00000570: 95ab 436f 00b6 e8bf e138 7029 b8f5 953f
00000580: 89fd 1f02 7a2d d23f 20ba 3021 5519 d6bf
00000590: 733d c3ce e51d c6bf 8e5c aab9 18c2 a3bf
000005a0: aa5b 567a 3b28 e5bf 80c0 535b 86c1 ecbf
000005b0: 8836 b6ba 69f2 ec3f ca4e 131a 1f18 d23f
000005c0: 4869 af62 930b d33f f572 5098 c7dd cebf
000005d0: c034 68c4 7a7b cb3f 71f8 ba0c d1ad cc3f
000005e0: 9447 1b83 ff72 b13f d829 913c c67b c03f
000005f0: ad83 6352 59db a2bf 9678 8af3 ff67 d43f
00000600: 6de3 e5a5 3716 d9bf acb3 bb75 d421 d2bf
00000610: 3a48 9015 e0ca d53f 7e14 8d54 b98d e2bf
00000620: 6803 7bbb c165 de3f 5299 89fa 11a6 d8bf
00000630: 27f3 b13b 8cfa 62bf dde4 5949 5df4 c33f
00000640: 0fff 74f1 6ce5 c3bf 2538 af4a 6bd4 c73f
00000650: a2af 8d61 4d0f e3bf 7555 52f0 7a5e cc3f
00000660: b5a1 e81d 319a bb3f 95f5 7285 c7a2 c1bf
00000670: 0470 5a5a 4cd1 ce3f b103 2d0a a561 9d3f
00000680: 8321 0650 bee7 ac3f 8d2a 238d 0662 f8bf
00000690: 5879 9c7b ff7d 98bf b84a dc8e cbb3 d73f
000006a0: 0064 5944 7c2f c83f 1418 f163 c192 c33f
000006b0: 28a9 d0fa 4e13 a63f 81f9 d08c a5f6 d03f
000006c0: f4c5 a88b 1e42 b63f fb53 9e43 b11d c7bf
000006d0: dbbe 0f63 ca6a 9e3f b7de 6ba0 910d b73f
000006e0: 090c 432c 087c cf3f f50a 9cf1 78db b63f
000006f0: 4971 65ef d247 d93f 455c 7cc0 526b e0bf
00000700: 6ead 4bce 3214 403f 53d1 29f7 d84c afbf
00000710: 71cb 488e f062 d83f f58f 161d 1b8b d7bf
00000720: d73a f37f 53ec c13f f3d3 effe 1f99 a2bf
00000730: 4d93 47ca bec8 c2bf a3a2 f689 f2e3 d63f
00000740: 7477 608d dd7b c1bf b0a8 f1df 58f7 bd3f
00000750: 8510 0b32 cd8b c7bf ebc0 7416 9eb4 b83f
00000760: 2094 04f0 b7bf ea3f bc39 38af c278 d63f
00000770: 3ed2 030f 2210 bc3f 461c 6fb6 b256 cc3f
00000780: 807f 02fc 6d1c c13f 2d21 4f4f 47b8 ccbf
00000790: 7a91 85d8 c95c e1bf a24d 8c77 ff97 e0bf
000007a0: 6d88 0c20 be8c bcbf b9bc 714a f47c c2bf
000007b0: 2d63 68a1 2f62 c33f 497a 295c 6b47 d53f
000007c0: ca2c c6f9 0721 d93f 422a 64f7 a1f3 c2bf
000007d0: 0a94 f286 908a c3bf 408a f39f 9424 973f
000007e0: 77e1 b3dd 45af d2bf 3991 79c2 adbd b53f
000007f0: 712a 4f55 ec66 dabf c562 93c7 07fc e53f
