offline_resampled_model_testing/model_13.npz (npz, 970455 bytes, 5 tensors)

imat f8 [1582, 50]
000000 0f 54 df ba 1f 54 d2 3f 4a cd aa 80 ae 07 9b 3f
       0.28638451813941485 0.02639649067232356
000010 fd 38 d2 f8 6f b2 c2 bf ee af 4b 06 c3 4b b6 bf
       -0.1460704770037821 -0.0870935335512397
000020 d0 c9 05 13 66 5a bf 3f 68 6d 25 f0 f4 72 9a 3f
       0.12247312511843877 0.025829150349961166
000030 93 9a 87 1a ca df d2 3f 48 0a a4 e1 93 5a 9d 3f
       0.2949090251044392 0.028665838858623865
000040 93 61 bf 72 71 20 bf bf 19 15 9c 03 68 ab d3 bf
       -0.12158879329161314 -0.3073368106127688
000050 22 80 d0 f9 04 1c b8 3f 9c 24 ad ba 7d ca c2 bf
       0.09417754267678949 -0.14680453887038858
000060 60 e0 fe 58 2d 05 cf bf 14 99 72 5c cf 9f b5 bf
       -0.24234549375046566 -0.08446975714705146
000070 15 bb d2 8d 9c 1c c8 bf f6 f0 e6 c5 43 a8 ab bf
       -0.1883731548782285 -0.0540181330756883
000080 ba 4d 4e 7b 56 3b c5 3f 53 39 51 ee 6b ef d9 bf
       0.16587334652704816 -0.40523813508197754
000090 c1 ba 8e b5 4a f8 96 bf c9 97 d8 2c d7 66 c0 bf
       -0.022431533175842903 -0.12813844384908027
0000a0 7c bf ce 06 f3 ab b4 3f 84 4d e3 7c 30 04 a5 bf
       0.08074873844338798 -0.04104758762846486
0000b0 03 5d e6 3c 77 3d c4 3f 18 aa d6 d5 2e 3e d2 bf
       0.15812578652978723 -0.2850453460947917
0000c0 71 58 8d 60 e7 e3 d1 3f 82 e0 77 23 dc 52 8f bf
       0.27953514508170146 -0.01529476149788445
0000d0 4b 23 6f 3d 45 68 b5 3f c6 15 f5 ce d6 fa cc bf
       0.08362229108673806 -0.22640500169124617
0000e0 10 3e 06 ca f0 80 b0 3f ce e8 ec 25 2b c6 a0 3f
       0.06446747715221357 0.032761906032151
0000f0 f1 e3 57 97 27 d7 b0 3f 20 92 d6 cd b3 9a c9 bf
       0.06578299946694678 -0.2000336413449455
000100 fc 06 bb 75 0d 56 9e 3f 94 4b 84 d1 10 bc c2 3f
       0.029625139532760678 0.14636430959998548
000110 3c db 47 40 b1 47 a9 bf 38 e8 02 ac b9 46 cd bf
       -0.04937509450603847 -0.2287208642863463
000120 36 9e 03 73 ab 79 a1 3f f0 87 00 c8 43 2b a4 3f
       0.03413139132481684 0.039392584003749564
000130 8c 99 54 1a 5c be d1 3f 18 d7 ea 1d 77 af c6 3f
       0.27724363871893654 0.17722977600868073
000140 74 e1 3e 4d c3 46 cd bf d1 f6 03 28 73 27 c3 3f
       -0.2287220122505108 0.14964141324883554
000150 f9 57 8c 96 45 eb c3 bf 02 60 9c de 3d 95 90 bf
       -0.1556174264048307 -0.016194311821067238
000160 2d a8 44 3d 08 c1 b6 bf fe 0f 67 9f f3 75 e0 bf
       -0.08888293739133309 -0.5143983949024002
000170 28 c8 32 e4 d3 35 c5 3f d8 66 7d a1 aa 0c c6 3f
       0.1657051910638654 0.1722615517162953
000180 26 57 1b bf 03 c6 9f bf 11 4d d2 e9 5d 97 c6 bf
       -0.03102880338595706 -0.17649434964241853
000190 42 da fa 4a bb 19 b7 3f 00 74 24 9c 81 5a 9c bf
       0.09023638325275221 -0.02768900409238384
0001a0 99 fb d0 7f 9a 4c b7 bf fd 90 eb 53 69 5b c6 bf
       -0.0910126268436059 -0.1746646556631574
0001b0 93 90 b2 32 c9 2a c6 bf f1 6b c1 ae 2c fa a9 bf
       -0.17318072295632145 -0.05073680527922154
0001c0 8b c3 fa e1 4c a8 ca bf 3c 03 3c fa 78 73 b7 bf
       -0.20826111826093227 -0.09160572156180263
0001d0 37 20 ce 37 0f 60 ad 3f c1 60 62 2a 85 d9 a0 3f
       0.057373500406413695 0.03290954725633944
0001e0 c6 68 f7 b8 40 fd b5 3f 52 ad a1 05 9b a4 aa bf
       0.08589558139593398 -0.052037090718693904
0001f0 5e 1e 1e b6 46 69 d1 3f 5c bf 16 d7 c1 47 b6 3f
       0.2720505503170666 0.08703242779915626
000200 a4 e5 83 b2 0e 1d a7 3f 05 3a d2 57 3f c6 bf bf
       0.04514356545582679 -0.12411876577446186
000210 0c f1 c4 af 94 4c b0 bf d4 45 03 7a de f1 ac 3f
       -0.06366853038065673 0.05653281440175886
000220 b1 d7 20 d7 9e 1e cd 3f e9 46 8e f7 ca 1a cc 3f
       0.22749696258841604 0.21956765258487757
000230 a7 e8 5a ff 37 21 d0 bf 70 6e 11 b8 87 67 b5 bf
       -0.2520275109960814 -0.08361099475717437
000240 18 97 8c e9 a8 74 c9 bf 6c 5c 0b ce 60 f8 7c 3f
       -0.19887267497795658 0.007072809356677739
000250 d2 08 bd f8 1e f7 b5 bf 69 04 f2 c1 c4 a5 c3 bf
       -0.08580201695170622 -0.15349635572423218
000260 fd 71 da c2 9c f7 c6 3f fc c5 8d 73 25 de d2 bf
       0.17943152918168429 -0.2948087337927914
000270 0a 00 14 67 c7 a3 ce bf 4e 00 4a 8c fd 54 d7 3f
       -0.23937313588248826 0.3645624036798879
000280 6a c1 14 22 0d 1e cd bf 21 19 cf 76 0b ff c8 3f
       -0.227479592934752 0.19528334904880132
000290 30 4e 02 21 62 75 60 3f 26 a6 0c a2 49 f6 d6 3f
       0.0020090977269065155 0.35878220391404836
0002a0 1c 89 cc f4 01 4e b2 3f f0 99 15 00 e0 d6 a0 bf
       0.07150280214822086 -0.032889366159725486
0002b0 9d 36 e3 29 e6 f0 a8 bf 2a cf 18 01 40 bd 98 bf
       -0.048712914098002026 -0.02415943152136816
0002c0 29 e9 d1 df f7 30 c4 3f 8f da 90 78 91 28 90 bf
       0.1577443926688116 -0.015779755576853346
0002d0 89 2b 15 ce f8 4f af 3f 75 6f a3 73 21 cc a1 bf
       0.06115701213510422 -0.03476051842309761
0002e0 00 6c ab 66 0b 19 d6 bf 49 a0 8a b1 e5 ce 9a 3f
       -0.3452785971291519 0.026179875336908052
0002f0 3e 84 ab fb dc 28 c5 3f f9 d5 2d 8f 16 14 a5 bf
       0.1653095463616711 -0.04116888520995227
000300 e8 9c 7f d2 13 7e c3 bf 65 e5 51 a8 95 49 c4 bf
       -0.15228507784124834 -0.15849562376733242
000310 df 25 27 8e 1b 41 d1 bf f3 7a df 31 e6 10 de 3f
       -0.2695988548481107 0.469781445221016
000320 f8 55 4d ba bb 4c c7 bf f9 7d 1a 34 86 28 c2 3f
       -0.18202921482831846 0.14186170143237556
000330 10 f7 38 eb 98 a3 bf 3f 9a 58 80 b9 b4 9a d4 3f
       0.12359004729020406 0.321942502168335
000340 ac f2 a7 29 a4 a1 b3 bf 00 f3 14 07 29 60 82 3f
       -0.07668519989960981 0.008972473648662938
000350 90 cb 34 00 3f fd b6 bf b0 0c e8 a3 9b 95 9d 3f
       -0.08980172877345027 0.028891021613173862
000360 38 b3 67 cd cf 69 b9 3f d0 5a 61 67 13 84 c0 bf
       0.09927080883762762 -0.1290306334292013
000370 f5 c0 2e 69 02 d3 cb bf 78 12 ab 08 ad 2a e0 bf
       -0.21737699638243382 -0.505209462099244
000380 89 8b 82 f5 26 06 d5 3f 11 5c 53 75 9b 38 c1 3f
       0.3285004994924568 0.13454001644888128
000390 35 4a 7d 29 b2 7d db 3f 47 76 50 94 65 e8 c3 bf
       0.42954687167835753 -0.1555296873274747
0003a0 12 9c b2 53 78 a9 d2 bf 98 84 ab 6b 10 a3 c2 3f
       -0.291593629585294 0.14560132272075488
0003b0 32 aa 05 01 97 c3 bf 3f 35 73 93 63 19 66 cb bf
       0.12407821440653136 -0.21405331956966625
0003c0 8a dc 08 63 22 af c7 3f 5c 4f 0f 47 ca 27 a6 bf
       0.1850321754043061 -0.043272324728291095
0003d0 7c a3 d3 80 52 06 d1 bf 2b 52 21 2f e0 39 b9 3f
       -0.26601088124021266 0.09853936339033768
0003e0 6c 82 0d ee fa 97 a8 bf 50 68 f4 10 7c 37 bc 3f
       -0.04803451686780566 0.11022162832196725
0003f0 38 03 5e 86 79 c3 af bf 6a 9b c3 db b2 d4 95 bf
       -0.062038228657007755 -0.021319193518958647
000400 e1 41 31 f8 cd c0 b0 bf 6e 20 80 b0 7c 3c d3 3f
       -0.06544196423897787 0.30056683765770387
000410 ca 5a 44 03 7f 15 e0 3f d2 55 93 9b ad a7 a9 3f
       0.5026240409668727 0.05010740779986701
000420 95 fd 74 ad 3a 1e b3 3f b2 e0 09 0c 78 da a6 bf
       0.07468001112737561 -0.04463553568797475
000430 08 b9 30 1d b0 c1 b3 3f 09 a6 09 db fc 0c 8d bf
       0.07717419350294474 -0.01418492835473996
000440 b8 80 78 4c 42 a1 b4 bf 00 82 c1 7e 29 c6 83 bf
       -0.08058561675034326 -0.009655307942183278
000450 44 4b 8d ae 95 5e c7 3f 8b 1c 45 f4 de 20 ad 3f
       0.18257399580996936 0.056891410177336864
000460 c8 9a 7f c3 00 84 c8 3f a4 2c 8d bb d8 30 b6 bf
       0.19152841134856247 -0.0866828401459992
000470 b8 37 cc 0d 07 28 d0 bf 72 8a 44 2f 58 34 d1 bf
       -0.25244308803018667 -0.26881985298147193
000480 78 28 cf 6d c4 2f b4 bf c8 74 36 e2 77 70 85 3f
       -0.07885387116326281 0.010468422499622668
000490 48 a9 0d d7 cb 27 d6 bf 6b f0 73 4f 44 79 b7 3f
       -0.3461789703493605 0.0916941350914741
0004a0 05 01 0b 48 83 60 c6 bf 50 9c 46 06 bb 4c b3 3f
       -0.17482033746455997 0.07538956549852682
0004b0 f9 57 a4 48 cd f3 ca bf e0 3d 8a e7 39 a5 a1 3f
       -0.21056524321528494 0.03446370078483674
0004c0 aa 99 b5 3c 2d cc bc bf 00 18 8e e8 ff b4 c1 bf
       -0.11249048931276798 -0.13833617072322113
0004d0 5e 55 b5 1e 5d 1a c5 3f 72 f5 12 6f 29 f4 c4 3f
       0.1648670577948605 0.16370122836626028
0004e0 d4 fb 5c 46 64 20 de 3f 93 e5 66 ac 95 35 ce 3f
       0.4707270323887631 0.23601027410567763
0004f0 ee d8 08 2b d5 65 a9 bf 5e 20 86 da 24 fe b3 3f
       -0.04960504675220699 0.07809667906815451
000500 13 3d 22 f2 7e 23 c4 bf 5a 9d 0a ae 7a d2 98 3f
       -0.15733324835716953 0.02424041449799339
000510 88 25 94 f8 d2 2e b0 bf 08 90 b9 4e 90 da d2 3f
       -0.06321447914901601 0.29459006965612433
000520 89 bc a1 a4 70 ee a1 3f a9 81 e3 5e 91 09 c2 3f
       0.03502227792420693 0.14091698773610276
000530 c2 3a a1 6e db b4 cd 3f 63 c2 2f d6 29 1b aa 3f
       0.23208182241292802 0.05098849048215894
000540 6a 8a 94 34 10 db bc bf 7c 5f 80 c4 60 37 d5 3f
       -0.11271764072129434 0.3315050047835866
000550 9b 18 91 46 96 58 c4 bf 28 60 a1 69 76 2b ab 3f
       -0.15895346112865102 0.05306596793587942
000560 9d 86 04 ef f2 bd ab bf a8 52 84 29 29 80 bc bf
       -0.0541835705537441 -0.11133057845683914
000570 5e ae 5e 90 ec 9f bf bf a3 70 fb ec 12 70 c5 3f
       -0.12353399777082916 0.1674827248706424
000580 92 54 60 a0 e2 27 d4 3f 6d 88 ff 04 2d 89 cb 3f
       0.3149344030546867 0.2151237749486116
000590 22 fc a2 93 56 b1 e2 3f e4 17 90 37 0d 2f bf bf
       0.5841477283028136 -0.1218117008830571
0005a0 05 6d c0 11 3e c4 bb bf e8 cb 60 3f 21 e0 bf 3f
       -0.10846317227735731 0.12451370045964405
0005b0 60 04 74 ff 8d 69 b3 bf 8f 8a 75 ed 63 ff aa bf
       -0.07582938658380689 -0.052729723679267974
0005c0 9c 5e bb f7 ca c7 b9 3f c9 6b 8c ca b2 b2 c2 bf
       0.10070484684126274 -0.14607844247879445
0005d0 bf 16 31 23 16 e7 d3 3f 7e 57 37 36 17 0a c2 3f
       0.31097939907736455 0.14093294284128527
0005e0 c3 09 b7 76 3a 0a c9 3f 3d 98 91 72 98 7a d4 bf
       0.19562464520102027 -0.3199826353869673
0005f0 97 ed ab 70 08 c1 c1 bf 63 11 8b 6c c6 c6 ba 3f
       -0.13870339871924095 0.10459556722623158
000600 93 8a 94 80 98 ae b2 bf 65 c5 0a 64 78 c8 c3 3f
       -0.07297661914030078 0.1545553673254673
000610 a2 e0 ea 7d e6 9c b6 3f 69 52 22 8d 33 39 c0 bf
       0.08833160947949861 -0.1267456473475648
000620 49 f4 a2 e4 79 cc bc 3f 77 d1 54 ef ab bb d4 3f
       0.11249505836436059 0.3239545666904386
000630 be 1a 07 14 4b 01 c5 bf e5 9f 2d 18 9f ac c2 3f
       -0.16410196760099 0.1458929889734001
000640 8e e3 9c 5e f9 2c c8 3f 8c f5 90 b7 4e 97 d0 bf
       0.18887250060813837 -0.25923507620230946
000650 74 08 92 61 a5 2a cd bf 50 d3 84 68 72 0f ae bf
       -0.22786395324880326 -0.058711600550316434
000660 c0 83 bb eb 03 2c 94 bf 7c 5c 3a e4 48 61 c3 bf
       -0.01969915510460729 -0.1514063944239047
000670 42 7c e5 75 16 31 a7 bf f9 1e 20 1c e5 b5 c3 bf
       -0.0452963847080743 -0.1539884936648759
000680 b8 00 a0 00 23 eb 96 3f 22 cc 6f e7 e6 ee b1 3f
       0.022381350434444086 0.07005160475073116
000690 fb 8a 6f 10 7e 93 ac bf 02 53 90 d4 27 51 d2 bf
       -0.055812778002083584 -0.28620334394626934
0006a0 63 b8 ca cc 61 5c d5 3f 3f 70 6b ae e2 d9 c2 bf
       0.3337635517044701 -0.1472743369730569
0006b0 ad 94 72 74 d4 ff dd 3f 9a 52 ad cd b7 12 bb 3f
       0.4687396180327806 0.10575436374103689
0006c0 73 19 3d b4 26 47 d0 3f 53 96 d9 7f 17 6a cf 3f
       0.25434272386009765 0.24542516462968197
0006d0 1e 05 9c 13 5d 81 c2 bf c4 21 1f 0e d5 3d a5 bf
       -0.1445728631734164 -0.04148736760504648
0006e0 d6 ec 4d c9 7e 9c ca 3f 59 fb aa c7 d9 b6 bc 3f
       0.20790085629764715 0.11216508030609641
0006f0 e4 90 24 18 44 3e da bf 04 4e a7 9f d8 22 9d 3f
       -0.41005041463564695 0.028453240150907902
000700 fd 23 4d 7c 45 55 ab bf 5e fb 65 cc 9b de b4 3f
       -0.05338494436598038 0.08152173748201849
000710 d2 80 f3 0f 94 85 a3 3f 6a 57 95 93 37 15 d3 bf
       0.03812849707333189 -0.2981699887508201
000720 52 a4 19 d6 60 66 d5 3f 30 c8 df d6 4f 59 ba bf
       0.3343736735174093 -0.10292529102278603
000730 af 0f fb f3 18 16 c5 3f 3b e4 0d d6 54 80 c7 bf
       0.1647368613540698 -0.1836038632571063
000740 06 3f ea f6 89 14 d4 bf 42 1d a8 e3 bb 6f d0 bf
       -0.3137535964278729 -0.25681969863986265
000750 ae 91 84 d5 9f 65 c4 bf 48 fe 5a d9 a2 54 bd bf
       -0.1593513290946595 -0.1145726948407112
000760 ac 8e 37 62 4c d2 c3 3f 82 64 25 95 97 a6 a5 bf
       0.15485529704812018 -0.042286622005755184
000770 a1 1c 91 d3 84 8e b3 3f 9a 70 8a e0 94 32 d4 bf
       0.0763934151192296 -0.315587252882105
000780 5c 17 64 47 f9 1b a7 3f a6 cf fb 82 33 44 c2 3f
       0.045135297741622366 0.1427063359802762
000790 30 14 f4 80 8c 47 9d bf 20 6d fd 8a f8 69 cb 3f
       -0.028593249674504218 0.21417147432917094
0007a0 d0 19 b1 8b ac e5 d8 bf 0a b7 5c 70 42 a9 c0 3f
       -0.3890181888749824 0.13016539083894713
0007b0 02 0b 88 84 11 62 b4 3f 3c d3 17 9a 19 34 d3 3f
       0.07962140546446153 0.30005493209982936
0007c0 62 28 5b ab d4 5e c8 3f 96 26 14 10 dd 4d 87 bf
       0.19039400450702987 -0.011378981640990642
0007d0 dc c4 f3 cf 66 67 d0 bf 10 a3 ce 30 0c 81 95 bf
       -0.2563111334594177 -0.02100009010215148
0007e0 02 c7 5b 7f 81 c8 c3 bf 74 f8 99 cc 3b 56 ce bf
       -0.1545564529292776 -0.23700664034180685
0007f0 26 fc 0e ca eb 71 d5 3f ef 95 04 41 79 66 bb 3f
       0.3350781892040139 0.10703237378455531

gbias f8 []
000000 38 73 e0 ef b3 3c 0c 40
       3.529640077626393

ibias f8 [1582]
000000 eb a9 ee 14 dd e6 cb 3f a0 c0 ce 45 53 d8 e2 3f
       0.2179828979690933 0.5889068950109682
000010 99 1b e2 c8 4b a2 d9 3f a5 2a 2c 64 8c 80 d4 3f
       0.40053076379302294 0.32034597189400876
000020 a8 5f 91 2a 5d 2b bd bf d5 3d a7 33 01 e9 db bf
       -0.11394293107275522 -0.43609647793070155
000030 01 a5 8a c2 70 c2 e4 3f 57 81 9d 8b a6 b0 d5 3f
       0.6487354087486495 0.33890689501096943
000040 68 40 41 d3 4a 8d e0 bf 11 ca 02 69 0b 79 d2 3f
       -0.5172475935051013 0.28863797430963795
000050 25 22 9b 74 79 e2 cd 3f 90 f2 49 c4 c3 10 d5 bf
       0.23347395127918094 -0.3291482369311689
000060 42 06 53 df 20 9f d6 3f 15 99 f3 66 4c 77 b9 3f
       0.35346242722525656 0.09947659982171715
000070 29 4f 20 2e 4a 54 a3 bf a3 f2 16 ca f7 c0 c1 3f
       -0.037752454882279025 0.13870141379984088
000080 30 b2 a7 66 0b 32 ab 3f 35 b6 11 eb 38 56 c7 bf
       0.05311618450273092 -0.18231879690158484
000090 2c 43 a2 65 f4 a4 c5 3f 62 0f 03 f5 fc 48 dc 3f
       0.16909651720609398 0.4419548409170969
0000a0 be dc 05 49 b8 76 ac 3f 06 df 02 98 0f 69 d6 3f
       0.05559326068299118 0.3501624092564132
0000b0 0e 86 3e 01 cb 95 d0 bf 3b c5 0f f3 df b0 c2 3f
       -0.2591426384115899 0.1460227906059489
0000c0 a6 34 ca 97 ba 93 e5 bf 27 f6 cf 66 53 81 e7 bf
       -0.6742833103795831 -0.7345368392995554
0000d0 4e df 83 c7 1e 2d bd 3f 0b de 2e 14 3a e1 cc bf
       0.11396973010039099 -0.22562337861539591
0000e0 93 81 0d 4e f2 26 b0 3f 09 f3 52 a8 05 f5 e4 3f
       0.06309427648148462 0.6549099242762121
0000f0 0e c0 07 36 82 1c e3 bf 16 b3 23 c7 2e fa dc 3f
       -0.5972300582197947 0.45276994178020524
000100 8a fd 76 2d 51 cb dc 3f 08 65 52 5b ea c1 d9 bf
       0.4499094909660576 -0.40246066015386406
000110 58 46 e8 c3 9b 90 e8 3f 76 6e 04 b0 eb 06 c6 bf
       0.767652399665347 -0.17208620161624183
000120 92 01 3a 05 84 38 e2 bf 6e 15 cf de 4a 11 be 3f
       -0.5693988897401587 0.1174513620345203
000130 b1 9b 59 96 d1 75 9a bf c0 32 f5 82 21 4f ba 3f
       -0.025840067674291315 0.10276994178020527
000140 bf f1 30 5b 8a 2d 9f 3f e2 98 9c 28 20 c9 ce 3f
       0.03044716054522367 0.24051286681169076
000150 bd fd 29 a5 fb e6 d8 3f db 4e 58 cc 3d 99 e2 bf
       0.3890980828218423 -0.5812062255012863
000160 83 4c 6c 2a 6c 90 c7 3f 7b 8c d1 4f 1b 4a e0 3f
       0.18409492560804006 0.5090462264019061
000170 07 fa 88 91 2c 26 e4 3f a9 e9 cb 18 89 bc e4 3f
       0.629659923790144 0.6480145916278178
000180 1f 9d ad ba 7f ed ce 3f e4 6e fb 2a 8a 0f a5 3f
       0.24162289252419897 0.041134183642240335
000190 f3 cc 36 b2 d2 18 c5 bf 0e 86 a3 4c 46 e8 c0 bf
       -0.16482003881319648 -0.13208845846297418
0001a0 8b 0e 49 4a 84 6d d7 bf 52 69 ba 5e 95 6d b7 3f
       -0.36605937246734105 0.09151586115550472
0001b0 bf 8d de 48 8c c3 e6 3f 7c 34 a9 65 cf 4f e7 bf
       0.7113706038693904 -0.7284924493375367
0001c0 70 2d 36 26 c1 02 de 3f 78 5d d5 86 61 ed d7 bf
       0.468918120685621 -0.3738635842068656
0001d0 cf d4 16 2d 98 58 d5 bf bd 47 a5 d6 16 66 e1 bf
       -0.333532375366599 -0.5437120621011143
0001e0 e6 9b 99 27 eb 0d 9d bf f3 79 6e 83 74 6a d9 3f
       -0.028373407642359093 0.3971225055228437
0001f0 cb 2f c5 7a 9e 39 d3 bf f4 ec 47 8f 84 29 be bf
       -0.30039178838046315 -0.11782101152487084
000200 2a 3c 9d 7f f0 0b e0 bf b6 a5 90 1e 0c de d3 3f
       -0.501457452055438 0.3104276941763503
000210 26 77 cf 80 7c e0 dd bf 2b 22 56 e3 3f c1 e5 bf
       -0.46682655886785296 -0.6798400345006191
000220 0c d3 d7 8b d8 58 d3 bf 48 26 1d 66 8c 7f da 3f
       -0.3022977224020884 0.4140349385457722
000230 fc 48 09 d1 de 32 e4 bf c4 5d 5d 43 57 27 e6 3f
       -0.6312097628345152 0.6923023524968177
000240 98 34 8c 2d 50 0c d4 3f 99 1b e2 c8 4b a2 d1 3f
       0.3132515377809084 0.27553076379302294
000250 0c d9 9f ff 0b 7c e1 bf b0 4c bd 60 c8 93 c6 3f
       -0.5463924400962994 0.17638497089010263
000260 4f 8a 13 4b 73 2c e1 bf 28 5d 3b b9 c4 05 eb bf
       -0.5366760698637537 -0.8444541566667896
000270 8b 02 89 7e 82 86 d7 bf d1 12 94 7e 52 01 ec 3f
       -0.36758482319786684 0.875161406730138
000280 36 49 60 d7 5f 0c e4 3f 4e bc 86 f4 8f cd e3 3f
       0.6265105444493091 0.6188430572418697
000290 3f 95 b2 83 2b ac ed 3f c2 8d 91 e7 43 b8 b6 bf
       0.9272668430536796 -0.08874916461495899
0002a0 f0 66 d6 3d 60 91 bc bf d7 eb 85 52 97 d4 e2 bf
       -0.11159326085762777 -0.5884510623721962
0002b0 52 a4 5d 12 dd 08 d5 3f 98 90 f5 65 fa 27 d1 bf
       0.32866598886045495 -0.26806507069546504
0002c0 2c 05 fd f7 b0 e9 d8 3f bb 5c cf 7c 06 48 a4 3f
       0.38926338403332994 0.03961200974998166
0002d0 5d 5b 61 c6 fe 49 d2 3f e0 0f f9 0d b2 ea d8 bf
       0.28576630948139387 -0.38932467808285587
0002e0 0b c3 7c 4d b5 45 e0 bf 27 64 68 db 98 f4 dd bf
       -0.5085093034195735 -0.4680540220884403
0002f0 b0 19 c2 b4 47 1b d9 bf 4a e8 bc 38 4f 7e e2 bf
       -0.39229004528206257 -0.5779186351931085
000300 9a 45 b9 11 e2 45 e9 3f 43 33 f7 8e 35 eb ec bf
       0.7897806497732518 -0.9037120621011144
000310 70 47 fa e1 89 65 e0 3f 76 b3 ac 84 3d b8 c1 bf
       0.5123948491693522 -0.13843506792309385
000320 e4 8b 33 a5 f8 50 dd bf 87 17 9c 77 e4 6a ed bf
       -0.4580670941633669 -0.9192983947875611
000330 84 59 1e 3b 6c 21 e3 3f dc 9f ec 78 ba 38 d4 3f
       0.5978299288424727 0.3159624272252566
000340 98 e7 c8 5a d2 64 b8 bf b0 72 4e aa 79 20 ca 3f
       -0.09528841701913249 0.20411606612915056
000350 9a c5 b1 39 b9 36 db 3f be ef bf d7 24 6a a3 3f
       0.4252150596067509 0.03791918882049526
000360 07 8f 7a 29 58 2f e0 3f bb 3b 20 33 01 1a ec bf
       0.5057793436176049 -0.8781744001915891
000370 77 b8 4b 53 da d6 e0 3f 6c c0 a3 31 2e 5c bb 3f
       0.5262271525259753 0.10687531196504246
000380 92 14 8b 51 68 95 cc 3f 23 90 9f f5 6e f5 af bf
       0.22330955487828824 -0.06241938350993361
000390 27 5b 61 df 13 8f d7 3f 75 83 93 c7 23 2e d2 bf
       0.36810776533586637 -0.2840661477076119
0003a0 c9 f2 0a 9c fe 79 e8 bf 51 25 bc 16 b4 4e d8 bf
       -0.7648919151029868 -0.37980367870530524
0003b0 ba 96 4d c6 17 fb aa bf 80 df a4 b9 3f 7d d2 bf
       -0.05269693656627568 -0.28889458779621435
0003c0 71 62 f3 a0 01 be da 3f dc c4 44 90 21 0d 64 bf
       0.4178470680031188 -0.0024476676500389937
0003d0 51 1d 73 3b 36 9a b8 bf 0b bf 24 29 1f cd db 3f
       -0.09610308600814689 0.43439463632510983
0003e0 08 fa b5 0e fc 41 e7 bf d5 f7 33 51 9d ea de 3f
       -0.7268047606774539 0.4830697339056063
0003f0 0c b9 a2 db 43 01 bb 3f 7d 6a 72 2c c9 7a b4 3f
       0.10548805343816897 0.07999856314783389
000400 b6 50 7a cb 07 de a8 bf 76 5f fa 37 89 bb e8 3f
       -0.04856895789012709 0.7728925793953596
000410 1a ee 74 25 bf a4 dd 3f 20 64 49 a4 b7 3a 93 3f
       0.4631803384579328 0.01877867641664832
000420 1a 00 9c 43 59 dd da bf d1 28 cc 60 fe ed c6 bf
       -0.4197600517509287 -0.17913799025001834
000430 7a d3 58 a7 f5 32 c8 3f ba 34 29 aa ce d1 e3 3f
       0.18905516310919862 0.619361240716578
000440 99 1b 6e 09 9c a9 d1 3f 47 28 41 44 f3 52 e6 bf
       0.27597714348706287 -0.6976257641883955
000450 80 50 93 b6 76 f8 db bf de 9c 7e ab a6 78 cf bf
       -0.4370400221789694 -0.24586947797545283
000460 2b 14 73 9a 61 46 f3 bf b8 d9 e2 99 73 80 d5 bf
       -1.204682925528014 -0.3359650614542278
000470 97 7c aa 50 18 b0 c7 bf ea 4c dc 38 d1 05 d3 bf
       -0.18506149233596567 -0.29723005821979476
000480 2b 39 10 42 0a 89 e7 bf 0f 2a a8 31 d8 ee 69 3f
       -0.735478524236702 0.0031656477488060174
000490 fd 35 31 7d 30 b0 d5 3f b2 68 65 51 e9 be d4 3f
       0.3388787481861469 0.3241523070224829
0004a0 a5 5f 0d 6a 50 30 b0 bf b5 03 f8 b1 ce 09 e4 bf
       -0.06323721493879349 -0.6261971927598241
0004b0 56 1b e3 5d 33 4c d0 bf c1 48 00 ba c3 77 ca 3f
       -0.2546509186617433 0.2067799242218538
0004c0 ca 6d 80 77 e8 10 d9 3f 1f 00 88 b7 04 70 d3 bf
       0.3916569869049594 -0.3037120621011144
0004d0 f9 e4 d3 24 2c 50 d7 3f 4c e1 45 d1 5a ef c4 3f
       0.3642683372159606 0.16355452745825472
0004e0 2a 2c cc 8c a4 dd cf bf 80 65 f0 76 4f 65 ea bf
       -0.2489515006530792 -0.8248669932392403
0004f0 58 59 1f fc e1 55 e8 3f 72 a8 03 3c 62 73 e2 3f
       0.7604837345377673 0.5765849277643282
000500 64 05 7c 00 c8 b3 ef bf f0 96 be d8 ff a3 ac 3f
       -0.9906959542715126 0.05593871613318224
000510 30 07 d1 8b 94 a1 db 3f 75 26 6e 9c e8 82 e9 bf
       0.4317370763202346 -0.7972300582197948
000520 c7 0e cf f5 03 8f cd 3f 65 fb d3 8d 94 f8 e8 3f
       0.23092698576339485 0.7803442735747522
000530 49 37 47 26 47 d9 d4 3f b8 02 56 4a 3e 85 c0 bf
       0.3257615922747062 -0.12906626348196482
000540 08 b0 76 30 e1 ea e6 3f a6 6c b9 45 87 05 dd 3f
       0.716171831756129 0.4534624272252564
000550 bf 6a 83 c9 f2 b7 d5 bf 4b 44 2b 95 9a fb da bf
       -0.33935231856382225 -0.42160667960439885
000560 b0 f2 db 75 b9 5a d4 3f 10 ef ba 6e b2 fc d6 bf
       0.3180373812645412 -0.3591734010076246
000570 ed cc 4f 61 7c 61 de bf b6 6b bb a9 2a 74 d5 3f
       -0.4747000646886608 0.3352152497806701
000580 80 09 59 5f a6 7f 92 bf 7d 2d d8 bd 90 19 e6 bf
       -0.018065070695465035 -0.6906207759761142
000590 f4 3c 9e ad af b3 ce bf fd 9f 38 10 b3 95 c2 3f
       -0.23985858895728251 0.14519346515703538
0005a0 c3 f1 bc 96 fe 21 cd 3f 8c 41 1b 40 3e e0 ae bf
       0.22759992943055182 -0.06030458958196325
0005b0 48 90 50 77 85 10 cf 3f 16 e4 1a 9f 1a 1a e7 3f
       0.24269169164574778 0.7219365222473495
0005c0 61 c7 6f 47 d4 15 d0 3f d5 ee 52 ab 95 11 d4 3f
       0.2513323495505713 0.31357328158240466
0005d0 12 b3 c0 6d f6 2b e3 3f b2 95 2a fd 32 b9 bf 3f
       0.5991165298088126 0.12391966515368472
0005e0 b0 72 78 1d fa 42 d5 bf ae 25 ae 33 91 a3 d0 3f
       -0.3322129524038173 0.2599833492937148
0005f0 86 59 c7 d0 86 83 de 3f 60 64 4f cd 16 64 96 3f
       0.4767777479986751 0.021866184502730923
000600 c3 f1 bc 96 fe 21 cd 3f 9e 52 d1 c9 65 30 dd bf
       0.22759992943055182 -0.4560789557338384
000610 59 ce 53 55 77 b6 d4 3f 80 df a4 b9 3f 7d d2 bf
       0.32363684971571655 -0.28889458779621435
000620 9c 3f 35 f9 d8 2d a4 bf cd e7 d8 13 99 54 ed bf
       -0.03941228906717173 -0.9165768993036579
000630 b4 24 96 e0 3e 46 b9 3f c1 b2 bd a6 a5 5c e8 bf
       0.09872811301296985 -0.7613094574604348
000640 87 17 9c 77 e4 6a e1 bf 5d 56 17 5a 5b 62 d8 bf
       -0.5442983947875611 -0.38100322530713077
000650 d4 69 68 f1 08 33 db 3f ce 17 6e 10 ab 04 d1 3f
       0.424989925145977 0.2659099255037035
000660 c3 45 61 02 c9 ad 90 3f 61 65 e3 b4 4d e1 d2 bf
       0.016287937898885618 -0.2950014368521661
000670 80 be 75 0d 44 a7 52 bf fd df d3 6d 5c 09 e0 3f
       -0.0011385120941120042 0.5011427064009691
000680 18 ef e4 2f 8c 4e 86 3f ab 0f 89 5e 2f f6 98 3f
       0.010892005168549754 0.024376621384604096
000690 34 65 fd 59 b0 a6 ea 3f 8a f0 51 53 7b 5f dc 3f
       0.8328477628339557 0.44332774292684773
0006a0 72 60 6b ac 72 12 b9 3f d9 29 42 0b 90 12 e0 3f
       0.09793774327715868 0.5022659511462805
0006b0 12 20 fe 9c 7a 51 c5 bf 00 0c e5 d6 a6 ec ad bf
       -0.1665490404668622 -0.05844613431192869
0006c0 52 d9 72 8b 0e 0b ca 3f 3a 1d ba b0 01 69 b2 3f
       0.2034624272252566 0.0719147736036704
0006d0 93 ea ee aa b9 a5 d1 bf e4 0e 4d 9b 73 af da bf
       -0.27574006741239393 -0.4169587151156817
0006e0 8c f9 a4 74 79 e7 d5 3f 4c fd 31 75 1b 1e e2 bf
       0.34225307837541474 -0.566175202271475
0006f0 1d 56 8f 47 95 13 db bf 0e 81 6b 76 b2 a0 cf bf
       -0.42307025898239364 -0.2470915868971208
000700 96 49 22 a2 f1 38 e2 3f c1 9b 19 55 1d 41 9b bf
       0.5694511572531151 -0.026615579909414103
000710 c3 79 a7 05 da d2 ca bf 8d e8 fc aa 01 34 b4 3f
       -0.2095596816643149 0.07891855644712305
000720 1c c4 79 06 80 bb d4 3f 30 19 b6 62 89 c8 b2 3f
       0.32394409782779277 0.07337244663185483
000730 d9 81 e1 56 0d 4a 73 bf 01 56 98 ef bc 59 e1 bf
       -0.004709293467471253 -0.5422043494788228
000740 c7 2d 78 8c 1b d1 cf bf c2 58 40 54 d3 84 c1 3f
       -0.2485689578901271 0.13686601270518933
000750 88 df d0 10 3d 60 e2 3f 72 2d 70 00 f2 99 db 3f
       0.5742478683887251 0.431271076610492
000760 b5 78 28 81 8e 21 de bf 4f fa 52 c6 5d 09 d3 3f
       -0.47079813588232905 0.2974466740378476
000770 dc ff e2 8a c1 9b d4 3f 99 bb f3 e5 9f f8 d6 3f
       0.3220065933528511 0.3589248414636415
000780 ea 4c dc 38 d1 05 d3 bf ab dc fe 0a 01 ec b2 bf
       -0.29723005821979476 -0.07391363638349684
000790 9a cc 94 45 1a 12 c7 3f a3 04 a1 1d a5 a4 b6 3f
       0.18023994824907136 0.08844978307117173
0007a0 2a 0f e9 ec d9 db ed 3f db a8 d7 a6 1d 33 eb 3f
       0.9330873133808144 0.8499897249833127
0007b0 11 8f c8 e1 5e 08 d9 bf 6c 30 25 70 e2 bf e1 bf
       -0.3911359028736437 -0.5546734037720973
0007c0 ca 75 0c da 32 5c df 3f b7 99 c8 6d b5 48 d7 bf
       0.490002358377606 -0.3638127872567582
0007d0 93 d5 c1 d9 71 7b 77 3f 73 20 10 6b ab b6 df bf
       0.005732960442505502 -0.49552426772471064
0007e0 3e d0 b2 29 a3 96 b5 bf 4a e6 56 fa 61 2d d0 3f
       -0.08432979362515966 0.2527699417802053
0007f0 6c 6a 1f 34 b3 ae cc 3f c2 b0 3e 0e 15 6e f1 bf
       0.22408142132811137 -1.089375548976975

umat f8 [942, 50]
000000 f8 19 74 63 26 0a 85 3f 0a 2e 2c c8 c2 7d a2 3f
       0.010273265752869229 0.036115729270104494
000010 10 e8 34 5a 28 fe 70 3f 20 66 4f c3 aa 72 b1 3f
       0.0041486336006588825 0.06815593021692523
000020 df 23 6b ef 94 f3 b9 3f 20 56 66 5b 78 52 a7 bf
       0.10137301297358146 -0.04555107227058053
000030 5f 62 75 12 b7 b3 a7 bf 5b b3 b7 97 8c 8e d1 3f
       -0.04629299259494667 0.2743255120865819
000040 e2 66 c8 d2 01 27 af bf ef a1 c1 7e be 71 cc bf
       -0.06084447572739095 -0.2222211951186774
000050 dd 5f a7 1c fb 9c c7 bf 19 4a a0 28 ab d4 c7 bf
       -0.18447817706214567 -0.18617763026902948
000060 fb 85 c6 71 47 3c b0 bf 9a d5 8e 78 ca c2 7f bf
       -0.06341978576394773 -0.007754126455372124
000070 aa 04 46 44 61 3d bf 3f 0e 28 78 eb d8 aa 86 3f
       0.12203033367952068 0.011068052946047426
000080 7a 6f 0d 75 8f 95 bd bf 97 cd a3 68 4d 03 a7 3f
       -0.11556336028792016 0.04494707014410009
000090 d0 60 2a 32 49 36 b7 bf 65 41 63 7c 42 1a b2 bf
       -0.09067208742851851 -0.07071319138345229
0000a0 12 21 4c 04 01 6f ac bf 06 5a 2f 07 c1 cd 9a 3f
       -0.05553439309557197 0.026175514281783684
0000b0 f8 a3 f9 b4 b1 00 d0 3f 06 2f f2 b7 e9 44 91 3f
       0.25004236863475127 0.01686444459168881
0000c0 1a 0e d7 1d 67 15 c8 3f 58 a9 88 76 fe 01 c3 bf
       0.18815316159280898 -0.14849835193428862
0000d0 72 64 0d 3e 7b 53 b4 3f 56 a1 9a 70 8b 11 aa 3f
       0.07939882531117506 0.050915105338676866
0000e0 22 41 b5 8f 71 67 b5 bf 72 d1 db 50 39 ce b6 3f
       -0.0836096740579291 0.08908422683800213
0000f0 e1 ca 2b ed c9 51 c1 3f 0c 82 bf 59 c3 97 d5 bf
       0.13530849533670788 -0.337387883801086
000100 c0 7c 57 71 d9 b1 d5 bf ee 2b 5d 75 68 75 97 bf
       -0.33898006504564293 -0.02290881363232338
000110 3b 35 9d 80 92 1f c1 3f d3 cc 91 4e bb ff b7 bf
       0.13377600936875375 -0.09374590557290512
000120 58 d8 d7 fc 55 6e bf bf 46 41 bf bb 72 75 aa bf
       -0.12277734206131308 -0.05167730848154632
000130 f9 d9 8a d9 30 27 b3 3f 60 7e 5c 5f fc 91 a5 bf
       0.07481675444692105 -0.042129408493789766
000140 e2 7c ed 48 0f c7 d5 bf cc 78 0d 41 2b 5e c7 3f
       -0.34027464029163756 0.18256130863568953
000150 0f f2 16 aa 7b 09 c8 3f e6 e0 60 1e d4 d0 ac 3f
       0.18778940014989629 0.05628073569136109
000160 8a 13 62 89 3d d5 bd 3f 93 56 36 9c 69 93 c5 bf
       0.11653503994064188 -0.16856117370177923
000170 80 07 d9 c5 4e 46 c1 3f 6c 14 a5 11 6d 19 c4 bf
       0.13495812092338255 -0.15702594148220628
000180 88 33 4b 84 25 fe c2 3f 92 4f 3a c9 40 b7 a2 3f
       0.14838093719154366 0.03655435997384794
000190 ac d0 30 77 c7 f9 b6 bf 6b 3d fd 75 ae 8b cc 3f
       -0.0897488275521165 0.22301274071876817
0001a0 be cb f4 4f 03 d4 9e bf 3e 30 88 14 bc 57 d8 3f
       -0.03010564017786143 0.38035490040852327
0001b0 7e ad 22 37 d8 28 d9 bf e0 c2 6e 77 ce 8a c9 bf
       -0.3931179560119843 -0.19954853851006416
0001c0 7e 67 40 56 55 e2 c4 3f c0 b2 5c 06 e5 a3 d2 3f
       0.1631571456098832 0.29125333424853395
0001d0 f1 31 45 5a f4 8c d5 3f 5e 44 43 29 7b cb d3 bf
       0.33672818007906274 -0.3092945006329212
0001e0 6f 73 fa cf 35 b9 cb bf 7a 8e fe 3f 72 53 d6 bf
       -0.21658966689292522 -0.3488431572861611
0001f0 64 c8 42 90 0c a4 b3 bf e2 b9 01 4a 80 10 e2 3f
       -0.07672194025033857 0.5645142980045501
000200 76 24 e5 13 ec c1 a4 bf 2c 17 64 6d 09 e2 cc 3f
       -0.04054200880870777 0.22564809647899986
000210 80 73 38 6a 1e dd 6b bf 85 ce 0e e1 7f e3 af 3f
       -0.0034013361016733135 0.062282558653717714
000220 f8 c5 73 9e 5d cc bf 3f f9 e1 75 23 ef 58 a2 3f
       0.12421212309325103 0.03583476360194377
000230 4e a9 89 44 70 55 cb 3f d8 6a ef a6 14 80 7e 3f
       0.21354487749642675 0.007446365997533198
000240 95 2c b7 cd 5a 61 e9 3f b0 a0 e2 5c 0d c0 9e bf
       0.7931341188317612 -0.030029495996729494
000250 8a 4d 4d 42 c0 dd ad 3f 48 38 3f b2 2e 87 d0 3f
       0.05833245095586921 0.2582508793537994
000260 ba 66 f9 85 0d 4f b4 bf d2 3d a5 15 66 67 d3 3f
       -0.07933125038962432 0.30318595994773745
000270 49 f8 4d 5b 21 7f d3 3f 8b 45 23 b4 14 45 d3 bf
       0.30463441769086735 -0.301091361919213
000280 36 ad e8 2a 38 bb 99 3f 5b f2 0d 02 06 f0 c0 3f
       0.025128247851325024 0.13232493496242878
000290 85 a8 ee b5 5e 1e b3 bf 9d fa 72 2d 85 e5 de bf
       -0.07468215886788883 -0.4827588027800774
0002a0 ee 51 19 ad 4c 62 df bf 2c 63 76 31 c0 3f a4 3f
       -0.4903747263354309 0.03954887965955431
0002b0 f8 3e 5f 20 e1 1e 80 3f da 85 7b 04 d7 e8 d6 bf
       0.00787139778176947 -0.3579614204191707
0002c0 3d 31 9c 08 dc 65 d7 3f ec 1a 0a 4d 39 f8 b0 bf
       0.36559201088745735 -0.06628759508940235
0002d0 fc 3e 06 b2 a1 33 cb 3f 9c 6b 9a eb dc a7 d7 bf
       0.21251317207906328 -0.36962054260373534
0002e0 58 6b ce 0f ac 1d 99 3f cc be 80 0c a9 06 ba bf
       0.024527252640477698 -0.10166412883040293
0002f0 fc f3 ab eb fc 20 ac 3f ee 4b 83 4f fc 9c cf bf
       0.05493917824603753 -0.24697831995453562
000300 78 a0 f4 b2 23 52 9b 3f 81 44 77 63 6c 4d cb 3f
       0.02668052463300838 0.21330027443631042
000310 82 dd 70 17 af 50 c7 bf 48 7d 25 58 3c db 7b bf
       -0.18214977879118172 -0.006800876350410441
000320 3f 69 17 39 4d 30 c0 3f 08 09 29 e9 6e 17 d5 bf
       0.12647404945057336 -0.32955525178489653
000330 6a 82 36 c6 30 28 d3 3f a9 4f 0e ec ab e8 91 bf
       0.2993280349419708 -0.017489134104451107
000340 72 03 71 8f 47 87 98 3f 94 d1 9e e8 c3 4b cd bf
       0.023953550462695934 -0.22887467249314553
000350 b7 48 83 69 5a 12 b4 bf c3 bf a5 9b ba 30 8e 3f
       -0.07840504718777451 0.014741380572303236
000360 6e da 37 f1 f5 3e df 3f 52 ec 1a 1a 4d 81 bb bf
       0.48821781689131327 -0.10744172942479338
000370 62 f6 31 81 25 18 cf bf fa ed b3 2d 42 bf c6 bf
       -0.24292439277990058 -0.1777117465170333
000380 19 b3 3d c5 f8 51 d6 3f 93 30 fc 25 c7 a3 bf 3f
       0.3487531591588762 0.12359280278559685
000390 dc 42 da d3 94 6e a0 bf 16 47 a1 19 23 39 a2 bf
       -0.03209366880503747 -0.03559217155328846
0003a0 3a ca 1c fb 6f 2b ca 3f 6b 4e ae 01 3c 1f cb bf
       0.20445060502386686 -0.21189069826197068
0003b0 2c 99 af f6 37 e3 b0 3f 83 6d f1 76 a3 69 da bf
       0.06596708080869423 -0.4126976644090165
0003c0 5c a2 96 12 c7 9f c5 3f 93 64 77 24 79 3d c7 3f
       0.16893852622640082 0.18156351357064135
0003d0 6b 09 cb 3e 76 3f c8 3f 92 32 39 ee 56 0d c1 3f
       0.18943670335836357 0.13321959144595447
0003e0 58 3f 2a b5 81 b7 c8 3f 18 9e 36 43 2e c6 be bf
       0.1931001791567677 -0.12021149769736217
0003f0 f0 a4 a8 5c 0f 4f 3b 3f 65 0d 4c d3 40 d0 c5 3f
       0.0004166996483570681 0.17041788403740124
000400 00 e2 2f 28 1e 7b dd bf 64 98 7f 71 b6 b8 a4 3f
       -0.4606395142032227 0.04047174582937954
000410 58 83 47 18 00 e4 ce 3f 6e 2a b0 e2 7a 68 d2 3f
       0.2413330191184524 0.2876269544364395
000420 80 58 14 f2 86 0d b2 3f b7 fc 2f e2 fd 8c c8 3f
       0.07051890764373248 0.19180272621449543
000430 91 9d c8 f6 29 37 c2 bf 96 57 64 4c e7 2a a6 3f
       -0.14230846929534072 0.043296077799978835
000440 fe 6b f6 e2 32 de ab bf 56 99 a5 5a b6 a8 d1 bf
       -0.0544296171239793 -0.27592238285287374
000450 5a 54 41 4c f1 09 b4 bf ef 7a ad 35 57 4b c3 bf
       -0.07827671157549912 -0.1507367145631728
000460 05 cf c8 ae 9d 3b ba bf 3c d9 ff 56 cc ad c8 bf
       -0.10247216717908365 -0.1928039002229499
000470 b8 53 bd 71 96 1a c9 bf 15 43 53 e2 ab a4 cc bf
       -0.19612389138879194 -0.22377537299191688
000480 42 26 23 ea db 1a c7 bf 03 76 16 e1 34 51 b3 3f
       -0.18050717289433932 0.07545786376291379
000490 1b af bc c4 e2 69 d0 bf cc 89 53 09 11 8d b5 bf
       -0.25646275723078 -0.08418375470822709
0004a0 5c d1 7a b0 fc 48 d2 bf be 12 0a 3e c9 78 a4 bf
       -0.2857047770915153 -0.039984024832880646
0004b0 4e c5 0e 3c 98 4b b6 bf 8a 09 fc 43 16 9f a5 bf
       -0.08709098306896587 -0.04222936229600112
0004c0 b9 b0 d7 f9 18 7b ac bf 63 c2 bb b0 14 b5 c7 bf
       -0.05562665986858079 -0.1852136481243348
0004d0 c4 f5 f0 2e 2e 27 ae bf 8a eb f0 99 5d 1f bf 3f
       -0.05889267275822932 0.12157235153510562
0004e0 04 9d c7 e0 48 08 be bf 88 b8 78 ed 3e 9a be 3f
       -0.11731391418253528 0.11954110429425857
0004f0 72 c7 8e c2 fb 2a d0 bf a4 9d 77 b7 a5 e5 bd 3f
       -0.25262350082186125 0.11678539017849815
000500 1a 40 82 6b 98 61 c5 3f a0 99 42 d5 b5 5f 8f bf
       0.16704087495281855 -0.015319271631892672
000510 3f 74 ca e9 80 b6 c6 3f 00 75 cd e1 1a 2f b5 bf
       0.17744456687515428 -0.08275001538045856
000520 9a 05 73 be ae 25 c8 3f fc 93 0b 57 7e 84 89 3f
       0.188649981491875 0.012459742576035986
000530 ac 44 ca 8c 02 7d c8 bf 0b c2 e5 3d f1 cd b0 3f
       -0.19131500124470813 0.0656424308888363
000540 ee d8 01 d4 0d 8b c8 bf 14 49 43 75 91 ac 9c 3f
       -0.19174359180369244 0.028002045423655877
000550 cc 62 dc 27 dd 52 bd 3f 49 a9 88 54 0b 0f d2 bf
       0.1145456526104553 -0.2821682286763872
000560 b9 b0 ee 33 0c b6 bd bf ae ef 74 01 35 e8 d7 bf
       -0.11605907695656272 -0.37354779379142655
000570 f2 75 0a ab c1 a6 cc bf c8 1e ac e0 18 7a c5 3f
       -0.22383900500874138 0.16778861017541247
000580 4c 15 45 9b 30 1f a8 bf ef 89 41 39 ca fa be 3f
       -0.04711295981773364 0.12101425073482351
000590 70 01 82 27 71 21 a5 3f 78 c4 c7 ac a1 dd d6 3f
       0.04127076728127832 0.35727731583671796
0005a0 a8 9e 34 37 b8 89 ca 3f 25 c3 28 be d4 b5 cd bf
       0.20732786841948792 -0.23211154255980052
0005b0 ca 1e 48 5a c2 a1 af 3f bd 24 68 93 02 a9 d4 3f
       0.06178099968024993 0.32281555552669855
0005c0 88 5d 49 7c f7 6b be 3f 62 74 00 b1 1f 76 a9 3f
       0.11883494171467224 0.04972933803240022
0005d0 a7 1c c6 f9 33 e6 c7 bf fa aa e0 0c cf 5a be 3f
       -0.18671273895254112 0.11857313217539547
0005e0 d5 43 1b e6 46 22 b0 3f a8 fc 1d de 3c 5d c2 bf
       0.06302302472910466 -0.14347039075434975
0005f0 12 03 e8 4c 3a e5 90 bf e7 73 7d 1d c9 8b d2 3f
       -0.016499434417713017 0.2897818363178985
000600 ba 93 19 ab 11 7b 82 3f 28 c3 21 d8 40 94 a6 bf
       0.009023798021368868 -0.04409983290032066
000610 d2 9b ea 77 7f 56 bc 3f 43 cc c0 b3 28 48 a1 3f
       0.11069485356948341 0.03375365442516245
000620 4b 7d 2e cf 52 8c c4 bf 87 25 6b d4 3a 00 b3 3f
       -0.1605323325756934 0.07422225652694268
000630 76 91 f7 69 3f 82 c9 3f a0 0f e0 d6 06 6c 83 bf
       0.1992873446862508 -0.00948338835951984
000640 1a b7 9a 61 99 95 b7 bf 75 d3 75 37 bf 1e c5 bf
       -0.09212645180624826 -0.16500082214374925
000650 ab 3f 8e dd fc 8c c9 bf 4a 71 b8 e1 57 89 b3 bf
       -0.19961510484836018 -0.07631444226030229
000660 f5 ab c4 65 67 4e c6 3f c4 2c 5d 59 06 e4 c7 bf
       0.1742676970401075 -0.18664626468157597
000670 df 02 11 17 30 41 d4 bf a3 3b c3 96 2a 01 d9 bf
       -0.31647875073035253 -0.3906961891452118
000680 30 c3 d4 99 e1 d3 d4 bf b6 18 71 c3 f8 84 c3 bf
       -0.32543220541542706 -0.152495475225981
000690 a8 96 a7 29 1e e6 68 3f e2 4f 85 a6 c7 6c b0 3f
       0.0030394162288186095 0.06415984931419375
0006a0 f8 12 6e f5 c2 4f b7 bf 2f ba 06 11 6d 56 ca 3f
       -0.09106081478064343 0.20576251345978977
0006b0 a3 e2 b4 62 89 df c5 bf fe 01 e9 2a 29 08 c1 3f
       -0.17088429755837806 0.13306154818748434
0006c0 58 a6 6d e5 30 65 74 bf 9e be e4 d1 55 2a a3 bf
       -0.004979315758512813 -0.037432367202538716
0006d0 49 54 82 29 ce 53 90 bf b1 92 8c 3c 93 b7 b0 bf
       -0.015944691928400343 -0.06530113437890851
0006e0 05 18 6b 27 3b f8 ba bf a2 49 f0 68 35 e6 ce 3f
       -0.10535020553933812 0.24140040992695072
0006f0 c2 9e 38 09 a2 6c da bf 6a 1e 5f a9 73 c0 9b bf
       -0.4128804292727005 -0.0271013328672595
000700 b8 44 c8 7e 1c b7 9a bf fd 52 54 fc e5 e7 b5 bf
       -0.026089139211823847 -0.08556973848710565
000710 08 c3 80 0a 9d 6d a6 bf 14 aa 22 b7 d8 b8 d0 bf
       -0.04380503419122844 -0.2612821377212253
000720 8d 1c a2 31 74 15 cb 3f f4 26 ef 88 0b 71 bf 3f
       0.21159222053049512 0.12281868069763019
000730 44 72 6e 7a 6b 53 b8 bf b2 ef 57 8b 6e 92 d9 bf
       -0.09502288569496736 -0.3995624886299495
000740 3b ff 3d 91 2b 98 a2 bf ec 48 98 a1 b0 e9 a8 3f
       -0.036317216377027305 0.04865791294663943
000750 cf 62 4a 64 53 79 c7 3f 72 fe fc 2d a1 29 cd bf
       0.18339006802559374 -0.22783293481369388
000760 8e bf dc 4a e0 7d c3 3f 7b 51 e4 66 2f 72 98 3f
       0.15227893500695838 0.02387308183195234
000770 08 57 6d b8 50 da b4 3f 12 e1 c7 af 08 a5 bd bf
       0.08145622732748958 -0.1157994679596224
000780 b5 7f cf ad df 43 a7 bf 53 53 2c a0 ce b6 ca bf
       -0.04543971058569644 -0.20870383091883102
000790 c1 81 af 7a 68 bd b0 3f 1e 78 1c 9a eb 92 d1 3f
       0.06539013858083022 0.27459230470583573
0007a0 8d bd 27 5b 09 fb c1 bf d8 ff 33 47 fc a1 c6 3f
       -0.14047352744044553 0.17681840397562953
0007b0 4b 4a 94 12 6d 0a a1 bf ab 01 18 b1 76 3e cd 3f
       -0.03328266956136313 0.22846873900563244
0007c0 9d 5c 0d bf da e1 b7 bf 2e b2 60 81 c2 dc b0 3f
       -0.09329001583442893 0.06586852701793397
0007d0 ee 1a b7 54 b8 00 be 3f 54 67 32 9b be 0b d6 3f
       0.11719848697894594 0.3444668307871457
0007e0 34 f8 8b 38 65 0d cf bf 88 4f 4b 60 c3 df 99 bf
       -0.24259629498550483 -0.025267651321726287
0007f0 ae 27 d4 01 90 2b 87 bf 4a 90 21 34 6b 7a bd 3f
       -0.011313557678039956 0.11514921210033538
