offline_resampled_model_testing/model_1.npz (npz, 974097 bytes, 5 tensors)

imat f8 [1583, 50]
00000000: 2079 6918 7da1 74bf 0c0c 5992 3f1b b73f
00000010: f0d8 c182 bc91 d0bf 98a4 6d10 fcd6 bd3f
00000020: fa92 5e84 45cf b1bf 9209 023e e0b9 d03f
00000030: 10fc 5640 8061 b93f 60a9 ed09 37c5 c53f
00000040: 157b e50f 13c4 a1bf fa40 08cd 2405 903f
00000050: 96cd a59a 0098 dabf 50f0 8424 3759 b6bf
00000060: e01b 6097 914c c83f 1da4 73e8 4f9c d0bf
00000070: 5214 d79b 4b2a be3f f682 ea72 444c c43f
00000080: 72ad be0b 02c4 c9bf 8110 8c90 ab84 c0bf
00000090: 9b96 6fc9 c856 c23f f843 835c 94e5 bf3f
000000a0: d738 6ae5 08f9 c43f d034 a7b0 fb41 ba3f
000000b0: 922e 9586 e950 a1bf 7c4e 3d16 b39e a03f
000000c0: 0cd3 3a3f 7920 c83f c2e7 a03f d10d cd3f
000000d0: 0c8e 2ee3 0044 c43f 2408 16d9 ed20 abbf
000000e0: 6d81 67f1 765b d03f 246f b27f 840a c3bf
000000f0: 3e20 078c 0f7b b43f 70a7 bf08 c086 c2bf
00000100: 86a1 0bb1 f2ad b0bf 1e3b 70e5 c412 ba3f
00000110: b1d7 44fc 5541 c0bf 2045 be17 08a2 b73f
00000120: df7f b2ff 0146 d03f 0cbe 00e7 e0c8 bdbf
00000130: 223d 2bee 62cd a3bf 3e51 9114 5a65 c1bf
00000140: 9ed8 1e8b 27bd c63f 5c80 62af 7f6f c3bf
00000150: 2013 6f0a 85db 8e3f 2847 d470 e32d 8f3f
00000160: 1ba3 2969 499b c23f 04a0 c7aa 43b2 c5bf
00000170: b659 7048 f538 df3f d6e2 0cfe 3c68 aebf
00000180: a886 39d5 95af c3bf 9f3a cea8 bf8f d0bf
00000190: be8e e4b4 0c05 db3f 7235 279c a2c7 a4bf
000001a0: d507 c545 adf3 b33f f8ca 32b9 cd19 e7bf
000001b0: a242 ef0a f5a8 bd3f c669 eecd 7e0d c13f
000001c0: 29bf 606d 8705 b0bf 9a86 e023 c6a4 d0bf
000001d0: d6df 5b93 8d31 cc3f 58ea 082a 3147 a7bf
000001e0: 4d0c c60c 7f15 cc3f f9b8 bc6e 38b4 d03f
000001f0: a03d a18f b67c ab3f fe3a 5c8c 0561 d1bf
00000200: 3297 b461 eb1b c13f d256 7f87 d98e bfbf
00000210: 0ba8 216e 9dd0 c2bf 8ed9 d92c 720e c1bf
00000220: ca62 bb57 1828 c4bf a280 11fc 06a5 c3bf
00000230: 723d 2a9b ed4e d13f 009a 4bea 75b0 ddbf
00000240: f41c e00d 1481 c83f 9c94 f5b7 6839 b7bf
00000250: 2e77 d410 e2dd d2bf 4011 c934 60c6 643f
00000260: cc34 42c1 8878 923f 984b 2eff eaca cc3f
00000270: 00e1 6a09 83f8 53bf f67c 8b4f f79f 94bf
00000280: d220 82b5 6caa d43f 0088 1e92 7831 b83f
00000290: 1600 415b 4c36 be3f 22dd 8043 c728 ce3f
000002a0: bc58 11e6 f7fc c1bf 3437 ac26 0832 b93f
000002b0: 7f72 f4c5 7281 d33f 14bc 914d c069 95bf
000002c0: 6854 d871 7d70 c53f 7392 9d4e 812c b83f
000002d0: aede 7dbf 1619 e0bf 0f56 ca78 2e8b ccbf
000002e0: 3574 cc8d e07d c2bf 6e6f ca85 8b16 dd3f
000002f0: 1cdf fca8 cb17 c0bf 0e0a 57e9 f3ea ca3f
00000300: baf5 9a6f 926e e33f c62a 884c 0d40 ccbf
00000310: ae2a 25c7 9da7 c63f a8c1 34d2 5397 b5bf
00000320: fc68 eed5 ab2e a23f b827 85e5 ec68 b7bf
00000330: fefa c5de 6639 c73f 4d94 5cef 436f ae3f
00000340: 900b e7d5 e6a7 68bf cb90 ba29 0e57 b93f
00000350: 487b a939 022e 8fbf 5893 a5f2 aa67 babf
00000360: 9016 0128 d63b a3bf dc45 0403 51d3 ca3f
00000370: 506a bc65 f93a b3bf a440 31f3 8663 b2bf
00000380: 72ad ca5b b0d0 9bbf f84e efd0 e2b9 73bf
00000390: 4a8a 2351 df1d b93f 6435 a0ef 7542 a6bf
000003a0: 3de7 f4f9 3fcf a83f 64b4 535a 000f 993f
000003b0: 21df 4eb6 f040 bfbf 7a82 7629 84c1 ca3f
000003c0: b46a d1dd 0884 ce3f 1a25 c0c4 578a 87bf
000003d0: 331c b45c c493 a7bf ec1e 07bf 17cc cbbf
000003e0: 4808 7389 01e7 d83f 3cfc 4613 97a5 78bf
000003f0: 9051 1db4 69c0 c93f 88e4 18fd 7965 c33f
00000400: 499b 7376 7b45 cb3f a8cb ab28 c12a b63f
00000410: b0d9 a5d5 3cda b03f 7fd0 b012 9f28 b73f
00000420: b589 7b5c 2701 c5bf 5c88 6f83 5da2 963f
00000430: 3006 f386 2714 a63f 77fb e8cf f076 c4bf
00000440: 5efa 2e6e 9ce2 c8bf 5e96 e291 937a b23f
00000450: 24d9 381a 9bb9 8fbf fa03 6c6b b6ea b73f
00000460: 6022 d9cc f4e5 cabf 7868 3957 6d3b d23f
00000470: 0a31 ac8a e5a8 95bf 4475 3314 9c2a d6bf
00000480: ec7f 0a71 ac4a c53f d5e0 62f3 136a c9bf
00000490: e5b0 6b65 217c b0bf 4d99 604d 0ddd c4bf
000004a0: f623 330e d7fc 9ebf 8810 6f81 c84d bd3f
000004b0: 3611 1f54 b89e a73f 27d8 d20f 3525 b6bf
000004c0: 7d5c 7dd0 5f0d c33f 70d5 a15e e238 bbbf
000004d0: 2f3c 4a19 29c2 c0bf 4aa2 8a83 b30a bb3f
000004e0: a065 267a fdeb 9a3f 66f1 b02f ab1b a43f
000004f0: 5875 5956 6ebd 83bf cbbc f029 1432 a9bf
00000500: 5b2d 50f7 97a2 a9bf 7ab3 e823 56d1 b3bf
00000510: ec38 fb9b 2a52 a73f 2255 da78 6d45 c6bf
00000520: 719c 5428 ef24 aabf a0ba ee94 74b4 743f
00000530: 1e24 db50 177f bebf 30c8 481a 0d2c d33f
00000540: ccd4 170b c168 bebf 50f3 389f 294a 873f
00000550: 96c5 63ec 4d41 bfbf 5ec5 afd1 958e cabf
00000560: 66fb 29e3 91ba 9e3f 9ae4 4760 360c b13f
00000570: 44d8 4ee7 7651 87bf 7782 0a96 9ccc cfbf
00000580: bc38 423e 504e d0bf 1a2e c71c 3647 d83f
00000590: 3d66 4d0f 0f0c c5bf 7aea 3589 d689 d13f
000005a0: d6e4 8f98 1231 ae3f 1e9e 6ecb a1a7 ac3f
000005b0: 2ebc 61f1 55b9 84bf a0cf 6fc8 cad2 91bf
000005c0: 56ac 525f b984 c33f 5e1d 41cc bbfa cc3f
000005d0: e81d 5d6f 7f93 723f 20b9 6510 feba ce3f
000005e0: 2b09 450e 7e09 b8bf 48eb fc43 9f6d ccbf
000005f0: 9a98 0cfc 408a 973f 0a30 88d9 3e0b c2bf
00000600: 7c5b 44d6 fa0e b23f ab54 7f76 ec0e b8bf
00000610: 9b21 20dd a397 d1bf 80de 1cbc c38e 41bf
00000620: c447 a97c 0530 b63f 6e8a 1ed7 c552 9b3f
00000630: 9fe3 d709 ff80 b4bf df46 5788 7520 983f
00000640: f198 b246 540b c3bf 6ea1 8f2c bcf9 b0bf
00000650: 6c55 75d0 90f1 b8bf bcf3 95da 8950 a7bf
00000660: d524 52cd 22cd a73f 2e51 2848 1a58 c53f
00000670: 6266 0ef0 e783 9ebf 8575 b6ed 33e5 bebf
00000680: 9e17 b977 913e b33f 4f0a edb2 0187 b9bf
00000690: 22cc 3e30 b9e7 b4bf d34b fcaf d7bf abbf
000006a0: a4fc 14c5 c114 ad3f 800f a235 e83c 503f
000006b0: aa7a f097 cc3d c23f 827a 532a 08e6 c3bf
000006c0: 9499 81a8 73bf b13f 4e8b fc92 29a7 cb3f
000006d0: 8ca6 07be a1a1 9bbf 9c58 9fd4 8711 c03f
000006e0: 0974 cbf9 dee3 c5bf 2036 5691 a56d 80bf
000006f0: 51d3 07d0 024a b7bf c25f 0bd3 6ece bd3f
00000700: 221b c944 f50d b33f b860 82f0 1030 be3f
00000710: 96ca b5c4 3a7a bb3f 183d b5b8 91bd a43f
00000720: 009f f0d3 6bec bcbf 44c1 0766 aaee bdbf
00000730: 51b1 39c8 c091 c43f 512f e26c 485c b03f
00000740: 60ad 17d1 1f4c 6a3f aeb9 e796 f9cf a03f
00000750: fedd 4f1c 6918 bdbf 6728 bbf9 2918 bf3f
00000760: aa5d 644e 126a a8bf 3adb 37a5 2c27 c7bf
00000770: 0c4d 93bb b4bc d23f 1674 866e a0da d13f
00000780: a1e4 ac46 eda1 b9bf 02bf 1769 5fdd d03f
00000790: b25d 180b 5e4c b33f ad42 d7f8 381f aebf
000007a0: b8f4 2e53 4b9b b3bf cf5a 2fc1 325c bcbf
000007b0: cc32 334f 4ed5 cb3f ce59 16c3 d235 c4bf
000007c0: ba10 8dea e80c a3bf ad61 e519 f261 88bf
000007d0: b70d 767b 430f ccbf 95fe c810 a0ec d43f
000007e0: dfa3 c626 7527 bebf c4aa e90c 4abd cbbf
000007f0: 3607 e29a a512 b6bf aa6e c8a4 70ee d33f
-0.005036820081470134 0.09025952647157015 -0.25889504212626857 0.11656165505486837 -0.06956896287608663 0.26134496741738034 0.099143996913867 0.17008102402480585
-0.034699054422835975 0.01564462186257829 -0.41552748777686455 -0.08729881898483538 0.1898366917741603 -0.2595405359302861 0.11783287577334647 0.15857749568115026
-0.20129418920019365 -0.12904877241101434 0.14327344737755685 0.12459685572254375 0.16384993745709295 0.10256932318516765 -0.03382043617110954 0.03246078154066098
0.1884910162676977 0.22698417288648726 0.15832530110229504 -0.05298560404754962 0.25558255743637553 -0.148758470871024 0.08000275772713025 -0.14473724772625074
-0.06515423605345036 0.1018488941337918 -0.12699389283960508 0.09231615619343758 0.254272937492713 -0.11634641303748355 -0.03867634923300957 -0.13590551380424104
0.17764753621094526 -0.15184017242154624 0.015067138081471365 0.015224244004034285 0.14536397585768487 -0.16950269545418462 0.48785144876583375 -0.059389024745944916
-0.15379593764651145 -0.2587737225048076 0.4221832052737503 -0.040585595666565846 0.07793696359024634 -0.7218998543888508 0.11585933224638237 0.13322434478034334
-0.06258436603888796 -0.2600570059167723 0.22026223845727938 -0.04546502721901352 0.2194060146685807 0.26099978269748153 0.05368586066526437 -0.27154673296983833
0.1336645342900567 -0.12327346380274243 -0.14699142339242174 -0.13325335683812195 -0.15747360500133417 -0.15347373302484352 0.27044239189941444 -0.4638953006782742
0.1914391582251721 -0.0907197426909811 -0.2947926678042333 0.0025359992053230196 0.018037926478929475 0.22494256458284378 -0.001218917813885112 -0.020141472082170396
0.3229018948118326 0.09450486724247753 0.11801602580908396 0.23561945720732874 -0.14053248151566844 0.09841967529447687 0.3047758992341087 -0.020911221250965964
0.16749542292442077 0.09442909402202719 -0.5030626049110276 -0.22299748323409616 -0.14446646617662542 0.45450103822235277 -0.1257261824737207 0.2102951897960143
0.6072475604811907 -0.22070471035870848 0.1769902441395365 -0.08434032327637075 0.035512323250445704 -0.0914447841979883 0.18143926503758928 0.059442637413930834
-0.0030097492701499154 0.09898460882920117 -0.015224473366456728 -0.10314434455865518 -0.037565891631442416 0.2095738663415848 -0.07511862500943178 -0.0718311637622287
-0.027163272478600793 -0.004815946579544088 0.09811206561020316 -0.043475804806898194 0.048456191313063425 0.02447128821670609 -0.12208466006165654 0.20903064751202632
0.23840437727888786 -0.011494336788035176 -0.04604924804339596 -0.21716591670541818 0.38909948752200707 -0.006017294061563535 0.20118447584776478 0.1515343175722459
0.2130579307915588 0.08658988230653952 0.06583004203807863 0.09046358305278267 -0.16409770980597008 0.022103749415585447 0.04312251589136584 -0.15987978126392097
-0.194415620613614 0.07218286811493033 -0.01549073385022532 0.09342517969709255 -0.21014270784714295 0.28487714307778544 -0.021152102078347425 -0.3463506886744947
0.16634135741787703 -0.19854974159330277 -0.06439408041086699 -0.16299597051802053 -0.030261383287129427 0.11446812782293325 0.04613281275627161 -0.08650523792570707
0.14884565048371093 -0.10633673487048667 -0.1309253095136866 0.10563203774894095 0.02629085596126901 0.039273595401456515 -0.009638654718566883 -0.04921019565551318
-0.05006861585578789 -0.07741297127422611 0.045548755207720365 -0.1739937629796851 -0.051063035653265205 0.005054908177881373 -0.11912675594352648 0.29956367079569457
-0.11878592034175312 0.011371922656616157 -0.12209021588548405 -0.20747635592082764 0.030008582582463993 0.06659259653669594 -0.0113858498897167 -0.24843175245497992
-0.2547798736567406 0.3793463974986665 -0.1644305062025512 0.27403796576951545 0.05896814453439851 0.05596643074323658 -0.010119124821555383 -0.017405670627297476
0.15248791841927084 0.22640178178174158 0.004535196106935292 0.24008155632640982 -0.09389484260922092 -0.22209540195202693 0.022988334068167228 -0.1409681856315504
0.07054107409599725 -0.09397771733286457 -0.27488037676132543 -0.0005358176933673714 0.08667024892318326 0.026682940726127695 -0.08009332647624355 0.02356132168444602
-0.1487832398608542 -0.06631065452495985 -0.0974359997683984 -0.04553633492739759 0.046486938060363116 0.1667511799174774 -0.02980005648314544 -0.12068485787900414
0.07517346547055445 -0.09971628778752371 -0.08166081836570574 -0.05419801734219445 0.05679898768220795 0.0009910838766993002 0.14251096171297678 -0.15545751635268706
0.06932757247850524 0.21603889157366968 -0.026983763907912947 0.1255349910922562 -0.17101657101639514 -0.008021634576631576 -0.09097306803580564 0.11643116619541075
0.07443173341117107 0.11792093154724881 0.1073338251351664 0.04050879840598948 -0.11298250126185039 -0.11692299834226555 0.16069803024891852 0.06390812547959725
0.003210127012371153 0.03283672301391803 -0.1136537260170982 0.12146246287298511 -0.0476842613881517 -0.18088300769132976 0.2927676994124375 0.2789689139697783
-0.10012705779526467 0.2635115171715229 0.07538402338865671 -0.058831959129411394 -0.07658835202069525 -0.11078183380537186 0.21744707934558105 -0.15789255643603756
-0.03720786917850334 -0.011905566611560692 -0.21921580818535144 0.32694245948003103 -0.11778957554510282 -0.2167141497660251 -0.08622202903100348 0.31142822353443

gbias f8 []
00000000: 108e 995d 2339 0c40
3.5278994858251806

ibias f8 [1583]
00000000: 9bda 5ee1 b5dc debf e679 fddf 22e6 a2bf
00000010: c5bb 785d 2b57 ec3f 01c5 990d 0166 e23f
00000020: 0bc7 7f21 a15c dc3f 40f9 bf4e 809a dcbf
00000030: 9610 337f d011 e3bf bffb b68a 5216 993f
00000040: ee7c 76ca 6591 e0bf c04b fdef 4964 adbf
00000050: de3f 0a63 7075 ccbf 1f92 9cc3 83a8 df3f
00000060: 59b0 e71e e0de e63f 114e a51f 4b3b da3f
00000070: b8d2 809c b6ae b13f 0ff5 35b6 c760 dfbf
00000080: 1d1a 6830 05e3 e13f fbae e744 d3ce e23f
00000090: 6c11 1833 03af ec3f b677 4cd2 6425 d0bf
000000a0: 964f 1002 8794 cc3f ea65 98c6 3c08 d93f
000000b0: d643 b952 377f d03f cacc 2d4f 53f2 cdbf
000000c0: 0032 b085 ef3c ddbf d36a 77c3 2990 c0bf
000000d0: 8a4c 550f fdf5 dd3f eba6 7b7b 1a5f e53f
000000e0: 66ee 4445 077e d1bf 4b38 8bcb 9aec d1bf
000000f0: 0d24 9a69 241f ca3f e5ea 75ee fac4 d03f
00000100: 004f 8bee e913 d3bf 0e48 c838 c595 e6bf
00000110: cd2b 6e39 e8a7 dbbf 223b 6605 ab3c e4bf
00000120: d099 acf6 f999 d53f bb67 9d8f 329d e03f
00000130: 45da 910e 3bce d33f 035a 1e64 fe2c d93f
00000140: 49b5 1fb1 a683 e03f bde9 3a75 72ab a4bf
00000150: 9fca 4ec3 fc9a f1bf 76f6 f342 24a3 debf
00000160: 0796 0bd7 2a3a b13f cc16 586c b185 d43f
00000170: 5a3a 93ad 0e69 c53f 75bc 1059 03a3 d9bf
00000180: da9e cee0 82cf c03f 9748 825f 729f dd3f
00000190: 8ab3 3462 b5cd c33f efb4 60ec 2ae6 a43f
000001a0: e226 c907 0d0d b13f 2d43 fa35 1dd8 b9bf
000001b0: 26db 8cb6 d6b4 d33f 36e0 5a19 f404 d13f
000001c0: b798 8185 2eb2 933f 4d93 867f 4ff3 d13f
000001d0: 06b4 86e5 f149 d4bf bc71 27df f8eb e2bf
000001e0: a774 1376 2887 c93f d506 c1f8 62c6 b73f
000001f0: be76 22da 2f90 d93f ee7c 76ca 6591 e0bf
00000200: ac46 6641 219d e7bf 30a9 6efb 0088 b8bf
00000210: e41b c7f0 9c1f e8bf 7bd4 e6f4 a021 b83f
00000220: 93f6 d3c6 9b5f d53f f9f4 0e56 fef1 d63f
00000230: 7bf2 99d9 573e d13f b03c 6e1c a863 e83f
00000240: 9c23 9994 8e9f c43f 303b d5ef e9e5 d43f
00000250: 1db4 de5a cee2 e3bf 0051 f6ca 67e0 a4bf
00000260: fc48 2371 3a32 80bf 6219 6e4f eb8e b7bf
00000270: 7f5a ad73 1e3c d7bf 317c f78c fb17 c63f
00000280: 56bd 57ce aa5d d23f 893f a08c 2941 d43f
00000290: b867 8105 dbe9 c63f db8c a503 c88c afbf
000002a0: 745e 9f11 84c7 bf3f 834d b14f 5d80 ccbf
000002b0: c6f4 ad16 1a95 d23f 5536 856c 5780 c53f
000002c0: d0d9 8862 18f0 d4bf abf5 32f3 1186 d6bf
000002d0: 98d4 ba80 3b43 d73f 1e61 8356 2ab3 a1bf
000002e0: ab66 94ad cea8 d23f f048 7cc1 bfdb f0bf
000002f0: 557a 360a 559d d9bf 400d 67b6 7614 c93f
00000300: 2599 aaf8 de7c 98bf 4c0d 7645 cfac b93f
00000310: aff1 091a 9303 a6bf 0957 2a22 e6dc e13f
00000320: 5428 5b03 9fb8 d8bf 0cab 137c d143 e1bf
00000330: 3652 aade ca71 d9bf 38e9 c195 b588 cbbf
00000340: 25f6 1085 5285 e4bf e81d 9334 5989 f2bf
00000350: 79eb 3f39 3805 b43f 7dda 9c24 6b58 dfbf
00000360: 9dba ba59 cfd2 ce3f ec9d d7a3 f3dc cb3f
00000370: a93a e332 3434 d53f 9caf 3a68 9b91 e33f
00000380: 75e6 a717 ddc4 d6bf 4731 0b75 8aa7 e03f
00000390: 845d 9289 7e18 e2bf 1cde 52b7 9fc7 bcbf
000003a0: 8d62 b6d0 4fab de3f a6ed 3939 6bfe c53f
000003b0: f730 a9a0 0422 d3bf 3360 b17c 3623 d93f
000003c0: e677 ad8d 8ef9 b5bf 81fd 3b8a 000e d73f
000003d0: b490 6642 6d1d e23f bc4d d1af 48ce dfbf
000003e0: 8f4b 907a a059 e73f 6733 7523 cb6e e03f
000003f0: f3c6 e94c e9af e03f 12e6 f190 a278 6c3f
00000400: 25ba cd0c 4dd6 b63f 048d 2965 390c dabf
00000410: a698 185e 104d d6bf cb5c eef6 bfd3 cabf
00000420: 8ac2 009e a834 d2bf 6bee 4b1d d599 df3f
00000430: 2f36 e15d 2d70 e33f 2bb8 0e7b f793 bb3f
00000440: 43cd 15fb b4b1 bbbf 5b93 932a 40e2 d3bf
00000450: fb33 5499 d746 d83f a6bf 7efe ec53 d53f
00000460: 629e 90e7 d44d da3f a266 cdec 9f7d c43f
00000470: 9796 70ce 6c53 d0bf c7e7 b562 8125 da3f
00000480: ce6e ca67 ffbd e9bf f100 7b85 9e6e b3bf
00000490: 30e5 9fec 65d8 c7bf ba7a b076 7a38 c9bf
000004a0: cbfc 06fc 8993 f2bf e813 0aff c67b e0bf
000004b0: d13f 8b41 c93e e43f b1a9 a4fa f71a d53f
000004c0: 1416 09d7 9d31 babf ac5e 3b75 b4f6 c73f
000004d0: 96a1 0698 1280 c03f 6986 a400 a9f7 cb3f
000004e0: 7925 7ebf e546 ec3f d345 6626 affb eabf
000004f0: fd7a ccf4 b4c3 d3bf 59f7 d3c5 9872 eabf
00000500: bfb5 0cbc 4ace e73f 5071 048e bbb6 e13f
00000510: b1a3 c839 409b 9b3f bc17 c750 90dc e1bf
00000520: 8b87 eca0 6403 a13f c625 c8c5 5457 d93f
00000530: 9ad7 67e6 2d75 a23f 30aa cc18 6aab d4bf
00000540: f2f9 71e8 d772 c43f 2ab7 660a a209 d43f
00000550: c696 9c2e 9805 e53f 2d43 fa35 1dd8 b9bf
00000560: 6271 dc48 08b4 e6bf 76fb adf6 b3ea d23f
00000570: 8b0b b0bd ba50 dbbf 77eb 1031 99fc ebbf
00000580: bde9 dcc9 3604 e13f 3b20 358e 5086 c93f
00000590: 9b5d 5440 4f60 dc3f f871 5779 77b9 e33f
000005a0: 4692 b0ef 9f7d e8bf 3644 146a 7e7d 703f
000005b0: 6623 cab9 412f d93f 4db5 61da 8896 a73f
000005c0: 236a b1ff 01fe c93f 8566 0fb7 8ef9 c63f
000005d0: 1258 5639 e5b5 a93f b2ee a78b 31e5 d4bf
000005e0: 12c7 4bff dddf cbbf 3ce1 ff5f 6fa9 e1bf
000005f0: ac67 3c3c db1f e63f 6e63 69c5 19ba 74bf
00000600: 9105 2367 1d77 b5bf 537c 5bae d863 e13f
00000610: 5ce5 5c93 bb3f d5bf 886d ae2e 40d9 d7bf
00000620: 621a 95d6 1a45 cc3f 4940 5087 584e c3bf
00000630: 0622 d330 5bed 9abf 79ce b34f cf2d e13f
00000640: 055c 537b c500 ce3f bfe1 4d22 853f a0bf
00000650: d648 99f5 5df6 dbbf 77a4 f9f1 d801 d4bf
00000660: 4083 eebe f4bf ccbf bfb7 7a3c d152 e4bf
00000670: 7f3d 667a dae1 e9bf d114 a313 4f70 e73f
00000680: 94bc 6fc9 001d b83f ae93 0000 839f c13f
00000690: 4a29 4cee df0b 74bf f8f5 5618 36c5 d9bf
000006a0: e3d6 32f0 2a39 cf3f 4d8b ce7e 3bfe c7bf
000006b0: 7d21 047a 6b97 d1bf 4de3 28fc 9e8e f3bf
000006c0: 866f 05b3 08c4 e93f 3c70 eeed ca98 cb3f
000006d0: 4164 473b 998b b1bf accc 4ec9 21c0 d0bf
000006e0: 1f23 0eaf 9e33 e13f 6153 ec53 1720 e7bf
000006f0: 4793 b9fc 0631 e6bf abf5 32f3 1186 b6bf
00000700: b884 8f8d 48b4 c33f 29be 6f9f ff5b d03f
00000710: d5da 764d 7a2f eabf fb2e 47de 42f1 d53f
00000720: 001c 158a 928b c2bf 0990 abfd 2231 c8bf
00000730: 5ef1 153e 7f6e d13f d16e bb2b 52e3 d7bf
00000740: 76b2 59a9 6916 b8bf 6914 7e95 e4e5 853f
00000750: 18fa d341 0a28 efbf 30e5 9fec 65d8 c7bf
00000760: 854c 8ae8 b6f7 abbf 1843 e25e 71ac d23f
00000770: 22cb 5821 9e3c e8bf 21a5 29ec faaf ca3f
00000780: 23d6 7555 422f dcbf 5fa4 569e b05a cfbf
00000790: e532 a606 bab1 e73f dc22 77bf 6909 d0bf
000007a0: c4b6 ae9b 2f76 d0bf 80ec 6886 4380 a33f
000007b0: d049 6fae 230a c2bf ec27 8191 091c d2bf
000007c0: 5f3c 66b0 b7f4 e7bf 3e1b 56d2 34f1 d43f
000007d0: c78a f489 e9ba e5bf 955b 3305 d104 e23f
000007e0: 10ad 0084 eda6 c83f cd13 36c6 257b d43f
000007f0: 4513 f11d 562e d7bf e41b 49cb c6f4 d03f
-0.48222109803047325 -0.036912050097033064 0.8856407952897533 0.5749516740453658 0.4431536509647322 -0.4469300049821818 -0.5959246143688854 0.024499215809324456
-0.5177487329819124 -0.05740576796110686 -0.22233395420016583 0.49466032126136555 0.7147064784635503 0.4098689850845583 0.06907216378096848 -0.49028198999424516
0.5589624352877 0.5877472253609705 0.8963638303689954 -0.2522823384950884 0.22328269577758125 0.39112777132103693 0.2577646549080418 -0.23395768514783405
-0.4568442159223025 -0.12939950985204138 0.4681389474619172 0.6678593074586535 -0.27331716312958176 -0.2800662029011433 0.20407538563111452 0.2620227173535297
-0.29809044165925513 -0.7057825192480338 -0.43212323769028843 -0.6324057679611068 0.3375229748657178 0.51918914842394 0.30946232245279176 0.39337119843676777
0.5160706958246603 -0.04037053757697915 -1.1003387097559096 -0.47870737589241885 0.0672938132298314 0.32065997677305513 0.16726859546038747 -0.40057452867308224
0.13133274056348548 0.462856858511381 0.154715226127703 0.04081853995772088 0.06660539093095566 -0.10095388953983493 0.30791251971406763 0.26592733837196947
0.01923439683778191 0.28047549680404843 -0.3170132390467305 -0.5913051947095975 0.1994371964018786 0.09287088940711936 0.39942547132691775 -0.5177487329819124
-0.7379308965048117 -0.09582525385363705 -0.7538590147677238 0.09426313380284228 0.3339604798964981 0.3585201111234962 0.26943012476093714 0.7621651225362225
0.16111929183742013 0.3265328256720066 -0.621436288338035 -0.040774577642112675 -0.007908302858059539 -0.09202452363215266 -0.3630443696651255 0.17260689147130528
0.2869669928613424 0.3164771912861331 0.17901170510122966 -0.06162095112338203 0.12413812093961402 -0.2226673735736818 0.29035045828625206 0.1679791717419216
-0.32715425131337117 -0.35193299055012045 0.36347854205389174 -0.03457004839009613 0.2915531821359802 -1.0536496694590447 -0.4002277946218887 0.19593700319647134
-0.023913844993011985 0.10029311605290053 -0.04299602215630515 0.5582152049343857 -0.38626838042967404 -0.5395286010146676 -0.39757034058246477 -0.21510953724266257
-0.6412747000646887 -1.1585323384950872 0.07820464513490134 -0.48977163863620615 0.24080840951269958 0.2176804113398555 0.3313112732838968 0.6115242992141137
-0.3557656031622181 0.5204517637262506 -0.5654900252292667 -0.11242101884533223 0.4792060411651072 0.1718267468857963 -0.2989512986139426 0.39277422120131006
-0.08583918532300991 0.36022962092825855 0.5660921379935844 -0.4969655720680881 0.7296907800504061 0.5135245983634434 0.5214735510073453 0.0034754920121116218
0.08920747339809816 -0.4069961059487499 -0.3484536093623184 -0.2095870929449347 -0.2844640295980204 0.49376418934818983 0.6074435075367485 0.10772654299100341
-0.10818034296044225 -0.31068424375398757 0.37932386373068966 0.33324742177046074 0.41100046743165397 0.16008376181234946 -0.255091859437337 0.40853914870933433
-0.8044430758631849 -0.07590666540909631 -0.18629144720015622 -0.19703608317737126 -1.161020264131184 -0.5151095372426626 0.6326643257289054 0.3297710368812217
-0.10231958866014451 0.18721633648123281 0.12890846655978966 0.21849548846607839 0.8836544742672877 -0.8432231664648334 -0.30881999879959193 -0.8264888633563984
0.7439321205944721 0.5535562299515195 0.026959422613945076 -0.5581742837609833 0.03322901214984516 0.3959552699530743 0.03605025708740968 -0.32296230718444274
0.15975474214424384 0.31308794990296696 0.6569329176315584 -0.10095388953983493 -0.7094766066616496 0.29557513322645634 -0.4268023350161278 -0.874584766227925
0.5317644064555719 0.1994114584324523 0.44337826997931423 0.6163899774506367 -0.7653350526275708 0.004025930219783416 0.39350932258144267 0.04607036271850493
0.20306420311938309 0.17949088991627007 0.05021587681692109 -0.3264888633563984 -0.21776938405633267 -0.5519329905501205 0.6913887192233594 -0.005060291927826961
-0.08384879844654437 0.5434382825295735 -0.3320149363604139 -0.3726349311707158 0.2208589122548857 -0.15082842452148018 -0.026296067099595553 0.5368420178114796
0.2343985416580098 -0.03173461955788381 -0.43691205009703304 -0.31261275892627033 -0.22460803339802204 -0.6351095372426626 -0.808819998799592 0.7324595817123286
0.09419255178339575 0.13768041133985548 -0.004894137124902118 -0.4026618230526249 0.24393212059447142 -0.1874460572408573 -0.2748669330180958 -1.2223195886601446
0.8051799294002968 0.2156003629469313 -0.06853635499227641 -0.26172680529561876 0.5375512522742588 -0.7226673735736818 -0.6934847770722649 -0.08798324763753011
0.15393931305064767 0.25561514444322825 -0.8182956231092599 0.3428504152950464 -0.1448844122153048 -0.18899953256834603 0.2723692041688731 -0.37324957152098387
-0.09409199127703424 0.010692392170094505 -0.9736377034858519 -0.18629144720015622 -0.054624286543139035 0.29177507654189716 -0.7573996211343437 0.20849548846607838
-0.44038446756107613 -0.24495513659829535 0.7404451494090522 -0.2505745286730823 -0.2572134991013224 0.03808794990296693 -0.14093442933388056 -0.2829612656538518
-0.748622746019361 0.32722206631335726 -0.6790664381445247 0.563087949902967 0.19259423203889314 0.3200163303047788 -0.3622031490706841 0.26493997432811356

umat f8 [942, 50]
00000000: c0ba 1206 1d6d d23f 4970 2cb8 eb55 b1bf
00000010: bd55 a622 8fe5 c6bf 5635 da1c fce5 a6bf
00000020: dbb6 f0dc edf2 c0bf 469e 049d 1d48 c83f
00000030: 764e 05df 91e0 bd3f be32 487f b47c 9a3f
00000040: 8827 bee9 4305 acbf a85a dcce 06d8 c13f
00000050: be63 c070 87b2 c73f 7f38 03d0 29b0 c8bf
00000060: 15ce 6573 37e1 c73f 722d bc5b 3e3d ce3f
00000070: 6226 cc0b fff9 b73f f14f 09d3 4a6c 8c3f
00000080: f0ad 7480 f748 b0bf 6e57 a1d7 96c9 c2bf
00000090: 9d1e 1b1f 1f3a bf3f 98df cb3b 4264 a73f
000000a0: 90ba 7188 0b45 b7bf 1016 5731 3a07 a2bf
000000b0: 3ce1 5d3a 7471 b2bf a140 25ea 2c3c b3bf
000000c0: 6ff6 4c45 d6ef ba3f dded 23df 8d26 9ebf
000000d0: 84a0 3f88 57b8 c7bf de91 d3d9 e47a d03f
000000e0: ee32 0f42 3f6a b2bf 4861 39bf c3cd a7bf
000000f0: 8827 a6d0 64f5 b43f ff66 e373 99b0 d7bf
00000100: 0511 e322 1ca6 b7bf 589e 354f cdfa c2bf
00000110: d4b6 e982 2fca 9fbf 3c9e 21de 86f6 b4bf
00000120: c62c aefb f031 96bf 8c12 da01 3406 b13f
00000130: 98f4 5f74 391b 793f c838 3466 e998 76bf
00000140: 8003 c307 e1bf 5c3f 1806 cec9 7a42 a43f
00000150: 00bb 6d91 eb27 ccbf cc2f f130 6071 c7bf
00000160: bc49 10ba 1dd1 673f 4708 6c1d 6467 b1bf
00000170: 51dd eff5 d04f b0bf f5ac 991b 903e cebf
00000180: c132 d129 290d cdbf c2de adee 1503 98bf
00000190: 748a aabf 9ab6 b43f 79a6 d50c adff d8bf
000001a0: 9384 453a 2bdc abbf 9ec7 3e83 f1be d73f
000001b0: 009a 1369 95c6 c73f eddb 046d ae33 cdbf
000001c0: 142a 449e f292 b13f 4aab d9f1 4150 b9bf
000001d0: 68fd 6c5d 3e6b c4bf 230d ae92 65b4 adbf
000001e0: 1117 f247 a05d c43f 283a 6150 a9c9 bb3f
000001f0: 7995 7130 c32c ba3f e0f7 e630 d7ca a4bf
00000200: c1f2 32f2 1b2a a93f bf50 2572 314b b43f
00000210: 60b8 67f6 65e0 c53f b693 d6a5 e911 c7bf
00000220: 2c5e aa10 8e92 ac3f 50cc e0e1 e0bc dc3f
00000230: 330c 2dc7 2108 c9bf 2458 63e0 d96e d53f
00000240: 7795 b738 089b b43f a0f4 3ca3 6521 d3bf
00000250: d24d 5627 296b b53f 3057 081c 2318 9ebf
00000260: 79f7 8aa2 d7ee b3bf 461c 9c6c 6837 abbf
00000270: 346a 1ee0 dd02 cabf bddb e16d 56d6 d53f
00000280: 74c2 1938 53f3 cabf f820 437b a44f c03f
00000290: 4a8d 4aaa ac24 b2bf 904b 2c45 2cb3 aebf
000002a0: 586d bb85 b3c1 d03f 0237 ec23 21f1 c03f
000002b0: 28a7 af2c 7bab ce3f e24f 4f4e 3e3f d23f
000002c0: 5582 279e e746 b3bf bdf5 ee8e c142 bcbf
000002d0: 8e66 de59 3f84 c43f cd3b 7e0f c1f9 953f
000002e0: 24e5 72c7 3184 ce3f 3869 95b3 6c66 cbbf
000002f0: 4c3a 778d bbf4 c2bf 3863 2815 a0be 9cbf
00000300: c08a 9f69 a214 cabf 7076 7d48 87d3 a83f
00000310: 02a7 bdfb 859c c5bf 7c02 a72e 7eb5 b13f
00000320: b864 aa17 31fb 9fbf aeaa e87d 1b6b b8bf
00000330: f430 48c0 b9e8 68bf 99c2 f211 3921 d93f
00000340: da29 1b78 86c0 af3f c1ae 11b1 2ea1 c93f
00000350: 4e3b 1c5f 75f3 a1bf 0a1e 9208 ba58 babf
00000360: 6a03 b203 df56 dfbf 3f03 2139 8499 dc3f
00000370: 390c 0a6b 9aef 9bbf 3b81 d7a5 a2fb c4bf
00000380: e677 268c ac68 b4bf 63ba 0412 3022 dfbf
00000390: b8a6 4cc3 c489 c33f 25e1 435e 2d06 d6bf
000003a0: 2245 be41 cd1c b83f 7d11 b1d8 1217 b63f
000003b0: dc5f 916e 791f b33f 4a75 2474 d9c0 c6bf
000003c0: fa85 b167 c040 d13f 9472 501c d48a aa3f
000003d0: 6ddb 3d54 6aeb b03f 7459 635f e692 c0bf
000003e0: 86a5 b6a3 fe2d d13f 919e 5090 2acd d2bf
000003f0: 5495 974c 87f9 c8bf 037b 0d63 944b c1bf
00000400: 5dd1 22b7 4955 c83f 0054 f4f7 f270 d53f
00000410: d663 f9f2 a448 d23f 389d 227f fa3b cabf
00000420: dd4f a061 f9e7 c9bf 43a1 b377 5771 c2bf
00000430: d152 f823 e36e 8cbf 7433 4c3d 0a4f c33f
00000440: b187 39b4 1605 cf3f e03d 3dea 5612 c43f
00000450: ead5 845e 60df ccbf fb8e 317d 734e bb3f
00000460: b1a6 6d3c ce74 d2bf ecfc 0110 3be9 c93f
00000470: 94f0 2c27 edf6 703f 0a71 eb9d 8e50 d7bf
00000480: 28b0 e9d6 5136 babf 1ae4 724e 3c88 d33f
00000490: 39c9 7d96 5445 e13f 867f 14ce f878 ddbf
000004a0: 5d16 5050 0fdc ca3f e881 6413 9367 b1bf
000004b0: b5f0 9897 81a6 c4bf f079 c7a4 6f12 c33f
000004c0: dfda 6d41 6c87 a0bf e8b9 8808 539a b0bf
000004d0: 1e96 69f3 a712 d73f 72fd 59a2 9c55 cfbf
000004e0: 4049 72e2 8b56 95bf 7a94 e27e e1f5 963f
000004f0: ec1a 1c13 2d58 99bf 8da1 9388 cd01 d1bf
00000500: a5fb 705f c4a7 c23f 11b0 875a 69d1 b2bf
00000510: 95b8 9301 e541 c63f d0f8 abf5 ce58 ac3f
00000520: 2cd7 fffa 4d92 bdbf 410d 91c3 29ab c0bf
00000530: e0a9 c9fa ed5a ad3f 089a 52b5 dd6b c2bf
00000540: 78f3 4ed4 cffd c13f 86f6 3cde c422 c0bf
00000550: c483 2dbb 25f8 b03f 2261 b656 f7b3 cf3f
00000560: 78c1 a196 2319 643f 3921 634a 6d73 9a3f
00000570: 6fee 8260 907c cb3f da50 a253 fded d2bf
00000580: ae01 a36c 9082 bf3f adec e9a0 4673 c83f
00000590: dcc4 a8d2 953d b23f 03d0 c97f 2660 cbbf
000005a0: b5d9 fb3f 745e a0bf faa1 7540 f492 b53f
000005b0: 7430 1752 910d a13f 378a e4ca 9a0f b63f
000005c0: 7cf1 25a5 ca76 b13f c085 7add d022 b63f
000005d0: 3f67 8473 90d2 c8bf d45e 0468 2078 c9bf
000005e0: 339e c56b e991 c4bf 8678 9605 722b 9e3f
000005f0: 22ae 49c7 e62e d2bf fa02 1b5b 9862 d0bf
00000600: 2c7f 5815 be03 b6bf acce e63c 7473 a4bf
00000610: 9745 479b 65e6 cbbf a591 d151 d0d8 b8bf
00000620: eee9 501d 548c ce3f eaaa a419 82fd 93bf
00000630: fdea 15c8 43dc b33f 4a64 4a0e de09 c8bf
00000640: 4034 2c7a 34d2 9ebf 3300 6c76 38a1 b1bf
00000650: 4694 19c0 06e1 ce3f 49f7 30ea 65da c3bf
00000660: d971 7fa2 3e40 a93f fb25 b553 d716 cabf
00000670: 4e39 8c06 2b2b bbbf 4632 c79a ed0e a43f
00000680: 120d 7862 0f6e c53f d885 6b7d cfbe 713f
00000690: 7e3c 872d 8a47 c8bf d7b6 c1d9 fa98 b83f
000006a0: 0020 b5e0 fb87 833f 82b7 ae15 3011 943f
000006b0: e0b9 cffa 20fa c53f 7d9c a202 83d6 be3f
000006c0: aaa6 ebe6 ed8f 9f3f dc31 9fb5 fc15 93bf
000006d0: 9c40 debc 25db cd3f e859 f4ef 1df5 c1bf
000006e0: a24f c7c5 dbf9 babf c93c 3383 2d52 933f
000006f0: a68b d654 bb9f bcbf a25d c5e4 85cf b63f
00000700: 1ee5 2b49 cee0 c9bf 8b04 f02e 1b07 bdbf
00000710: 518a f2b1 8f72 a73f b8d8 24c6 8865 b9bf
00000720: 68cb fcb2 44bc c9bf 1293 c575 a704 b7bf
00000730: ccee 4000 74f7 a23f a086 e00a ba94 c23f
00000740: ba6b 2643 205c b9bf fe8b d920 9572 9bbf
00000750: cade 0321 7ef4 c63f d8c2 854c fea9 90bf
00000760: a6f9 6c0f f0bf d03f d0e4 a3c7 a9e0 9b3f
00000770: 9599 3443 a363 bd3f 8f4f 7d99 994c c93f
00000780: 4796 fece 0ada a23f b480 483c ef69 b53f
00000790: 70b0 47e2 de22 7bbf 1c0d 24ea 1b83 a83f
000007a0: 3353 4def 22dd c53f dcf6 1096 247a ae3f
000007b0: 3e44 fd9d 5caa d5bf 31d8 129c a2b3 d2bf
000007c0: 715b 1c7d d0ee b93f 2426 ff40 cac6 d5bf
000007d0: 3646 189d 6c38 cabf 10fe a1ad c397 9a3f
000007e0: f1c5 308e 3d73 c3bf bd07 88ca be3e c13f
000007f0: 05a0 7796 aea9 c5bf fc82 4189 23d7 d03f
0.2879097518261169 -0.06771729704308983 -0.17888058845407598 -0.044723394891756627 -0.13241360939121347 0.18970079581161964 0.11670791334955219 0.0258663370787413
-0.05472767093949843 0.1394051084577843 0.1851357746643582 -0.19287607819427774 0.18656056532528056 0.2362440059590472 0.09365839040779059 0.013878426137274831
-0.06361338506820124 -0.1467770150072129 0.12198061475202811 0.04568678836761747 -0.09089729386480827 -0.035211390040370216 -0.07204367089241698 -0.07513695446437164
0.10522212211523095 -0.02944394754829981 -0.18531316902886286 0.2575008513652203 -0.07193370211389169 -0.046491734593191725 0.08186941236468048 -0.37015377347198347
-0.09237838603718636 -0.14827886932038115 -0.03104471432236873 -0.08188670085075328 -0.021674886094427824 0.0665009026070697 0.006129478866566583 -0.005516921725997111
0.0017547318994248495 0.039569699415562265 -0.21996826745040465 -0.18314745321037973 0.0029073315240648306 -0.06798387258825854 -0.06371789936371398 -0.23628426883383438
-0.22696413556913878 -0.023449270909138738 0.08091132335042933 -0.39060522321106067 -0.0544141300804394 0.37102926079671217 0.18574779158298327 -0.22813968966667578
0.06864849437639747 -0.09888088373706441 -0.15952281534007828 -0.05801694312597252 0.15910724175426386 0.10854585850140863 0.10224552090365603 -0.04061005088759351
0.049149392428693435 0.07927235638391304 0.17091059237958728 -0.18023415181701602 0.055805625471461034 0.44902822550210875 -0.19556066728009255 0.3348908129968342
0.08049060234733028 -0.298913392460074 0.08366639337901141 -0.029388950906727718 -0.07786319464045545 -0.05315710378459264 -0.20321248477269338 0.34120712977113127
-0.2105506919792962 0.12743049639380621 -0.07087210805416536 -0.059960730976079124 0.2618225866296675 0.13235868696249758 0.23960818941059725 0.28511006972735065
-0.07530067073049314 -0.11039361705385083 0.1602858723461406 0.021460548945068148 0.2384092544432771 -0.21406325119716896 -0.14809364707476147 -0.028070927897803716
-0.2037547126520476 0.048488833998573067 -0.16883921424896903 0.06917561186765825 -0.031231658048089556 -0.09538432907053604 -0.0030406597090913926 0.39265276673089883
0.06201572624339109 0.2002313961596567 -0.035060565815106956 -0.10291636189696632 -0.4896771942222161 0.4468699033641776 -0.027281201155812538 -0.1639293012403956
-0.07972219869267824 -0.48646165618530385 0.15264186416725578 -0.34412702756482566 0.0941894803529704 0.08628957548450518 0.07469901036654342 -0.17776029749885885
0.26957712293923886 0.05184042783387102 0.06609215313606649 -0.12948302896138453 0.26843229282038583 -0.2937723550153147 -0.19511500587320063 -0.13511900745921687
0.19010278169811104 0.33501886572167905 0.2856838581843112 -0.20495539863370893 -0.20239178912072378 -0.14408391327675404 -0.013883375678270056 0.15084960930871782
0.24234279441867337 0.1568096774812906 -0.22556690802745943 0.10666581922992784 -0.2883792486305579 0.2024301365054052 0.004141737345715896 -0.36429181501240804
-0.10239135262389765 0.305190159425878 0.5397131861957752 -0.46050853848463935 0.2098406927254243 -0.0679866716714127 -0.16133136656015315 0.14900012536868656
-0.032283194529488794 -0.06485480268813826 0.36051367541071666 -0.24480016639061436 -0.02083796090716672 0.02242233597703034 -0.024750427523964655 -0.2657350381619146
0.1457448450109641 -0.07350786647992914 0.1738859422397964 0.05536505459711949 -0.11551368120111921 -0.13022348450804525 0.05733436285375482 -0.14391681054731031
0.14055822245236604 -0.12606106616469875 0.06628642864008244 0.247679631557511 0.002453393467526318 0.025830943742023414 0.2147388907668417 -0.2957757298220379
0.12308600094093577 0.19101794106595574 0.0712522162728137 -0.2138717769590813 -0.03197062760402806 0.08427359174459773 0.033306638022254115 0.08617560819087876
0.06821886569918506 0.08646874816124406 -0.19392591133583356 -0.19897847250898926 -0.16070287477781306 0.029462606040049376 -0.28411263906193274 -0.25601776978514545
-0.08599460621962568 -0.039943344530369046 -0.21796865541413687 -0.09705831525349724 0.23865748816918092 -0.019521744551790933 0.07757972369101292 -0.1878011293199811
-0.03009874339754881 -0.06886628047141201 0.24124225978735775 -0.15510248122330442 0.04931827291122532 -0.20382205569539721 -0.10612744245392955 0.03917639269238697
0.16742126758627102 0.004332361705310338 -0.18968322012958433 0.09608428779912558 0.009536712451009066 0.019596816371339816 0.17169582602168898 0.12046068968139596
0.030822484225530168 -0.0186385618069823 0.23325034830168512 -0.14029287544754188 -0.10537503794267747 0.0188681708648886 -0.11181231328241256 0.08910405001858249
-0.20217302868676595 -0.11338968177735091 0.04579590842447046 -0.09920554006098115 -0.2010579942667292 -0.08991476655280575 0.03704416754814374 0.1451637795553795
-0.09906198157697946 -0.026804285173408708 0.17933632480684586 -0.016273473187029847 0.2617149496690224 0.027224209604331417 0.11480160132177837 0.1976501464329172
0.03681978012836545 0.0836476823974433 -0.006625052109011972 0.04787528260387772 0.17081104931517074 0.0595256264864312 -0.3385230582108 -0.292214062133442
0.10130026869260945 -0.3402581820233499 -0.20484693213124822 0.025969560120300328 -0.15195435946365835 0.13472733391978223 -0.16924078318629668 0.2631310310735413

ubias f8 [942]
00000000: 4dca 899a 867a c9bf 02d3 02a0 a27b c9bf
00000010: 03b1 8e64 f310 d2bf 4583 e973 c224 bd3f
00000020: e09a 81af 9518 c23f 7973 0663 f448 c6bf
00000030: d539 92e1 f367 c5bf 207b b1ed aef7 d53f
00000040: 2efe 1ece 0f47 debf dccd 8da1 3608 db3f
00000050: 24cf 09f3 40be bc3f 959d 143c e530 a03f
00000060: 8f47 2202 f2aa c23f ed14 01ca b794 e8bf
00000070: 0c4d 9fbb 9a08 c93f 68b2 446c 5e7c d0bf
00000080: 000b 9979 b1e2 e93f 167c 469c 5387 d43f
00000090: 8432 af1e e740 d03f 77b9 10fe 659f c53f
000000a0: 90d1 cd92 75ee d33f d6e5 5a23 548d be3f
000000b0: 3f4c 4e56 676d d33f a221 4877 7b33 e0bf
000000c0: 7c0b 9b11 9aea dbbf c73c 2405 51e3 e0bf
000000d0: 8af0 a9c2 23bc c23f a685 9fc5 91ed f4bf
000000e0: fd82 4223 6074 d63f f998 3de0 405e e5bf
000000f0: 25e4 65ed a6df dfbf 5a81 d24a 35a8 b03f
00000100: 9052 b39b 64d7 d8bf 5a73 bef2 d6c3 c63f
00000110: b3f2 1bfb 2c45 b1bf 05da d6ef 9c09 d83f
00000120: fe7c 1b72 c3a2 d33f 5b4b f87f 6111 c4bf
00000130: 6aba 5dee ce24 d73f cf27 e5e7 8f93 cd3f
00000140: ffd1 6d26 4fe1 d0bf 36c1 ef34 02bd c13f
00000150: d2b5 ffe2 8172 d3bf 4695 f829 8fe3 ba3f
00000160: 8352 90c8 c82e 9b3f 52d8 d925 0001 c03f
00000170: 91c9 9bb7 4041 d13f 1aa8 ba65 8caa e93f
00000180: 40cb 5d59 bc47 debf efbd 6ace 528a a53f
00000190: 8e7f 4151 37b9 7abf 39b1 e5f5 8a2a d1bf
000001a0: 399c 2681 a70f 67bf afd1 8e9e 86d0 d23f
000001b0: e234 7c99 170f cabf 4395 6548 8883 b0bf
000001c0: 4b7b dde0 dd22 d5bf 2f7f 96cf 66fd e4bf
000001d0: b559 4e11 8513 b43f aa23 56f4 f8d2 c63f
000001e0: d9db e972 8888 653f 144b d53a 7bf7 c1bf
000001f0: 06b1 2c1a 9ed5 df3f 730b 9562 1361 e8bf
00000200: 137f 94e5 a6d5 db3f f5b5 2ede e80b d5bf
00000210: f503 4dfc 0548 e5bf 2c47 5ec1 fe5e c93f
00000220: 6eab d0dd 3a40 e0bf 5d0a 5a3d 3099 bebf
00000230: 5f8b e122 9fde ccbf 2805 9ac1 f52e 993f
00000240: 2f69 c174 2420 a03f dc79 dd41 ef5d b7bf
00000250: 8bd8 e13b 73af d8bf 783f 5af0 e1e4 d6bf
00000260: 14ee af44 83b5 b7bf 23f8 afd5 7567 bf3f
00000270: f872 b386 f217 d83f 8bba 8bb4 620a ad3f
00000280: 1dde efd4 5dd6 b33f cfb6 32b0 6ac6 c63f
00000290: aed1 f0ea e69c d9bf 445c 5bff 9625 c23f
000002a0: b1f1 65bc d415 a9bf edac 5fb3 f124 d2bf
000002b0: 1e45 a21d 4e69 92bf ae57 ce97 1e4f dbbf
000002c0: 8df1 c62f 60c4 e0bf 2f81 decd b7f6 d33f
000002d0: e240 797c 4e84 c4bf 31c5 4468 d50b d53f
000002e0: cbdf 51df 5ec4 b73f bea0 faad 15df b0bf
000002f0: 3a57 456a 9f17 c3bf b8ee 5b7e af0e b73f
00000300: 43ee 9ac9 f9c0 d0bf fa94 3611 9512 c23f
00000310: a19c 06d5 3132 9b3f 678a 3362 66ba b6bf
00000320: 35a5 fef2 b43f dabf ba86 7dd4 20fa d7bf
00000330: 74b6 6971 64b4 c63f 369f bf97 f1f5 a03f
00000340: df77 0161 e372 d03f cb71 066d cb1a c7bf
00000350: 419a f353 4b91 e53f 267a 0dbb 6a3e c03f
00000360: a583 def9 4231 c1bf 4c7a 2845 51e4 d1bf
00000370: b8f0 ccdb a37e c03f d5e6 4dd9 1343 b93f
00000380: 8133 8d46 ca13 b4bf 06d9 bdf8 87c3 d93f
00000390: 960b 002c a1f7 e3bf d275 7914 257e a6bf
000003a0: 92c6 1cc4 c880 d1bf ba1c b5c1 d138 f4bf
000003b0: 59ab 614b aabe cd3f 7570 ee8d 42a1 da3f
000003c0: 7328 5a2f 0f7d d23f adea b1aa cf0a f0bf
000003d0: 5ea9 b640 815d 8ebf 03fd 3d5e 55b1 bfbf
000003e0: ace2 2b04 275b a2bf df15 961b 68b9 a63f
000003f0: 732f 1bff e03e d1bf 0aa1 a6a1 6af9 a3bf
00000400: 2478 3b75 6b42 e23f 2257 5f2c 899b dcbf
00000410: fa36 c229 124c c1bf 0566 98a5 dc15 cebf
00000420: 6ef9 917d bf4e d83f 680f a452 f712 93bf
00000430: 96ba 5553 648a b4bf a97f ab73 a738 ba3f
00000440: 7309 4bef a01d b83f 6fdc 4105 20b3 d43f
00000450: f6aa 9bb8 b8a7 d63f 8efb 5223 19d6 c63f
00000460: 1151 2c11 8ddd ce3f ad24 2a16 937a d33f
00000470: 5055 ddc4 eb07 9dbf b6ac cfa7 c1d2 e0bf
00000480: 8b09 1f00 e74d c8bf 83fb a10f 18b6 df3f
00000490: 5ed1 92b3 bbb7 b53f e6b5 03bf 5784 923f
000004a0: c4c5 0661 1b78 c93f 7eb2 2132 75ee b13f
000004b0: 9976 76e3 cf43 e3bf 1332 58dd 7c70 e43f
000004c0: 18eb df6b b24a dc3f b395 aef7 2abb e83f
000004d0: 0458 09c0 9a0c d63f 3896 e8f7 7916 c23f
000004e0: ee44 dc87 78be d63f c688 8ec0 f87a c8bf
000004f0: 7ed5 3151 49ed c83f d014 2337 a163 e13f
00000500: 3d8e 4552 4950 a53f 904c 1d7d 0306 dcbf
00000510: c32f a208 8e91 b7bf f446 f405 b7f3 dabf
00000520: bd89 348e 4302 c6bf e5b6 8794 df65 c23f
00000530: f1a7 3d17 eab9 dabf 05d0 a88b 7f64 c8bf
00000540: f25d b1c0 437e d2bf 47cf 5648 a9b1 98bf
00000550: 9b12 ca21 9d19 b23f ab73 3ed2 2c97 dfbf
00000560: ceaa 723a d8cb d13f 1f9c 8d0a 0904 c8bf
00000570: fa48 94ea daac e23f ba2a 2359 7b0c a23f
00000580: 8065 54fb 4aec b7bf aaea 0635 543c b6bf
00000590: 6a3b ecd7 1118 d63f 3ffb 4407 a913 e33f
000005a0: a33f b88c fc56 ba3f fc08 e6ae 9202 b53f
000005b0: a7d5 c8d8 3ad4 c0bf f872 033c a051 f8bf
000005c0: e473 2ebd fb48 a7bf 58e3 c8a3 e630 c53f
000005d0: 77ad e52c f58f d73f d8d6 4443 f149 aa3f
000005e0: a9c5 b072 e7c9 ee3f eb55 3870 9d07 b63f
000005f0: 657a c656 6043 d43f 1749 1321 c73f 8bbf
00000600: a31a 0e7d b844 e03f 94d8 0b6a c9bc d03f
00000610: 5d6b 8212 a20d d43f c72f 1e43 d8c4 d23f
00000620: 0b1b f563 2221 d4bf 905f 6aee 55f2 d23f
00000630: 9302 00ae 00f5 d1bf 0f12 3002 e2ef e1bf
00000640: ef60 ce39 c448 d3bf 8a68 d085 1962 c5bf
00000650: 8c11 e74e 732c d2bf fa61 5fca 6d57 edbf
00000660: b438 c6e5 5ab0 cdbf 22b1 dd40 f6bc ebbf
00000670: 9188 97cb 5c67 e83f 3d86 edc8 2999 d73f
00000680: 3234 fa16 fa19 95bf 893b 71ef 0b7e c13f
00000690: 328b 7b4b bb51 e6bf e9ca e188 079a d2bf
000006a0: ba71 2a31 66df 923f bbb4 d070 07c6 a5bf
000006b0: cbc0 c199 1f45 8cbf d1e2 063d a87b dfbf
000006c0: f863 571a c863 e73f 0069 4b29 befb bc3f
000006d0: ba6e 4fa7 5cc4 ce3f 104e 476f 8f95 c13f
000006e0: 5f51 46b1 e481 e5bf 95a4 8421 a844 f9bf
000006f0: 8d57 760d c90b cfbf 0030 9a8e d40d c0bf
00000700: 1771 a522 6441 b0bf 2b1b 2633 411f b53f
00000710: cc66 03a1 e735 97bf bb2b c8f2 ac71 603f
00000720: 521c 9c33 83b8 c93f bdf0 4e65 38f9 b93f
00000730: 9bce be94 3e89 c0bf e34a 5fd2 52c9 ab3f
00000740: 2527 218f 50d8 77bf 8964 e81e 753a b53f
00000750: 7014 3cd3 5ad0 cbbf 531a 05f5 1232 cbbf
00000760: 352a e35f ee76 c9bf d57d 1d51 7aac d23f
00000770: b10d 601e 85a6 a43f c189 f911 292f ddbf
00000780: ba39 b3fc 20b2 c63f 4036 34f7 0fbb b3bf
00000790: 376a ee8b 64fe abbf f0c9 3dad 0d04 d03f
000007a0: 7cc3 496e 9712 d7bf 710b e917 3ecd d53f
000007b0: c1f2 91ca 6049 e3bf 14e7 95d8 2fbd bfbf
000007c0: c9b1 38ec 7173 d6bf effb bd1a cd97 a5bf
000007d0: 9efc 1eb1 f4e1 c3bf 6cd0 68e8 759c b13f
000007e0: aa80 8404 66ba c0bf cfe0 15ff bcda f03f
000007f0: 6f33 5ca3 d966 c2bf cc4d e8a1 a48d c5bf
-0.19905169053852703 -0.19908554852522548 -0.2822845918660876 0.11384215669523907 0.14137526578561843 -0.17410139880385225 -0.16723488344400886 0.3432423897956358
-0.47308726433763837 0.42237630631208645 0.1122780412059084 0.03162304266362096 0.14584183792299796 -0.768154043712142 0.1955750862240183 -0.25759087155419147
0.8089225172955992 0.32075968037855895 0.25396135326881386 0.16892695336850824 0.3114293988831145 0.11934400427971723 0.30355246952348475 -0.5062844590875566
-0.4361939594202153 -0.5277485943242021 0.14636656766004236 -1.3080003471044193 0.3508529991468519 -0.6677555446338196 -0.49802563842200903 0.06506665302959416
-0.3881465454590307 0.177851551558798 -0.06746178751559277 0.3755867330723109 0.3068092932062 -0.15678042171983972 0.3616216018480488 0.23106573889736956
-0.2637517810137808 0.13858058533470236 -0.3038639752183744 0.10503477835353178 0.026545655480804797 0.12503053520385038 0.2696077149440948 0.8020688998124144
-0.4731284020155506 0.042070949265845196 -0.00652429207192985 -0.26822160733606243 -0.00281508174630887 0.2939774082581392 -0.20358557695764207 -0.06450702445507255
-0.3302530952404836 -0.655932813115191 0.07842284843932286 0.1783133690880992 0.0026285805718617547 -0.14036503193582262 0.4974131827937217 -0.7618500638421736
0.43491527957847714 -0.3288519067526459 -0.6650419166327298 0.19821152154741506 -0.5078405697180253 -0.11952497003407232 -0.22554387286353525 0.024593200627809925
0.03149522710073637 -0.09127707822833692 -0.3857086262500011 -0.3577198836510358 -0.09261341502126924 0.12267242876984645 0.3764616313399496 0.05671986059120567
0.0774897236695939 0.17793019870207735 -0.40020153945377046 0.1417721506938695 -0.04899468230994176 -0.28350489155736974 -0.017979832228381835 -0.42670407128150145
-0.5239716466090144 0.3119334707680705 -0.16028767659964333 0.3288472669838312 0.09284012748855656 -0.06590400216612388 -0.14915840806014008 0.09006783327998391
-0.2617783039856684 0.14119208660591892 0.02655866491991488 -0.0887817373036711 -0.4101383564944457 -0.374641616354079 0.17738013780347084 0.03312640168570484
0.25701221917358724 -0.1805052072858316 0.6739861144713545 0.1269048131316179 -0.13431584549564693 -0.27956039193842197 0.12886474831055295 0.09867977195053908
-0.07842697355699892 0.4025592736355893 -0.6239782199266866 -0.043931158780406 -0.2734853663597302 -1.263871914548686 0.23238114052522965 0.4160925279663908
0.28888301491009044 -1.0026394527218756 -0.014826783931159934 -0.12379964400132697 -0.035851687678534944 0.04438329064127421 -0.269462823035375 -0.03901227210309528
0.5706078805631063 -0.4469931538891264 -0.13513400115009927 -0.23504217229564986 0.37980639708248176 -0.01862703744792729 -0.0802366927580159 0.10242697309467864
0.09420209734074607 0.3234329272594953 0.35398691204197463 0.17840875840007836 0.2411362012723051 0.3043563572360409 -0.028350528612766823 -0.5257271077693051
-0.1898773909179677 0.49548913504252584 0.08483479627722576 0.01808297255859328 0.19897787320728189 0.07004482721249336 -0.6020278399116307 0.6387314150939026
0.4420591405357057 0.7728476369417677 0.34451931718410855 0.14131092648419652 0.35537541644687465 -0.19125279810129409 0.1947414061029739 0.543411834420704
0.041628161709720925 -0.43786704271514854 -0.09206474028377358 -0.4211251791140136 -0.17194408839811884 0.14373392822692846 -0.4175973154984823 -0.19056696242626017
-0.2889565831914914 -0.024115223922947206 0.0707033355229875 -0.49360199481616956 0.27806668956570213 -0.18762314811030564 0.583600481188369 0.035251478796984384
-0.09344929347971309 -0.08685804648022591 0.3452190979596056 0.5961499349576583 0.10288980899372162 0.0820705105780099 -0.13147674164944798 -1.5199282020832339
-0.04547869381278938 0.16555483815479977 0.3681614817093854 0.051345385991607706 0.9621464958237783 0.08605369558093627 0.3166123244681443 -0.013305240342024889
0.5083887522203735 0.26152263027268785 0.31333209807933377 0.29326445154651676 -0.31452235948056345 0.29604099543348017 -0.28057877533141456 -0.5605325739603034
-0.3013163151276918 -0.16705626520053257 -0.28396303849537996 -0.9169224693860649 -0.23194442958305717 -0.8668166415132286 0.762617490425571 0.3687233411966167
-0.020606906559397405 0.13665913764495155 -0.6974770044583691 -0.2906512104738526 0.018430325270502236 -0.04252646686686875 -0.013803717498575804 -0.49192243537576724
0.7309303774337641 0.11321629055183635 0.24036749047706057 0.13737671788713657 -0.6721061193843915 -1.5792619046499443 -0.24254716069543428 -0.125422067289378
-0.06349778982025032 0.08250815867186805 -0.022666567995520734 0.0020073297403135604 0.20094337482462038 0.10145904992436079 -0.12918836844402368 0.05427035158176865
-0.005821528133376029 0.08292324070534297 -0.21729598344987577 -0.2124656387697593 -0.19894199068069587 0.2917772094860685 0.040332946737204785 -0.45600344424579126
0.1773110612761693 -0.07707309518101457 -0.05467523773332455 0.25024740141012014 -0.360509736731778 0.34065201125138517 -0.602707286495921 -0.12398051297887164
-0.3507962042665694 -0.04217377616350137 -0.15533312462318788 0.06879364894922596 -0.13068843098245014 1.0534028972888796 -0.14376373745508483 -0.1683851042331369
