offline_resampled_model_testing/model_8.npz (npz, 976209 bytes, 5 tensors)

imat f8 [1587, 50]
00000000: 99ba df4e a118 d0bf c4d9 cff6 9ee4 d13f
00000010: 8aa4 0e0f debd cf3f 93af 2d83 927b cbbf
00000020: d676 80f7 08da cbbf 68af e817 349b c1bf
00000030: 27c2 1bba 294b dc3f 45db a3fb 7f1f abbf
00000040: add8 3630 25f3 d0bf c331 3a16 22f4 bc3f
00000050: a2a6 b28f 473f c1bf 6dbe 7a5e 2507 b63f
00000060: 5ce2 6d74 e92f bfbf 8838 892b 8999 d03f
00000070: 50db 1caf 26f5 cd3f f072 4a4d f6b7 9f3f
00000080: 1950 5b7f dd67 b23f 0dc2 e169 d4b0 a83f
00000090: b6fa 1ead 6c62 ce3f 9207 38f5 e261 c4bf
000000a0: b14b c005 0d57 e33f e0b8 3a52 f5e0 633f
000000b0: c913 2f1d f84b da3f 31bc 0c97 0ab8 c3bf
000000c0: 0243 5975 3660 c83f 669f 2a72 3033 d4bf
000000d0: fe5b 3f22 1a56 b43f 56ea 1b15 a48d d9bf
000000e0: 3595 2d65 742f c23f c84a 1a53 f6dd cabf
000000f0: 6b4e 7f7e 78d9 b8bf e250 ec3a e697 be3f
00000100: 3cd2 288d 4a96 c23f e26b 8c00 8a2e c23f
00000110: 6e8b 4b9e 7235 ca3f 4ae8 4d40 ad3e bcbf
00000120: ea9a 06b3 f87a d03f 96b1 b7b3 9027 cc3f
00000130: a687 d5cd 7f2d af3f 1e46 e69c fe92 bf3f
00000140: 4e58 91b9 32c5 a33f 6812 a7a9 ceb8 c03f
00000150: b06a ab42 9b58 c8bf 3b7c 58b5 410a d03f
00000160: 7228 797f deb7 d03f a929 667f e4cf cebf
00000170: a92e a4f3 0c4a c8bf 18dd 38c0 a0f7 c73f
00000180: 2b1c e64e aff3 993f a0c5 89dc 43da 46bf
00000190: 3f8c 3e05 3d80 9b3f 907e be09 723a c83f
000001a0: df57 22f2 1013 d8bf 8ec3 384b ab7d c33f
000001b0: 2721 16b8 8f55 c6bf 0154 f11f 2c4d a73f
000001c0: 1b10 6399 b4fb d03f d627 07de d2c9 a1bf
000001d0: 2136 a2e2 186e afbf d76e 8679 eb03 c93f
000001e0: 2137 ed68 de80 d03f 2661 1e34 dda2 ccbf
000001f0: 5b9e 4b58 dcaf bbbf b815 8a6b 864f c1bf
00000200: 55d6 5682 c054 9ebf aeb6 7fbf 99be c73f
00000210: b375 495a 65d5 c03f a80c defc 0ba3 8cbf
00000220: eecd 1d20 5a1a d6bf 9aaf 7d3f 90dc b6bf
00000230: 016d f203 5c16 9e3f 5219 5009 8ac0 a73f
00000240: cff0 20cf 92d7 d13f b05c f15e 16a0 ba3f
00000250: 3dc6 72a7 2e9b dabf ce99 bed1 f25d bc3f
00000260: 9717 81a2 2750 c7bf 042e 2743 50d6 c4bf
00000270: 4046 71df 0081 a53f 2bf8 cc76 13d4 943f
00000280: 1cae 93b7 c292 bcbf bd68 454a c40a a93f
00000290: 5b74 bcbd f40a c1bf 540d 2cea 3bf6 b1bf
000002a0: f26c 4221 6679 c8bf af85 f956 dc3e b1bf
000002b0: 8a0b df45 4fea c43f 4ea7 4296 32cd dc3f
000002c0: 5893 54a4 cc7d cebf 5a77 3bc9 7310 c73f
000002d0: 080d 1605 139c cc3f 0878 f7d5 2157 813f
000002e0: 7052 e38c 0cee 7b3f 240b 6f70 cfe7 b1bf
000002f0: ef3f 127e 62bf 7c3f 6263 cb16 7244 d7bf
00000300: 844c 2d8d c61d d33f 8a27 3c11 06cf c0bf
00000310: 3740 f681 5558 d33f 5fd4 7115 ae98 c33f
00000320: 1cd1 2164 28d6 973f dc06 6fd9 81aa 9c3f
00000330: 9f62 2177 f95f c4bf b4f0 e81d adcb b73f
00000340: cc07 d9db 72a5 9cbf 8c46 f64d 17ee 753f
00000350: 6786 0bb5 b63c 823f 5b4b 99ed 596e bbbf
00000360: 8526 4cf7 1948 bcbf cada dd5e 35b4 ccbf
00000370: c6d0 4ef0 e806 babf 270f 8229 f525 b23f
00000380: 864c f929 995c bb3f 8076 7c8e d946 9a3f
00000390: cc92 2669 cf6e a6bf 2e09 a9a2 e90b cd3f
000003a0: cbce 97b0 f364 b53f 906f 06c5 233b cdbf
000003b0: f0c5 e439 bba9 d2bf 4eb9 cffc 3687 adbf
000003c0: f936 7c00 8cac cb3f 044d f86a 5cd5 a83f
000003d0: ccdc aa1a 5a11 c23f 61ef ac85 9371 bb3f
000003e0: ba95 3221 c15d b93f 94c3 9cd6 6a9a ca3f
000003f0: 789b 31a1 4898 a1bf deba 46a6 44ef b1bf
00000400: 0c5d ad4b c687 d4bf 486a 2a7c 1e76 cfbf
00000410: b64b e265 d4ac c3bf 7ec1 c17a 4c00 c73f
00000420: 1feb d429 ac06 b23f 6146 eaf8 8e12 c63f
00000430: cdc5 656d 248a d13f 0c3a c106 1a2c 853f
00000440: 737a 5a36 f305 c23f f101 8827 6d4d d1bf
00000450: a3f0 b954 3929 d8bf 4a84 69c0 aa35 c63f
00000460: 6442 b0b9 d2f6 b03f b63f fc3a 3f8f b93f
00000470: 82cb 9abc 9692 a53f f8ef 8534 85a7 99bf
00000480: 695b 8879 d7a2 84bf a141 c73a f091 b4bf
00000490: 8d19 bba3 2153 a93f e736 80ff 9d84 b33f
000004a0: 60b0 ecde 8eeb 7fbf c11c 0362 3acf be3f
000004b0: 566a 6db5 b45b 9fbf 89de f0f1 dd32 c3bf
000004c0: 48e9 8612 8f9d cdbf 2ab7 a0ed 61f0 c23f
000004d0: 0943 5e46 7fa4 a5bf 0ca5 156f 322d c6bf
000004e0: 1e7c 0b87 2e11 bf3f 3845 b470 7640 8bbf
000004f0: a183 3fa4 b334 b2bf 0a74 6580 0768 afbf
00000500: b7d7 8f78 1d26 bbbf 4a7a fa63 4d68 a33f
00000510: d723 5732 e9b8 d23f 9e20 6a8a ab51 b73f
00000520: 36ad d67c cd4d a0bf 8f8f 8c30 f94c c4bf
00000530: 4cf3 2aab 24a0 b73f 2078 d8e6 cf99 913f
00000540: e40f 1e5e 22a0 7dbf bdde fa83 27b2 bdbf
00000550: 2170 038e 57d1 b8bf ef33 ed2a 2cf5 a53f
00000560: ac93 2ed4 ff47 b23f 35ee 26c3 9687 c3bf
00000570: 4b84 e625 9db1 d0bf 3817 5463 ec4d b9bf
00000580: 7e1d ec47 cb63 d5bf 53e3 2547 6f6e afbf
00000590: 74b5 e519 bf9d 8fbf 9096 ce52 479a c6bf
000005a0: 3832 5afa 894e 83bf be05 f9b9 e702 c7bf
000005b0: 1cf4 181a 5b2d c9bf 43c1 5ff6 42e1 c4bf
000005c0: 30b8 26ad f141 a6bf 28e5 1756 4856 b53f
000005d0: 2003 cf00 8ed9 6abf b466 a58f 28c1 ad3f
000005e0: d820 3274 323b 77bf f214 1b06 9ecc c6bf
000005f0: d9c5 d568 117c a1bf 8794 a6d3 f00f aa3f
00000600: 7e53 1c97 23ac b83f 356c 8642 e7ac c1bf
00000610: e99a 580f 8b5f bdbf ab65 4873 abbd cbbf
00000620: ee80 18c1 d71c 93bf ae7e b56e cbc5 a8bf
00000630: 48a5 f57e dd25 74bf 166f 497b d8a9 c6bf
00000640: 819f c183 8b8f d33f 16a6 1519 db30 c83f
00000650: 5a2c 118f e5e7 b4bf c9b8 98bd 3132 d83f
00000660: 2e32 6e52 c7c6 a9bf 975d 189e 5b02 da3f
00000670: f688 eea9 4d80 a3bf 921b 4d3e a576 99bf
00000680: 3b70 73a1 98cd d03f fc5d 37a5 b73b bbbf
00000690: e4e2 673c ffb2 b13f 5a31 4fc0 63f4 c5bf
000006a0: 0d20 a907 8e28 c9bf 9e49 8c6f 0ace d9bf
000006b0: fc57 32e5 7a4f 9cbf 3a03 e5ef f210 d7bf
000006c0: 44b8 0fd0 1ace b0bf 6409 8039 886a 9dbf
000006d0: 0f41 706a 1fef cabf 3e23 1a56 d922 bd3f
000006e0: feac b175 cf29 933f 9051 f7bd d036 bb3f
000006f0: 2c19 895f a6ed c13f faf2 4c6d a154 c43f
00000700: cacf 475e ba7f c13f 9f03 bd7f 97fa c93f
00000710: 6d09 6beb f9f9 b03f 0031 1bf1 eeba 663f
00000720: 39be 13c5 782a c1bf f859 a6f8 8dcd a1bf
00000730: ae34 3489 9656 bd3f 24bc e9d9 d8de a1bf
00000740: c86b cb1c 7d32 96bf 8ecf dfac 48d5 cb3f
00000750: 4f4a 034c a265 9bbf 9898 4d8a 5c1c c7bf
00000760: 5fef 8621 fc7c babf bcb0 d53e 201c 853f
00000770: c85b b046 8e71 cebf 3aa4 32fd 483c b9bf
00000780: f426 7d6b 0a68 b33f 9b8a e8c1 fbf0 a73f
00000790: f24d 1eb6 9f2a c4bf 649b 2c4b cd9c 9d3f
000007a0: 7034 f7a2 5e21 a7bf 9e68 24f2 bcf0 b73f
000007b0: 9c91 68f6 0d3e dd3f dac2 ec89 6cd0 c63f
000007c0: 82f2 2d0c 7e42 c1bf d27d 3827 c23f 9f3f
000007d0: 2f8f 7830 2dac cabf 9ba7 5fa9 2b51 a03f
000007e0: 011f 84b7 a753 b9bf ce38 7c2d d4eb bbbf
000007f0: 340b 56d0 4a46 a03f 1bbf b898 256b d2bf
-0.25150330259831716 0.27957891562200765 0.24798179373945956 -0.2147086277503801 -0.2175914009575794 -0.13754893462589313 0.44208758520747654 -0.052974700420171085
-0.26484040935919034 0.113100176264374 -0.1347436381959613 0.08604653889300957 -0.12182482807646394 0.2593710827976641 0.23404391813684322 0.03097519728418069
0.07189735755247319 0.04822410385611784 0.23737867787527528 -0.15923726056649606 0.6043763267829175 0.0024266044072965703 0.410886791705988 -0.15405399680591494
0.19043617944637253 -0.3156243433863807 0.07943881355400603 -0.39927007733755226 0.1420732015641676 -0.20989874894856642 -0.09706833923638107 0.11950529993584127
0.14521152393867165 0.14204525973113308 0.2047560952115321 -0.11033137149743868 0.2575055836008874 0.21995743537207763 0.06089400661109261 0.12333670931391125
0.0386138774417054 0.13063987048930703 -0.19020405536033058 0.25062601766143516 0.2612224812370477 -0.240719377714709 -0.18975984474706323 0.18724450479360466
0.025343646231274313 -0.0006974059443349175 0.02685637802609286 0.18928361392771764 -0.3761637081710187 0.15227261708198764 -0.17448612679096095 0.04551065339970962
0.26536288241573097 -0.034742917635938106 -0.06138685003780276 0.19543212350696734 0.2578655266450927 -0.22372021717888763 -0.10815217166565942 -0.1352394127936074
-0.02962017818000214 0.18550416803866682 0.13151232632200802 -0.013982862142944377 -0.34535840164536935 -0.0893030314452389 0.02938216947641781 0.046390832554652164
0.2787825606099092 0.10400523965778308 -0.41572157242180535 0.11080854054180309 -0.18213363108423827 -0.16279032973248786 0.04199984290665926 0.020340255857483818
-0.1116143892465335 0.04891026884679792 -0.13314685120068045 -0.07016348330585248 -0.19120480178830906 -0.06736542819410006 0.16340056335146996 0.4500242679010754
-0.23821409248298653 0.1801895840243855 0.22351300953241826 0.008466972677464227 0.006818818115978162 -0.06994339461293159 0.0070184562074615394 -0.36355259157203623
0.29869235789119153 -0.1313178619532745 0.3022664803656911 0.15309692427732366 0.023277884589746653 0.027994183441257245 -0.15917890850939373 0.09295160274718023
-0.027974886578028976 0.00535401442847817 0.008904864692740945 -0.10715257693054296 -0.11047518050704681 -0.22424952633055845 -0.10166793696299967 0.070891687997627
0.10688168787719307 0.02566089565436025 -0.04381416472032171 0.2269260448684433 0.08357165395119208 -0.2283673011814895 -0.2916095795982008 -0.057672232018250655
0.2162032129639824 0.04850281530175418 0.1411545400821751 0.10720178617060362 0.09908682880867206 0.20783744315260988 -0.034364957501387516 -0.07005719241599759
-0.3207870234522978 -0.24579220831658888 -0.15371184325030435 0.1796966170691227 0.07041431447298095 0.17244136003550906 0.27405653651575507 0.01033802350152959
0.14080658105827445 -0.2703507314727452 -0.3775161101728008 0.17351278681874965 0.06626622231875384 0.0998420256621547 0.04213400890639375 -0.025053101855050358
-0.010076220890409453 -0.08035184321420853 0.049462367283513144 0.07624232757390424 -0.007793005074557241 0.12034954922556819 -0.03062326772065157 -0.14998983682174963
-0.23137081532133608 0.14796089270515128 -0.042270638790006095 -0.17325430320787694 0.12135592267030446 -0.013306546511133818 -0.07111666450465616 -0.06134055559480352
-0.10605034058957484 0.03790513844909478 0.29253606716207287 0.09108993653547023 -0.03184358738811925 -0.1585990416580185 0.09228734187031512 0.017188309158989168
-0.00723279404508401 -0.11599966976325056 -0.0969443055832362 0.0428861429596522 0.07141112261031307 -0.1525753453150728 -0.26084068967071933 -0.09884526658069326
-0.3342159464231925 -0.061389424738939845 -0.015437596299956204 -0.1765832094508153 -0.009427144959112885 -0.17977615910244354 -0.19669665121355784 -0.16312443761808923
-0.04347186316168494 0.08334781743896669 -0.0032775662898249097 0.05811430696003353 -0.005671689115054522 -0.1781194238484783 -0.034149688765761695 0.0509028681147266
0.0963766330645068 -0.13808909176154463 -0.11473912357960682 -0.21672576073687586 -0.018664714012744214 -0.04838405348232065 -0.0049189235863676475 -0.17705827731958185
0.305636290233899 0.1889909622653227 -0.08166346304749209 0.3780636168984413 -0.05034468537551039 0.4063939136408065 -0.0380882520614864 -0.024866659095347972
0.2625485970181704 -0.10637996467209371 0.06913752770186538 -0.17152068033318352 -0.19655013441138217 -0.40320073026046 -0.027646942366651203 -0.3604094832153809
-0.0656449087107101 -0.028726700315027456 -0.2104224462241366 0.11381300308324868 0.018714181478952867 0.10630516660541489 0.14006499924489313 0.15883272015516764
0.13671044925251713 0.20295995461677038 0.06631433484566225 0.0027746836502499095 -0.1341086351671821 -0.034771381953010605 0.11460247850137037 -0.034903313255988416
-0.02167697418449757 0.21744640771032347 -0.026754890336471878 -0.18055302384454275 -0.10346961802036735 0.010307552259029122 -0.2378404469643256 -0.09857612783038486
0.07580628513565185 0.04676043264432402 -0.15755077736376638 0.028918464387199264 -0.04517646540953357 0.09351712142634702 0.4569125086148007 0.17823559507953385
-0.1348416861982465 0.030516656535949434 -0.20837941042656768 0.031869282174582035 -0.09893272619603623 -0.109067212204738 0.0317862872425593 -0.28778972543931197

gbias f8 []
00000000: 3fec aea9 ea39 0c40
3.5282796150691236

ibias f8 [1587]
00000000: 6dcb 40dc 034e b2bf ad2a 6c41 5f5d d73f
00000010: 8bd0 7f5d 0c35 e83f 051d 4aee f736 c43f
00000020: f436 57ef 75dd b23f e70e f9af fd71 e03f
00000030: 1e3c 1e29 0abc d5bf 91de 5bcd 4f5b dcbf
00000040: d473 9c32 ea36 d63f 9485 7883 160a c53f
00000050: da86 f0f8 be7f e4bf 592f deba 6bad e43f
00000060: 45d2 5053 fa5a e23f 6ae4 bb41 740a c33f
00000070: 380a 37c9 edca d9bf 2489 34a8 e06e df3f
00000080: 9919 07dc ecad a8bf c0d0 6193 7613 c13f
00000090: d21a 340c fb7d d4bf 8264 dba4 83dc efbf
000000a0: 575d aefc 7743 e9bf 606a 35c6 ae9f b8bf
000000b0: 7a80 c081 cdf7 e1bf e981 7933 b48c c73f
000000c0: 5a65 147a 4429 e3bf 1829 aeb7 7278 dc3f
000000d0: 5f82 493c 4351 c03f 7bd4 f5cf a6b3 ca3f
000000e0: 5445 a306 1079 d53f 1860 d95c 35fc d13f
000000f0: 9a4f 0125 2fc9 e8bf f8b8 1e5b a3b8 bd3f
00000100: 751f d818 ea37 d03f 68d7 faf3 6b87 e43f
00000110: a13f 7c4f c361 c23f 5b20 b881 892c afbf
00000120: 947c ed8b 2387 ecbf 9314 cc1a f630 d93f
00000130: bf80 411c 2804 de3f 8e15 9e3c 66a4 e43f
00000140: b962 500f 2e61 be3f de3a e451 b5ca eebf
00000150: 2214 6007 a04d dc3f 2bae efd8 f85c 8f3f
00000160: d6dd ec83 6a4e 9e3f 2b1b b8ea 04c0 f3bf
00000170: b52f 33c4 c773 d1bf 5fe8 6320 d012 a83f
00000180: e91c d22e d3af db3f 5a31 b607 2c3e e0bf
00000190: 46d5 dd99 3634 e5bf 995d 6be4 fd0a e63f
000001a0: fd5a 58df 11a6 d3bf 204f 4091 d184 ca3f
000001b0: 7295 4e29 a382 853f bfca 1921 af49 df3f
000001c0: 5445 a306 1079 d13f 52ba 4eb0 ae4e dd3f
000001d0: b87f 929e d164 bcbf a58e e354 aecd c93f
000001e0: 7a89 19fa 7f5b c9bf 55e3 2bb9 baa9 cd3f
000001f0: b2de fbcd abce d73f 0c9b 8b89 2259 c0bf
00000200: 7fea b16d c471 e63f bdc1 7fb6 83d4 e93f
00000210: 13af 4c84 8614 c83f 28e4 5f74 a415 d6bf
00000220: 48c7 cd15 5a03 e23f fa16 a587 d22f c73f
00000230: 5a13 42a5 8a3e d3bf 24c5 4af9 ab50 e23f
00000240: 0546 25b4 20b9 cf3f 1d5b 5265 9cdd cabf
00000250: 28d5 9b67 0fe0 d13f 2280 286b 0526 d13f
00000260: f390 3f37 62d8 e43f 02bc 35fd 1828 e13f
00000270: 9aed 161e 7ec9 d5bf 5b46 d003 40b5 eb3f
00000280: 6e33 3c6a 8684 e73f e490 e934 6c98 b13f
00000290: d1a3 85c2 f1b8 d3bf ff3a e98c e3f7 dabf
000002a0: 311c f86a 0e0a abbf e184 0406 5240 d2bf
000002b0: 2de0 9086 69c3 b13f 5c10 e0a7 2632 d0bf
000002c0: 351e baaf b111 e33f 6131 08a3 9657 cfbf
000002d0: 5634 2083 7593 ea3f ca71 ebf8 ffa0 d1bf
000002e0: 540d b408 d34c d33f 8392 813e 7e41 c2bf
000002f0: 6211 4e41 3bf2 d7bf d9da c05c 15a8 d63f
00000300: 5b3a 7a5b ec3a c33f 0261 39b4 a5d2 c93f
00000310: b38f b43c 2e5c e43f 5583 641b 024b cd3f
00000320: cb87 389b a78b b63f 6573 04a7 028e c1bf
00000330: ea4d d03a 1295 cdbf dfc2 f5d4 3ea8 c23f
00000340: 321b 0f98 12f5 b73f ceb0 b447 fc26 b5bf
00000350: 8a60 662c baf2 e1bf 8029 eae2 414e e8bf
00000360: ba31 8ed5 82ab e1bf e47a 641b 891a e33f
00000370: 0f62 983b 0a80 d83f 495f 45be 33cc d33f
00000380: d179 c866 6453 9abf 8480 26ad 9c74 c2bf
00000390: 1642 18eb f843 da3f 5897 a958 5fb8 debf
000003a0: c3b7 75dc 38f2 d1bf 7a6f 1445 e40e da3f
000003b0: 8266 4f35 cf2f ddbf 2822 5065 3a5a b8bf
000003c0: e550 cf1a 38a2 d53f 36cd c18f a402 e4bf
000003d0: 0b27 c6db ade0 99bf 023d f03e 661a f1bf
000003e0: d98e 8d4c b825 da3f ae62 4969 99c4 e23f
000003f0: 5639 a88d 8aac bcbf 3212 526a 8f80 c23f
00000400: 493f fd63 c079 d9bf b15f 1b70 03d5 df3f
00000410: cea6 1f90 7a1e d9bf 68cd bf98 63a2 91bf
00000420: dee7 d261 6572 d1bf 3712 ce07 7b07 a1bf
00000430: d2d1 2fa6 b5a1 d0bf 5155 c3b4 ff6a c53f
00000440: 9c3b 864d ca36 b4bf bc2c 2bc1 fa8c e03f
00000450: 3f13 3d6a 5c11 dbbf 2319 1542 51a4 edbf
00000460: 57c3 2349 0577 bdbf 938b 69aa 632e bc3f
00000470: 635e f4fc 1a19 e53f 8586 ac81 0a11 eb3f
00000480: 5199 1c1f 68f2 ebbf cb5c 400c dce2 b03f
00000490: 5245 a306 1079 d33f a11d d57f 81f7 d43f
000004a0: 9dbc ae1a 6f92 f0bf 8bdc a27d 654c e83f
000004b0: 1dfc 0c99 97e6 b0bf d6e2 42d2 8962 d6bf
000004c0: f0c6 1523 34e0 e6bf ab9b 6205 478d d03f
000004d0: 4265 3dff 934f a3bf cb32 821e 00aa bd3f
000004e0: f137 352e 5bbf d33f 81ea 81cd 65a0 e13f
000004f0: b08c 6d2b 3dc5 ec3f 919b 8bfb 170f da3f
00000500: fe75 d219 c7ef e5bf 8dae 9d11 13c4 b93f
00000510: 0bb7 02bf 05e0 e13f e61c 67b5 f9f5 d53f
00000520: d775 3a8d 24bc d5bf e485 f318 7c37 d7bf
00000530: 2bb8 ec78 5c9e cdbf 38a2 ef00 1aaf bb3f
00000540: 10de 4641 94ab bbbf 2010 809f 193e d03f
00000550: b031 0bfb d04f e63f 0795 a9ff a0d6 d83f
00000560: 2dd4 77a6 7e77 cfbf d5a5 c3fa 1d33 cc3f
00000570: f412 33f4 ffb6 b2bf 339f 024a 5e92 d1bf
00000580: 560e 6aa3 222b d8bf c4ca b8f4 6616 ea3f
00000590: 0f76 35a2 b5ad d83f 5e62 86fe df56 eebf
000005a0: 721c eabb 6d68 d33f cdc7 265a 08e5 e4bf
000005b0: 9722 7c74 8972 d2bf 6f31 6d5c 2c5d e1bf
000005c0: 6284 c834 99b6 f0bf beec 1e34 ef7d cc3f
000005d0: e530 7546 5047 ba3f ddd7 32de 84d7 dabf
000005e0: bd0f 6449 18cb 913f 7973 034b 1ce4 d53f
000005f0: 234e 864c 3e8e d93f e362 9aea 980b d33f
00000600: fa3d 8bf7 83b8 a63f ac9b 6205 478d d03f
00000610: 9ecb 9519 46d7 d93f 6ad8 afd6 0bab e5bf
00000620: ce81 82c9 b015 db3f 29cb f722 407d 813f
00000630: 1d56 92be 4845 b6bf 127f 4279 75cf eabf
00000640: 85ea 00c0 c2e9 e63f 94ca 6c9d c129 cf3f
00000650: a7ae a6be 54da af3f a696 4fde 388a d6bf
00000660: 13ca 4195 1aa0 e5bf 92c6 4673 99e4 503f
00000670: 5510 ecdc c43c e23f d38b 33cd 5094 9bbf
00000680: e0fe 6ad8 9250 cdbf 0770 7910 edd5 ca3f
00000690: 6f31 6d5c 2c5d e1bf 06ce 6582 e8a6 a2bf
000006a0: 3fd6 d5a5 5547 513f c879 0c14 9421 dfbf
000006b0: 14bf 645b 84db dd3f b3dc a798 bf32 e63f
000006c0: 6c64 64f3 a74e e13f 8f5b 9248 1d90 d23f
000006d0: bec4 0cfd bfad ecbf c53e a16c 8fa7 da3f
000006e0: 961d 6fcc fd32 e1bf a597 bc56 e770 bc3f
000006f0: 30f2 3a0c bb5e db3f 27d7 1b2d 3b9d bc3f
00000700: 3979 5d35 de24 efbf 38fc 86b7 6cd8 b1bf
00000710: a13c 576a 0edf f0bf 6d6d 60ae 0a54 e73f
00000720: 8673 804f b74d d23f ebda 9322 7dce dabf
00000730: 5571 85bf a0bd 89bf abba 5cf9 ef86 d2bf
00000740: 5691 2975 8290 df3f f79c 60da 38c7 ccbf
00000750: 5ca6 7d89 2ec4 e7bf 99c3 ccba e2cd e5bf
00000760: c841 9686 fa0a d6bf 1d6f e7c6 0112 c8bf
00000770: a3a8 78fd 7fb9 e1bf 8c11 8142 b150 a0bf
00000780: 1639 80ac 14d4 eebf 06a6 02f6 648e d13f
00000790: 17a0 354c 77da e53f 0e55 0df0 64e8 e73f
000007a0: c996 5419 67b7 e6bf ed4c fbf6 2ace ce3f
000007b0: 33b0 7638 0ce0 d33f 44e2 e097 acf7 cbbf
000007c0: 0e94 560d 3b76 d1bf 5275 2d6d 1b13 a43f
000007d0: 5c13 42a5 8a3e dbbf 63bb 930e 002d c43f
000007e0: 8e3e a73a 73d7 943f 3601 e7e0 5bce d4bf
000007f0: 8ef1 a468 f8ce c03f 3431 6b19 52c3 e7bf
-0.0715029156424813 0.36507398022574017 0.7564756227643711 0.15792750487546683 0.07369172185209633 0.5139149128885635 -0.33960203185501026 -0.44307322554184575
0.3471017355203092 0.1643703596064766 -0.6405939924336181 0.6461695337070338 0.573605692602151 0.14875653466859556 -0.4030107941618186 0.49114242960253507
-0.04820194421658925 0.13340646931067646 -0.3201892489600314 -0.9956682414878204 -0.7894859252145733 -0.096186564818177 -0.5614993604867913 0.18398144257936558
-0.5987875351303658 0.444851569533641 0.1274799389239147 0.20860753206548907 0.33551407478542683 0.2810185820321762 -0.7745586130863444 0.11609860396012894
0.253412746679252 0.6415309682113106 0.1436084879028359 -0.06088666637884962 -0.8914964421236555 0.393613363427286 0.46900370368349437 0.6450682815490596
0.11867034791829213 -0.9622446631854833 0.44223786087269634 0.015314048881882666 0.029596008588866095 -1.2343796890942922 -0.2726916709914307 0.0470185317553422
0.43260650226916525 -0.5075893545741039 -0.662623692055299 0.6888417683903071 -0.307011097059714 0.2071783026918803 0.010503077219093913 0.4888723204850684
0.27301407478542683 0.4579273912194469 -0.11091337319748973 0.20158938546147911 -0.19810485565092134 0.23174222985815143 0.37198920360195153 -0.1277201816185073
0.7013876097183384 0.8071917118486948 0.1881263872140769 -0.3450709473104916 0.5629091668945216 0.18114692328725096 -0.30069223536002243 0.5723476284967188
0.24783715053722247 -0.20988802859638947 0.27930054777182756 0.267945627829251 0.6514140204494921 0.5361447282319889 -0.3404231351703061 0.8658752512439593
0.7349273753076042 0.06873203555875623 -0.3081631087903221 -0.42137993584485395 -0.05281109863067746 -0.285175805927862 0.06938800368595884 -0.25306097406451555
0.5959099228065897 -0.24486048660800022 0.8305003701258424 -0.27545165356221146 0.3015639863007966 -0.14262369205529887 -0.3741596353286437 0.35400899942343994
0.15023569552109248 0.20174094486242927 0.6362525163317428 0.22885156953364097 0.0880684617955289 -0.13714631228585997 -0.231111792295095 0.1457594432681821
0.09358326160791533 -0.08262612105017128 -0.5608797900377038 -0.7595529014518405 -0.5521864100460825 0.5969892058381814 0.3828149396881892 0.309338508426198
-0.025708740971930603 -0.14418371634110738 0.41039870222542285 -0.48000320108837036 -0.28040906457215103 0.40715891595913656 -0.4560430546385775 -0.0951267716737979
0.3380260717215278 -0.6253226096872939 -0.02527114538091894 -1.0689451654941995 0.40855224109530536 0.5864989334468953 -0.11200777014184857 0.14454834643778863
-0.39805612339568036 0.49737630794470095 -0.3924852759797489 -0.01722102756316471 -0.2726071791945496 -0.03326019735599 -0.2598699686925815 0.1673278458244263
-0.07896103279766326 0.5172094128442022 -0.42293463110791046 -0.9263082781479038 -0.11509736095082466 0.11008284483391 0.6593146267432072 0.8458302052205943
-0.8733406646395371 0.06596160220248064 0.3042640747854267 0.3276065586437316 -1.0357504884994235 0.7593257383185955 -0.06601855742063419 -0.3497643044789077
-0.714868610883256 0.2586228897657132 -0.037716507823186265 0.11587525124395907 0.3085544539688945 0.5508297933404976 0.8990770195199698 0.40717124524092535
-0.6855197433794158 0.10064810924603247 0.5585964899707688 0.3431381484519548 -0.33960832397300805 -0.36276152073523193 -0.23139530090833324 0.10814058802464721
-0.10808683961555965 0.25379028869815734 0.6972432044217864 0.388099908514349 -0.24583418968509943 0.22030997032497504 -0.07310485565092134 -0.2745586130863444
-0.3776327701418486 0.8152346400950923 0.38560238686281506 -0.9481048556509213 0.3032488188841348 -0.6529580841799941 -0.2882407796428565 -0.542623692055299
-1.0445797025534138 0.2225932125564664 0.10265065879974918 -0.4194042367847695 0.01737630794470112 0.34204776120696284 0.3993068454085195 0.2975828448339099
0.044376491515887254 0.25862288976571324 0.4037642717223039 -0.6771296685317456 0.42319888762179125 0.008539677683960871 -0.08699469235065078 -0.8378245704988976
0.7160352468557255 0.24346180140272067 0.06221260859760252 -0.3521864100460824 -0.6757939257789211 0.001031064847762418 0.5699180903325308 -0.02693296673249874
-0.22902141158373635 0.20965350441372285 -0.542623692055299 -0.036429658811268736 0.0010546051410903615 -0.4864244647777949 0.46652325558805896 0.693694875865637
0.5408515695336411 0.29004604422646535 -0.8962097113018428 0.4164770661200062 -0.537474536214108 0.11109777324290222 0.42765690035210735 0.11177415705955394
-0.9732504884994234 -0.06970862846991188 -1.0544571069656643 0.72900899942344 0.28599341167301195 -0.41885307671274913 -0.012568717808499366 -0.2894859252145731
0.4931951660312469 -0.22482977545698876 -0.7426979718558857 -0.6813825272021062 -0.344420081551132 -0.1880495282374505 -0.5538940382587224 -0.03186563431566744
-0.9633887643010748 0.2743160631603988 0.6829182136980333 0.747118443347661 -0.7098880285963897 0.24066674289370074 0.31054978860879884 -0.21849591651859346
-0.2728412275558306 0.03920827586874033 -0.42569223536002254 0.15762329780360593 0.020353126959717964 -0.32509514773484527 0.13131623372636309 -0.7425928589305273

umat f8 [942, 50]
00000000: 1854 c457 cf37 cf3f b1ae 0c2a 8eba e3bf
00000010: 269f 9628 8aba d1bf 9267 7cba b23c e2bf
00000020: 864b a836 ac55 d43f 02b9 4bbd f8a2 b53f
00000030: cdf2 cc35 2082 d2bf 7e78 331e 3406 913f
00000040: 804a 692b ecc8 8cbf fa24 b3a0 95ea bfbf
00000050: 1b53 f757 213b d0bf 803a ec7c 5679 743f
00000060: ac84 a8dc 2686 c2bf 5d31 2637 6182 d2bf
00000070: c68f 3629 e90d b3bf 5ce9 cce8 2fab d7bf
00000080: 00e7 b1ea ff7e c1bf 0909 f7fa 1021 dcbf
00000090: 0f73 7790 9f3b d2bf 04b4 fa77 5807 9dbf
000000a0: cd22 30ac fd46 e2bf 489c a494 c85d 9e3f
000000b0: f289 6ecb e3c1 b9bf 8e18 af79 aead c73f
000000c0: 8cf5 aa40 287f b63f 109c e16f 4a1a b1bf
000000d0: 49c8 520e 2b6d d6bf 40e3 d044 e938 d23f
000000e0: e2e4 82df c38a ba3f d370 73df 98ab ce3f
000000f0: 743b e742 a294 b33f 1340 2608 284f c1bf
00000100: b60c 020c 7031 c33f 1cd5 d79e 5f2f c13f
00000110: 0d45 2ba6 28f7 cdbf 4458 632e c6b1 be3f
00000120: 7706 8f95 bf4e bb3f 9a01 f99f 9e0d e3bf
00000130: 9d5b 0ae7 3428 d6bf 005a 14da f689 30bf
00000140: 5aea e102 7c84 bcbf 258d 4836 8a49 d03f
00000150: 8b65 b0e1 7e64 d23f 92a0 f268 9976 de3f
00000160: 7e1c f9bc f402 bbbf 3887 bbba f3fb c0bf
00000170: 1ebc 588f 20d4 a63f c0aa d5eb fcbe 9bbf
00000180: c48c fbfb 9bc0 b4bf 7d62 97e3 3a20 ce3f
00000190: 581b 3100 ed8a c53f 6448 3e45 eadc da3f
000001a0: 5a3b 925a 3d92 a93f 5272 7212 f285 abbf
000001b0: 4ded 7b33 8807 d43f dd35 ffb4 0f47 c3bf
000001c0: 838f 53c3 c83b d03f 60b1 22b1 4d16 c53f
000001d0: 2ed5 768e 107b cc3f 2438 5f72 2195 d43f
000001e0: 1400 0ba4 a5e1 b1bf c007 29a1 dabf d03f
000001f0: 004f b2c3 de9c a33f b6a2 0a9b 9228 b0bf
00000200: 10e4 ddee bcf7 d8bf e293 a5e1 d086 d53f
00000210: 41b5 0ab2 92da c53f 1ede db3d 7c47 a23f
00000220: fcc4 090e 7d1b a2bf 9e35 8379 c47d b93f
00000230: df2b 22bf 8d67 d83f 4f9b 0bbb b1f5 c5bf
00000240: 9055 92ec f2e0 833f be1f b682 fbbd bf3f
00000250: 188a 8496 3411 b4bf ba44 207e aaea d8bf
00000260: b7ce 55da 37f0 d6bf 10e1 0e38 779d c1bf
00000270: b9e1 d603 14dd d43f 3950 525e 8202 babf
00000280: 41a0 1660 6495 c5bf 4c6c a82a 7c1c c9bf
00000290: 38f6 7dbf 38fc 7bbf d410 fe4b 69b5 e13f
000002a0: e8e8 971c 4a5b 883f c822 90b8 582f c5bf
000002b0: cb0b b822 cb22 b43f 8297 4d4d 7ee0 a8bf
000002c0: 1cd0 f38c 26f5 c43f 675e bcaf dd28 c93f
000002d0: a97e 0c17 bc4b c03f cc9f ab70 f45d d5bf
000002e0: 6cee ba4c 2825 b6bf 1588 50d9 5926 c7bf
000002f0: a620 4eee fc99 c43f e814 f25b db61 d6bf
00000300: 7897 ae55 ef58 b63f d211 fb6c c601 bfbf
00000310: f732 f58b a177 d23f 1282 1cfb 1440 d1bf
00000320: a6cb 299d 900c c8bf a81a 7d2d 75a7 c03f
00000330: d9a0 15ad 3a25 da3f 17d0 d374 4c8d cc3f
00000340: 98da 6e2c 4f8d c0bf c50c b28e 70cd c33f
00000350: 8c10 7a17 c51d af3f ed34 8bba 5b00 d4bf
00000360: 0ae6 ec8e 492f c4bf e8de a6be 4d3d cd3f
00000370: 0d48 1e34 ef1a cb3f f4e9 5b31 dffb 973f
00000380: caab 57f7 6123 b7bf b813 81bb 3d13 cf3f
00000390: 12cd e93a a21e c63f 8e87 29bb 86bc bebf
000003a0: ccd1 4bb8 23ab cf3f 9097 1add 0298 c33f
000003b0: 7259 5b64 d409 c03f 08e8 dd9a 5d80 c3bf
000003c0: 960f e1ee 18b1 e23f b7c6 ab8c cc5d c2bf
000003d0: 5a1c 1cd0 8334 b73f eee0 d71d 914d adbf
000003e0: 756f de95 6c49 cd3f 55e9 7658 26c2 cb3f
000003f0: fc20 3e94 743e a83f 1781 fef4 5b34 c23f
00000400: e2c8 7929 2b9e 933f 7fcb 1913 e80d a2bf
00000410: 12f2 83ff 7d87 cb3f 6ff2 573d c12d c03f
00000420: 45c2 b87b a60d be3f 66e2 9f08 d170 be3f
00000430: 587a 5748 cae0 cabf 76c0 1134 ec50 be3f
00000440: 8a69 64bd 0b8f c6bf be40 b4a2 649a d23f
00000450: 4c43 de2e 8e15 d33f b8e2 3cb3 c838 63bf
00000460: b224 4c40 a4fd ab3f 0c5b 7b39 2f72 b73f
00000470: f8d3 5108 f5de b63f bdb5 665e 5e23 963f
00000480: 9193 5826 2f5d 9bbf 84c8 a21a 2f3d 983f
00000490: 7cb4 43f7 f9d6 9c3f 3e00 4426 e688 b4bf
000004a0: ee55 44da 4b93 c2bf 9e71 63d2 3b11 c4bf
000004b0: 2245 4436 087b c2bf 3424 52e9 202f ac3f
000004c0: 7910 b2a7 24ed a43f 58e4 ad74 2f2e c13f
000004d0: 7dcc 2629 e883 94bf 1479 cdea bc08 91bf
000004e0: 1869 6fea 02f8 cfbf 6037 c19b 2c21 8d3f
000004f0: 762d 934f 86c6 bf3f 96f8 8b3b 8135 b3bf
00000500: b8cf 07ab a5e4 b43f cf18 7fec dd04 c63f
00000510: caf5 0d01 b230 d33f 7f39 72b6 926d 93bf
00000520: 70aa 1e4e 9fb1 ce3f a6e4 2e48 fe5b cebf
00000530: 45e4 aea3 84d5 c4bf 80a6 9ba1 b049 88bf
00000540: 49a8 bbb4 ea88 a93f 89c5 63d2 dd04 cc3f
00000550: 7788 3fb8 8b8a d5bf 3681 0564 39cb a73f
00000560: 7171 0a1c ec28 d83f d0be 604d 6489 673f
00000570: 328c 6703 1cb8 b93f 8135 a386 6585 d0bf
00000580: c0af 5f09 8ef7 d7bf ce88 41f8 c62c aa3f
00000590: 982e 7ce7 1f90 84bf 766d 88fb 1b9b c83f
000005a0: 7dc9 b393 2229 d7bf 1d54 f315 527b b23f
000005b0: 380b ced7 e106 ce3f fba5 68c0 955a c33f
000005c0: b40d 2dbc 30e5 a3bf c2c4 2595 e948 a7bf
000005d0: 91a8 e98b 9bc8 b43f 5aed cc80 30db b7bf
000005e0: eb74 12bc 86fa 9c3f 8809 c262 9291 bdbf
000005f0: 24dd 7d07 29ce 933f 3220 5e34 b6bc b53f
00000600: 4ec2 9f1c fa25 d73f 9502 9dc1 81ef d1bf
00000610: d827 32e4 9d5d a9bf 6ddf 9c7a 0b8c 84bf
00000620: da5f 29d8 ba0e c33f a230 e538 2168 c7bf
00000630: 4e30 c814 8bed a2bf ec3f 6a2c cad8 bd3f
00000640: f5fe 94ba 54b4 c7bf a422 39e4 9037 c43f
00000650: fc76 5ef5 f2ed ccbf a540 c846 a8ab de3f
00000660: 0c93 32b3 da51 c4bf e0ab 40b5 d37d ae3f
00000670: f4b2 b0db c243 aabf 776e 29d9 f304 d13f
00000680: 6fbf 0ab4 ba80 a53f 4edf 835f a2fe c23f
00000690: 094d 04a1 419f d1bf 81c1 f4a1 1cf4 c3bf
000006a0: 6a00 af6e 8f09 ac3f 2a80 fb66 e36a cb3f
000006b0: e233 294a b09b b13f bb38 4c36 42cf de3f
000006c0: 7a42 91c5 ee53 d1bf 97f4 24db 553a c4bf
000006d0: b211 9aff da81 b9bf cc78 d7f1 edfb d53f
000006e0: 81bc 19c0 1679 d53f 55d9 ef53 9d57 b93f
000006f0: 34f1 d83b 3074 8bbf d194 790c 3c3b c23f
00000700: 94a1 2e28 1bfa 7f3f eeb3 a749 2f83 aebf
00000710: d168 8aa6 d6e4 b3bf d4e7 8312 dc44 79bf
00000720: 036d 8816 1411 bc3f acc6 327f d86b 81bf
00000730: 31fe 76e2 dbf8 b3bf a975 ce6a d307 c0bf
00000740: 78fd 231c 16d4 c43f 2d0f 4064 2278 c43f
00000750: 5eaa 22ac de64 bebf 60c3 ca9b 8cca 963f
00000760: a212 c33e d004 803f a327 31d8 6e58 bebf
00000770: ba3c 162e 4c05 b9bf 1cd6 6018 ed45 b33f
00000780: 0d04 46d8 b81c d53f 9280 fd01 06ff a03f
00000790: a41a 6c3c e8d4 ba3f e358 3d64 50c3 c73f
000007a0: af0d 9d34 ed25 9e3f 1cbc 0091 6f89 b7bf
000007b0: 2086 189a a3d1 b53f 641f 16de 95ab 93bf
000007c0: fd4f 688f 1a13 c8bf 45c2 a709 18d4 c63f
000007d0: 5a68 f14b abe9 cb3f ffa4 f9b5 cd9d d5bf
000007e0: 0c28 ad04 0974 b7bf 8cc4 8328 327b 913f
000007f0: a225 7659 4a09 bc3f c81f c4da 0b19 c13f
0.24389068398946345 -0.6165228673248376 -0.27701047862727746 -0.5699094431213203 0.3177290471805282 0.08451799985389033 -0.2891922498127258 0.016625227301908733
-0.014055104327018286 -0.12467322514853044 -0.2536090239566861 0.004998529285116349 -0.14471898817376905 -0.28920774827635914 -0.07443101173572506 -0.369823434204269
-0.13668822250092916 -0.43951820858286844 -0.28488911731783245 -0.028348333666759387 -0.5711658824012261 0.029654630730103798 -0.10061477390858167 0.18498784009552022
0.08787776545337617 -0.06680741530873058 -0.3504130973698279 0.28472358436879475 0.1036798878366372 0.23961172972383923 0.07648672231083059 -0.1352281608383242
0.14994621836021843 0.13425822502146267 -0.2341051875469379 0.1199001181842912 0.10667035485587371 -0.5954125523058338 -0.3462040191893097 -0.00025236393601471563
-0.11139655180333233 0.2544885187255253 0.28738376655527337 0.475988724220323 -0.10551385511017661 -0.13268896692084708 0.04458715200268436 -0.027095748800472164
-0.08106398488921501 0.23535858261927337 0.1683021784721983 0.41973358881035083 0.04994384508710566 -0.05375629878219414 0.31295971896880276 -0.150606120469475
0.253648939846464 0.16474314831919923 0.2225056357980661 0.32160221261153965 -0.06984935049968072 0.2617098401861959 0.038306199444518185 -0.06311908993905999
-0.39012072874862813 0.33635351215190046 0.17073281949471134 0.035701639701013685 -0.03536597057689936 0.09957530943503065 0.3813204161203298 -0.17156049378464863
0.009706399769394719 0.1239926523322756 -0.07838753390073128 -0.38932287518498365 -0.35841175386233765 -0.13761797177517865 0.32599354147853493 -0.10160078814288988
-0.1686215848142201 -0.19618179400353808 -0.006832334205566996 0.553394936011069 0.011892870900727506 -0.16550740253321394 0.07865590665464521 -0.04858774846688531
0.16373140222970128 0.19655963021135678 0.127311240438748 -0.33385954859704436 -0.08650447724624549 -0.18085787879050544 0.16094934116359133 -0.3497227094561155
0.08729453889699623 -0.12112083588278402 0.2885516993308523 -0.2695362522372601 -0.187883450260043 0.13011040421607345 0.40852229025632664 0.22306209282362552
-0.1293124167402382 0.15470702140382833 0.0607740012319776 -0.3125218698231283 -0.15769309500483103 0.22843334016010108 0.2117594723209212 0.023421752345692284
-0.09038364685663605 0.24277469306448807 0.17280986668229353 -0.12006418294325114 0.24741026400410104 0.15307651325309424 0.12529997730480208 -0.1523549085794118
0.5841183343513758 -0.14348751896573272 0.09064506369405603 -0.057232413189867035 0.2288032275945359 0.2168624813037449 0.04735149678805503 0.14222287619214377
0.019158052832104817 -0.035262348491321475 0.21507239319170474 0.1263963269738215 0.1173957874350516 0.11890894375381719 -0.20998505146322333 0.11842228194450563
-0.1762404131666922 0.29067340745042347 0.2981906373689085 -0.0023464126515161075 0.05466950688248441 0.09158606675496744 0.08933955624691226 0.021619295608322753
-0.0267226569323103 0.02367089843819105 0.028163819996667602 -0.0802139132902093 -0.1451201263195538 -0.15677593014596608 -0.14437964105358342 0.055047062379408734
0.04087175890984524 0.13422196576337586 -0.020034434806529767 -0.01663489516374124 -0.2497562069609749 0.014223431113488949 0.12412299578425298 -0.07503516868379942
0.08161387849378243 0.17202352569274246 0.29984712698918925 -0.01897267569125338 0.2397956019825247 -0.23718241238183174 -0.16276605598776164 -0.011859302455792475
0.04987271743978334 0.21889851353584458 -0.3365811633394808 0.04647235246625529 0.37749769914969195 0.002873130705687156 0.10046553691022167 -0.25814188144871514
-0.37448454776199114 0.05112287312000917 -0.0100405209082262 0.1922335603893363 -0.36188568519641945 0.07219422374630864 0.23458502805086723 0.1512019338127145
-0.038857958765699335 -0.04547815271042445 0.08118602910841079 -0.09318831581633927 0.028299432019243047 -0.11550249968607862 0.019341126520399446 0.08491076258189947
0.36169293208425735 -0.28024333865691037 -0.04954236422152264 -0.010032739333482 0.14888701967970414 -0.1828652885254814 -0.03696856144605985 0.11658919891692648
-0.18519076452684372 0.15794573920927235 -0.22601162892254212 0.4792271319611337 -0.1587479948986118 0.059553733707012446 -0.05129822665944586 0.2659272785874473
0.04199775169160957 0.1483958212263538 -0.27534523700997277 -0.15588720233928302 0.05476043916814961 0.21419947174490633 0.0687818699891092 0.4814000635386823
-0.270747845589575 -0.15803025436790527 -0.09963768711356272 0.3435015546546196 0.33551567802255283 0.09899314212075201 -0.013405205561064372 0.14243269547583862
0.007806879121666905 -0.05959460996732689 -0.07771054807600143 -0.006169185311813725 0.10963559675331074 -0.008506480581078911 -0.07801603583265472 -0.1252388259426145
0.1627223622708518 0.1599162091734966 -0.11872665121578893 0.02225703907851384 0.007821680941910106 -0.11853688028455038 -0.09773708462874967 0.07528573842213188
0.3298780548139469 0.033195674651097865 0.10481120562699658 0.18564801115525773 0.029441553436539255 -0.0919408539782442 0.08523008834938439 -0.019209233932570582
-0.18808300020521065 0.1783475920815524 0.21806851585535264 -0.3377565648175533 -0.09161430706186041 0.017071517679998524 0.10951676067465724 0.13357685262621843

ubias f8 [942]
00000000: c7e6 628c 1c69 d03f dd07 8657 54dc d5bf
00000010: a1bf 16c3 4c1d b43f 21dd 3a01 3e9f d43f
00000020: 8839 3879 3f57 c93f ac16 c84f ee8f eabf
00000030: 2769 3ae7 7a56 8d3f 37d6 9ce1 0187 e13f
00000040: 51cc 688c ca2d b63f 5da3 c226 03a7 d6bf
00000050: 1c13 1426 5ac5 fabf d93a 55a7 1513 f33f
00000060: 2348 236d 8cc3 a13f 6400 1e75 eb38 80bf
00000070: e9b3 ab5c a542 debf 2f61 a602 4165 cf3f
00000080: feef 6d7f 5ab6 bf3f 0768 af59 c9ae ba3f
00000090: 0465 62d6 50be ad3f 1506 33d7 22d8 8a3f
000000a0: 65ae 2862 8bd2 c1bf aca7 79e5 2069 b5bf
000000b0: 5a95 ce7e ca0c dd3f ef67 3c52 e560 d2bf
000000c0: 40ff b6e2 d75f c53f c99e 3c0b f24a a5bf
000000d0: 45c9 e4d5 bb39 e03f 19d1 3798 5bd4 bb3f
000000e0: 1cec b373 8e35 debf c547 7224 6cab d2bf
000000f0: 589d 6afd 9620 ca3f db80 e1df b852 ecbf
00000100: 8be3 1ad8 3a4c d8bf a32f dd76 f567 b0bf
00000110: c3be 7a50 dea6 d73f 7a6e 6c67 394b b1bf
00000120: bd30 356e 20a7 ce3f e910 3cec ebfd b5bf
00000130: 9e3a 65e3 02b3 e23f e0c1 8e93 8b23 d43f
00000140: 391c 4162 b90f cc3f 0a14 db04 a22b d73f
00000150: 93b6 0b44 2c50 bebf 0db6 1d9d 857c d23f
00000160: 81d2 2f0d a103 d7bf d328 f68b 677b 90bf
00000170: 8232 714a 3f62 cfbf bf3c 5b1e 040b d13f
00000180: 95f8 1b0c b317 d23f dd4a 2558 c801 a23f
00000190: 451c 497e 771d d8bf e985 5afa b096 b03f
000001a0: 0727 b50c 508d 803f 9252 1068 37eb 883f
000001b0: 1e99 41eb 4070 dabf f2c5 8a37 f2f8 d9bf
000001c0: acb6 2d5c bf8e da3f 7d00 2ddf d34e cbbf
000001d0: 7460 4690 2e08 de3f 6965 98c2 3786 cc3f
000001e0: acb4 2562 ea81 a4bf dee4 ed8f 4b29 f6bf
000001f0: a78d bb6a 830d 9c3f e294 de37 0825 cebf
00000200: 9deb 4364 62fc d83f 2371 4eb9 cca9 ea3f
00000210: 119e ac24 8a7e c4bf 135a 81c3 eb0e d1bf
00000220: 332d 72b3 160c e5bf 9417 e5d8 7368 dd3f
00000230: fb2f f763 769b d4bf 2125 4066 6df7 dc3f
00000240: 001b 4db8 9b23 c43f 8ee2 6f6d 3063 bbbf
00000250: c4bb 531b 4ee6 c33f 4517 3c08 860e cbbf
00000260: 5621 a2ac bf40 c9bf 9a20 ca09 815f f1bf
00000270: cab2 7534 3a52 b8bf 7ac8 422a b129 b43f
00000280: 0454 697e 664f e23f c418 60f2 0b1e c3bf
00000290: 4f87 5fb7 493c d7bf ec05 a1ae b3c5 cdbf
000002a0: ee30 3ebd 781f d5bf 65c5 b3e2 2d00 e1bf
000002b0: 7515 2a46 4fab b73f fec4 7053 6b4e e1bf
000002c0: 7042 b1a5 8a49 d2bf ea0b 5a70 06ed b23f
000002d0: 0b94 73c5 9364 ddbf 3f40 1a80 509a c2bf
000002e0: 5653 9226 10b1 b43f fac7 6aff 135f bfbf
000002f0: 894d cca9 da11 c93f 09de 8f48 7b3b e0bf
00000300: de43 78f4 1fde b63f dbf6 c144 a1f6 b93f
00000310: b1ca 374f f8e7 b3bf d9b7 5e2c 2e75 a73f
00000320: e4ce 9f7a f3bd b53f 97d8 ae05 ad75 903f
00000330: 0163 14f9 2baf e1bf e9d4 b0a4 48e0 97bf
00000340: 2d11 08de 3938 d2bf b885 aa3a 420d 7d3f
00000350: a57d 740f d0a3 c93f 0dd7 3b14 850f d93f
00000360: c06a f066 7cf3 b33f 1cc9 9291 8006 a23f
00000370: 16a3 f016 75b3 cdbf d79f 08e1 e1f9 d43f
00000380: 28d2 4c80 216e bcbf 98b2 19f5 b390 ab3f
00000390: bc11 d45b 0427 d5bf 5400 3128 9a3d d3bf
000003a0: c03d c97e a641 e53f 9e73 48cf 5dbc 4d3f
000003b0: 2c31 77fb ae83 e83f f71b 2b38 fd41 b4bf
000003c0: 1192 818b 0203 8cbf 475b d03a 1286 c93f
000003d0: e719 a337 85a9 d83f 63a7 b910 a777 b6bf
000003e0: a64e 23da 6460 d7bf 26ed 7d5a 10e6 99bf
000003f0: 1e0d df3b c2e8 bcbf 972f 86c2 b2ca dcbf
00000400: 7e06 1106 d509 d3bf 8a3f 2056 5285 e5bf
00000410: 1bc8 4d7d bb60 b43f a124 0662 fa5f 96bf
00000420: 26d8 149b 13d9 b73f 6bc3 8421 3be5 b63f
00000430: 8370 1274 117e a33f ca2f 1ef1 8b97 c1bf
00000440: 1316 39b0 ffee bfbf b2de 021b b0dc b4bf
00000450: 8a75 492a 00ae d7bf ab3e 8315 37a3 c53f
00000460: 55d0 cd1b 2837 e53f 6ca4 6abb 5465 cc3f
00000470: 90f1 03ab 85df da3f 0755 90f9 7fb7 c9bf
00000480: 0579 4425 52af cf3f 3c63 8d49 3f41 d0bf
00000490: fb03 1d58 0d08 d13f 5797 4130 9050 c03f
000004a0: 173e fbd4 a6d6 e1bf 0f78 d8e8 bcd9 a0bf
000004b0: 3c80 bbd7 f78a a53f 476e 1fbb 320b b73f
000004c0: c9ac c099 8b22 cbbf 2573 3af6 8fbc a73f
000004d0: c910 f1f5 bbb4 d83f d159 857e 65c5 bbbf
000004e0: a531 2c2f fd91 d33f fa68 113d e724 e4bf
000004f0: 6c80 2dc9 cac0 cbbf e230 8f5c cbdc b7bf
00000500: 60ea d6f9 bd28 b4bf a9f6 eea5 e740 e1bf
00000510: c480 7480 f226 d9bf bf25 5d8c 7389 d7bf
00000520: 1765 a8e2 8675 e63f a21d da7c 19aa d13f
00000530: a3e0 c96d f53a e13f 0643 c902 e4f5 d63f
00000540: 655b 3a60 7f50 b13f f9b2 7a91 0007 c1bf
00000550: fe5f 8f73 3648 a9bf 61f6 1503 f1e8 debf
00000560: eb82 5587 06fc d2bf 701b 01a6 88d6 c4bf
00000570: dc24 30fe 58a3 c8bf b2a6 9006 a460 bbbf
00000580: 876b 65b2 9059 a13f dfe4 4865 a8e2 cebf
00000590: 4a5c 3619 959c e5bf 4ce3 6e88 a4c2 c93f
000005a0: 1767 2ec1 bd44 d93f ec41 60f7 85f7 af3f
000005b0: 5e59 dbe2 b67a 6c3f 456d 2fcd 36bf d43f
000005c0: 88d1 e114 f65a c0bf bf3b ab61 61be d33f
000005d0: 4687 5916 38e7 d43f 1feb 0ed6 ec43 c53f
000005e0: dc1f 7e7e 61f8 c0bf 9d27 52d7 f4ee cb3f
000005f0: b602 4e1f 1f10 c9bf 99ae b443 8d30 d73f
00000600: 84ac dfa5 67c0 b53f 4963 604f 7e47 c0bf
00000610: 31ec 53cd 25be d03f b31b d15b 3715 9b3f
00000620: 373a addd 8807 d33f dfcd bf09 bec4 cfbf
00000630: f93b b558 9429 ddbf 55e6 779c 894f e3bf
00000640: 9480 447f 8246 d1bf 7418 137d 324f bebf
00000650: 7258 b177 0e95 b9bf 04f7 40ba 98fe d33f
00000660: c91b d6ea 82aa c63f f6a2 a83c 2f75 f4bf
00000670: ca78 3460 cd48 afbf 13ca 633d a5c2 ca3f
00000680: c1c2 49f1 bbbe dbbf 0c89 31ab edda bf3f
00000690: 9090 57e1 fe3a d7bf 0321 21b6 0619 cebf
000006a0: dee5 c46f 2b7c d3bf 080c ae84 8d4d e8bf
000006b0: 9459 cf83 9d21 d63f dd60 f99d 2fa2 d43f
000006c0: 2794 5827 7505 c9bf 1eaa 4b4c 6fca d33f
000006d0: f6d1 63af 52d0 adbf 92fb aa1c fe92 e7bf
000006e0: 99ee 71c8 5fad bc3f f14b 203a 6a7d df3f
000006f0: fd8e fb5e b7c1 babf 02e6 0e70 57c4 d03f
00000700: 70a0 d6f9 1bc8 d93f f6d3 9f11 2445 b1bf
00000710: d26a 9374 8ac2 c5bf 7598 6e04 44f4 c33f
00000720: 9316 805e 632a d8bf 536f c0e9 da8f c93f
00000730: dd3e 5c88 3d23 ee3f b656 c658 d295 e33f
00000740: 286f 8b74 c7de a43f e537 2f11 16fd e03f
00000750: 2786 0b73 1c02 cf3f 2559 d1ad 606e e03f
00000760: bc88 2f97 4158 cb3f b0b5 6fc6 265f 85bf
00000770: a55f 6443 7a77 e4bf fe43 cacd 68f7 e03f
00000780: 258d 65b1 7751 e63f 2d60 9b66 df72 e33f
00000790: d25d eec5 cc10 e4bf 29db ddbb adaa 81bf
000007a0: 6708 d984 62db bcbf 9a40 0331 f6c0 d33f
000007b0: daf2 e55b ee6d d33f ee9c cfa8 eb32 c1bf
000007c0: 9da8 e08f 01f5 c1bf 3da2 214b cd3f a2bf
000007d0: ee54 c153 d929 cf3f dd02 ec03 b133 e53f
000007e0: 2fb4 65a4 aa5d c7bf c189 b122 16c7 d1bf
000007f0: c235 eaf2 f3c3 d83f 800c 27bc 379d d03f
0.25641549787142676 -0.3415728430483094 0.07857208025848063 0.3222193729411221 0.19797509592940465 -0.830069690535955 0.014325103932880069 0.5477303892609545
0.08663621833766057 -0.35394362244783456 -1.6731816756666325 1.1921593223993823 0.034695041964042404 -0.00792106581843672 -0.4728177456843797 0.24527752522841115
0.12387624369688408 0.10422953071193329 0.05809261910435207 0.013107559387552073 -0.13923780720630244 -0.08363538362905726 0.45390570052616896 -0.2871640494428211
0.16698740549144908 -0.04158741366546576 0.5070475747691395 0.10870907274494747 -0.472018826476132 -0.29171279486865515 0.20411956189966918 -0.8850979206727304
-0.37965270141608504 -0.06408628608659099 0.3695598398144108 -0.06755408072461391 0.23947530156363497 -0.08590578572699638 0.584351963168803 0.3146695080750117
0.2192298631436829 0.3620381400508569 -0.11841084157250696 0.2888502153717532 -0.35959650314115527 -0.01609575073010989 -0.24518576750633164 0.26629736866466297
0.28269649679703807 0.035169850120515746 -0.3767985089547817 0.06479936706684665 0.008082032573514931 0.012167389739297794 -0.4131014153885121 -0.40581946777373823
0.41496261598409023 -0.21334312817817028 0.4692493828711186 0.22284600259517198 -0.0400536770638181 -1.3850818273770567 0.027395299329226266 -0.23550513008118573
0.39040431777510226 0.8332275027528663 -0.16011168280350366 -0.2665357026320702 -0.657725668411706 0.459500276385705 -0.3219886757112815 0.45260176644713296
0.15733667849618627 -0.10698225662043567 0.1554658540185 -0.2113807239731448 -0.19728847436295877 -1.0858164198307692 -0.09500468998676151 0.07876117021331366
0.5721924275372889 -0.14935445151076554 -0.3630546847108364 -0.23259588267141795 -0.3300458763194588 -0.5312718799379296 0.09245772803304482 -0.5408226613709812
-0.2857386224832572 0.07392921679461009 -0.4592637470471465 -0.14533430342680906 0.08082676831902566 -0.12254452691811926 0.19585736552162938 -0.5072609345651823
0.08932685583592057 0.10141952446607709 -0.07775833066970496 0.045815890232333074 0.08492967361217613 0.016073897811758355 -0.5526332726322779 -0.023316512157369216
-0.28468176539196827 0.007092722613977136 0.2003116679634164 0.3915722558589188 0.07793405068552328 0.035205858011425145 -0.23203910465351701 0.32775160766550243
-0.1110554636223432 0.053838370961647175 -0.3305064102899242 -0.30063489842360025 0.664263961438273 0.0009074647956058728 0.7660746489941963 -0.07913191434191434
-0.013677616007222533 0.19940402862331494 0.38534670289337075 -0.08776325376825649 -0.36525842001467834 -0.025291686556994673 -0.11292661630345832 -0.449871721234325
-0.297475105213472 -0.672524612631592 0.07960101899314546 -0.02185050223628038 0.0931560758225208 0.08943528717351305 0.038071198862980736 -0.13743733666740204
-0.12474058201140563 -0.08149243030026801 -0.3699951565702909 0.16904343176292022 0.6629829924627396 0.22184237624358916 0.4198927087852775 -0.20091247258884712
0.24753786868763697 -0.25398237402764656 0.26611646275347284 0.12745859485874675 -0.5574525985520634 -0.032911208556683495 0.042075867733502 0.09001462047984275
-0.2119917393441482 0.046360491568725494 0.3860311414503142 -0.1084807809723778 0.30578546148970026 -0.6295047943815739 -0.21682104895717502 -0.09321280488729003
-0.07874667501065735 -0.539172958458683 -0.39300215286676754 -0.36776436526687556 0.701846544924737 0.2760070533044773 0.5384471077259331 0.3587579753121165
0.06763454531970366 -0.13302619079095004 -0.04937906418462033 -0.48296761800143 -0.29663241592611084 -0.16279705148391654 -0.19248497401739584 -0.10694337044028648
0.03388645341575285 -0.241292046981278 -0.6753640644482257 0.20125252401137528 0.3948206316505191 0.06243532795645365 0.003476483535318638 0.3241707805406871
-0.12777591724046666 0.308494897250906 0.3266124933489788 0.16613541080536096 -0.13257998157882767 0.21822987092701576 -0.19580449131537642 0.3623383675755832
0.08496711539889829 -0.12718180537992854 0.2616056924013633 0.02644812105088663 0.2973348774729944 -0.248191599617356 -0.45566280997167 -0.6034591728232025
-0.26992857387995994 -0.118395953689374 -0.09993067190348073 0.31241434277386326 0.177078594843094 -1.278609501789274 -0.0611023120820718 0.20906510827588018
-0.43351648867887255 0.12443433217552896 -0.3629758072477296 -0.2351387395194778 -0.3044537154670176 -0.7594668952373249 0.3458017146307608 0.3223990481105952
-0.1954790536994164 0.30923063708056187 -0.058230003271010064 -0.7366934356613106 0.11202047961881546 0.4920297210348386 -0.10451837605392807 0.2619837374037105
0.40283870123176424 -0.06746125631600805 -0.16999941532306778 0.1558918973580067 -0.37758716801213515 0.19970261014611398 0.9418018019950655 0.6120387777215999
0.04076216981567732 0.5308943114885066 0.24225192658836756 0.5134738345030071 0.21363086588013924 -0.010435393267438225 -0.6395846668483399 0.5302013415658846
0.6974447693614009 0.6077725414315914 -0.6270507684557123 -0.008626324935659806 -0.11272254699091065 0.3086524466170971 0.30358466123997874 -0.13436647169803656
-0.14028949284813033 -0.03564302007800222 0.24346462812051278 0.6625599934196448 -0.18254597689829796 -0.2777762736133376 0.3869600174155857 0.2595958077838034
