offline_resampled_model_testing/model_19.npz (npz, 976298 bytes, 5 tensors)

imat f8 [1588, 50]
0.06239689679020616 -0.12980576275743477 -0.13889995409980163 -0.030760059399526474 0.23503577579172785 -0.1362023409007731 -0.27424375003913753 0.02916345031158822
-0.07593544511093146 0.28458410587308725 -0.13626064826465725 -0.14836973451416108 0.08406915427157756 0.08566069204562529 0.4790374861496488 0.02594060577949111
0.020362921029941805 -0.11203353181878228 -0.20055136237408888 -0.1829568973067905 0.2646931610840125 0.2151125395894464 -0.07145590054267278 -0.2308233856526749
-0.10945436297836636 -0.1373094191445406 0.10941598021183191 0.039481607075035605 0.2775996185080808 0.07493562065860174 0.2889914775756721 -0.2536624257773297
-0.2567879285325498 0.07568461359928615 -0.013416309989947556 0.34837941639259695 -0.10908384957281073 -0.04126943053310414 -0.04423220225609852 -0.040382213742583904
0.05283197674162811 0.21601578006340466 -0.3237676462286643 -0.056933025227039 0.21009124852180056 -0.06669122553012481 0.11685680538691459 -0.03555138291045472
-0.1084402892789776 0.12336502917542709 0.13634372604546038 -0.11775731824648832 0.31747160325429513 0.02454298373134545 0.10633573425456647 0.0643573960407284
-0.03789800547172519 0.10089479062356327 0.29358318404042993 0.22661098740406843 0.007096430451506151 0.160642314218851 -0.2395413465294829 0.035346874824081324
0.015804006077110713 -0.20964879912408754 -0.147486943172964 -0.357050160210538 -0.22893637760309485 0.060964364291215274 -0.27580724639810733 0.1800283865149555
-0.16411338765001884 0.08744796641175613 0.2537312177526007 -0.22758081900730817 0.24553413309697963 0.038697160067049444 -0.15968101975770602 -0.029780586661530772
-0.19814939278746863 0.002439825835502986 0.12690386840815426 0.16663154071421066 -0.17352321059987547 -0.4148767497185004 0.03957527890181168 -0.004161139813289475
0.11261961210707883 0.12319534354608125 -0.08431367709515737 -0.33066626101228586 0.039881970853384456 -0.0214128559570598 0.17599803838804884 0.08706839878170336
-0.0010906499377862158 -0.22158003983566846 -0.21629088781196926 0.12311923360225584 0.10833072426548271 0.020130623431105707 -0.20407379391474906 -0.028051329094327934
0.19163401608407638 0.22461650645510256 0.340753657593839 0.0717168102155801 -0.11809282795261795 -0.10076902190005063 -0.27299721498415747 0.10149962189937106
-0.20422953655538795 -0.2456495367149701 -0.42320236088737434 -0.11717080884949922 -0.16635513830721005 -0.07114402907062747 0.36239425515657986 0.22223575656347486
0.11865213751584178 0.020364243769971438 -0.25161825345389643 -0.2474504338760135 -0.13335653773999784 0.18290536076372335 0.02755779324186495 -0.16171543798451582
-0.059161536358212176 -0.10703472717798287 0.26148547576534364 0.10755334924596582 0.4185268845958192 0.3491021414601486 0.28014189447141125 0.09215980939827406
0.18871909328092545 0.040847414551528044 -0.05365143277609951 0.2072686929995351 -0.24152460156786826 -0.06748557489253493 0.12508698597097256 -0.3656229410718189
0.389103700250205 -0.26625796535678165 -0.232476095617679 -0.09172196754525974 -0.03473911088643657 -0.025203677666226748 0.10859023402308582 0.11145449608010352
0.016913633819980983 -0.11480371449223582 -0.07314980959157409 -0.08508076410005891 0.16777469504080664 0.08728756738231694 -0.21747462740844237 0.12299212124223685
-0.06872353831787087 0.03223467553061119 0.10891819638781268 -0.02961220048409124 -0.04961778513470878 0.05952505557702354 0.0955709790827124 -0.019718022369458355
0.017099756046234416 0.0014016259792139843 0.03278755357710374 0.19668684792929753 0.28356236097903564 -0.012059915540294924 -0.18096704750115905 0.15085362713993516
0.03288406738694388 -0.17423493554728153 -0.05891410878868843 -0.0018962593904824085 0.185759994906095 -0.19289696857691246 -0.17356298299302222 -0.02069789707248653
0.11581156111317442 -0.06456446339729809 0.23087440654390612 -0.0765908254443258 -0.2220558967359951 -0.23468175233813426 0.011386899955034327 0.11947802944390046
0.015979763620156722 0.07483451530400281 -0.11100839709545929 0.11488072623657718 0.04587738322814247 0.25659694617705053 0.2676767736565993 -0.1910215218305702
0.12966385853612927 0.10950320601090513 0.1582448929851591 -0.11189264583883302 -0.0016898763459304994 0.016806163024575382 -0.12633360859825715 -0.1019778162921724
0.02338015739869255 -0.018775642670475517 0.002458661040921198 -0.08787997830873573 -0.017424854812914364 0.1866459345479632 0.025321809400349077 -0.04760569733558362
-0.15995080774587367 -0.03484782644505463 0.049518885481242725 -0.018844572218759764 -0.07908089200744373 -0.15628870300665687 0.2213964802732481 0.13783871493043398
-0.05095962360891365 0.05696770309876392 -0.1452547027041713 -0.2336390878898349 -0.07110930053918957 -0.08023094102786743 0.052499600776170025 -0.10198715617004564
-0.03285375895583281 -0.02107191956138325 0.07135308162775855 -0.06526267379089373 -0.025688538857518928 0.08031788191542755 0.0074029117610393685 -0.015905151973511306
-0.1269291115317499 -0.030581553902419206 -0.0030855924056926304 -0.18776097702764027 0.031400878765096375 0.09524948496176705 0.15645561238818134 -0.03294702002988089
-0.08852729522208297 -0.029642061789836027 0.0855183903028057 -0.23709066474984758 -0.49488484805951444 0.14704736215122083 0.00555161097904508 0.037705629502646436
00000000: f8f0 2b6e 7cf2 af3f f210 f0a8 799d c0bf
00000010: 6d24 2344 79c7 c1bf 7070 93a4 907f 9fbf
00000020: c82d 35fd a615 ce3f f85a e70b 146f c1bf
00000030: 4d3b 63a8 358d d1bf aca2 4e05 06dd 9d3f
00000040: bbd0 5b5d 8170 b3bf 86ec eb40 a036 d23f
00000050: a5a4 032a fd70 c1bf da2d ba8a c7fd c2bf
00000060: d7e4 325c 8e85 b53f 0e81 e3ee dbed b53f
00000070: e687 24d8 8ca8 de3f 466a d895 2c90 9a3f
00000080: 309f 7f7f 04da 943f 4890 37c3 3aae bcbf
00000090: 8050 48c3 aaab c9bf 5e51 41b1 216b c7bf
000000a0: 152a 9595 bbf0 d03f bf82 3fc5 ce88 cb3f
000000b0: c6df ef13 ef4a b2bf b8de 43e6 9e8b cdbf
000000c0: 5c87 657d 3305 bcbf a24b 54e4 5a93 c1bf
000000d0: fc6a ab88 af02 bc3f d691 5ce6 ee36 a43f
000000e0: 42f4 b730 31c4 d13f 7abe 0818 fb2e b33f
000000f0: 98a7 401c d67e d23f 9902 bc53 013c d0bf
00000100: 4383 c3a2 366f d0bf 1126 381c 1160 b33f
00000110: 705b 1ea5 027a 8bbf 8a5e 002e d94b d63f
00000120: 9adf 6f4e ebec bbbf 0caf ed4c 4421 a5bf
00000130: b770 3d6c 9aa5 a6bf 139d ba3e faac a4bf
00000140: 629f 93f8 ca0c ab3f 8268 65b3 67a6 cb3f
00000150: 4c85 03ef 9bb8 d4bf fc2f d352 5326 adbf
00000160: 3ad9 c920 45e4 ca3f fd00 9518 ad12 b1bf
00000170: 72ab 73dd 53ea bd3f b61f db75 ca33 a2bf
00000180: 05a1 0528 bec2 bbbf bd4e c7bd d994 bf3f
00000190: 03a5 3012 b673 c13f 9bbb bbf6 5725 bebf
000001a0: 56b2 586a 7451 d43f e1b9 e3c1 cb21 993f
000001b0: 9afe 0495 d138 bb3f 7e2a 40ef b979 b03f
000001c0: 535c 2b0c 5e67 a3bf fca1 10b2 3dd4 b93f
000001d0: 10fd 861f 11ca d23f 7649 e8bd 9601 cd3f
000001e0: be27 528b 2511 7d3f 7c3c f666 ed8f c43f
000001f0: b024 b174 4aa9 cebf 873d c54e fc18 a23f
00000200: 37e7 fce4 ec2e 903f c51a f197 c5d5 cabf
00000210: f2e7 c126 dae0 c2bf 4bb1 48ea e8d9 d6bf
00000220: 89c2 5587 c94d cdbf 8953 b49d b836 af3f
00000230: 5be6 d16f d3a6 d1bf 0a79 3790 2b0b c73f
00000240: f573 65e0 aa01 c5bf 4917 d76b fd62 b63f
00000250: eb2f 8edc 213d d03f 0ba9 6a47 5e21 cdbf
00000260: ba03 da97 a96d cf3f 8a42 df39 1dd0 a33f
00000270: 0d5d d37a 6d70 c4bf 3060 1157 cd7e 9ebf
00000280: ae49 df94 f55c c9bf 5048 7c85 affc 633f
00000290: b042 46ce 623e c03f 96c0 ecac 2e54 c53f
000002a0: 1acb 4f31 0236 c6bf e459 fa35 578d dabf
000002b0: 510a 3a01 3643 a43f 0437 9876 450b 71bf
000002c0: 205b e38e a3d4 bc3f 7cc6 8ce3 ba89 bf3f
000002d0: 31ad bac5 9495 b5bf 370e 3cd2 a229 d5bf
000002e0: e7d6 07e1 686b a43f 28b8 3270 40ed 95bf
000002f0: 98b6 848d 1a87 c63f 1052 4855 1d4a b63f
00000300: a076 1b74 84de 51bf 8131 4518 bc5c ccbf
00000310: 94a0 c978 6baf cbbf c78c d4f9 bd84 bf3f
00000320: 3e4b dff5 8fbb bb3f dc85 2345 1f9d 943f
00000330: 9ad0 6a0f 171f cabf 9c23 47d4 7cb9 9cbf
00000340: 70ed f0a3 7687 c83f 74e7 aed2 3bc0 cc3f
00000350: 2ce8 d66d e8ce d53f f208 736a 085c b23f
00000360: a5da f2e1 543b bebf 56b8 82a5 ffcb b9bf
00000370: eb62 904f c978 d1bf dc39 9d14 e1fb b93f
00000380: f2f9 3086 3124 cabf d3f2 3bab 7171 cfbf
00000390: 157b e65a bf15 dbbf 85f1 0df8 e7fe bdbf
000003a0: f487 460b 204b c5bf 1afd 29be 7e36 b2bf
000003b0: 76f8 89ac 7731 d73f 8d91 38a5 3872 cc3f
000003c0: 1e25 3b8a fc5f be3f 54cb ff43 5dda 943f
000003d0: dc4f 6a72 831a d0bf 5072 70b0 74ac cfbf
000003e0: ce89 26b8 d311 c1bf 9523 5f5f 7169 c73f
000003f0: 0a1c e532 1c38 9c3f 906e b36a 17b3 c4bf
00000400: cde4 adbf 6b4a aebf 2606 c4bc a066 bbbf
00000410: 3aa2 b293 2dbc d03f 4831 96c5 9d88 bb3f
00000420: e87d 75fc 24c9 da3f de3b 2282 b057 d63f
00000430: e2a0 bf44 d8ed d13f b005 5f07 c997 b73f
00000440: 4edc e27e f227 c83f bcfb 3fcb f3e9 a43f
00000450: df53 505a 3378 abbf 2076 f5d0 c787 ca3f
00000460: 18eb 7434 47ea cebf 807d 1d11 bc46 b1bf
00000470: d444 f3b0 d902 c03f f287 a4c3 5d66 d7bf
00000480: 22f1 d434 13e7 d83f b170 60d9 5e0a d1bf
00000490: 38cd e3d5 c6c1 cdbf 8881 ee42 177b b7bf
000004a0: 4279 4c22 53c9 a1bf 38f0 422d fece 99bf
000004b0: c44c cbcf 91cc bb3f 0afd a727 4888 bc3f
000004c0: d80e 74c0 ce51 913f e116 34b7 c663 bdbf
000004d0: 3d89 e727 f2b9 b2bf e614 545b dac7 b5bf
000004e0: 3bf8 2526 a479 c53f 7a23 415f 7a58 b63f
000004f0: f4ea 3666 35d6 cbbf ccac 6662 697c bf3f
00000500: 9468 8aa5 dd97 b1bf adfc 663a 1081 a03f
00000510: 3bca 6c1b 10e2 bb3f 6f2b 9122 a952 9ebf
00000520: fa34 e898 8067 a9bf 69e6 fd6d 117a ae3f
00000530: 1161 9bf5 5677 b83f f0dd df14 f630 94bf
00000540: edde f333 9982 913f a013 7c6f d8f6 563f
00000550: 52b5 a8bc 87c9 a03f ae6f b4dd 082d c93f
00000560: 2c04 b2be e225 d23f f067 b476 deb2 88bf
00000570: 76e8 559f ed29 c7bf 9e45 86f1 2b4f c33f
00000580: 5807 f933 2ed6 a03f dc84 ff92 544d c6bf
00000590: 4272 0a75 fd29 aebf 8459 4704 7d11 5fbf
000005a0: 556e 83c7 fbc6 c73f 4a87 c40d d9b0 c8bf
000005b0: 7528 e0d3 4f37 c6bf ced6 165c d431 95bf
000005c0: 7cd3 7a93 d3a5 bd3f 7b72 c6f2 4b87 b0bf
000005d0: 4074 cbe4 4a8d cd3f 86ff 74d2 749b b3bf
000005e0: 07ba 2edf 536c ccbf 2450 a139 0d0a cebf
000005f0: db0e 47d7 0352 873f f454 0db5 1c96 be3f
00000600: 9be5 95c8 ff5c 903f 6cbb d7d3 5a28 b33f
00000610: a83b 1bdb 0b6b bcbf cf77 20c2 d268 bd3f
00000620: 7c8e 2e89 3d7d a73f b05e 0599 156c d03f
00000630: b53f 30c3 9d21 d13f e816 8caa 6473 c8bf
00000640: 6463 f147 d398 c03f b0bd 9ff0 6608 bc3f
00000650: f4ac 1060 5e41 c43f 346b 8a16 ffa4 bcbf
00000660: 40ab f6e8 daaf 5bbf 6047 3f82 a235 913f
00000670: c857 a81e b32b c0bf c872 e4d9 371b babf
00000680: d461 9ccd f7f0 973f c89e ec0c ec39 93bf
00000690: 2016 6898 2f24 643f 5828 cf60 4d7f b6bf
000006a0: 886e 3c36 d2d7 91bf 484d 6894 03e4 c73f
000006b0: b50b 00dd f5ed 993f e0b7 5122 c65f a8bf
000006c0: 3460 1ea0 4479 c4bf 781d d605 93d7 a1bf
000006d0: e044 5a13 8a5a a93f b8f6 8bd5 fd4b 93bf
000006e0: 2015 e934 a53e b4bf b0ec 12aa 4401 c4bf
000006f0: dc8e 1c49 b856 cc3f 54db 5ff2 b2a4 c13f
00000700: 882d a239 6117 aabf 4890 79eb de2a ad3f
00000710: f030 dac2 b497 c2bf 18ed c6b8 e2e7 cdbf
00000720: 6cdb 4118 3834 b2bf 008d d7d3 038a b4bf
00000730: 64fe c548 3ae1 aa3f a2c5 5c8c d41b babf
00000740: 182d 8838 35d2 a0bf ab34 8595 e093 95bf
00000750: e05e 0f10 3244 b23f f4d6 94f9 0db5 b0bf
00000760: b0ab 19a9 184e 9abf 305a 1c74 b68f b43f
00000770: 9099 8afe 8352 7e3f 28ae 41ae 7049 90bf
00000780: c837 788f 363f c0bf 78ac 7c57 c550 9fbf
00000790: 205d 14cf f446 69bf 883c e63b 8d08 c8bf
000007a0: 4537 b9a6 c613 a03f 5c23 df2e 4562 b83f
000007b0: 62cf 3dcd bc06 c43f 7bd8 0e8b 6ede a0bf
000007c0: 2c3d c88d b9a9 b6bf b0b7 e417 7d5a 9ebf
000007d0: 069f 8e81 88e4 b53f a6cc a4a5 fc58 cebf
000007e0: 17e6 6c7f 31ac dfbf 2487 b3ad 72d2 c23f
000007f0: 6095 8539 49bd 763f 0f8c 2dfb 264e a33f

gbias f8 []
3.5261188804193426
00000000: 77ac c9d0 7d35 0c40

ibias f8 [1588]
0.39296620110096653 0.18762688991676485 0.18018706360162423 0.7638000368401118 -0.19729458015725349 -0.22238761178800814 0.41142286885003665 0.3201271462600326
0.03763683498543343 -0.10219696919174745 -0.2435042729342793 0.27847003892925876 0.0484737287742052 -0.4131775535389353 0.48018706360162516 0.8587341571134194
0.5191754085277881 0.1370296376958639 -0.2317279487929122 0.6227439234101507 0.44275826508285515 -0.5418591746481153 0.46361985297223257 -0.06589346760877429
0.18888836838671466 0.22026276812904247 0.5296714135818232 0.34098788158109544 0.074546215278412 -0.2342826864164121 0.46334723036601816 0.12515588633468708
0.4201887276212059 -0.3945569079693995 -0.46788336605874603 0.08183265068744058 0.10059946697666644 -0.908101897502294 -1.1722764463321778 0.5092936629900714
-0.28726510603348765 -0.6792736803240378 0.22320651168289862 0.4596732119689922 0.2512442736277457 -1.2701827712331286 -0.05381194823631364 -0.3046481637089948
0.44749500544470816 -0.7377394028255321 -0.011608391297485612 0.6322677329339607 -0.41179828727974443 -0.16258935445458905 -0.25885232351548565 -0.3008951043354742
-1.1630594402096714 0.09032473339786076 -0.3409214829244479 0.19643356707382165 -0.8294239088909279 0.13428771664719003 -0.04500176524664873 0.08183265068744056
-0.5584848478112185 -0.6474912581388786 -0.12570544255317104 0.02314276215615426 0.7278047732105212 0.09408885295510264 -0.4330267162630169 -0.309027291501333
-0.8814128053538206 0.4159774323269916 0.4703629710291982 0.30928737993139865 -0.6726147759803552 -0.266790708841006 0.6078460182955707 0.860102982277654
-0.8195947228118159 -0.02016987662597743 -0.37104428839138676 -0.20912831292872153 -0.6879487173787239 0.30691877861423733 0.39013787414993834 -0.07229458015725349
-0.3703924640500222 -0.07664335603835037 0.0595432234193666 0.4250771089985178 0.6142210573817326 -0.5064128053538206 0.4250491543936529 0.153472180541384
-0.4402981224142526 0.09701542799360915 -1.0484113316476318 0.08551880612381181 0.7303627834402648 -0.07575086945086482 0.5161142049443312 0.4018713584841077
-0.3666230191734577 -1.3253137645746915 0.2044781151517438 0.5297364180744528 -0.45817744699864643 -0.5148582660961869 0.05055417766771846 0.1615675996505478
0.24964268673266676 0.1396459796330749 0.2870058388659482 -0.28322283422517525 0.314756668430058 0.19567391008180843 -0.34283277003836515 0.23278818023934578
0.8506438395951167 -0.1811078729731074 -0.3771037966862204 -0.016775125030113722 -0.31013713493756734 -0.9755305265328662 0.22498785180181557 0.07898018659677623
-0.4354087286229045 0.3378449442041065 -0.09413279723026637 -1.2256254223210086 0.6673050033592619 0.15565492267370873 -0.0764593295053652 0.6285810913084171
-0.530364921774552 -0.19729458015725349 0.21394611591253895 -0.5492067302882981 -0.3872652872189311 0.284309885700121 0.26841642287409945 -1.284079253612895
0.554742026923301 -0.2232167825949715 -0.6444322042945925 -0.0677044687947526 -0.915470234238615 -1.0569026802446166 0.7315853085842041 0.4061214855604097
-0.07953046893086511 -0.6266407270201189 -0.34769699746694394 0.5677243596156025 0.41877866381546436 -0.9735693469112833 -0.4634037111079309 -0.3808951043354744
-0.8601883824173684 -0.7457535562091114 -0.12577512309241365 0.1401078805818365 0.5159004807903356 0.005179347184939336 0.15563221727945611 0.159656707522982
0.38258741305377153 -0.2688636358584142 -0.11978660980027345 0.43376914817704704 -0.23263448033869982 0.21397487535142437 -0.19355304207685967 0.7366201383470373
-0.7507459202795619 0.03299477986899068 0.5669732837369832 0.4013677937211947 -0.6314128053538206 0.16540763099960293 -1.1508756455455726 0.32772571245652066
0.4776124474037153 -0.41174521076296405 0.05963286776763339 0.2351417339038127 0.013344102212143313 0.11254583315083881 0.668751339419367 -0.03527051829200896
0.2369405597903287 0.19005489903950476 0.3864930076225913 0.04159578191011169 -0.024422849223281428 0.624336455185723 0.2069567938813479 -0.07026358192554714
-0.46684946566042923 0.40984313044813586 0.16540763099960282 -0.39316525513411366 -0.39815082582623573 -0.6326897486608866 0.38839686696484393 0.19240802742497623
-0.4010271689095607 0.28086882873510305 0.7307354065599708 -0.35549480762853336 0.4896459796330749 -0.3744233333451011 -0.8397802191520621 -1.0630594402096714
-0.7638416416420296 -0.22328147719957336 0.2750142455842393 -0.23843240034945232 -0.21037628984330867 0.2694671226976862 -0.6348093835775134 0.1937730092599296
0.4277260065523736 0.6340723345937612 0.007414416326387295 -0.10739738467600728 0.259364032827765 0.32649300762259137 0.5457512270589918 -0.7294405588096026
0.7177483908885464 0.19377300925992968 -0.07045316460228086 0.07858712778671274 -0.18475146414645863 -0.4745385980252897 -0.931252383386109 -0.23924448037823093
-0.09154179087556466 0.280868828735103 0.3293333166112302 0.28140370645727625 0.0031390111890377075 -0.8244191914139699 0.39022571245652127 0.12649300762259152
-0.3945569079693996 0.6091993726846716 -0.5909151419174831 -0.029812936398375515 -0.11799445773827266 0.3033664779358311 -0.2695501887308356 -0.43227564038439775
00000000: 615e 8ab5 5b26 d93f 1a77 056e 2804 c83f
00000010: 5666 aaa4 5e10 c73f 152e 5dc6 0c71 e83f
00000020: ca0a bae4 f240 c9bf 0020 d57f 3277 ccbf
00000030: d664 a295 c054 da3f dce9 ef91 f67c d43f
00000040: 5b57 c69e 2245 a33f beca 6da0 9429 babf
00000050: be30 58e4 252b cfbf 257d 87ff 73d2 d13f
00000060: 21cc 996f 8cd1 a83f 6906 f943 8071 dabf
00000070: 6f66 8885 62bb de3f 1154 180e c07a eb3f
00000080: 0f75 10bf 159d e03f 7644 3eea 2f8a c13f
00000090: 863e d1ec 42a9 cdbf d789 1aaa 84ed e33f
000000a0: c721 24c3 2656 dc3f b1d6 440d e956 e1bf
000000b0: 3bb1 929a f2ab dd3f 1c54 66f0 64de b0bf
000000c0: 296a 687a 7e2d c83f 6d01 d204 9231 cc3f
000000d0: 7eb8 de76 11f3 e03f b147 eed5 bed2 d53f
000000e0: 914e a9f4 7515 b33f c2b8 169e f9fc cdbf
000000f0: 7b4f 4724 7ba7 dd3f c7cc 5aab 1b05 c03f
00000100: c7fa d142 5fe4 da3f cbec 089e 6b40 d9bf
00000110: 3824 e412 cdf1 ddbf 9692 720e fcf2 b43f
00000120: 98e9 a8fc e2c0 b93f 17a7 e6b5 2b0f edbf
00000130: 85e2 6df2 a4c1 f2bf e146 5339 224c e03f
00000140: 0488 ec2e 8d62 d2bf 44cf 4028 9cbc e5bf
00000150: 5455 f7ed 0792 cc3f 2143 1031 496b dd3f
00000160: da75 a2dc 6214 d03f 1639 662b ab52 f4bf
00000170: d136 9e5b 3d8d abbf 5ba9 fa02 5b7f d3bf
00000180: 0789 6017 c2a3 dc3f 3d66 03aa 8f9b e7bf
00000190: 8edf dae7 23c6 87bf bb8e 688a 893b e43f
000001a0: 8694 1a34 e75a dabf 06b5 075c bacf c4bf
000001b0: 2187 ff55 0991 d0bf 806e 298a dd41 d3bf
000001c0: de12 3037 e49b f2bf 12b7 f68f 851f b73f
000001d0: 5284 ea56 a8d1 d5bf 8497 3531 bc24 c93f
000001e0: e69f 6602 a48a eabf 7e89 a003 5730 c13f
000001f0: b845 feab 780a a7bf 9492 720e fcf2 b43f
00000200: a024 959d 1bdf e1bf 47e0 4496 3fb8 e4bf
00000210: 43f8 58ae 1d17 c0bf 162f 667a bcb2 973f
00000220: f7fa 593c 2d4a e73f da3d 5c02 3516 b83f
00000230: 2236 29b0 b5b6 dbbf b475 a467 1ac7 d3bf
00000240: 14a6 a8a0 8834 ecbf 9cfb edce 5f9f da3f
00000250: a277 744a 6d1a de3f 90bc 774b 5dcb d33f
00000260: 338b 346c 0f86 e5bf 6452 5656 1913 d1bf
00000270: 58aa 327e 7973 e33f 0e63 82b0 f685 eb3f
00000280: 0e6e 4eb6 1e3a eabf 3547 e481 69a7 94bf
00000290: e18c 008b 30bf d7bf 5627 5970 b7c4 cabf
000002a0: bfef 4e07 ad03 e6bf 5c4a 2ba9 8ea4 d33f
000002b0: afea 99d8 04f8 d83f 9415 74c9 e581 b2bf
000002c0: 9fe6 f197 82b4 d7bf 30f1 a323 e69e b3bf
000002d0: 34b7 910a 737c ae3f b251 5b9e 7634 db3f
000002e0: b602 3feb b2a7 e33f 14a6 a8a0 8834 e0bf
000002f0: 5e0b 545e 0134 db3f d4b1 22f6 f9a4 c33f
00000300: 549a 102d d82d dcbf 76a3 70ca 00d6 b83f
00000310: 10eb e2f5 4ac6 f0bf 09a7 7e7b 8fe4 b53f
00000320: 4eed a2c5 215f e73f 1e5e efb2 6864 b3bf
00000330: 0c95 e7ef 0184 e03f 7ada 78a5 42b8 d93f
00000340: d9e3 5365 c076 d7bf 5297 bc34 7c34 f5bf
00000350: f687 a9c0 562c ca3f 9e28 e4c9 99f3 e03f
00000360: f5ee a77f c752 ddbf 1eab de0a b879 e0bf
00000370: d79e 84b7 3ce2 a93f 44d1 4b42 3fae c43f
00000380: 7ce7 99a3 4af4 cf3f 405e c561 ebdf c13f
00000390: c42d ecbc 4d5e d23f 4c90 9eaa 5220 d2bf
000003a0: 90b8 4627 f924 d43f 03ac 3dba d70b c93f
000003b0: a1f5 d3db f8f0 d5bf ecfc 82ca 00cc cd3f
000003c0: 4f5b f36d 7938 eb3f edda bbf3 8a2e c7bf
000003d0: 76be 7df6 7722 d8bf 6906 9095 7f2d 91bf
000003e0: 563f f56c 49d9 d3bf 90aa 76cb 8b37 efbf
000003f0: 4838 bee4 66cc cc3f db12 77a6 0b38 b43f
00000400: 1803 7592 bcdd dbbf f06f 9e66 409f d53f
00000410: 21c2 9545 1619 b8bf 1d3d 2067 299c f3bf
00000420: 8f53 bc05 905a e53f 9028 2c21 80ec c33f
00000430: 0b1b b3af d692 b3bf 6eb7 c117 561d e43f
00000440: 1df4 3edb bff8 e0bf ca0a bae4 f240 c9bf
00000450: 9bac 7919 9662 cb3f 489a 2afe 1993 e1bf
00000460: 89ce de57 f4c8 d8bf b5bc 4017 2232 d23f
00000470: 2f07 7d13 bc2d d13f e3d4 fbaf 968b f4bf
00000480: 4846 eb59 72c0 e13f 95f5 9416 5e92 ccbf
00000490: 24e7 3d49 309f e4bf 533a 447f 1455 b1bf
000004a0: 9e85 903b 884b edbf 3649 ebc8 12e9 f0bf
000004b0: 9e4d d397 2569 e73f 56d5 abf8 e4fd d93f
000004c0: cff6 17db 1b5c b4bf 1094 9cda 700d e4bf
000004d0: 446d 42e8 aa40 d6bf 3a21 b646 cc2a e23f
000004e0: 5e66 5606 45cd da3f c1e7 2be7 7a27 efbf
000004f0: 1a6e 030a 68a8 ddbf a3f3 14dc 9560 d8bf
00000500: 3437 5cc9 a986 ebbf 1167 d98f 36dd e7bf
00000510: 8388 2a34 6619 c0bf e763 8116 0eef c13f
00000520: 7e86 9fb9 4182 e03f 3913 626c f036 753f
00000530: 55a9 b5a9 c1eb c33f b0f9 b288 a16f c43f
00000540: 1e57 bbea 4f7c d83f 5c1d c6d2 0f35 d1bf
00000550: 6844 97d3 55aa bebf dac9 5bac dfc2 db3f
00000560: 8c03 7d76 f7c6 cdbf d967 e659 8763 cb3f
00000570: 5976 e198 58c6 c8bf 11d1 7865 6492 e73f
00000580: b698 e64e 1c06 e8bf bfba f318 b1e4 a03f
00000590: f064 eb27 a524 e23f 2ad0 ec8a 02b0 d93f
000005a0: 14a6 a8a0 8834 e4bf 0279 d3c6 132c c53f
000005b0: 1419 b694 fc69 f2bf 93c7 4344 75f9 d43f
000005c0: 0bbc 70cc 3391 de3f 5dbd a095 085a dabf
000005d0: 7948 a801 3388 ae3f 7a53 85d4 1f19 ce3f
000005e0: 38dd c314 2754 8b3f bb15 afc0 cdcf bc3f
000005f0: cbcb 7e35 6966 e53f fa7f 2735 fa0e a2bf
00000600: 489c b279 1154 ce3f 57dd e80b b853 c83f
00000610: 12ca f72a 4dbc d83f 6e34 e9d5 0a4c a53f
00000620: 03ac c1aa 4d02 99bf dd24 1772 90fa e33f
00000630: 38e4 b36a 8f7d ca3f a754 784a cbfc b1bf
00000640: e1a9 ca94 dce0 ddbf d9f5 70ae de3a da3f
00000650: fe78 d3c6 132c c53f 715e 2e9a 9e29 d9bf
00000660: 0a24 f399 4d7b d9bf 3b6a 6092 fe3e e4bf
00000670: 4de7 5e88 7edb d83f 399a a384 d3a0 c83f
00000680: ba89 d1db 6daa d9bf 9784 7840 c1f9 d13f
00000690: f189 2638 2f62 e73f 2464 2a4b 6dc0 d6bf
000006a0: 8615 4917 5c56 df3f a1e5 e448 8df6 d7bf
000006b0: 09bf 22c4 7adf eabf 4479 969d 4a02 f1bf
000006c0: 719d c506 6471 e8bf 64f7 2fc9 7c94 ccbf
000006d0: 99fa ad59 d599 d13f f361 e7f0 f384 cebf
000006e0: c38b 5d3a 9ced cabf ad5c d507 f33e d13f
000006f0: 4f19 b5c4 5b50 e4bf 3538 cfd0 8dcd c83f
00000700: d0a1 72e6 dc5f db3f 471d 8c10 524a e43f
00000710: 8b8f 403a 945e 7e3f 8300 dc1e 657e bbbf
00000720: 3e40 b099 6b99 d03f 3c26 87ed 42e5 d43f
00000730: 350c ff46 cb76 e13f 99d2 0eba 9357 e7bf
00000740: 0def 3379 cbf7 e63f 3838 cfd0 8dcd c83f
00000750: 05d3 ddf5 3709 b2bf 5102 bb37 491e b43f
00000760: 05d6 329c efa5 c7bf f154 cd23 d75e debf
00000770: 7ee4 5ecc d1cc edbf c68b 7c29 909f cebf
00000780: 4e1f 0766 486f b7bf 9684 7840 c1f9 d13f
00000790: 4805 150c cc13 d53f 8742 0db1 8402 d23f
000007a0: 131c c2cc fbb6 693f 212b 2a5b a461 eabf
000007b0: 9ec7 4344 75f9 d83f e4b2 7441 ec30 c03f
000007c0: ccec 089e 6b40 d9bf 8694 cdae 8f7e e33f
000007d0: b1e5 27df c6e8 e2bf 11a4 504b 4887 9ebf
000007e0: c85a 1881 e234 bebf 73f9 5b3b 5b6a d33f
000007f0: 38b1 4e6f 4f40 d1bf 91bd 9372 67aa dbbf

umat f8 [942, 50]
0.03803613439473933 -0.1762583535375175 -0.2703341795840439 0.31938100223592153 -0.25365012980037527 -0.12745248383775035 0.08605765391490927 0.24760250659732808
0.06255224601486542 -0.0007077333356833356 0.5130766289737265 0.041333639741840816 -0.055678188313092444 0.29758794267336314 -0.09053964178306459 -0.04686779873153081
-0.15169417258835474 -0.04267941613350757 -0.34674682788819683 -0.1176214489892772 0.15492578110903604 -0.13352038098414737 -0.01117331643416656 0.4043455817994479
0.23297249973069586 -0.34146437974130506 0.1042223522443721 0.04504007321053374 0.2737437315418116 -0.2362624646755245 0.09689202064871537 0.05130125838518074
0.3832010234410116 0.32028558440802873 0.1899429202716667 0.13217102852933335 -0.07361062239780122 0.12338892748569054 0.14266819306589865 0.161593897801677
0.13648223756346345 -0.02177767907146172 0.07028009086206732 -0.036887326974299924 0.4787941883666258 -0.0938942063197679 0.0302765763546561 -0.18891004277692908
-0.2716556993565111 -0.29644251090604284 0.33569669049252965 0.08975751015741748 0.10265897640394664 0.03957351380214643 -0.02545644822769412 -0.13697339774390763
-0.10507666147369588 0.010711903235083267 -0.10111805581290158 0.007292324859748595 0.11383026259879847 0.3788022200171975 0.06311049903438432 0.41847950120311683
-0.06463454184222943 0.1543665555287497 0.1851678522872856 0.03557712961086076 -0.0073939361420817945 -0.11179804170527477 0.06944536995587762 0.24377899520393906
0.04689347873230261 0.190007875730786 0.027597636161371508 -0.23058851419081391 -0.18797493901793944 0.14879354402697542 0.05294044056579439 0.17638428400334433
0.13979440834356366 -0.0939917623523375 -0.06566876118660073 -0.19271537586078077 -0.16282871505204438 0.2673221501517188 -0.26338525499271154 -0.08174394812140208
0.2870221486561821 -0.1568182134037368 0.35258796819852845 0.1303572684839752 0.1991534636919503 0.27326234565270924 -0.06836568815356653 -0.17087741592604058
0.09724831362907987 -0.08562145171425106 0.20638842822008877 -0.0914287341174382 0.019735421469537953 -0.02932465455651928 0.006824779005857831 -0.08385999568415813
0.3229807425873483 0.04049294885866194 -0.03183498483509799 -0.1673500967937685 -0.17057185734255528 0.2539221909843698 -0.12209382321090868 -0.45846723477541473
0.037935325729548795 -0.06601949683642097 0.2381609800446255 0.025785253795092573 -0.1678822249006261 0.17005124559401488 -0.46513462644592135 -0.4423484279758485
-0.10834451252547099 -0.22284114679543154 -0.5163641919634203 -0.1775514189276287 -0.04387760210349359 -0.20096550024626186 0.04441265285544232 0.5004658921080761
-0.23342129336681494 0.3096599144064029 0.34462292911750136 -0.2305914537437223 -0.09568236763013399 -0.004831566766450305 -0.22097315896567601 0.24149629856218296
-0.11733212758637351 -0.17344567242512496 -0.08370546011744061 -0.09211181921536601 0.017109103338096746 0.011448066298879414 -0.10014812971139318 0.14034350886807184
0.14969349288810035 -0.1204577103724426 0.09758026577783285 -0.0045005673223678655 -0.014842805096424709 0.21611730594217873 0.31263250713549395 -0.00642926736835292
0.2127822743881452 -0.15340652347668043 0.051299528098010735 0.09802835614657804 -0.1208624291178639 -0.08322879264715519 0.07821684550942033 -0.18799992139706545
0.2028802388990057 -0.03546774755378469 -0.15647747878820392 -0.324476465733877 0.11811363630361875 0.251836526381367 -0.22642259572884496 0.04217799564508365
0.07470482495931886 0.15663391242093275 0.0682142306689204 0.057352349230507714 0.12512325139900252 0.023929352180582966 -0.20543614044559677 -0.011181676331888648
0.1349476800988339 -0.049984983663849 0.05267545671696086 -0.07610623869547077 -0.003154137743017052 -0.1558109420039442 -0.0033839572312982166 0.22912200080828898
-0.01467522556410923 -0.2992074373329167 0.023128664737471466 -0.049636849406099234 -0.2495311646380604 -0.2798388327178355 0.2340925952314984 -0.27051974699858095
0.036671597844473665 0.023709949053651168 -0.1921587332551029 -0.026068171489155058 -0.4808534186956798 -0.08998334582719794 0.1292553897687162 0.1828037418657143
0.07798230932750767 0.17257790143188775 0.2999572663713565 -0.0790972415651611 0.06491815507150657 0.014966879311974268 0.06731195949084043 -0.0475692507442337
0.16638153077630063 -0.06633502165909075 0.026974144786621686 0.06967518949344653 -0.2034860560687071 -0.044455789963485884 0.19739268048888073 -0.009249291996413217
-0.02033858812815779 0.10420154339998702 -0.06954022835945943 -0.011223739179422945 -0.18091296640608803 0.027764301243261156 0.0648713628263366 0.020562976130728345
-0.056239655953519804 0.1344302777843912 -0.1961204892583034 -0.020200911725226416 -0.18427928197621907 0.1258592446713309 -0.002092419725139392 -0.1311804389472131
0.03626390262998375 -0.08785546460219677 -0.07775955022910612 -0.015628040523893993 -0.04189663947946354 0.01867994994420923 0.09270385302762185 0.0651230992204678
0.10195325658212284 -0.08127713664125401 -0.051253033857835126 0.020100411293104668 0.04627000001583218 0.21557304982498515 0.142324299833251 -0.1244203604953323
-0.10592392977916511 0.11515125656814741 -0.2685295843697464 -0.13607917831659255 -0.23918124678212913 -0.6467132062312227 0.3104029658625965 0.36003154703257156
00000000: 4555 95e2 7879 a33f a893 0b3c a28f c6bf
00000010: 437c 13bb 274d d1bf 7f49 e403 bd70 d43f
00000020: e099 07c1 cd3b d0bf 0545 f0ec 5c50 c0bf
00000030: c890 22d9 df07 b63f 7c1f 1f5e 70b1 cf3f
00000040: 78d9 ec8a 6c03 b03f 3069 f9c3 e530 47bf
00000050: 3217 b9ad 1f6b e03f 94ea d4cd ae29 a53f
00000060: 6e7e cffb d981 acbf 3bd3 5d4c ae0b d33f
00000070: 3e27 7320 9b2d b7bf b22a 935d 0eff a7bf
00000080: b160 21f3 b66a c3bf e1f6 0291 13da a5bf
00000090: 0361 719b 1931 d6bf 6a92 b774 701c bebf
000000a0: 0ed5 95a5 9bd4 c33f 6693 d622 3217 c1bf
000000b0: 947e 6125 09e2 86bf 1016 874a cce0 d93f
000000c0: 77f8 9af9 0ad2 cd3f 9c38 ef69 8dda d5bf
000000d0: 6cda 66ea 50ae ba3f 74ba e512 7e0f a73f
000000e0: df40 9d6d 0485 d13f b9e0 8633 d93d cebf
000000f0: 8ff9 ed5b eacd b83f 3018 0496 2844 aa3f
00000100: 9243 de95 5d86 d83f 2f6a 9a1b 8f7f d43f
00000110: b036 56b3 0c50 c83f c78e 81f2 faea c03f
00000120: fe35 d64f 25d8 b2bf 9153 3db0 6a96 bf3f
00000130: 99df b28b f342 c23f 944b 25dd 1baf c43f
00000140: 0cf5 68fd 3f78 c13f 502f 944d e34c 96bf
00000150: 30ff cf43 e0fd b13f d9a2 fb4d e5e2 a2bf
00000160: 5c2b 2361 90a4 de3f 3362 6d61 7309 b8bf
00000170: e5c4 1ca5 d200 9f3f 9272 ce4b 342e c8bf
00000180: bc86 2096 ce62 d1bf b313 5f02 eaf8 d2bf
00000190: 459d c2f8 0d7c d53f 8e4d b222 59fa b63f
000001a0: aab8 4bd2 db47 ba3f fbd3 22c7 fa42 a43f
000001b0: e4e8 7052 4111 9abf e9b4 dd23 5888 c1bf
000001c0: 0836 9ad8 4de6 babf e8ae 9450 1ff0 853f
000001d0: 4963 c076 dfe2 b9bf 6004 8d8c 8ede 7d3f
000001e0: a82c 28e7 fa23 bd3f 5d11 a8aa 4b3e d83f
000001f0: 340d 6379 0228 b03f 90ae ed3e 5ec8 da3f
00000200: 7381 67ab e38b b0bf 81cb cb85 48c2 c33f
00000210: f416 ec86 94b3 c73f 0b12 5460 2a37 a23f
00000220: d008 b49e 1a49 7ebf 2a89 e1e4 cb9e bcbf
00000230: 8bb1 d1f8 2bc7 b13f ef23 ed6d 2634 cf3f
00000240: 0a11 1a0b 6c02 a83f 1b82 1f96 2d52 c83f
00000250: d03c 0a03 8e42 9c3f 0f32 a4a7 ec83 cdbf
00000260: be5a c613 900f c8bf 70d4 b9b6 aa0b c33f
00000270: b059 bb69 021b ab3f 8a4f a99d c293 c63f
00000280: 42e8 ff7d c8e4 c13f b68d 6519 d80f b8bf
00000290: 1250 aafd aacf b0bf 4b13 61be e5aa c8bf
000002a0: 1ec6 ff42 92d7 c4bf 6279 195d ce1b d13f
000002b0: eb4e 1cd4 4ddb d0bf b9cc d3df 2bed b4bf
000002c0: 532e 6d25 925e d23f c03b fe84 9e12 c4bf
000002d0: 940c 1820 cd90 d63f d39f 7706 8caf c03f
000002e0: 1895 b856 dc7d c93f e49f 7359 217d d13f
000002f0: 1cc1 c9ea 6980 b1bf ad7f 83a8 4fdf c5bf
00000300: d4c7 a0f6 43e5 b83f 60e1 f296 49eb b5bf
00000310: 3133 bd9e ef6a ca3f adf6 f29e df67 b7bf
00000320: b444 23b7 8535 943f 30a1 2541 4807 9ebf
00000330: 5013 1faa 4cf4 7b3f 1ffa e742 d977 b5bf
00000340: 10a1 a96b b7ab d43f 4f13 22e6 7dbb a43f
00000350: 9686 78d5 ac4c a0bf 0218 5b5c ba6b c5bf
00000360: 8bbe 7372 4cd5 c5bf 0f6b 80dc 4240 d03f
00000370: 7905 bc71 8a41 bfbf 2e78 e9f4 8657 ddbf
00000380: cb37 be4e 426c a33f d290 cf5b a7e6 b0bf
00000390: fccb 3c1a 0f7c ce3f 2570 1317 7367 9a3f
000003a0: 6c92 c32c 2a7d c5bf b134 3c3d 3dc4 c53f
000003b0: 59a2 3406 c4c4 ddbf 50f8 e5c7 6f4f dcbf
000003c0: 537a ff49 77bc bbbf fc41 d806 0f86 ccbf
000003d0: 0ede a932 0e86 e0bf 1c87 d340 01ba c6bf
000003e0: 9470 1f04 2077 a6bf f24a 97cd 3cb9 c9bf
000003f0: 27e0 1557 41bd a63f cdc3 eb0b d103 e03f
00000400: b8a9 99ba bfe0 cdbf 7f7d 50d1 77d1 d33f
00000410: b0ba 8054 4d0e d63f 467f 4850 0584 cdbf
00000420: 6478 c6bf a37e b8bf 4469 01d4 43ca 73bf
00000430: df93 8635 d948 ccbf 0afe 36c8 59e9 ce3f
00000440: 34ea c072 7a09 bebf 0f6d 59c1 7733 c6bf
00000450: 5777 b395 b86d b5bf 4ee5 1ae3 a394 b7bf
00000460: f43b 347d 0c85 913f 0859 d972 1572 873f
00000470: 27b2 ddcd 4ea3 b9bf 22aa 65ae c6f6 c13f
00000480: 666f 3008 2829 c33f 3ac6 9906 51d6 bebf
00000490: 2033 4032 05fb b83f c083 68d7 2f6f 72bf
000004a0: 9ca7 c293 e765 8ebf 3d86 8f5c bba9 cb3f
000004b0: 4a0f 74c6 2b02 d43f 805b 5951 9355 7abf
000004c0: cb31 d516 733c cb3f aaa6 a930 d3a2 c3bf
000004d0: 6e5e f686 ee43 aa3f f2ed bae7 6218 b93f
000004e0: 0e58 6014 d7f0 bebf 064e 816e 7b4e b5bf
000004f0: 1191 75e9 0406 b43f 1486 06a5 6110 c8bf
00000500: fab6 89cb faf7 c93f f2d1 9c1f d428 a2bf
00000510: ef59 fa3a 7407 c4bf c083 29f0 38c4 d4bf
00000520: fbbb 22fd b13c be3f f2c1 2ff3 161e d03f
00000530: 758b dd65 6afb ccbf 241c d0af 5a98 a53f
00000540: e9bd 0dfc da1f b33f 7d6e a57d 940c c43f
00000550: b045 d8e1 7c76 b13f 236d 9680 495d ad3f
00000560: e52b 5de8 0904 c03f b4ca 1ea4 ef80 983f
00000570: b4ad 5040 bb4b cabf 9b83 4731 6be6 86bf
00000580: 2a08 5930 f745 c13f d630 41bc a197 a9bf
00000590: 746b cd07 47f8 aa3f 43f7 37ce b27b b3bf
000005a0: a0bd 81ce b4d6 69bf c808 22ea 9cf1 c3bf
000005b0: b0b0 7634 acb8 6bbf 0602 22a6 de53 cd3f
000005c0: 27ca df6e 0b0e 8ebf 7326 84f3 3626 d3bf
000005d0: 6821 976a 0aaf 973f 3e58 c049 006a a9bf
000005e0: 7604 ba1f a3f0 cfbf 7a21 ab22 e1e8 d1bf
000005f0: 84a5 6004 bff6 cd3f 88fd 910e 3250 d1bf
00000600: 893f dea2 9ec6 a23f 36dd 19bf 6b47 983f
00000610: a058 7c49 a898 c8bf 3abd 0c60 9db1 9abf
00000620: 73ef dd6a 4dc6 debf 7231 8307 2609 b7bf
00000630: 14b6 f1cb 708b c03f 5a28 73ee 1c66 c73f
00000640: 656b 3a0c a6f6 b33f 3fc5 545d 0817 c63f
00000650: 67cd 50f6 7f32 d33f dae6 b981 b73f b4bf
00000660: 11e3 f2e8 799e b03f 4049 5889 f4a6 8e3f
00000670: ee90 a448 5b3b b13f 13c1 7b30 ff5a a8bf
00000680: 42db ab70 fd4b c53f 6ef1 9afc 54fb b0bf
00000690: cfd0 c836 1c9f 9b3f 688a 37b4 3bd6 b13f
000006a0: 49e9 00c2 d40b cabf 02a4 05c8 e8c2 a6bf
000006b0: d5b2 95d1 2944 c93f bd03 16f5 4af1 82bf
000006c0: 5bd3 6d8b a3d3 94bf c27d 18cd f3ac ba3f
000006d0: 8b6c 8f6e 63cd b1bf 6834 b7c5 78fc 86bf
000006e0: a978 11f5 2728 c7bf 492a 58b7 3e6e 9c3f
000006f0: 9c3b c9dd 689b b03f 25aa f5f7 750e 953f
00000700: 9608 1eb6 71cb acbf 448c 56e7 0235 c13f
00000710: b44f b8e7 791a c9bf 7e40 d63c 8caf 94bf
00000720: 5688 b5a8 7696 c7bf cf9d e1dd 271c c03f
00000730: e250 3f49 1f24 61bf 389c 9347 85ca c0bf
00000740: 5968 a4a7 2e91 a23f 33c7 3d1b b27d b6bf
00000750: bb88 2fc5 0ce8 b3bf 0081 cd0b cc00 90bf
00000760: 80d1 c0f0 7973 a5bf 0dba 6738 d620 933f
00000770: f081 f790 70bb b73f eab6 5d4d e8ab b03f
00000780: 90ac bdce 9b19 ba3f c765 c913 94ce b4bf
00000790: 36f9 7a70 d63d aabf f964 8fc4 3395 943f
000007a0: d534 b591 b3b0 a73f 64da 72cf e597 cb3f
000007b0: 60de 9ac2 ae37 c23f 15b3 4843 03da bfbf
000007c0: a9eb 43a6 d41d bbbf 11b2 0d81 8d7a bd3f
000007d0: 2019 b8b5 962f d1bf 0ca6 44e2 0a6b c1bf
000007e0: bb74 5fb8 7d9d cebf e3f0 d4e4 dfb1 e4bf
000007f0: 3a85 bd66 a4dd d33f a21f 02c2 c10a d73f

ubias f8 [942]
0.018549375826180527 -0.17700049119078468 -0.8517941226061885 -0.15310830749536858 0.3879503404058649 -0.5558991946654617 -0.021892978069222434 -0.02875011745965562
0.1336932723314972 -0.5920262944521055 0.15580675094752153 -0.04126952368683677 -0.06909949415561151 0.26334182938163453 0.5478166896114068 0.1982997733880783
0.11324961631757079 0.3897241042958738 0.2834094938518204 0.12944380886170448 -0.5664004975915548 -0.16539372724264112 -0.30868484304501753 0.0979877948662773
0.14715082997066684 -0.8110689503509196 -1.2573764224913282 0.6187915652054956 -0.17805617875563087 -0.2305440263273151 0.022805574113459005 -0.5285352389785394
-0.22024391283941294 0.26450922763127843 0.10153852876583555 0.23261119111674614 0.6869887924581608 -0.2084396824492055 -0.23962606388468816 -0.12094592969020904
-0.568987821365423 0.41584918036975005 0.0728726021384423 -0.007728543972968435 -0.20343359964816266 -1.450550608595563 0.22889463040528385 0.05181716184672935
0.571025561140382 -0.5021099028294234 0.4853516473772432 -0.454719770560014 -0.21217607687913217 -0.10879051480875417 -0.28530361125157583 0.36669671020288785
0.6134276370378223 -0.4383624772857654 0.04284064241626634 -0.15578758989319846 -0.7045546716841631 -0.18739681368744784 -0.32984102647670166 0.330274981507975
-0.4124701118951166 0.6689363967280699 0.08230443549918097 0.036689358256896294 0.18242644284276072 0.06595494611661165 0.20149998107990605 0.31410409124872746
0.20234055718634197 -0.22407960401105761 -0.26989289350011625 -0.19441863696938538 -0.19224043385663941 0.6991355316339535 0.716969463952149 0.16414872665631847
-0.017173130616990117 0.16590021272008357 -0.09443180149932791 0.10168156461232901 0.47655974013573793 -0.18074458930250123 -0.24677237401382432 -1.0413835019750173
-0.1552565379899749 0.8152555413057968 0.18925218854714088 -0.3513196397156329 -0.3743727412807539 -0.3310892013888231 -0.19746414390140435 0.14105060949872444
0.9543460904571625 0.15769372802202875 0.06522318541719649 0.11573353862452787 -0.6222479289684372 0.27845097738598595 0.13328620891154225 -0.7169392725024133
-0.06307976057730806 -0.3662694838580983 0.3155669253992768 -0.5602304282110997 0.03317208752939252 0.011184954041075204 0.018521611690117474 -0.35213523241878997
0.3317341996717921 -0.8754980043197 0.298709708395822 -0.6606484009568694 0.3915773760882251 0.3300627351137603 0.014083597114350976 0.1868299558371233
0.03993339036266969 -0.3329642685698043 0.0904969715215213 -0.03400393088734694 -0.46023894046345515 0.4884892025472666 -0.890931862591022 0.17224598389874077
-0.47676624730018335 0.37717845236022945 -1.5902880240861244 0.19671852501957085 0.10878961053736123 0.035348709546017244 0.005289968123561937 0.2555854706430125
0.5266307461675439 0.33768808972700953 -0.4708599969804375 -0.3463361792169877 -0.2240598085654988 -0.961883086614745 -0.4198886245688151 -0.1650638313916101
0.0165453584763906 -0.12879047546027036 0.0020501140986340636 -0.1557128167955408 0.149425509315486 0.020116747414232077 0.22024727737143796 0.032538941902405964
-0.20501638954174461 -0.26234600786299633 0.24673437206083718 -0.1093920114318729 -0.033265294126299805 0.1896377056329016 0.32049088646414164 0.09634188539046507
0.1453477676423805 -0.0587251239180173 -0.16612890078066658 0.1944366976280565 0.7911868803545069 0.2191345509230308 0.5873289068682696 -0.35481267376200903
0.21481559336662595 -0.08278531708154294 0.32324530886446295 0.4569264287790594 -0.001045503741251954 0.08884193755547383 0.1365356720871398 -0.16222484083949032
0.1635865977156535 0.4066190953240754 -0.3763985749864944 0.07460836847170373 -0.2558719862040681 0.5195147037037916 0.16428801467760082 -0.9692858089389407
-0.326697741966059 0.1133296771276381 -0.11420851331699884 0.692749512236112 -0.09000879110002832 0.58968106262866 -0.06739677515025469 -0.19101875197830495
0.37063166827939775 0.2248028530841055 -0.6328357957314231 0.1393088474211768 0.3269419425430882 0.3602696225209179 0.5980675119813536 -0.01900637688231924
-0.04572026341826096 0.005995921347856484 -0.10191581332108436 -0.4329321166240651 -0.18325258964561866 0.03662518517852707 0.3150183759632735 0.1888615628738453
0.17009236502956854 -0.6134697262325601 -0.3606224970204082 0.11270415375734513 -0.7317747571851245 -0.15294364710117442 -0.008604594383969415 -0.015574305734353092
-0.3285857198963146 0.09436291464741871 0.1955027592379456 -0.21272878413464752 -0.5301857299131991 0.023033031506467416 -0.21514489790032293 0.346127330035066
0.29834330535822634 -0.7185192118761627 -0.10982949085191658 0.0511540890894869 0.4036895948619085 -0.1853239535715423 1.0105616839426754 -0.14241164589709862
0.18510409945537365 0.2759308506532443 0.2242039296511609 -0.11516983579729428 0.27909731372392077 -0.3740342909626244 -0.16459174010594793 0.04811402095887959
-0.1721071477252839 -0.15550045459402598 0.20842714209883373 -0.4770911660773059 0.3115445436589059 -0.27714499180347113 -0.09091864368522562 -0.25372074023468116
-0.033856680873522976 -0.26751446535861356 -0.06989848633161111 -0.0423161587578794 0.22796608045584554 0.5135475499487314 0.6146461825596868 -0.08844894291282371
00000000: 7a7d 238a 9bfe 923f 652a 85bc f3a7 c6bf
00000010: 5298 70bf e541 ebbf 6a21 b892 0d99 c3bf
00000020: f9f9 20aa 2dd4 d83f a8bf 9e1b edc9 e1bf
00000030: 2605 47e3 1c6b 96bf c344 fbb8 ab70 9dbf
00000040: c8f3 2d74 dc1c c13f 4c67 a120 e1f1 e2bf
00000050: 4d66 e8c1 79f1 c33f 7ee8 1c6d 4721 a5bf
00000060: dc88 9123 81b0 b1bf 483a 37b0 97da d03f
00000070: edaf c2dd b687 e13f dac4 c010 e361 c93f
00000080: f756 5e46 edfd bc3f 9679 9a5e 3df1 d83f
00000090: fd0b de92 6123 d23f 7087 dd5e 9d91 c03f
000000a0: db00 b3ef f31f e2bf 803f bc24 9f2b c5bf
000000b0: 348d 6912 7ec1 d3bf f199 5b66 ba15 b93f
000000c0: 93d1 26a1 d6d5 c23f 2add 11df 46f4 e9bf
000000d0: a9c9 55bd 361e f4bf e824 f3f7 23cd e33f
000000e0: cd96 4d7c 8bca c6bf f196 ae76 7782 cdbf
000000f0: 0d6c ef2b 585a 973f ac48 c6bb c2e9 e0bf
00000100: c1e8 64d9 f330 ccbf eda8 8a1c b8ed d03f
00000110: d64d 55d4 6dfe b93f 09d8 4319 34c6 cd3f
00000120: 5071 8aeb cffb e53f 536b a7c9 26ae cabf
00000130: 62b4 d31d 11ac cebf 3a90 9afc 4ff6 bebf
00000140: ebc6 92f2 2535 e2bf 326a 70e1 459d da3f
00000150: f282 f562 c7a7 b23f 23e9 c039 f7a7 7fbf
00000160: c0bd b2b8 1c0a cabf 00c6 118e 7435 f7bf
00000170: be0c e953 6b4c cd3f dfa8 016f c787 aa3f
00000180: 4ae5 c865 d745 e23f b6cd 74c9 4811 e0bf
00000190: 03e1 225b 0010 df3f b297 d9f3 201a ddbf
000001a0: 0b40 98ef 9528 cbbf 5bf6 37f7 b1d9 bbbf
000001b0: d765 f013 6a42 d2bf 02d2 777a f577 d73f
000001c0: b947 f1fe 32a1 e33f 1219 ef7d 210e dcbf
000001d0: 3828 3c6c 35ef a53f a262 db05 d9f0 c3bf
000001e0: 7614 243d b68b e6bf c3c2 1469 9efc c7bf
000001f0: 1e2d 6689 1d1c d5bf 67e1 10ad 3923 d53f
00000200: e8af 4a0a e965 dabf f4a2 614d ed67 e53f
00000210: a7e3 c84a e711 b53f 9931 a693 f2c8 a23f
00000220: f2b6 f7ea bf59 c73f d68d 9460 6ce2 b03f
00000230: 1700 715a c0ca c93f 55ff dc0b 481a d43f
00000240: 6287 e29d 4be6 c93f bbcc 76f5 a3ae ccbf
00000250: 325f c0d7 ec45 d1bf 9e19 c2bb b5e2 c8bf
00000260: fe09 31a4 559b c8bf 65dc 7a7a 515f e63f
00000270: d5f6 fcf1 69f1 e63f 8a9f 5552 d302 c53f
00000280: 63c9 7a49 d595 91bf 331f 04da 373c c53f
00000290: 9d58 24bb ae2c b8bf 5fb6 9d92 cd07 ba3f
000002a0: c749 9e6c f47f de3f 4fd9 fd81 a322 c7bf
000002b0: 3f0b f9b5 3c96 cfbf f639 39bf 81a9 f0bf
000002c0: a21c 943c 72df c3bf 4d51 f9c9 9216 ea3f
000002d0: 94d1 406c 6a39 c83f 755a c15e 057c d6bf
000002e0: 2924 1416 b9f5 d7bf 2b85 01c3 9030 d5bf
000002f0: b536 184c 8146 c9bf a65e 7045 f20d c23f
00000300: ed86 f2cf 008a ee3f 88c8 51de 4e2f c43f
00000310: 2ecc 4e78 77b2 b03f ca54 7193 b6a0 bd3f
00000320: 998a 1d7d 74e9 e3bf f35e 5a0c 24d2 d13f
00000330: fe35 24c2 850f c13f 6eb5 13a1 2af1 e6bf
00000340: 8b13 b8c4 fe25 b0bf 8e5f ac8f f570 d7bf
00000350: b081 129e 3f32 d43f 0481 ec5c 68ed e1bf
00000360: 3457 288e eefb a03f 356b 821e 23e8 863f
00000370: 85be e951 54f7 923f 1684 c036 6289 d6bf
00000380: 7286 a314 223b d53f 2c86 0864 1404 ecbf
00000390: 36b2 2353 0f1e d33f 5e76 881d 0824 e5bf
000003a0: 3dc1 098e 9a0f d93f 4648 3c73 bf1f d53f
000003b0: a021 2168 dcd7 8c3f 96e5 1d43 0bea c73f
000003c0: f98b 403b 2672 a43f 929b 0f5d 494f d5bf
000003d0: 1b6d 123d cf2a b73f 7975 3196 f668 a1bf
000003e0: 02b8 6807 8e74 ddbf b2ef 5837 6843 df3f
000003f0: a95e 9989 8382 ecbf 0b31 db09 280c c63f
00000400: 7e6b ff93 5683 debf 3728 6917 b123 d83f
00000410: d0b9 eada d171 f9bf 27fb bc97 122e c93f
00000420: 170d 67cb a2d9 bb3f e571 e9de 3919 a23f
00000430: 57bb 6601 efaa 753f 00a6 6f29 835b d03f
00000440: 1a72 fbb8 28da e03f fb13 6881 ae9c d53f
00000450: 0da4 01f8 9122 debf cd25 ca38 5f2a d6bf
00000460: e983 11e7 fdad ccbf 68bf f209 bfc7 eebf
00000470: 2712 9f89 74df dabf 8d2a cac6 cf20 c5bf
00000480: ff0d 3a36 44f1 903f f5ae 11d0 347c c0bf
00000490: bde6 36a0 66cb 603f bf39 dac7 65ee c3bf
000004a0: 2b5d d905 6020 c33f 7eec fb10 7c99 943f
000004b0: 72f3 ab12 1031 cc3f 3772 a2b6 f1a8 a03f
000004c0: ace6 1c20 fa3d cabf 9e7e 00e9 46ca d0bf
000004d0: 3d73 66ed fd94 cf3f 3d26 8b67 1d01 bcbf
000004e0: b882 ba0c 2608 a1bf 9c11 e45f 0c46 c83f
000004f0: f1e3 0135 ec82 d43f d8ad fc9e dca9 b83f
00000500: 720a 4972 c19a c23f 9de4 5c2d 3811 aebf
00000510: 81fe e239 b643 c5bf 0835 ba3c 4de3 c83f
00000520: 2db3 0426 6751 e93f 14ac d1d8 990c cc3f
00000530: 27d4 dffd 65cb e23f c5e7 8037 40b5 d6bf
00000540: 651a 17ce 137f cb3f 9247 7425 6b31 b5bf
00000550: 6121 8a17 0db0 d43f 3e2f 1259 483e dd3f
00000560: 0af3 1818 2921 51bf 8d64 5060 58be b63f
00000570: b802 2d3b 007a c13f b590 0099 c8c3 c4bf
00000580: 8356 a0d7 67f0 c43f 0925 1619 0c06 da3f
00000590: e8fd 740c ea16 d8bf d908 98b6 8819 b33f
000005a0: d760 2de5 3460 d0bf 835d c64c dd9f e03f
000005b0: cd20 15c1 6307 c53f 36d4 3bac 6304 efbf
000005c0: 17f6 5aa5 9de8 d4bf 19f0 ed78 2c03 bd3f
000005d0: e50c 9fe5 c43c bdbf 3ef8 6b06 012b e63f
000005e0: c68a 20ee d00a b7bf 9ff0 e1d1 aade e23f
000005f0: 424f 2041 ea40 b1bf fbb3 556e 4d73 c8bf
00000600: c4cd 87e3 6db8 d73f cf98 0503 57c6 cc3f
00000610: 79f2 ccda 3040 e4bf 09d4 db4f dfd4 c13f
00000620: 1973 bae5 9dec d43f 0c0e 9e51 a80e d73f
00000630: ef51 987a 5e23 e33f 0903 805c 6876 93bf
00000640: 1fb8 4a78 a568 a7bf 432d 93e1 2d8f 783f
00000650: c9c7 289d 2717 babf 6f75 92e8 28b5 dbbf
00000660: f5b5 b723 d274 c7bf be7a 1a49 89c0 a23f
00000670: c5ae 99d5 4229 d43f dade 019e 9d2c c83f
00000680: 1af7 8c2c 96c5 c53f 4c28 6843 8ba1 e3bf
00000690: 81e3 b961 7014 d7bf eada 82ee 2dda bc3f
000006a0: 1cc0 44e5 b26a e7bf ee1a 374d a893 c3bf
000006b0: 76c3 cb1b 499f 81bf 62ad 4bee 6be5 8fbf
000006c0: 52c9 3866 8c07 d5bf cdab 5d00 2b28 b83f
000006d0: dd34 9a02 3c06 c93f 0a59 6361 b23a cbbf
000006e0: fc0e 5910 48f7 e0bf e32a 3194 f895 973f
000006f0: ee0a 3136 de89 cbbf 7027 b03e f326 d63f
00000700: b99f df84 0e18 d33f 3ac9 9100 1cfe e6bf
00000710: 6d66 5817 c91d bcbf 4b5c 6467 de30 aa3f
00000720: 76b6 eae1 0cd6 d93f 48aa e0ff b1b8 c7bf
00000730: defd 71ba 422b f03f 034a d978 8b3a c2bf
00000740: 2018 c2ba 7db1 c73f 5cd7 e0de d9a8 d13f
00000750: 0943 bee0 b6b2 cc3f 7c2d 3c36 c57b bdbf
00000760: d01f b6fa badc d13f dc16 d185 2df0 d7bf
00000770: 0530 7996 5711 c5bf 4bb1 fea4 66a2 a83f
00000780: dca7 7165 9b07 c6bf f14a 7f5b 70e7 c3bf
00000790: e8e4 7497 bdad ca3f 59cd e062 a988 debf
000007a0: 9fc8 9086 58f0 d33f 3ff3 0259 bebc d1bf
000007b0: 5087 39b9 7146 b7bf d2fd 67ea f53c d0bf
000007c0: fcad 34b2 a955 a1bf d604 fbfd f41e d1bf
000007d0: 588c d500 dee4 b1bf 0d35 eaab 76aa a5bf
000007e0: 54dc 1316 fe2d cd3f 3410 7f45 fb6e e03f
000007f0: 2f90 9678 2eab e33f 3225 2d05 97a4 b6bf
