offline_resampled_model_testing/model_14.npz (npz, 968505 bytes, 5 tensors)

imat f8 [1576, 50]
000000 12 78 29 f3 1e b8 ca 3f e8 71 df 6d fc b6 9e bf
       0.20874392388481106 -0.029994911390405138
000010 6b 7e 1c b4 96 ec ca 3f 7e a7 8c a2 19 b2 c1 bf
       0.2103451137017943 -0.13824768483146593
000020 b2 47 fd 99 2d 9d b4 3f b8 f1 f6 f8 c5 5f c1 3f
       0.08052334794527274 0.13573527008510466
000030 c8 8f 7c a6 0f 8f bb bf d1 ee 70 c2 55 52 b2 bf
       -0.10765168966878413 -0.07156883236978763
000040 e3 c6 00 f5 3b 70 d1 3f 65 74 16 69 70 2f b0 bf
       0.2724752323730241 -0.06322386327379233
000050 d4 d1 17 3c bb 34 b5 3f 97 3b 31 98 6b 1c c0 bf
       0.08283586709132545 -0.1258673184515515
000060 36 4f 2b ff 9f 53 b2 bf 27 77 de 81 d1 7c b8 bf
       -0.0715885160419106 -0.09565457745199223
000070 e1 d8 45 8c ed 19 b4 bf ed fe b3 03 86 ff bc 3f
       -0.07852062868719002 0.11327397909553456
000080 f1 44 7f c0 86 5b bc 3f 30 fc 81 f4 11 6b cd bf
       0.11077158164632174 -0.229830021275093
000090 ce aa 0f ee ea 2c b2 3f 55 24 f9 fd 4f 00 c3 bf
       0.07099788963356987 -0.14844703579936672
0000a0 27 de d9 91 33 5a c7 bf 4a ed 98 b4 1d b1 cb bf
       -0.18244022962220294 -0.21634265249472612
0000b0 05 b3 a7 40 8f 75 d4 bf 38 75 69 87 1b 79 d2 bf
       -0.3196752673527928 -0.28864181732008687
0000c0 de e5 66 c6 2f f7 83 3f 20 f1 37 e6 3d b3 b0 bf
       0.009748814813849312 -0.0652350127274457
0000d0 64 27 24 78 97 bb 6f 3f 96 fa a4 a4 3a 11 db bf
       0.0038736303696439867 -0.4229265792709297
0000e0 42 bb 60 19 2e e6 b8 3f 42 de 31 fa 01 f4 b1 bf
       0.09726226920677752 -0.07012951238891055
0000f0 2f 93 3e b5 23 69 ca 3f 73 c1 71 54 e4 da af 3f
       0.20633360242677543 0.062216887767934013
000100 3c 43 b4 17 ed 18 bd bf cb 42 f9 6b 48 b9 b2 bf
       -0.11366159275736448 -0.07313969265056668
000110 fe 2b 9e 3e 01 24 b9 bf 95 80 80 2d 6b 39 d0 bf
       -0.09820564059025114 -0.2535045570712183
000120 4b 0f e7 4d fa 19 db 3f f5 bf 27 4f 8c be c1 3f
       0.42346055610345407 0.13862756600383333
000130 5a 2a 93 b2 5e 49 af 3f d2 77 09 e7 ee c2 c5 bf
       0.06110664300793607 -0.17001138955214273
000140 8e 5a aa 19 4a b5 d1 3f 1b 00 01 04 c3 18 b4 3f
       0.27669003015891114 0.07850283477546365
000150 10 f5 92 08 b3 dc a3 3f 85 d9 ac a7 35 4f ca bf
       0.038793177410733404 -0.20554228484406792
000160 fe dc dc 60 a5 e6 b7 3f 39 c9 79 67 1d f6 85 bf
       0.09336312880337869 -0.010723333092049191
000170 f6 55 b4 2b 43 25 c7 3f 86 ea cc 43 81 99 b7 3f
       0.18082465776448914 0.09218604951176176
000180 59 6c 22 e1 2a 8e bd 3f c4 53 52 0e a1 22 cd 3f
       0.11545055386015814 0.22761929702087802
000190 ed 62 d4 48 3b 1f b8 bf 5a cd 2d 74 cd 1e d3 bf
       -0.09422655609194992 -0.29875503869626174
0001a0 65 6f c7 69 c4 22 c5 3f 78 3f f2 ca 82 65 af bf
       0.16512351193420752 -0.06132134177562326
0001b0 ea 06 72 1b d1 a9 b7 3f 59 a9 fa 4d d1 7f c9 3f
       0.0924349491124549 0.19921318347526087
0001c0 ac 8f 0d d4 11 29 a0 bf 33 36 20 1f 71 f1 b8 bf
       -0.031563336501476996 -0.09743411073596846
0001d0 7b 8d 91 8d 49 19 c9 3f e7 dc 78 8b a4 e4 92 3f
       0.19608420765426246 0.0184503278853442
0001e0 a6 96 ef 64 c2 8d bb 3f 08 0a ad 1d 2a 1d c1 3f
       0.10763182605986774 0.1337025303747199
0001f0 70 ed 41 ca bb 0b c4 bf 26 5d b5 de 27 94 c1 3f
       -0.15660807968002244 0.1373338544314972
000200 a0 f1 8d 09 22 bb b3 3f 60 e4 a9 f6 f5 b3 b3 3f
       0.07707417233718283 0.07696473381101177
000210 0c 1d 83 09 3f 2d d7 3f 46 49 69 18 dc ed c6 3f
       0.3621366112606246 0.1791339034267116
000220 fa fe 9b 99 b3 ca bf bf ae 21 a1 47 49 bb bc 3f
       -0.12418673038700581 0.1122327613712801
000230 d9 8f ac ec b8 0e 90 3f 8d 73 d7 e6 b1 c2 bd bf
       0.015681161351622428 -0.11625205884725016
000240 ac a0 3d 1a 8c 40 b3 bf 6e 7c bf cb 57 a2 da bf
       -0.07520366325991529 -0.4161586274839867
000250 4d 13 86 0b b7 d6 c2 bf 9d f9 93 19 14 da b3 3f
       -0.14717758238489367 0.07754636406386912
000260 bd fb 15 f0 63 7c d3 3f ea 61 da 50 52 ba b8 3f
       0.30446718641172393 0.09659304117156578
000270 d7 ed 81 15 d5 17 cb 3f a6 d7 8c 5d 18 b7 d2 3f
       0.21166480589077594 0.29242524276502946
000280 5b 9d f0 94 ee 83 ad 3f 12 63 0c 86 bc 59 d3 3f
       0.057647185975208536 0.3023520764414097
000290 96 59 79 70 ed ef b1 3f 41 06 04 c0 76 04 a9 bf
       0.07006725307414849 -0.04886218160573864
0002a0 36 3b e8 6f 35 69 c5 bf e3 3d c9 45 c9 9e b5 3f
       -0.16727321590630034 0.08445413545381757
0002b0 8b 33 6f b4 7f 5f c7 bf d4 13 69 e2 43 97 d9 3f
       -0.18260189352295372 0.3998574934997212
0002c0 52 17 b9 57 09 64 c4 3f 44 29 28 97 4c 05 ca bf
       0.1593028715453167 -0.20328671818453803
0002d0 20 ba f7 13 9a 9b b6 3f 8a 7f fc 4c e6 1c c7 bf
       0.08831179606907158 -0.18056944617364606
0002e0 28 6e 0b 96 2f cc c3 bf 92 ae 13 e3 64 3a d0 bf
       -0.15466875864409357 -0.253564092402237
0002f0 b5 b9 52 b0 f3 00 bf 3f 75 66 c5 5c da 63 bd 3f
       0.12110827498211203 0.11480488552970221
000300 48 a8 00 cf 93 bf 86 bf 3a 74 2c c2 e3 18 b2 bf
       -0.011107592348782572 -0.07069228640143957
000310 76 27 fd 01 03 7e d3 bf f2 ff d4 53 d6 23 94 3f
       -0.3045661467955293 0.01966795813245876
000320 70 4b 05 a1 ff 08 7d 3f a5 7a b2 8b ee 4e a1 bf
       0.007088659811716677 -0.033805326989058394
000330 d8 3a c6 ad 24 76 ac 3f 04 da 4b 9f ba 53 9c bf
       0.055588861668288636 -0.02766315076129368
000340 f4 06 79 77 de a8 cc bf 90 63 65 cd af 42 73 3f
       -0.22390347322112059 0.004702269294590958
000350 94 7c d4 ce b7 7e d7 bf 63 a0 c2 04 8d 62 ba bf
       -0.3671092529129478 -0.10306626669137268
000360 58 1d c0 9e 73 32 b9 bf a8 b5 e4 e8 9c 64 8a bf
       -0.0984260809492431 -0.012887216431944307
000370 bd e6 c3 5e ac 13 c3 3f 2f a1 8c 3a 29 64 bd 3f
       0.14903788211068117 0.11480958632876502
000380 31 6d 06 29 98 f7 ce bf 20 ce 16 c5 21 dd df 3f
       -0.2419309807126893 0.4978718208978723
000390 0e be a8 95 1b 83 cc bf dd 2e 5d 60 5d 47 d2 bf
       -0.22275109107566532 -0.2856057587675716
0003a0 7e 7a 8b 3b 2e ce d1 3f 04 f4 b5 a3 e4 6e d2 3f
       0.27820926489759035 0.28801837909105665
0003b0 9d d2 ad f5 1b 4c c0 3f c4 d5 d8 e7 c8 f9 af 3f
       0.12732266899151493 0.06245258169330328
0003c0 58 38 92 e2 4c 7d a8 3f db c6 a7 ab 91 ba d2 3f
       0.04783096566926365 0.29263726962299835
0003d0 4a 73 71 c6 c2 77 94 3f 5c a0 fc 0d b3 9b e1 bf
       0.019988101350793465 -0.5502562783413043
0003e0 33 a6 69 d8 c8 cc cd bf 52 ca fc 23 64 2f c2 bf
       -0.23281202857042302 -0.14207126385879804
0003f0 3a e4 db 17 c6 7e db bf 4a 0d 89 4f a3 be c6 bf
       -0.429612658786542 -0.17769280799448445
000400 c6 a0 ad 2d fa df a1 3f 1e 33 3a 2c 21 86 dd bf
       0.03491193587871204 -0.4613116199405328
000410 bc d6 2b 9a 73 53 af bf f7 a7 ca 2b e5 01 c2 3f
       -0.06118355996106348 0.1406828368974968
000420 40 82 34 41 6e e5 c1 3f 63 d1 60 c5 c6 7b cc bf
       0.1398141687759722 -0.22252735746009042
000430 8d f3 c8 87 39 f6 d0 bf 68 9d 44 1e cd ff b1 bf
       -0.2650283647561132 -0.07030946721044062
000440 b7 da 97 a6 7a 59 ca bf f8 73 95 43 e8 87 b9 3f
       -0.20585568556244535 0.09973003053660523
000450 74 96 db b7 d7 86 ba bf ad 4c 36 cd 3c 5f c8 bf
       -0.10362003554072335 -0.1904064180385822
000460 0d 99 2b 39 d4 e1 dd 3f ca ba 74 5c 10 10 cd 3f
       0.46690850813901436 0.22705273165180123
000470 3a 64 2f a3 b9 2e c8 3f d6 47 50 d0 2e f1 d4 bf
       0.18892593830131138 -0.32722063391804335
000480 6f a2 e6 fa db 45 d7 3f 80 d9 db 2c 54 b9 88 3f
       0.36363887311976034 0.012072236651403001
000490 af e0 63 bd de 74 c4 bf 6a 86 da 27 4a 92 bb 3f
       -0.15981659171644 0.10770095322598086
0004a0 0d 48 f8 8a f2 77 d1 3f 35 b2 09 25 de e6 ca 3f
       0.2729460103156505 0.21017052467813505
0004b0 66 d2 ef e2 de 7b c2 bf d5 e0 9e eb d5 f2 ca 3f
       -0.14440523224733964 0.2105357552043247
0004c0 37 d8 9e fe 81 20 cb 3f 2e 8b e3 2f 2a b8 a6 bf
       0.21192955906525565 -0.04437381586628529
0004d0 ae 80 e2 58 75 b4 d3 3f 1f 09 9b 25 ae 11 b6 bf
       0.3078893058791533 -0.08620727937799132
0004e0 94 65 8c c6 a2 d9 a8 3f b8 df 73 bc ac 3f 95 3f
       0.048535429703586846 0.020750712396846643
0004f0 c3 40 e7 61 3f 5a d3 bf 72 48 7e 2d 08 e3 ae 3f
       -0.30238327561256656 0.06032586627328919
000500 8d 0e da 23 43 8a a8 3f 40 09 6b 7c 89 f8 c3 3f
       0.04792985737460951 0.15602224898436567
000510 de 46 d1 8a 65 ef 93 bf 64 8e ac c7 62 b8 a7 bf
       -0.0194679132440062 -0.04632862746646252
000520 03 b3 d9 5e 2d 57 b9 3f 40 38 99 5d d4 35 5b bf
       0.09898646894152922 -0.0016607831843376136
000530 16 ca b1 22 c5 f9 d0 3f 0e 5b 3f 92 fb a4 9d 3f
       0.2652447546780946 0.028949671555746063
000540 f7 4c 93 5d 99 5c c5 3f e4 18 76 da 82 ec c0 bf
       0.1668883997832393 -0.13221774737411984
000550 c4 84 c7 53 92 e8 b7 3f 30 74 d0 a5 4c 9d ba 3f
       0.09339251084704175 0.10396269844245931
000560 74 79 60 27 ae e2 cd 3f f7 c8 db 95 e4 11 b3 bf
       0.233480233408908 -0.0744917741647305
000570 ce 1d db e5 c2 9c d0 bf 7c 84 e3 fc b8 59 9d bf
       -0.2595679516493562 -0.028662577090362337
000580 80 0c f5 ac 90 03 40 3f 92 d8 2c 5c c1 47 c9 3f
       0.0004887062477013787 0.1975022983621711
000590 ee 1d 45 17 0a 08 bb bf 08 a3 bd 07 13 83 97 bf
       -0.10559142177691402 -0.02296094641443161
0005a0 ab 28 a5 53 66 55 ba bf 48 86 38 9f f5 07 bd 3f
       -0.10286559621923412 0.11340270173288858
0005b0 f2 dd 78 8f 03 70 cd bf 24 7f c4 83 c7 0e c2 3f
       -0.22998089318728848 0.14107603010142455
0005c0 f0 9e 3f a4 87 eb ba bf 00 d2 38 84 3e f0 c8 3f
       -0.10515640029882056 0.19483167129659762
0005d0 0d 2d aa 47 6a 43 b0 3f 44 aa 9c bf 60 bc 73 bf
       0.06352867364528354 -0.004818323062674216
0005e0 06 db 53 fa 96 26 d1 bf 86 9d b7 e9 6b db c3 bf
       -0.26798033186007364 -0.1551337138364312
0005f0 f4 38 3f 84 2d ca 95 bf d2 63 85 b5 6e 70 b9 bf
       -0.02127905959769634 -0.09937183314958922
000600 b2 2b 34 35 e8 fa a2 bf be 08 07 20 9d 4e b8 bf
       -0.03707051896534298 -0.09494955093308285
000610 fa 11 2e 76 68 af c1 3f 8c ea 89 6d e6 67 c9 3f
       0.13816552896982143 0.1984832796914201
000620 9b 59 56 67 c6 65 c1 3f 46 05 85 cf 33 1b db bf
       0.13591842695013842 -0.42353530183398325
000630 a0 bb 85 77 01 24 65 bf f1 42 b9 1a cd 54 d5 bf
       -0.0025806454324803357 -0.33330085382208013
000640 e9 d9 1d 41 80 89 cd 3f a6 38 c3 af 95 b0 9d bf
       0.2307586973144702 -0.028993929722496724
000650 b7 b0 ef 16 56 91 c0 3f aa d0 00 1c 4b d3 b5 bf
       0.1294353115075688 -0.085255331360545
000660 80 b9 a7 c9 e6 af d5 bf 98 b2 32 9d 3c 02 9d bf
       -0.33886117642295943 -0.02832884511433295
000670 78 bd b1 12 09 87 c0 bf 87 11 db 49 65 7f c9 bf
       -0.1291209546356915 -0.19920030695187682
000680 13 72 bc 7b b5 2e b2 3f 0a 7e 6a 95 11 fa c0 3f
       0.07102522154713879 0.1326314906664126
000690 65 d1 aa 68 82 2f c3 bf 68 78 7d 60 9f ff 9f 3f
       -0.14988737211900652 0.031248560203828296
0006a0 66 aa fc 07 b1 0a 96 3f 04 00 bc 5b 2b ee c5 bf
       0.021525159943090698 -0.17133085231034795
0006b0 9e 2a 5b ff b5 26 be 3f 28 99 24 8c 69 34 a0 3f
       0.1177781818798089 0.03164987407426373
0006c0 8a 01 e7 e3 ab a4 c7 3f ef c6 2d a8 7c 7e c2 bf
       0.1847128737263229 -0.1444850751100186
0006d0 67 61 5f 3c 8f 38 ca 3f e9 8f f9 31 19 e4 ad bf
       0.20485105941657908 -0.05838087782902319
0006e0 f8 17 b4 be e1 6a c7 3f f8 06 b8 60 76 6e cf 3f
       0.18294927417463192 0.24555854532814414
0006f0 1a 3b a9 db c9 5a c3 bf 36 20 a8 fa d0 d4 b4 bf
       -0.15120814538610078 -0.08137231940793374
000700 c4 a5 1c 4a 06 1d ca 3f 0a db 6b e3 00 02 80 3f
       0.2040107595324071 0.007816321316096903
000710 f9 af eb 9f c8 1f d2 bf e3 9e 6d 20 0f 4b a5 3f
       -0.2831899224972854 0.041588280399819565
000720 3b eb bc ea 81 86 e1 3f 3f 2e 4c ea f4 a6 c2 bf
       0.5476693711019388 -0.1457201141387134
000730 03 76 c5 8d 9e 48 c4 bf f2 b0 2d 87 e9 b2 a1 bf
       -0.15846616671016997 -0.03456811690452523
000740 02 dc 00 0d 7f 07 c1 3f 35 db 8a 08 17 49 c1 bf
       0.13304126868180793 -0.13504302899465306
000750 1a 93 9d c7 eb c3 c5 bf f0 9f c8 f8 c3 9b a5 3f
       -0.17004153487064216 0.04220402156744274
000760 c0 b2 dd e9 2e 08 a8 3f 10 ef 71 7e ae 81 a2 3f
       0.04693743328866651 0.03614564221876837
000770 40 19 41 c3 b9 38 5a bf 88 78 42 d5 37 3c ad 3f
       -0.001600438507936966 0.057100052626297304
000780 cb 2e 27 2f cf 10 bb bf b8 1e 1e 5f 5a dc a4 bf
       -0.10572523976514529 -0.040743660079042454
000790 c4 aa 66 9c 4d 84 c8 3f 30 a8 8a 69 cb 01 a8 bf
       0.1915375722577065 -0.04688869155263864
0007a0 ce 15 7c b8 e9 53 c6 bf 3a 26 ea ba 7f 89 c2 3f
       -0.17443582065622681 0.14482113482181252
0007b0 24 19 2e 50 62 ea 92 bf d9 4c 13 4d 85 ad d3 bf
       -0.01847222914104764 -0.3074658634843224
0007c0 bc af 8b 24 fd ec c5 3f 81 31 6c 44 29 c4 c2 bf
       0.17129482540565089 -0.14661136475514172
0007d0 3a 56 18 86 c5 20 c7 bf ba 25 ac c7 8a b8 be bf
       -0.18068760917292243 -0.12000338911834421
0007e0 64 2a 30 5e de 3c d4 bf 80 67 d2 08 b9 86 96 bf
       -0.31621512601910795 -0.021998301661916297
0007f0 61 ef c7 eb ff 20 d0 bf f7 5a a1 1f 4e 38 d4 bf
       -0.2520141413258355 -0.315936594857177

gbias f8 []
000000 a4 df d1 51 27 3d 0c 40
       3.5298601524518336

ibias f8 [1576]
000000 68 6d b5 1f ef 60 d6 bf e2 85 1a fe c6 52 e9 3f
       -0.349666386571434 0.7913546526871722
000010 2e a2 b1 70 1c 4d af 3f 7a 56 54 87 08 87 a4 bf
       0.06113518596322752 -0.04009272243471869
000020 94 1b de cc 26 7e dd 3f d5 c0 7b 6c 43 c8 c6 bf
       0.4608246803913343 -0.17798655316392478
000030 44 82 62 2a dc 33 c6 3f 0e 59 7e 68 cb ab d9 3f
       0.1734576422650368 0.40111050800750625
000040 c6 60 20 1e 7f c2 e7 3f d4 a3 1c 46 82 57 e0 bf
       0.7424922550590274 -0.5106822366116099
000050 ad 02 40 4f 1b a2 d2 3f d6 9f 28 ed f4 08 d6 bf
       0.2911442064214878 -0.3442966762545415
000060 2e 13 2e 95 80 94 db bf 36 e2 d0 62 02 db db bf
       -0.4309388596378082 -0.43524226808543476
000070 b4 5c 45 3c 8d 4d db 3f df 6e 04 d4 a6 6f aa bf
       0.4266083801825957 -0.05163308466054927
000080 68 10 66 55 2c 67 d4 3f a4 6a b1 d7 b3 c6 d3 3f
       0.3187971910449563 0.3090028387429504
000090 e0 35 f9 bc 8b be e2 3f 07 1e 84 d7 0f 88 e0 bf
       0.585759991730523 -0.51660911648736
0000a0 60 10 50 87 e1 1d d9 3f 38 e9 5d 2a e7 72 d3 bf
       0.39244878973136643 -0.30388812196146686
0000b0 ea 00 cd 76 ff c6 d4 3f 37 26 65 65 95 31 c1 3f
       0.32464586831703335 0.13432567072804755
0000c0 e2 ef 3a 51 a5 9d b8 bf c4 78 3e c6 e2 1d c7 3f
       -0.0961554835620855 0.1805995433796338
0000d0 5d d1 64 d2 d2 c1 e1 bf 0f 71 e8 fc 98 23 db 3f
       -0.5549100980047502 0.42404770563168
0000e0 5f 7f 3a 42 cc 1b d8 bf dc 36 0e bb 98 45 e0 3f
       -0.37669664828898947 0.5084956792286124
0000f0 10 6f 82 4d c2 fa f2 bf 9f aa d9 4b e2 20 dd 3f
       -1.186220457812798 0.4551320782399361
000100 cf f7 57 3c 0f 71 e3 bf 43 8e ac 95 10 89 d5 3f
       -0.6075512102686335 0.33649077049833326
000110 b4 d6 68 c5 1f 76 59 3f e4 c3 ee ed 9d 63 c3 bf
       0.0015540418877554698 -0.15147756688887093
000120 03 74 65 cb 8b 89 c2 3f 83 86 30 e7 9c 7d e2 bf
       0.14482257300815612 -0.5778336062832782
000130 19 28 a4 c2 02 aa d9 3f 6d d1 b0 9b 3e c0 e3 3f
       0.401001634673436 0.6172173539003275
000140 bb c0 5c 8c 07 e9 c7 3f 8b 6a 3f a0 fa 68 93 3f
       0.18679899552944854 0.01895515063356838
000150 9e 69 60 40 a5 c6 da 3f 71 65 eb 95 24 b4 e1 bf
       0.4183743599584434 -0.5532401016345557
000160 69 e7 18 98 1a 62 c4 bf 5b dd 73 96 3c 41 d9 bf
       -0.159243892923594 -0.3946067303908955
000170 b6 9a cf a5 c5 0d b0 bf a0 35 ee d9 88 18 a5 bf
       -0.0627101449787045 -0.04120280895504469
000180 47 71 1c df 45 41 d6 bf d8 c9 93 26 a4 fc be bf
       -0.3477339438266153 -0.12104249898747044
000190 96 b6 4c 9b ba d5 c8 3f 88 75 89 51 af ed d8 bf
       0.19402248938552152 -0.38950713121979463
0001a0 bb 2d 47 80 26 87 e7 3f ed ba 54 b8 39 12 a8 3f
       0.7352478509359835 0.04701404929288864
0001b0 c4 7f 33 07 fe 3e bb bf fd 68 d3 7d b7 72 de bf
       -0.1064299361783006 -0.4757517555969029
0001c0 da 10 dd 0c ec 8f d6 3f 45 e0 1f de dc 0c d3 3f
       0.35253430610852166 0.2976600808319783
0001d0 eb ec a0 1d 5d 55 cd 3f 4e 8e d1 00 7e d3 c2 3f
       0.22916759440145226 0.14707922973603832
0001e0 28 c2 14 15 14 91 c6 3f 42 35 3a 2e d4 f8 e0 3f
       0.1763024428305624 0.5303746130827351
0001f0 3e 44 e0 14 77 10 dc bf f7 d2 a6 4e 61 80 e0 3f
       -0.4385049537532416 0.5156713997044723
000200 5c b8 c6 73 fb 50 df 3f fa 6d 6c e4 3d 8d bc 3f
       0.4893177633883903 0.1115301783251467
000210 05 13 58 d0 17 27 cb 3f 6c 6d 71 2b 05 bd e8 bf
       0.21213052437828864 -0.7730737541673256
000220 de 75 85 30 68 1d d4 3f 70 77 9a f5 09 ce dd 3f
       0.3142948602524863 0.46570061669068874
000230 c7 bd 2e 26 df 71 79 3f 9e 27 5a ce 90 eb e2 bf
       0.006212112118120178 -0.5912555723491442
000240 a7 53 ab f4 6d 41 e0 3f 76 f3 34 ce 57 b0 dd bf
       0.5079870012947268 -0.4638881219614669
000250 2b c3 74 03 08 ea e7 bf 46 02 f5 58 a0 20 e3 3f
       -0.7473182742597592 0.5977327096407599
000260 f1 cc ce f9 06 d2 df 3f fb da 1d 0f 65 ec b5 bf
       0.4971940459756317 -0.08563834780748529
000270 df f8 31 53 56 7e d1 3f 40 ba fa 55 ca 7f e2 bf
       0.27333601116687406 -0.5780994109425777
000280 d8 82 dd 89 c9 d8 d4 3f 0f 83 aa ff 71 65 e2 bf
       0.32573164428144485 -0.5748834603765277
000290 bb d7 b7 92 dd 2b c0 bf e1 73 05 0d 2e 3e d8 3f
       -0.1263386694333216 0.3787951590691688
0002a0 d5 d8 8a 46 73 00 d4 bf 31 63 c2 e6 48 2c eb bf
       -0.31252748383429935 -0.8491558558481299
0002b0 58 a5 99 bc 88 a6 d7 bf d4 6a 1d b9 1c 8e c7 3f
       -0.3695394365118623 0.18402442015470533
0002c0 56 23 f4 f3 cf 1a e3 bf 08 77 04 70 90 ed e0 3f
       -0.5970229878158573 0.5289995372620249
0002d0 da b4 6e 2f 6d c6 c6 3f 88 57 c9 a4 67 f9 93 bf
       0.1779304963687654 -0.019506091530579833
0002e0 5b f2 37 ef ed 20 d1 3f 7c 3d fc 99 b3 9a e5 3f
       0.2676348529928753 0.675134468796315
0002f0 8c 1a 73 5b 45 3d d8 bf 67 f2 37 ef ed 20 d1 3f
       -0.3787396805823071 0.267634852992876
000300 96 89 98 5a 3c 90 e6 3f 4c 65 3d d5 77 de d9 bf
       0.7051069039774116 -0.4042033750934777
000310 64 b4 c3 9e 0d 11 dd bf ef ea d4 d4 90 80 f5 bf
       -0.4541658449587145 -1.3438881219614662
000320 4c 0d 01 c2 65 f7 e1 3f 85 49 ef be 02 44 dd 3f
       0.5614498891012913 0.4572760452839691
000330 f8 b2 4b 55 56 db bf bf 79 79 7a 23 ba 58 c8 3f
       -0.12444057066359082 0.19020773632378132
000340 8b fa 2c e8 82 38 a9 3f 13 ad 1a a9 60 1e b3 3f
       0.049259272424469 0.07468227509041396
000350 41 f2 18 5c 53 29 ca 3f 26 52 54 ee ca f1 db 3f
       0.2043861579603732 0.4366328551707589
000360 a2 ca f7 67 76 39 be bf 55 9d d2 c2 db 93 bf 3f
       -0.11806430853156738 0.12334989077009102
000370 89 5d 5d fb e4 14 e1 bf e8 fe 97 c8 b4 0f e6 bf
       -0.5338005933253253 -0.6894172590109209
000380 04 b2 9a 91 e2 a2 d0 3f 0f fa ba a2 a4 18 93 3f
       0.25994171351592876 0.01864869349696546
000390 5d 4b 14 14 6a c1 dd bf 2e 33 51 f9 64 90 d1 3f
       -0.4649300762259168 0.2744381365526348
0003a0 52 05 dc 5b dc 1d e3 bf d3 34 86 3d e9 ea cc bf
       -0.5973951143388752 -0.22591891769517378
0003b0 84 2c 1a 47 c0 52 d1 3f fc 76 5d a0 26 0d af bf
       0.27067572539881035 -0.06064720828611134
0003c0 da 39 f4 f2 48 8e 91 3f c1 0c 66 79 b8 fd cb 3f
       0.017144336537109207 0.21868043830554565
0003d0 0b 14 45 5d 7e d7 e8 bf 56 64 e0 fe 3e e6 d5 3f
       -0.7763053723980432 0.34217810526167136
0003e0 3d 45 e9 a0 e7 84 c4 3f d5 bd a0 e8 39 42 e1 3f
       0.1603059325885087 0.5393342536462408
0003f0 88 7b a6 39 f8 91 d4 3f 02 12 56 a2 22 12 d2 3f
       0.3214092791549139 0.2823568902315686
000400 38 87 fe 06 bc 4e e3 3f dc 62 22 91 8e 30 ea 3f
       0.6033611427885495 0.8184273562102038
000410 30 2a 6d c2 89 51 d0 bf b6 ea 8f 90 8e 88 c3 3f
       -0.2549766920753056 0.1526048856611248
000420 be cb a5 33 64 6c db bf 11 79 69 be 86 d1 da bf
       -0.4284906868335233 -0.419038473080847
000430 06 56 d2 03 15 21 cd 3f 26 73 45 24 e1 ab c9 bf
       0.22757208525278844 -0.20055784483965872
000440 79 c6 5b b0 d5 75 c0 bf 9b f2 fd 99 5d 8e df bf
       -0.12859603034262415 -0.49306430853156663
000450 6c f7 36 ec 28 b6 f2 bf 35 4e d3 04 a5 89 c6 3f
       -1.1694726206910344 0.1760755799829085
000460 57 9d 83 c6 f2 4b bf 3f cd e0 2d 57 d7 56 65 3f
       0.12225262972389338 0.0026048856611248007
000470 dc f9 d4 29 88 4c c5 3f da 6c b4 fb 65 89 c8 3f
       0.1663980678803928 0.19169306555054427
000480 aa 9b 8b 31 0e 31 cb bf e0 53 c3 34 af b4 e1 3f
       -0.21243455332952738 0.5533062010314289
000490 22 a5 82 73 28 29 f3 bf e6 ba 96 53 d9 ca b3 bf
       -1.1975483429071763 -0.07731397906057288
0004a0 0c 9c 04 84 b0 a0 c6 bf 6e 4e 98 24 3a f1 ca bf
       -0.1767788548106356 -0.21048666750776895
0004b0 ba c2 42 a9 14 7b c1 3f 87 af 76 4e ea d8 d9 3f
       0.1365686251133605 0.4038644567724465
0004c0 ed 45 c5 b1 00 d4 d5 bf 2e a3 03 2b 18 82 cf 3f
       -0.34106461868677124 0.246157666209251
0004d0 16 dd 64 3a d6 30 e4 3f 55 ec 7e db 4a 28 d3 3f
       0.6309615269191535 0.29933425364624117
0004e0 da fe 05 39 e4 f6 e3 bf 44 0b e5 01 43 2c d3 3f
       -0.6238881219614669 0.2995765226843796
0004f0 aa 45 f9 b1 a9 c0 dd 3f c7 2d 13 c7 fb ad c8 bf
       0.4648842084908106 -0.1928095552487845
000500 74 d3 96 ce 67 c9 b0 3f d1 34 82 f7 68 1a b3 3f
       0.0655732039802624 0.07462173502627258
000510 8e 45 46 bb b5 df e6 bf 49 e4 7f 96 b7 7f c1 bf
       -0.7148083360390716 -0.1367101178036896
000520 eb 0f 76 42 9e 4f e4 3f f9 8f 23 b7 7e c3 cd bf
       0.6347190187520914 -0.2325285333855616
000530 87 d7 0d ea 79 a9 cd 3f a2 a9 4a c0 62 38 8e 3f
       0.23173450401708015 0.014755984776759604
000540 5c e2 f7 72 e8 97 ef bf 6b fd 0c 03 7f 8c 7d 3f
       -0.9872934575533452 0.0072140656855589165
000550 54 07 92 0e 97 9e d7 3f 27 25 95 c0 21 3e c3 3f
       0.3690545694627094 0.15033361342856574
000560 13 73 13 53 21 a1 d7 3f 33 e4 c5 4b 63 85 d9 3f
       0.36920960533989094 0.3987663497896989
000570 64 26 80 fa b7 5f f0 bf 9a 0a 3c b7 77 43 d7 bf
       -1.0233688149623044 -0.3634928979301236
000580 48 17 f8 02 4f 0e c5 3f b0 d2 10 9b 2f 83 74 3f
       0.16449916501022188 0.005007921180596384
000590 0d d2 7f e5 3f 9e 39 bf 1b 47 2f 47 19 88 be 3f
       -0.0003909021374959583 0.11926420200259395
0005a0 99 58 39 e3 73 09 cc bf 95 54 26 9b 4a ea ca bf
       -0.21903847308084748 -0.21027500701589888
0005b0 43 75 47 48 74 b2 c7 3f 72 de a8 8b 84 d7 cf bf
       0.18513349084143202 -0.24876457995718543
0005c0 6a 76 50 de 0e 17 d6 bf b1 9d 8a eb f4 af ef bf
       -0.34515735350019006 -0.9902290916842756
0005d0 25 13 4e c4 97 03 d1 bf fa b1 fd bd a7 af d4 3f
       -0.26584428949745337 0.3232211451893644
0005e0 09 3f 2c fe 38 e2 c3 3f 43 c9 41 d9 f8 5b d6 bf
       0.15534126673491525 -0.3493635293626946
0005f0 06 36 f8 db d1 9b e4 3f aa a7 15 84 fd da eb 3f
       0.6440209671288251 0.8704822139527455
000600 3a 0c 51 da 42 6b d8 bf 73 bc 42 c7 bd 4e d0 3f
       -0.381546700668142 0.25480598887492717
000610 97 64 b7 ad a1 88 e3 bf e8 fe 97 c8 b4 0f e6 bf
       -0.6104286568544407 -0.6894172590109209
000620 6d 22 45 1b fc ef e4 bf 40 b6 b6 db cb 26 b2 bf
       -0.6542950184458057 -0.07090448488335088
000630 57 19 61 54 f2 ef e5 3f 0a 78 84 9a 06 3a db 3f
       0.6855403564484658 0.42541661347957016
000640 2b fb 14 b2 98 0e e5 3f 5c bf 93 d1 f9 ea b8 3f
       0.6580317953265412 0.09733544699315416
000650 4f 9e d4 c5 42 f0 d5 bf 56 a2 08 c2 fa c3 c3 bf
       -0.3427893573702691 -0.15441832041075781
000660 a8 47 fc a3 32 92 d7 bf 69 d7 5f ee e3 2c d2 3f
       -0.3682982064648237 0.28398988989589796
000670 69 bf 7a 1e ff 53 a0 3f 21 f9 24 2d 17 50 d1 3f
       0.03189084288658146 0.27051333817134277
000680 96 28 fc 8c 38 75 d2 3f f1 bf 96 62 d4 47 e7 3f
       0.28840459602418755 0.7275182653011126
000690 37 b5 fa f2 cd 0f e2 bf ca ac 1b 40 ae 78 ef bf
       -0.5644292588891976 -0.9834815265761787
0006a0 50 37 4a 6c 1d 88 cd bf 33 52 42 26 ff 2a dc 3f
       -0.23071639812081424 0.44012430893170346
0006b0 23 eb 09 01 10 33 9d bf 8a 73 66 16 a5 0c 91 bf
       -0.028515100539588844 -0.01664979886264776
0006c0 43 bd 3e 40 e6 82 bc 3f 55 c7 ee 43 b6 a9 e6 bf
       0.1113723666046456 -0.7082167937098612
0006d0 b7 66 8a fc 37 ea 90 3f fe 97 a7 52 8a 3f d6 3f
       0.016518473423821258 0.34762819358581953
0006e0 a3 34 b9 dc 80 61 e3 3f 07 d5 08 c3 18 11 c4 3f
       0.605652266598231 0.1567717506710908
0006f0 cb 57 27 d6 75 2b a1 3f 1a 02 af dd ff 1c 93 bf
       0.03353470076733308 -0.018665311723227253
000700 0b 3d a3 15 56 3d cd 3f a8 13 7e 28 62 1d d9 bf
       0.2284343343403424 -0.3924184222635696
000710 fb 12 3b 2f 2a ca bb 3f 64 88 86 5b 4e 83 dd bf
       0.10855353978247344 -0.4611392873577016
000720 12 93 7f 78 2f 7e b3 bf a9 a8 39 ee 02 02 e0 3f
       -0.07614418689588501 0.5002455380283851
000730 01 9b dc c1 b3 02 e7 3f 04 b2 9a 91 e2 a2 d0 3f
       0.7190798555719483 0.25994171351592876
000740 1e 40 66 fc 80 60 c2 3f 5e 9a bc d8 8d ef d4 bf
       0.1435700638216994 -0.32712122121521314
000750 be cd f1 b4 46 4a e1 3f f5 02 5a 10 d3 a0 c2 3f
       0.5403169187615544 0.14553297327440587
000760 94 0e 13 bc a4 97 bb bf 0a 88 cd c5 a0 e2 ec bf
       -0.10778264609967386 -0.9026645530068447
000770 dc 0d c0 34 24 40 d7 3f 18 25 5a da a2 4e eb 3f
       0.3632898821963104 0.8533491387071619
000780 38 88 d2 ad 89 2f ed bf e1 ca ec 83 84 68 ce 3f
       -0.9120529551476073 0.23756462518357238
000790 7d 0e c9 8f 61 e0 d9 bf 57 da 73 53 18 f1 88 bf
       -0.40432013551274065 -0.012178602263231015
0007a0 a9 78 43 a6 c0 17 ec 3f c0 de 41 42 74 3d d7 3f
       0.8778994796118883 0.3631258627933498
0007b0 a9 3e c7 b2 16 8c d4 bf ba 78 29 ab cc cb c7 3f
       -0.32105033358400675 0.18590696675795987
0007c0 18 51 77 b4 a7 c8 e0 bf 6e f5 f3 ff 1d 42 b3 3f
       -0.5244940304496906 0.07522761820651677
0007d0 7f fd 57 05 cf 97 e1 bf ba f9 37 f1 39 71 bb bf
       -0.5497813324326869 -0.10719644679190923
0007e0 49 1f 43 92 33 ea cb 3f ec dd 81 0c 0a 2a c0 3f
       0.21808476106365962 0.12628293619830744
0007f0 a0 04 6c 7c ad 5b e3 3f 0b 71 1e 1e 1f a2 dc bf
       0.6049411230198025 -0.4473951143388752

umat f8 [942, 50]
000000 e2 1a 41 e7 d0 13 b4 bf fc ad 74 b2 4e 35 c1 bf
       -0.07842736860139213 -0.1344393130651581
000010 84 7a a7 d2 64 1c c4 bf d3 2b cd 6f da e7 cb bf
       -0.15711651120996717 -0.21801310023360418
000020 1e f9 e1 74 c6 ac ae bf 6c fc 2d 54 44 91 8c bf
       -0.05991192032614577 -0.013948949641188167
000030 7d da 39 e2 46 c5 a3 3f 7e b4 ba 24 a9 cb b5 3f
       0.038614478221394834 0.08513886591636496
000040 0f b4 77 8d f7 19 99 3f a4 73 bd 10 82 b8 cb bf
       0.024513118752953086 -0.21656823937783287
000050 6e b8 85 48 3b 3f d7 3f b4 5f 7f 8d 34 18 c4 bf
       0.36323434908161445 -0.15698868664798982
000060 a8 3e b9 0d f6 9f aa bf b6 39 61 fe dd 8e c2 bf
       -0.05200165669941487 -0.14498495980155973
000070 d9 d4 35 8f f2 1d be 3f 8a d4 c6 07 18 10 ae 3f
       0.11764446255058959 0.05871653647356208
000080 35 c3 73 99 27 79 ca 3f 89 94 45 3d af 0b c2 3f
       0.20682234757216525 0.1409815835169506
000090 75 cf e1 25 69 2f bc bf 7c 45 ea ca c5 40 c1 3f
       -0.11009843039374607 0.13478920371975878
0000a0 c0 a4 d2 b0 a3 81 4c 3f 61 af e2 29 c3 cb da bf
       0.0008699464102807294 -0.41868666735057586
0000b0 b8 df c4 ac 0f 5c 91 3f 62 e5 2a 30 df 74 af 3f
       0.016952748222337027 0.06143853629095976
0000c0 b2 41 c5 ff 1c a2 d1 3f bf 24 b4 aa c2 a5 c7 3f
       0.2755196092375868 0.18474610648289588
0000d0 e9 22 ef cc fd a6 c6 bf f2 ab a7 e4 12 90 c6 bf
       -0.17697117334889548 -0.1762717834929784
0000e0 98 35 f6 bd 25 ca b0 bf 57 f7 0c bf 06 1a 90 3f
       -0.06558452499139944 0.015724282656484814
0000f0 57 d8 bf 0b 1f cf d8 3f d2 22 4b bd b6 6a d0 bf
       0.3876416792621788 -0.2565132950372063
000100 6a 42 98 3f 96 ee c4 3f b7 31 ad 5c 87 02 b0 bf
       0.163531094600802 -0.0625385857831081
000110 51 e2 b1 96 25 f8 b8 bf fe a8 1d 2c 1c 2c a8 bf
       -0.09753642014573784 -0.04721153296016388
000120 ca 70 db 26 1d e2 d4 bf ae d0 86 d5 5e 61 d0 3f
       -0.32630089563987197 0.2559430203648486
000130 34 92 7d c7 55 4f d1 3f 75 d4 c8 f5 95 3e ac bf
       0.270467228712991 -0.055164991620053984
000140 9e 04 b7 5b 49 5b d1 3f 60 15 89 5d 36 15 a3 bf
       0.27119668919119444 -0.03727121249952847
000150 b0 36 e0 ba fe 8e 87 3f e8 01 30 64 44 9d a0 3f
       0.011503210142133596 0.032449853162692055
000160 1c 5e db 0c 97 fe be 3f 7f 3a 75 d1 5a 1c 92 3f
       0.12107223571671749 0.017686289820000752
000170 63 42 64 4e 96 b6 ba 3f e1 f4 c7 88 b1 47 da 3f
       0.10434855855806684 0.41062582356955885
000180 07 3e 92 38 26 2c c2 bf a6 c2 cc 64 0b e9 a3 bf
       -0.1419723297335482 -0.03888736348597392
000190 ae 79 87 07 54 ae d9 bf d4 6f aa 97 b0 93 b8 3f
       -0.40126515136025886 0.09600356772210655
0001a0 2d 0f 51 1b b0 56 d1 bf e7 79 5b ed 52 b3 bd 3f
       -0.27091601054802333 0.11601751608711873
0001b0 f1 13 96 8f 28 07 c3 3f 93 7d 40 01 7b c6 97 3f
       0.14865595828101122 0.0232180804742917
0001c0 e5 24 d9 1a 4f 95 b1 bf 88 6e 79 c9 34 ef a3 3f
       -0.06868452458833792 0.03893437346843337
0001d0 9b 7a e3 22 87 4e e0 bf bb 2b 10 fb 68 af d6 bf
       -0.5095859223764195 -0.3544561816967719
0001e0 40 9e 6e 53 8e 28 61 bf 8b 0c f5 aa d7 a1 bf bf
       -0.002094533901487755 -0.1235632698417694
0001f0 ee d3 46 9f c2 13 ca 3f dc e9 da bf 99 19 b6 bf
       0.20372803475552764 -0.08632813390696675
000200 ac bd df ba 1d f2 b2 bf 32 ef 31 b8 41 4a c5 bf
       -0.07400689899781437 -0.16632863515757773
000210 25 12 ea 3e 3b 6d b9 3f c2 25 cd 64 30 6a 8c 3f
       0.09932298933024038 0.013874414516652393
000220 75 44 d5 17 b6 ac c3 bf 18 0f 7a 1b 25 ec b2 3f
       -0.153708230626339 0.07391578598804605
000230 e3 84 1b b8 89 fb ce 3f b8 2e 2d 5a 24 a5 b1 bf
       0.24205132951377725 -0.06892611695837558
000240 ce cb 33 4b 8e 31 a1 3f 53 a7 c4 ff 3e 23 be bf
       0.033581206016513585 -0.11772531265583312
000250 08 56 b0 a4 e2 af d7 bf 1a 3a ec ed 05 0a b6 3f
       -0.37011018832103604 0.08609044130955859
000260 6d 73 86 e1 17 cb c1 3f b8 d2 7a be 68 7b a5 bf
       0.13901041519138904 -0.041957162143636706
000270 6e 28 c9 56 14 a0 c2 bf 88 84 40 61 81 f8 99 3f
       -0.14551023709856586 0.02536203533248174
000280 ec 7c 02 c6 4e 51 c1 3f 8b 94 68 65 75 d7 c8 3f
       0.13529381435817045 0.19407527400577282
000290 b9 d2 5c 89 c6 24 b5 3f 00 69 97 27 ac 8c c8 3f
       0.08259240010813586 0.1917929833715064
0002a0 e0 a1 7e 79 9e ce b5 3f 59 f0 de 4f 62 84 93 bf
       0.08518400636842882 -0.019059692501955137
0002b0 a0 fb 57 56 6c e4 4e 3f 76 9e 9f 6a 2c 04 b5 bf
       0.0009427575102448522 -0.08209493258584097
0002c0 b8 64 10 95 7d 75 bd 3f 8e ea 89 8e a0 7c d7 bf
       0.11507401360758507 -0.36698163909719816
0002d0 ca 07 c0 56 33 32 99 3f bf 4d e1 9e df 5b c3 bf
       0.02460556237202364 -0.15124125726525325
0002e0 c4 31 e9 c0 32 fa 8f 3f e2 69 27 01 06 ce c1 bf
       0.015613934051679552 -0.13909983688684152
0002f0 65 65 98 2a 4f a1 b9 3f da 11 0e c9 08 b0 d0 3f
       0.10011763372349021 0.2607442820956557
000300 66 9d 94 09 06 61 c7 bf 87 c6 d5 28 d7 03 c8 bf
       -0.1826484247951427 -0.18761720174693527
000310 f0 aa 8f 30 9d b5 d5 bf dc db a5 ff 3f 4b c2 3f
       -0.33920984022431266 0.1429214475899404
000320 6d 1e 8e 36 ef 4a c2 bf e0 af 22 c9 6c 37 95 bf
       -0.14291181720567483 -0.020719241882645067
000330 8a 12 ab 24 fb 97 95 3f 02 d4 5e 1f ee 53 cd bf
       0.021087574112942188 -0.2291238454032794
000340 08 9f 48 9c 16 bb 90 3f a0 11 ea b5 b6 84 b0 bf
       0.016338685311125395 -0.06452505055683
000350 e8 79 e2 a0 4f b7 c3 3f a7 1c 0c 1e ca 12 d8 3f
       0.15403170924851328 0.3761468213492187
000360 0f 82 93 13 9b dd b3 3f c8 9e ed 41 c6 9a ad 3f
       0.0776001856606927 0.05782146029269836
000370 48 7e e4 bf 3b 21 c3 bf 59 99 29 bf 91 c9 b4 3f
       -0.14945170278314124 0.08120070378354195
000380 29 a5 c7 f5 15 90 b8 3f 9e bc 74 ff d6 08 be 3f
       0.09594857454762419 0.11732238518446755
000390 1c 1b 06 34 34 11 b9 3f 26 2f 75 ad 6f ec ac 3f
       0.09791876096833757 0.0564913653602999
0003a0 4c 4d b1 9c 9b bb cd 3f 82 bb 30 02 dc 57 a1 3f
       0.23228783751492654 0.03387343909013564
0003b0 76 08 45 41 46 38 b7 bf ad 6f 43 51 ec ca bc 3f
       -0.09070242970941131 0.11247136100740703
0003c0 b1 68 51 6d 12 77 da bf 38 4a a9 1f 75 d2 c4 3f
       -0.4135175769384985 0.1626726536365639
0003d0 87 18 3b b5 9a ac ce 3f bb 38 09 3f 09 3b a0 3f
       0.23964246606027848 0.031700409836604014
0003e0 5c 85 e9 bb 0d 6c 74 bf 9f 6c 09 81 14 cb a9 bf
       -0.004985860489428031 -0.050377503158153696
0003f0 6d 14 83 ca 52 69 c4 3f 68 dc 48 c3 55 db c3 3f
       0.15946421516688095 0.15513107333547116
000400 61 0c bf e5 48 5a d0 3f fe b5 6e 19 60 ba a7 3f
       0.25551054416809477 0.046343806366490256
000410 0a d1 9c 95 95 34 a7 bf da a0 d0 ed 34 bc ce bf
       -0.045323061478855634 -0.24011861431177445
000420 a4 ca c2 12 d6 a1 d0 bf 86 ae 25 d2 bd 08 c4 bf
       -0.25987769920463166 -0.1565167690381381
000430 d6 fe 87 d4 ca af b5 3f d4 25 99 7e 85 9b ce 3f
       0.08471362770796573 0.23912113839678162
000440 05 d7 61 29 26 0e aa 3f bc 78 99 52 a9 4d cf bf
       0.05088919882920887 -0.2445575383489479
000450 02 76 bc e6 6e ab d2 3f 64 da 89 09 7f 32 d2 3f
       0.29171345265226034 0.2843320458554557
000460 92 56 1c 59 49 f8 b9 bf 82 7b 9a 5b 64 d8 e0 bf
       -0.1014448015742693 -0.5264150418405367
000470 73 24 30 67 87 65 d3 bf 29 b8 b2 6d 3c 40 b3 3f
       -0.30307183339079485 0.075198914319771
000480 c8 a3 b6 aa 54 97 b8 bf ec 39 fe ea 23 47 c9 3f
       -0.09605912368591796 0.19748352979918538
000490 50 2c 0b 7d 62 51 bc 3f 5c 68 c0 9e 43 22 d0 3f
       0.11061683228324282 0.25209131720624156
0004a0 3c a1 4f fe d1 7d d1 3f 37 30 b9 e7 9d da b7 3f
       0.2733044608599078 0.09317957789716123
0004b0 d1 14 21 22 bc c5 c2 bf 6e 77 f0 c9 fc 1d 8e 3f
       -0.14665939012971888 0.014705634033869788
0004c0 94 57 7a 5c 36 49 ac bf 5c 19 6b af 64 8c 94 bf
       -0.05524606589203454 -0.02006680794399905
0004d0 1c 4d 7c ea 7f 02 b0 3f 69 11 5b 51 55 83 d4 bf
       0.06253814196343338 -0.32051594681640566
0004e0 6f 4e bd aa 3a dd c7 bf a2 dd 94 98 6f c4 d1 bf
       -0.1864388784111841 -0.27761449718988207
0004f0 7e f3 83 b2 c7 0a c8 bf 5a 08 04 88 80 bd c9 bf
       -0.18782898155759747 -0.20109564439195787
000500 db af 2b 54 60 89 ce bf 30 fe e2 db 90 ab b7 bf
       -0.23856739148993608 -0.09246163719489497
000510 4a 22 f1 28 25 7a b4 bf 2e 40 06 77 97 04 bc 3f
       -0.07998878717001748 0.10944506317014266
000520 02 9a 35 75 da 9f b4 3f 3c 56 f9 53 b0 92 cb 3f
       0.08056416856343421 0.21541408634463888
000530 96 b3 39 c8 70 36 c4 bf de 36 58 b5 90 65 d0 bf
       -0.15791139389639558 -0.2561990519469485
000540 d6 fa 2b cf 33 95 ce 3f 2a a3 27 f0 13 72 a4 3f
       0.2389282952862774 0.03993284517839009
000550 30 32 a2 dd e5 58 a2 bf 30 7b 2d 7b e9 09 d5 bf
       -0.03583448725212113 -0.328729982653317
000560 b2 b5 5c 7a a5 87 9b 3f c1 e1 51 c2 dc 88 a6 bf
       0.026884637444870747 -0.04401292678898328
000570 96 6b 3f ef 99 b7 b9 3f 98 3e 2a 11 15 6d d0 bf
       0.10045778361329236 -0.2566578548075795
000580 a5 46 00 b4 f9 a6 a7 3f 8c d1 82 c0 18 26 d4 bf
       0.046195796225345455 -0.31482523727324785
000590 5f ed 79 5a fe 4c d9 3f 5c 81 61 88 cb ed bd bf
       0.3953243144566922 -0.11690971450435
0005a0 ce ed 0a 04 f4 01 b2 bf d4 87 b5 49 d4 cc d4 3f
       -0.07034230326365007 0.3250017852607219
0005b0 0c d6 a6 6f a9 d8 c0 3f fa 27 0f 95 33 8c ca 3f
       0.1316119952368101 0.2074036100223678
0005c0 ed a9 89 1b 0e 61 d3 bf 22 93 35 24 e7 b0 c1 3f
       -0.3027987736628848 0.13821114795714445
0005d0 e5 97 e3 23 d1 b8 a5 bf ae 39 de 17 4f 91 c4 bf
       -0.04242566645716276 -0.1606844774764346
0005e0 78 b9 62 57 99 c1 c4 bf 22 86 92 cd 1f f8 a1 bf
       -0.16215817229153706 -0.035096162647516374
0005f0 28 9a 0a 54 0c 1f cd bf 74 8b ed 62 7d fe cc bf
       -0.22751001456818298 -0.22651641207184137
000600 20 5b c7 66 aa 3b c1 bf f0 23 0b 50 0c 8a c3 bf
       -0.1346333505486763 -0.15265039356589183
000610 7a 70 e4 2c 53 8a b4 3f e8 9e a6 93 52 da 6a 3f
       0.08023567052845407 0.0032779324366919334
000620 1c e2 61 13 f7 67 a1 3f 99 f8 6a c5 9b e2 b2 3f
       0.03399631606675177 0.07377027101299162
000630 0c fa 0f ee 93 68 af 3f 75 4e 95 d9 4d b2 b6 3f
       0.06134474068675297 0.08865820467081582
000640 f4 d6 ff 2e 87 db ba bf 1e 76 ce 8a a7 82 91 bf
       -0.1049122323746266 -0.017099969718051715
000650 a2 d9 20 f9 79 d6 c1 3f 20 0d d4 1a 32 5e b3 bf
       0.13935780205220022 -0.07565606265057001
000660 1e 51 58 9a e1 99 8a 3f 58 1d 4d 3c 11 fc bc bf
       0.012988817713484976 -0.11322124216268514
000670 11 e1 c5 2c b9 d1 b7 bf 8c af 63 40 8c 63 b3 bf
       -0.09304387419786432 -0.07573772975928089
000680 26 bd dc 7e 32 44 da bf c6 72 2d 67 6b ec bc bf
       -0.4104124297036428 -0.11298247593863228
000690 a0 73 9a 60 ec fc 75 3f f2 23 fe b7 fc a9 82 bf
       0.005368159627008234 -0.00911328732014913
0006a0 79 d2 83 2a 33 b6 86 bf 89 65 2c 46 9f b3 92 bf
       -0.011089706168129642 -0.018263329179807584
0006b0 0a 65 6f a3 f9 18 b0 bf 1b 9d 90 0d 29 de ae bf
       -0.06288109054675686 -0.06028869906031727
0006c0 51 83 6c 51 59 7e ba 3f f0 fe bb d1 17 dd c4 bf
       0.1034904311932341 -0.16299722424445617
0006d0 22 1f fc e8 63 8e b0 3f 44 fd ac 68 6a 3d ba bf
       0.06467270315272036 -0.1024996285968785
0006e0 48 b1 71 78 22 a5 72 3f 31 e0 0b a8 85 fa b1 bf
       0.004552015924769677 -0.07022891380972919
0006f0 97 dc 23 8d 49 78 97 bf ca ec f7 01 f1 0c bf 3f
       -0.02291979717207634 0.12129122064645795
000700 c6 9a 2a a9 ca b9 9e 3f 7c 6c b7 a4 47 63 be 3f
       0.030005613875483637 0.11870239039801506
000710 18 9d c4 76 0a f9 99 3f 6a e3 50 17 c6 5f c5 3f
       0.02536407804396132 0.1669852842185507
000720 10 e5 67 fc 10 7a 4e 3f 24 2e 6a e6 dd 8c aa 3f
       0.0009300787867793387 0.05185597837143188
000730 98 5b 27 db b3 fe b8 bf aa 0c c1 59 9a ae c4 3f
       -0.09763645267899645 0.16157845861935033
000740 57 cd bb 10 1b ef cf 3f a0 4f bb 4e 1d a1 83 3f
       0.2494844276148835 0.009584645238113698
000750 ee a0 c0 92 4f 85 bb bf cf b4 dc 69 a0 b6 b6 3f
       -0.10750291188071845 0.08872416100048784
000760 f8 db b0 b6 99 96 a5 bf 8f 91 06 33 e5 75 a0 3f
       -0.04216461520302767 0.032149469832151494
000770 17 97 8e f0 49 d4 d2 3f ac 77 0a be 3d b3 bd 3f
       0.29420708171743243 0.1160162533728612
000780 49 bf c1 30 36 d2 a3 bf 94 8c e0 28 f5 a2 92 bf
       -0.03871316285301291 -0.01819975912088674
000790 10 41 8a 2a 6e 99 6b bf 9f 00 3f 05 b7 7f c5 bf
       -0.0033690597231911326 -0.16796005016476998
0007a0 98 99 e2 28 87 b6 a3 3f de 30 47 8f 0a 8f b6 bf
       0.03850195287786845 -0.08812013624191503
0007b0 c6 01 47 ae 58 77 94 3f d9 40 65 cd 54 0a b8 bf
       0.01998652042107254 -0.09390764250315743
0007c0 98 14 c9 88 70 28 94 bf 14 ce c3 d7 da 74 ab bf
       -0.019685514782640995 -0.05362590679024151
0007d0 8f 61 54 67 37 89 b3 3f d3 22 3d 1b 10 98 d0 3f
       0.0763125064153256 0.25928118381538673
0007e0 7a 90 e3 d2 c0 d8 ad 3f 5a c6 ce 96 cb 15 c4 bf
       0.05829432081535031 -0.1569151388517181
0007f0 a9 cc f4 81 c2 a2 9d bf fc 4c b1 9f 54 0d b0 3f
       -0.028941191846752066 0.06270340822930004
