offline_resampled_model_testing/model_16.npz (npz, 976087 bytes, 5 tensors)

imat f8 [1589, 50]
0.005618954047568205 -0.056298952911427114 0.1040344145119351 0.26557485483426957 0.023117885416848907 0.19833446086680412 0.16486017391171623 -0.09791223443577449
-0.026057090106505663 -0.07815072247560287 -0.1185577340763237 0.15563045244315207 0.1469766433361298 0.15075196865269883 0.0184979190328368 -0.012122704707679217
0.005490051642859806 -0.18933243774785702 0.3372450372429912 -0.00032057848992676774 -0.2012541619393115 -0.20484611411231857 0.07430021231365777 0.23049083261208206
-0.057424205049723516 -0.003251900016459877 0.045048525595733 0.14401828541422562 0.1553713922905053 -0.05806198676470822 0.12373144477360112 -0.18911863130992276
-0.09269102444283064 -0.0212109298669839 0.018862695805192772 -0.021035375140509117 0.03594628861571886 -0.17698666174367828 -0.1529249549888976 -0.011682665120115135
-0.01907870595629143 -0.07882600113245952 0.10602912932363442 -0.05183208240931659 -0.05077027720640572 0.0778923657537017 0.13339888451767024 0.13496295724785554
-0.008728063117292961 -0.05601173247723685 0.14916386230690087 0.02153438519355179 0.05586651071847427 0.16626858298363 0.31108551528093964 -0.1469239633354152
-0.1481905691372217 0.041514797644983586 0.09852306967665764 -0.5595126333739843 -0.05917149570174557 0.18147997972235244 -0.026849893023639285 0.36200888610255044
-0.1927261573525099 -0.06788738162821728 -0.2853750380901506 0.06820570255341225 -0.1412943470675367 -0.40288760923932243 0.3346713390174586 -0.07428355940109974
-0.03251287785868892 0.1882248925681167 -0.2681478009555025 0.17389608933737855 -0.034168120724553414 0.25477983739319376 -0.2462285029366466 -0.19160587172950236
-0.23959508242480881 0.0895199859998349 0.2562708310812759 0.3024549831513712 0.06535733223969928 0.3466237057286668 0.1568930220494293 -0.21127417932293036
-0.09953220950901684 0.24439976987972745 -0.1587061831550336 0.025119883374095618 0.01687655274183126 0.30845092994974976 -0.12176449188140626 0.20649005679412133
-0.14886663609160725 0.23981916156873231 -0.06782997488912465 -0.1758110216943499 -0.09746170452944798 0.16215875215372444 -0.19193732592809543 0.0809870808951088
-0.13298583948623377 0.3032618384586721 -0.12049396948208921 0.30584665589301097 -0.05428292915820085 -0.1142357133392155 -0.15443139788533583 0.016738401410391582
-0.22242359379127322 -0.016299006673190237 -0.17963452306092162 -0.15532609124592153 -0.10611066206295375 -0.12343278782780864 0.28699228860987924 -0.2357917564824562
-0.2252846606561466 0.23151913664971832 0.2860925241638438 0.0707988711811846 -0.07531987449540431 0.29462501814367964 -0.04454240257595202 -0.0894804208018943
0.1406625447137347 -0.11683930420199162 0.27079945836064356 0.23689696906765706 0.06417224106262853 0.32788367231944204 -0.16412332253048864 -0.3743621445615988
0.06633068181726336 0.18057985068012364 0.2153678414043 0.3573392114028692 0.14422966947491778 -0.16375583971230903 0.13160116999899732 -0.04089811001818717
-0.22219202578826874 0.022104596374248386 0.028321532877165073 0.02719363622024762 -0.05685515454085523 0.06106654037959837 0.11259373736329459 -0.3014127800482281
-0.13721104213845584 0.12458396992301332 -0.08443206894828305 0.24314648000813371 0.05619137039141344 0.06403082509716984 0.004528077333582616 -0.07752083432974255
0.19166936007289148 -0.03558872894670444 0.03375379060585613 -0.3462925831143522 0.1429822037419642 -0.017265180609925615 0.050345120808741886 0.2249698676499043
-0.11298046612812263 -0.10163974087876979 0.004550240231376193 0.0970043408330323 0.11395587043361693 0.06798625847774016 0.10302739156701604 0.025470840025690906
-0.11288877109048874 -0.22452241304277445 0.09536459087417384 0.09641353640953096 -0.039950483431926836 -0.06510008780430965 -0.13527813626651294 -0.25085234948154267
0.0025149854408834382 -0.15605418098170515 0.0905909058739817 -0.09777469046878257 -0.056868998836899415 -0.02165569224321824 -0.18447699178065086 0.052792653202023296
0.03751291438301231 0.3149773018971813 -0.0531879962931678 0.02516584413932875 0.029821663787197875 -0.1492592033842803 0.1290142908642395 -0.08751914575436273
-0.10923857414770839 0.1311783253518329 -0.19471557423717345 0.03785180562609919 -0.4435506037474475 -0.22235272461536096 0.09867338098547569 -0.014070583494411024
-0.04223348176347186 0.012776247246367098 0.021534082831328454 0.0764434351438562 0.1930078136608422 -0.21117745246763697 0.02250989454468451 -0.08408451882212531
-0.12783338018776358 -0.23737092725664313 -0.05008527278707314 0.03717093549599425 -0.008790225062641682 0.015803907115366084 -0.692908110300148 0.06546157022295382
0.04431697866323403 -0.21329160357946358 0.04045588169642832 -0.04235985949102387 0.3137971724970823 0.15910928979099095 -0.1303605853866998 -0.44330169469465797
0.057753210261291245 0.2992140911154245 -0.15371733642140611 -0.048724576045362934 -0.05752250247787628 -0.015285926244275395 -0.3650791609701293 0.09241717963488025
-0.07190354425097592 -0.006023081629019739 -0.2122240899206111 -0.36915274063568204 0.24362705301467524 0.10891085032300145 -0.08383954145892997 0.4665338721394149
0.29208678715794717 -0.21895788336741726 0.15211318615770447 0.11731815946230276 0.03755567586073322 -0.42471143065980327 0.11151020323111188 -0.2785778965916662
00000000: 1cd8 f37d e603 773f 8874 1b63 37d3 acbf
00000010: aabd fcd7 ffa1 ba3f f8cc 09ad 2dff d03f
00000020: a4ac 4507 37ac 973f 1ade 8b0b 0663 c93f
00000030: 838d ae5f 231a c53f eaa9 c7b4 c610 b9bf
00000040: 9670 58b7 b5ae 9abf 4205 318d af01 b4bf
00000050: 5cb1 8bb6 cc59 bebf 8ba4 c0db b2eb c33f
00000060: c4c7 3372 21d0 c23f f9e1 952b d74b c33f
00000070: 5b0d 2955 1ef1 923f 5781 11e2 c9d3 88bf
00000080: 34a4 2684 bc7c 763f e478 199a 0b3c c8bf
00000090: d19a 6c35 6c95 d53f 0013 4a21 6a02 35bf
000000a0: 264b db45 b2c2 c9bf a09c 69c0 6538 cabf
000000b0: 9e17 f9b5 5605 b33f c160 0c3e b980 cd3f
000000c0: b9ed 5f95 b466 adbf a0cd 0e87 baa3 6abf
000000d0: ac58 55b0 9910 a73f e2a6 f0f0 306f c23f
000000e0: 1794 4fb4 35e3 c33f 5425 97fc 4cba adbf
000000f0: 3219 ca2c ddac bf3f d32b 4510 0a35 c8bf
00000100: 9a5c 9d56 99ba b7bf 9bc2 6268 51b8 95bf
00000110: 4c0b 6416 be50 933f dd7a 2621 4c8a 95bf
00000120: f8bf 084c 8d67 a23f 4c37 02ba 7fa7 c6bf
00000130: 09b5 3580 0b93 c3bf 68d6 f7c4 14ed 87bf
00000140: 5672 8748 5e89 93bf 3039 f0d8 f02d b4bf
00000150: 224d de9a b924 bb3f 61c6 a915 bc89 aabf
00000160: 33b5 6bd0 8ffe a9bf 162d 850b c1f0 b33f
00000170: 5cc3 29f3 3613 c13f b386 c657 7746 c13f
00000180: 6069 2bcd 04e0 81bf 7933 5dde 91ad acbf
00000190: 3635 2d2b cd17 c33f 2445 9520 1c0d 963f
000001a0: 5178 f408 899a ac3f 842b 22f7 4948 c53f
000001b0: 3a05 9938 d3e8 d33f a21c c388 67ce c2bf
000001c0: 2b8f 0298 e8f7 c2bf b4da 5e74 6d41 a53f
000001d0: 8cab 29d2 ce38 b93f 8148 c109 87e7 e1bf
000001e0: 08ef c9ed b94b aebf bda3 e468 bc3a c73f
000001f0: e421 c0d1 897e 9bbf 7aff aa51 272b d73f
00000200: f9d5 742f 40ab c8bf e07d e743 1161 b1bf
00000210: ed48 eca9 9543 d2bf a51b decd ed75 b13f
00000220: 1fe3 e1e3 ee15 c2bf 8a60 691c e9c8 d9bf
00000230: ce43 ff55 416b d53f 2e19 4252 3f04 b3bf
00000240: bc2d 3426 87a5 a0bf 30c4 efd6 c017 c83f
00000250: ec48 e664 5529 d1bf 649c 4d20 3a42 c63f
00000260: 1ccd 27e2 7b7e a1bf 7c2c 5217 504e d03f
00000270: 265c ba63 6a84 cfbf 4f5f 668c 8a86 c8bf
00000280: 6203 a639 0dab cebf c829 3524 c8ea b63f
00000290: a66b 9ac5 bd66 d03f 846e 4925 6c5b d33f
000002a0: f6f7 8514 42bb b03f 71de 0732 152f d63f
000002b0: c621 560f 1215 c43f 6432 5745 080b cbbf
000002c0: a666 bd60 f17a b9bf fc44 64dd 7d48 cf3f
000002d0: 1874 29f5 7b50 c4bf d6c7 48d6 06b9 993f
000002e0: 72ac 6148 1648 913f 8084 23f8 a8bd d33f
000002f0: b0d7 712e f52b bfbf aba1 7024 446e ca3f
00000300: 6d4f bdda 0f0e c3bf fd27 f2ef 64b2 ce3f
00000310: be58 d623 4e5d b1bf e30e 3abe f980 c6bf
00000320: 35ff 9011 40f3 b8bf 5055 a134 9ec1 c43f
00000330: 2016 dffc 6691 c8bf c3ce d7bf 91bb b43f
00000340: 5855 b613 ae05 c1bf 5d82 9357 a468 d33f
00000350: 8e71 4a5a b1d8 bebf 52b1 29da fd92 d33f
00000360: 8c5d eeda f8ca abbf dcc0 d33c 8d3e bdbf
00000370: 7a50 b275 68c4 c3bf 546e 941a df23 913f
00000380: 859d 9856 6078 ccbf 327c 79d2 afb0 90bf
00000390: 5bbd e398 43fe c6bf 7ff1 0eb1 b9e1 c3bf
000003a0: 323a 517f 112a bbbf c87b f98a 4a99 bfbf
000003b0: e826 72e7 145e d23f 0418 619d 6c2e cebf
000003c0: 7480 e7b4 20d6 ccbf 5383 2748 6ba2 cd3f
000003d0: ae7b ba04 574f d23f ab20 51f4 df1f b23f
000003e0: 7653 b2cd 2948 b3bf 35ac 60e4 22db d23f
000003f0: 84ad b204 43ce a6bf e6f8 f958 30e8 b6bf
00000400: 0ba8 a8f2 3a01 c23f d858 6f3e 2ee9 bdbf
00000410: 1abe 5b40 c754 d13f e263 55cf a352 ce3f
00000420: f8cd ac8c 976d b03f d447 60cc 0bfc d43f
00000430: 63c0 6337 fe01 c5bf d028 f0a3 8cf5 d7bf
00000440: 2364 202d 0cfb b03f c56c 7e94 3d1d c73f
00000450: cc85 b865 2c91 cb3f b270 a348 a5de d63f
00000460: 0cfb c028 1e76 c23f 0df4 0b8c f3f5 c4bf
00000470: 6d69 a1a0 4ed8 c03f 291e fed9 98f0 a4bf
00000480: 36a7 18ce c970 ccbf 1020 135a 96a2 963f
00000490: 7888 ebe5 5100 9d3f 00b1 e608 a6d8 9b3f
000004a0: f257 b96a 1e1c adbf 92d7 9e13 1d44 af3f
000004b0: 10b3 b573 f1d2 bc3f 45d4 39d4 584a d3bf
000004c0: 593f 51a5 2190 c1bf 3ed9 6c2c bce4 bf3f
000004d0: 79d2 dd0e 579d b5bf b6df e281 6c1f cf3f
000004e0: e30d 4c84 1dc5 ac3f f86d bafb 5264 b03f
000004f0: 75e3 fb80 088c 723f e872 34c8 67d8 b3bf
00000500: bc43 9420 9f88 c83f f656 dd95 af38 a2bf
00000510: 6d4f 8945 2d48 a13f 4cb4 d45d a829 d6bf
00000520: d2a9 7da8 3d4d c23f 5410 51a8 f6ad 91bf
00000530: 92ff c5ee d5c6 a93f 1626 1208 d0cb cc3f
00000540: 606c 1baf 49ec bcbf d658 0ce3 0f05 babf
00000550: 1028 b9cf 45a3 723f 4eaa 72c7 46d5 b83f
00000560: dc18 b340 362c bd3f 8d42 bd24 8c67 b13f
00000570: 7a5d 5fcd 0060 ba3f c5e0 a523 0715 9a3f
00000580: e555 eb4b 47e6 bcbf 9d6d 9e82 26bd ccbf
00000590: 5241 0057 d069 b83f b648 c5b9 8eae b83f
000005a0: 1c5a 99c7 6374 a4bf b813 163c 66aa b0bf
000005b0: d772 9041 cb50 c1bf a478 4903 f70d d0bf
000005c0: c009 fe86 4e9a 643f fa38 dc59 95f9 c3bf
000005d0: 3b34 0b32 f730 b73f 2ca0 f019 c307 b9bf
000005e0: 2c4d 52f4 ee1d adbf f4d3 d3e7 e82c 96bf
000005f0: 4afb 472b f19c c7bf 7e8a f17d a307 ab3f
00000600: 72c6 e788 e434 a33f 985d a88e 9628 d43f
00000610: bae3 3c01 753b abbf 3cf6 3736 13c5 993f
00000620: 249a b6fa 9189 9e3f afcc 94f2 ec1a c3bf
00000630: ce40 fd4f 8a83 c03f c2f1 c99c a767 b6bf
00000640: 7d13 6d27 0ff7 bbbf 0343 aa8c 73ca c03f
00000650: 346d af9f 70ec c8bf 186d 84d6 4f61 a33f
00000660: 8cd8 4d12 2263 dcbf d121 33d8 0d76 ccbf
00000670: 7580 51a0 a842 b93f 7895 8dbf 09d1 8cbf
00000680: 50ce f07d a09f a5bf 18c6 b5e0 6e2a 8a3f
00000690: 0e26 0ad6 070d 963f 77cf ef05 cc91 b33f
000006a0: 18dc c5e3 7ab4 c83f e423 00de dc07 cbbf
000006b0: 9491 9f73 d50c 973f 70e0 7022 9086 b5bf
000006c0: 982d 9f1d d85c c0bf 3953 cba8 2b62 cebf
000006d0: 8870 43e1 c6a4 a9bf 8e50 a2a0 1108 a33f
000006e0: f023 5909 9c00 82bf 288c d640 e62e 903f
000006f0: dae9 1ba1 4d2c e6bf e69c 40e7 16c2 b03f
00000700: e040 080c b7b0 a63f fe4d f1a6 234d cbbf
00000710: 6e4e a221 a2b6 a43f 35ad 5a06 31b0 a5bf
00000720: 7cf1 5cbc 4015 d43f 1930 1276 b15d c43f
00000730: 682e 76d9 a7af c0bf 4c65 3e12 0e5f dcbf
00000740: 255d 9f2a d491 ad3f 8ef5 f5db 5226 d33f
00000750: ae0b 617a 02ad c3bf 3daa 4079 6df2 a8bf
00000760: c265 dae5 9673 adbf c741 774a 3a4e 8fbf
00000770: 3f57 34fc 745d d7bf 6ed0 1efc a6a8 b73f
00000780: 1241 064b 4568 b2bf 606b e2a9 a8ab 78bf
00000790: 16f2 d0b2 282a cbbf dc93 10d1 32a0 d7bf
000007a0: bc37 8fd8 2b2f cf3f 931c 51dc 94e1 bb3f
000007b0: 6480 ad18 8276 b5bf 7e29 d4e2 b0db dd3f
000007c0: 61f9 9bc7 8cb1 d23f 27d9 21da cf06 ccbf
000007d0: c639 ebe3 7178 c33f b214 1e1a 9008 be3f
000007e0: a8b9 335f 7f3a a33f 61f5 3ada 782e dbbf
000007f0: bc45 0cc4 ee8b bc3f b2fa cf62 38d4 d1bf

gbias f8 []
3.5283196286737493
00000000: b0e8 37a4 ff39 0c40

ibias f8 [1589]
0.731115638140497 0.5573037522816218 0.26133959620344976 -0.12709615386878614 -0.4424589753774712 0.2208131564732007 0.24796166960502816 -0.1030642726219224
0.01856989585414247 0.68999448513059 -0.25113872049830294 -0.2649141024153749 -0.6724300055122192 0.5311964092482784 0.3645281186648235 0.8542107279437939
0.3046749408312338 -0.6069330238947911 0.5520270225209901 0.406886558484148 -0.3323812147412173 -0.32778631914338074 -0.4228974359218644 0.42923031330652406
0.04119611194121774 0.2117247641976048 0.6663533052218108 -0.15934195404215223 -0.14764272599936742 -0.43666275104964264 0.03601909333858178 0.39962518290701576
-0.5013645455781498 0.09799146524633172 0.2597336427718756 -0.046676410520117555 -0.1960762311359777 -0.22485311672635375 -0.09451963667647019 -0.3765863727000515
-0.73006030841695 0.6251303568213178 0.3818050825452695 0.252755173400177 0.20941748766008997 0.6750359010952611 0.1131914480553016 0.7148883620430908
0.21478802792949586 0.2017689067718137 -0.573119860752656 -0.07548766580637434 0.6127108640666631 0.29493506424662885 0.7205392991511842 0.10980865569765401
0.5008439232975573 0.1102708254139739 0.3683825162425727 -0.3193715492897216 0.41638992039902245 -0.23976498676216598 0.3897269857027454 0.3273979819805399
0.12185085552038494 0.19572064573897552 0.8418517851625079 -0.6043971079199187 0.45099156106898475 0.4597336427718756 0.14299629990138657 0.44411099773923124
-0.46443194194798176 0.08992035069701458 0.13476582037892879 0.22034207679993897 -0.3522130857824995 0.03300209027591102 -0.19646091435794066 0.22005127197792684
0.43981007596636895 0.528935527734602 -0.06330298134699149 0.5865324645161962 -0.2057764903224993 0.47767661565679975 0.02640030943854228 -0.3777362010089802
0.137538375951049 0.5430930060524374 0.014377259402217193 0.37038199545222406 0.4614403182796435 -0.11902739239033594 -0.11254826641057976 0.4608197090040915
-0.36279244033880625 0.09441087904159697 -0.22665376816352872 0.23929553769800702 0.1643329784758395 0.6642945805365255 0.48826217075421785 0.3295697132769821
-0.11805623668144748 0.5255905375174497 0.45427932543696803 -0.05022933603876949 -0.517801626323442 -0.7884884530465149 0.33483215618611517 0.0172107792011601
-0.20830396060150666 -0.49163076557140556 0.5781256193143403 0.4106701387960956 -0.2369378315900135 0.3526253897085241 0.1597336427718756 0.35621872442919883
0.46113914024886093 0.36705004954209663 -0.38700902987866953 0.3776733212099129 0.2509946238864069 0.10376027849468805 -0.7526696576836126 -0.2626836944785948
0.08988836204309447 0.1186341817756497 0.28722661227205293 0.9013835671870369 0.29958337349850445 0.29358306148414764 -0.13718315020757868 -0.49455130533855207
-0.020495261071691383 0.2888422539854025 -0.07370343754714459 0.04491425389717232 0.1610063860068586 0.14853113550670702 -0.01964938349309053 -0.033841587440542976
0.6405946275701991 -0.4093042916642942 0.2250855725729355 0.5583850890255067 -0.37601121730786075 -0.4166639442220484 0.44523626221891804 0.36448028693392104
-0.02682912190144667 0.39798031330652406 -0.36213504899358107 0.2655879922250487 0.12053929915118491 -0.08491970603338483 -0.6021908465827536 -0.862461624048951
0.4201572765509502 -0.5161596424265736 -0.7641598143368746 0.22488836204309448 -0.2938056081924998 -0.9115412753849825 -0.4991560767024426 0.13678025528679738
-0.21489750959770781 0.4023156108370962 -0.09828633402023372 0.3467932838661742 0.33987189447228944 -0.9426557029389994 -0.0076821431786809335 0.1878590848548079
0.25541553093569036 -0.9824911898616959 0.16004958169294026 0.16540089383815137 0.3152449047866146 -0.12709615386878614 0.35559145665081665 0.33174696063328185
0.19698624002749152 -0.1274706869723463 0.5660231621608488 0.37262578367554045 0.10819796377827269 0.24503343482463033 -0.08407899336180824 0.061883847525702425
-0.18324013297051137 -0.13548766580637434 -0.1613679685575856 0.24033489568271377 0.03614701220637221 -0.4202996518816399 -0.6770323728249431 0.20429746113678635
-0.3081864500596871 -0.42956222136803124 0.7663111227047948 -0.3081864500596871 0.8003932901812415 -0.32162874771361677 -0.1969774167661451 0.03584018566312537
0.47843403599329015 0.2535388185829334 -0.5641598143368747 -0.5406783133851718 0.4192053423163874 0.7180963527599374 0.5430971764044633 -0.22751966437819646
-0.4030475279627862 -0.5181355311599597 0.4353972658396161 -0.6257451169761357 0.2197785843678077 -0.8336288883674996 0.018851766743549776 0.27225812331748334
-0.6959504693134129 0.6806335430642161 -0.22485311672635375 0.17970034811836005 -0.15305616608059455 -0.6122796750895306 -0.448119860752656 0.15528035942476834
0.22954693484673663 -0.3735996905614577 -0.0029507810433326794 -0.17424307243186105 -0.09435602044088948 -1.0342929929509368 0.04200761592274689 0.16657648096476815
0.10451233419362566 -0.5402663572281244 -0.4995196612462274 -0.6365314206830324 0.2737278132192062 0.46319035972230493 -0.5133987416186622 -0.2961933373136342
-0.32076968669347594 -0.0926976710543125 -0.14301441437457174 -0.09435054072230724 0.6784340359932902 0.20606481932012205 -0.036853006212588635 -0.36188945750989315
00000000: 190b 6d9f 4c65 e73f d69a bfad 6ed5 e13f
00000010: 91fe b5b6 c9b9 d03f 442b 28d0 af44 c0bf
00000020: 9b58 4473 3f51 dcbf 4e1a ca02 9b43 cc3f
00000030: 57bd ce3e 35bd cf3f 4f14 4c90 6b62 babf
00000040: 3de0 889d fc03 933f bdcc 8150 6f14 e63f
00000050: f12a d323 a812 d0bf ffe2 8747 5af4 d0bf
00000060: 46c5 50ee 8b84 e5bf e82a af9c 8fff e03f
00000070: 1cd2 08bf 6d54 d73f 7d26 8dbc b155 eb3f
00000080: 02fa b152 cb7f d33f 4bb2 0fce fe6b e3bf
00000090: 8f8c 0793 34aa e13f 22c5 77eb 6d0a da3f
000000a0: ec91 c7db bb45 d5bf b002 3378 73fa d4bf
000000b0: bb2f 3668 c010 dbbf 5c9d 866b 8278 db3f
000000c0: af0f 0523 a817 a53f f9b2 fd0c cc19 cb3f
000000d0: 3b4b b02a c452 e53f 9cf2 be30 5165 c4bf
000000e0: db6c d4f3 f4e5 c2bf 49ef c852 48f2 dbbf
000000f0: 8170 d737 1871 a23f fa97 cf80 7593 d93f
00000100: cb39 d4a8 2d0b e0bf 4726 85fa f715 b93f
00000110: e212 58db 799f d03f 376e 5b71 f8e5 a7bf
00000120: 4340 20a4 0619 c9bf 6b26 5fa7 fcc7 ccbf
00000130: 1df1 5a5c 7032 b8bf 5b6c b7ba fd19 d8bf
00000140: 6b45 986f a75c e7bf 9019 c960 1101 e43f
00000150: f59f be95 7e6f d83f 2982 e908 242d d03f
00000160: f5f3 5a36 31ce ca3f aa8f dae3 e499 e53f
00000170: 729b 955f 1dfa bc3f c083 e88e 5de0 e63f
00000180: 4ac7 c391 2c7e cb3f 64a1 f743 90d3 c93f
00000190: 08dd 5376 ff56 e2bf 00c7 e3df 2853 b3bf
000001a0: 3d3f 62d0 539b e33f ec81 d851 37e0 d23f
000001b0: 7fc9 aa6e a80e e73f 9b05 0a89 6b1c bc3f
000001c0: b1d3 ded5 e906 e03f 1e1f db74 b53a bc3f
000001d0: c085 eb42 9493 d73f a138 de5d 9570 d4bf
000001e0: b0dc 9fe8 21a6 da3f b547 6f7c 9eb0 cebf
000001f0: 9b90 7d74 49f1 d83f 0f80 58aa 16f4 d43f
00000200: dc1d 731f 9e31 bf3f 58ea 4cc6 5f0d c93f
00000210: 2345 ab27 73f0 ea3f 5f04 8a9a 3857 e3bf
00000220: b80c 64b5 0bdd dc3f afdf 24a8 466c dd3f
00000230: 6242 c3e7 b34d c23f 145f c588 506c dc3f
00000240: 3a99 78c0 40b9 ddbf 3310 7d25 0505 b73f
00000250: b7b3 92a3 0140 c13f 33ec e44e 2b34 cc3f
00000260: 552e 2ac1 a88a d6bf 0b8e de64 a6e5 a03f
00000270: c407 0e99 a125 c9bf 9850 4bdc a32a cc3f
00000280: 6384 2e29 d925 dc3f f400 2a33 0aed e03f
00000290: 85e7 9fca 9f34 b0bf 8075 24bb dfc4 e23f
000002a0: 0343 1c50 e256 cabf acd5 93f0 4092 de3f
000002b0: 333f 92c6 ae08 9b3f 9853 7675 d42c d8bf
000002c0: 7ccd 5385 db9a c13f 3fcf 7595 0461 e13f
000002d0: 2851 8217 d371 8d3f 44a6 5faf 56b4 d73f
000002e0: 1648 04f9 3c88 dd3f ec07 a545 9478 bebf
000002f0: a576 7493 f6cf bcbf 7c96 e1f2 117e dd3f
00000300: e36f 9fc8 fd37 d7bf 11ca deb5 4f2b b83f
00000310: d685 e39c fd02 cdbf 37ef 3e76 3ca1 ce3f
00000320: d49f 1af0 dc08 c53f b00f 4ab5 e641 e53f
00000330: 74da d0f9 af3f df3f 07b6 1191 ab17 d53f
00000340: 1fba a2fb ee38 bebf 2a2f 373f a3d1 e03f
00000350: c60b 8097 e912 dd3f b630 2cd7 a8b7 a9bf
00000360: 54fe 5bb7 d491 e0bf 1f78 e322 4c3b e9bf
00000370: 60fc 1dda e36d d53f 210b 3bd7 b39f 913f
00000380: 3f93 3445 b4a9 cabf 578b f5e2 e076 dfbf
00000390: 30ea 7d4c 0180 e23f 38ac e467 6b48 da3f
000003a0: 31a0 ee96 fa53 cebf 3464 2215 6a91 d63f
000003b0: f758 e3e9 2672 c43f 155c e99e 49cc d63f
000003c0: 0490 91bd 4d83 dd3f b2d2 b17d bf7d d73f
000003d0: 057a a585 c1c4 d8bf 16c5 cab8 cc2b d83f
000003e0: 9017 44c1 4b10 d03f 802f c29a 0890 ba3f
000003f0: 092a 8ead de15 e8bf e397 3e45 cfcf d0bf
00000400: 081f 4477 ec02 b73f bb04 ea4a cf5e be3f
00000410: 2ef5 8fba eb61 d23f 680b c759 22d8 ec3f
00000420: d37d e6bd 5f2c d33f 63f9 ee9b 10ca d23f
00000430: 5116 daab 378f c1bf 5ee2 a784 baa6 dfbf
00000440: 9684 1ab0 b5fc 94bf a37e a438 647c d23f
00000450: d025 de7d 3ade b2bf 23a6 3947 00ff a63f
00000460: b55d 2c75 db9b c43f d332 b878 1103 c33f
00000470: 9f21 f5cd f71e 94bf ed8c 9a3e af53 a1bf
00000480: a508 ed4d c07f e43f b1e0 b3a0 0a32 dabf
00000490: d847 80a2 9acf cc3f 0209 fe67 4ade e13f
000004a0: e10c 515a 9110 d8bf c9c9 763f 9faa dabf
000004b0: 5f4e 4e3c c07e dc3f a9be 1a20 a553 d73f
000004c0: 36a4 96e4 1779 9bbf 5c9d 866b 8278 d93f
000004d0: 206b 0a7c 382d d7bf de47 34c7 64ff d03f
000004e0: 92b2 bcdb a9db be3f c006 3340 4cbd b5bf
000004f0: 59c0 00bd 2545 e3bf a10c ab1e 4999 ebbf
00000500: d79d 7d58 dbe3 da3f 0b97 f739 6184 e0bf
00000510: 60d1 6f48 ff73 e8bf ccf0 1c50 24c9 cc3f
00000520: 005d a409 b6cd d2bf b471 d79b 582b edbf
00000530: 9d58 4254 2cf2 dfbf 7000 99f1 0382 c13f
00000540: 6464 dbf7 c281 cbbf 40cc cdf9 89bf d93f
00000550: 0bb9 420e 4b29 b9bf d35e 2b75 dc31 d63f
00000560: 8da2 e50b 76c0 d53f 3d59 f04a 3c2a eebf
00000570: 4032 739b 4f77 7fbf 1a9c da38 c40b c83f
00000580: d297 1062 ba58 d03f 320d 225d 9170 efbf
00000590: 4c09 8e33 817c c43f accb e142 db2b c53f
000005a0: 5481 12f7 f82c d43f 442b 28d0 af44 c0bf
000005b0: 3758 43ab 02c2 d63f fbe8 9d9a 573b d53f
000005c0: ef0c 5759 d836 c93f 3f58 df9f f550 c0bf
000005d0: 994c 489b dc1c e23f ac19 a2d0 19d9 d73f
000005e0: b5e5 eb9b dcb2 bb3f 6fc9 7f6e 415d cf3f
000005f0: 6002 c56e 3386 b5bf c10d 8c5a 3daf af3f
00000600: 1926 36a5 6974 c7bf 2e2b d3ea a857 c1bf
00000610: 23d4 c9a1 b4a7 c4bf e6bc 853a 4bc3 ce3f
00000620: d588 8c76 dc81 a23f 5b84 d682 30e6 dabf
00000630: a1b9 73cb 3faa e5bf 8b81 1e51 6b26 ca3f
00000640: 8be8 04a9 53b9 d3bf 10dc 178b f27d dbbf
00000650: 1980 52e7 9e85 e83f 8be8 04a9 53b9 d3bf
00000660: 4985 a863 d29c e93f ef89 38be 9095 d4bf
00000670: f0d3 8755 8e36 c9bf 9a83 9c12 a559 a23f
00000680: 209b 78ca a99e de3f 9b21 85e1 fa39 d03f
00000690: fa6a 09e2 980d e2bf 00aa 349b 3c4d e1bf
000006a0: eeab e3a4 42d4 da3f cd62 cf33 a5fa e63f
000006b0: aba0 6654 0d61 e13f 8fc2 d946 5d1f cdbf
000006c0: 2e5d d5db 87cb d9bf a148 27f7 9094 e0bf
000006d0: 4f22 637e 8cdd db3f 106a a19f 1a06 e4bf
000006e0: cf46 1c64 b421 cc3f 8041 917d 16ad eabf
000006f0: 929d 8aa6 e04d 933f e202 ee55 ad6c d13f
00000700: 60c8 2aeb 3945 e6bf 70af 00ff bfc7 e53f
00000710: 6b26 5fa7 fcc7 ccbf 16c4 1fc7 6b00 c73f
00000720: d336 e22d 5897 c3bf 357b 908b cb97 e3bf
00000730: 10ba a7ec fead dcbf 7b62 b810 3ae0 c33f
00000740: d529 0841 cb61 cd3f a675 30ad 0ee9 d7bf
00000750: f549 8582 3c2c 68bf 9e1f d3d4 984d c6bf
00000760: 8c6d f955 b727 b8bf ba4c 33cf 768c f0bf
00000770: ba6a 24b1 0582 a53f 9362 03cd 6052 c53f
00000780: 14e7 6301 52c1 ba3f 2990 edab dc49 e1bf
00000790: 28bd 3050 21f8 dfbf aab8 5624 775e e4bf
000007a0: b70d 72a9 c184 d13f 0a1b b52d e9a4 dd3f
000007b0: 21e9 a132 c36d e0bf aa87 43e6 d4f4 d2bf
000007c0: a462 7994 7d87 d4bf a9f8 97d9 08bb b7bf
000007d0: 5835 4cdc 4b4e c2bf 3b21 c366 5b27 b8bf
000007e0: f7b3 a24b bbb5 e53f 7204 ebfd 5460 ca3f
000007f0: 187c e2b0 65de a2bf 476b 3166 3229 d7bf

umat f8 [942, 50]
-0.15000946798266074 0.04609300183688059 0.03243488663945854 0.013752558194136417 -0.10305137007272627 0.1585362681555082 0.08276631019960738 0.1715397275217596
-0.22920626878132533 -0.16404803109475272 -0.06561095434985455 -0.17035177120810727 -0.07335298098472548 -0.0017546200758233599 0.013221355981903682 0.04490248824946471
-0.025398201513857147 -0.07141790018082911 0.27471485832612214 -0.06897247815081817 0.15895485750234783 -0.028483704371063852 0.0704772626270427 0.09886587556396016
-0.13468783563226053 0.005305019235245215 0.2862211425535671 0.09178409275424605 -0.016773581610744076 -0.2643840318886128 -0.06588129310465138 -0.19490194439506003
-0.010948221399935476 -0.1094767589146299 0.10555166406888879 0.3962141248221396 0.0684535026073676 -0.04162970995250652 0.024217385134841722 0.11166893815657071
-0.08389091274125371 -0.06936596069045078 0.19187841919670323 -0.21894147144999446 -0.29364389924274115 -0.03930972739275017 0.170007532641466 -0.03203639755590919
0.025794403856580467 -0.14443168975265597 -0.05727638452851453 -0.026157204529818526 0.30287318125599205 -0.14673613954032103 -0.05448487788450305 0.18584745858969423
-0.06250085430198428 -0.23910618552959736 -0.013688181612673066 0.0047829450035628725 0.24462680850046215 -0.15043517018644464 -0.08312003774252305 -0.19014601148966595
-0.006720060154266327 0.08034524000632795 0.24272065990159686 -0.24682570773348245 0.09354060830066382 -0.007605063015265999 -0.09391572479207388 -0.03649086195199897
0.2154480510364949 -0.05371224165916416 -0.183793490228645 -0.26306837907530095 -0.09787264659379985 -0.12792613243789808 -0.02556615220245235 -0.08182367202826243
0.041013378077044256 -0.11221984170707978 -0.09030440190950773 0.32437023001765486 -0.03728679113796156 0.1763914586144446 -0.07511727924660404 -0.16726406570752594
-0.008021926580340424 -0.23303307060057368 -0.19286522392630925 -0.11255297885609736 -0.08972899218229288 -0.11243032944007374 0.0005736149282174613 -0.0043877011106967
-0.10691343298749476 -0.08069297395492396 -0.1160864112942931 -0.10559653005432777 0.06673273926222795 0.35471612826107213 0.028970983009717476 -0.07884017028701203
-0.09353752192963659 -0.20524136535929832 -0.18670239576398143 -0.19971523867220975 -0.48011286106542556 -0.07054148114544538 0.041335544555933024 0.13585891657128674
0.06498527905438597 -0.0709431558525819 -0.2367594529778366 -0.05755569799120283 0.3116195284289455 -0.0071603304286499275 -0.01615065599914978 0.09559936484705124
0.2026136495494243 -0.05956099741990305 -0.16293966710372937 -0.033317417019690786 0.08891396446047962 -0.013750248448348636 0.16288723826176435 -0.08001392787222442
-0.333443225618073 0.01652349874662694 0.022142779028425458 -0.3636341580376805 0.19187488295154784 -0.2343561779313535 0.12844391938419686 0.33093080566987454
0.0642320991623315 0.2455808658317556 0.0022053452008996208 -0.11974864673456583 -0.10955685282976468 0.05738272655257152 0.21963558324141602 0.2411527425379822
0.29401521328895164 0.1816325817269203 -0.022614465034198058 -0.11332501501365344 -0.17856016283137688 -0.06011783716288483 0.20692600719535223 -0.002015042356167291
-0.13470232326624282 0.04249738371377784 -0.07739347654100628 -0.08387436671460965 -0.1346780074115264 -0.07345047695463697 -0.05300393933836683 0.18310965527365086
-0.0769971943905579 0.13053215453766823 -0.14730232392917125 -0.17869010302741123 -0.08580113550991392 -0.19314656717208029 -0.08490014532437616 -0.0431074771026318
-0.07248158572853729 0.1136481041057571 -0.14842280428822238 -0.0540729505113075 -0.05282173643376256 -0.12982641004143025 0.04698629829193138 -0.22268930600957906
-0.04230136957126708 -0.003145893804806418 -0.09388024429002481 -0.019369501936365628 0.15337326706406898 0.2751193035512651 0.11795442477807921 -0.05191429920438746
-0.14950920081300956 -0.0010226289894608165 -0.014853235194850543 -0.056235425247484136 0.13137506939014515 0.11273691068075188 0.14254499447763525 -0.15016117579510127
0.04295792245613346 0.2594192357135498 0.06657957824029603 0.14812485536405565 -0.1279054883507857 -0.049565715378182905 -0.16167733467256662 0.0005535487196685618
-0.3480744525101566 -0.1311222806465482 0.13254485425406703 0.5064592927724322 -0.34620209261867785 0.025370053352359152 0.046580549062282636 -0.1857564644015443
0.080074911622417 0.3379138162868538 -0.07835436849661243 0.2693432999251043 -0.021027804252851577 -0.20296450349692263 0.10459962861398718 -0.1997807937355595
0.17109326814310316 0.16006866929521985 6.705591214456463e-05 -0.019008936200163543 -0.3608194426528202 0.48956911958438987 -0.39568313416342366 -0.2941365295378754
0.11794052402066803 -0.2364708286642645 0.3602444893018704 0.015555613877557817 0.13148991859069098 -0.044496445978933666 0.0059084412870793745 -0.18272694690665306
0.04652660385096209 0.17529181575244823 0.45491136792016357 -0.27147842844319303 0.1758144257746399 0.04040849444066186 -0.18715300979242497 0.20896346703106589
-0.2023734227498756 0.08975331001401549 -0.1923643054681335 0.1315198955967365 0.19475093276674704 0.21320666119719928 -0.19650745249835053 -0.1007966675260447
0.38476184384558354 0.07996105914473792 0.007929205881697474 0.05234886272093102 0.08284799942928248 -0.1983025921905072 0.23183522545681468 -0.26217321343232747
00000000: aab6 899f 8233 c3bf 6080 ed7e 8099 a73f
00000010: b85c bb32 4e9b a03f eaf3 701d 4d2a 8c3f
00000020: d235 4518 9361 babf fe98 7a9b ea4a c43f
00000030: 6b95 8443 2c30 b53f c8d9 d587 03f5 c53f
00000040: f41b 3a8a a156 cdbf 3f38 43a0 86ff c4bf
00000050: 3925 3127 e1cb b0bf 7fc6 133b 16ce c5bf
00000060: ccbc 64ce 42c7 b2bf 809b ecf5 68bf 5cbf
00000070: 0d8d 685c cc13 8b3f 2bb9 147d 75fd a63f
00000080: f455 8473 fc01 9abf d42a a089 7148 b2bf
00000090: 191a 0fa1 ed94 d13f c659 fb29 2ea8 b1bf
000000a0: 80a7 41fd a158 c43f a279 f80a d52a 9dbf
000000b0: a141 1842 cc0a b23f 4dd4 3c26 464f b93f
000000c0: 99d3 9a74 733d c1bf aaa3 eb41 b7ba 753f
000000d0: aa3e ac7b 7251 d23f 192a ac8c 297f b73f
000000e0: e8d9 d101 182d 91bf 28f5 a200 abeb d0bf
000000f0: a67b 4daf 98dd b0bf 8c42 8d02 8cf2 c8bf
00000100: 8d8f e566 056c 86bf 8edd 353b ab06 bcbf
00000110: 75d9 3611 6f05 bb3f 2cc2 147d 925b d93f
00000120: a0cb fe32 2b86 b13f 4672 9345 7d50 a5bf
00000130: 3e5a 9834 71cc 983f 6d8c 5ce5 5596 bc3f
00000140: 10c0 a7f6 df79 b5bf ea00 9fb4 f7c1 b1bf
00000150: c406 a1d7 788f c83f f9d3 ce2d 4606 ccbf
00000160: 32b8 fac7 0fcb d2bf 2e11 2293 6720 a4bf
00000170: 5e66 628c cec2 c53f b68d 911f 1367 a0bf
00000180: f870 ef23 d969 9a3f c430 ffd3 bc7c c2bf
00000190: 6924 c48c 5453 adbf 249a 0a48 f4c8 9abf
000001a0: 2a1e 1532 4662 d33f b7c5 3bf4 3fc8 c2bf
000001b0: ddee 4721 71e5 abbf 65fe 577a d9c9 c73f
000001c0: 21f7 3255 0e00 b0bf 9b7a 8f0f 089b cebf
000001d0: 0cf3 f1a2 8c08 8cbf 54e3 e605 4897 733f
000001e0: d8fe 1d67 ee4f cf3f 8a3a 0fac 7541 c3bf
000001f0: 8615 bfd3 5a47 b5bf ed0e 685a b456 c8bf
00000200: 2685 6f69 7e86 7bbf 3a69 3772 8191 b43f
00000210: 84a2 2b78 7811 cf3f 9480 431b fc97 cfbf
00000220: f2d1 7ffd 46f2 b73f 1811 f48e 7c26 7fbf
00000230: 60e5 8f66 dc0a b8bf 5995 5f25 eeae a2bf
00000240: d026 983e cd93 cb3f b854 a4c2 2b80 abbf
00000250: 04f7 df8a 8b86 c7bf 975e 2fc1 1cd6 d0bf
00000260: 1418 4b88 2e0e b9bf d4f0 8f2d e25f c0bf
00000270: 7359 606e 032e 9abf 8667 666b 65f2 b4bf
00000280: b92a 149b b4ff a43f c91d 1886 70ba bcbf
00000290: 68dc e274 301e b7bf 6232 6e5a 7bc2 d43f
000002a0: a649 0519 4117 a3bf b879 05cd fe93 c63f
000002b0: b789 bad1 e23a b3bf c041 01ae e868 c5bf
000002c0: 4eff 81c2 cc6d 80bf 91d6 8e14 07d4 cdbf
000002d0: ad4c a6c2 ceaf c8bf f61a 41a3 45d0 bcbf
000002e0: 860d edae 7af8 b6bf 230c 06ec 3bc8 bcbf
000002f0: 8072 b8ad d4cb 423f c5aa 668c d6f8 71bf
00000300: 5e33 2fc2 ad5e bbbf cb43 2774 4ba8 b4bf
00000310: c9dc 04cc d6b7 bdbf ff87 27cb 5f08 bbbf
00000320: e429 b494 6515 b13f d6ae 8f46 abb3 d63f
00000330: 2624 3dc2 91aa 9d3f dd68 fe90 de2e b4bf
00000340: effc a235 13f2 b7bf de95 005c 5945 cabf
00000350: 2d11 f235 dde5 c7bf ac13 4ed9 4490 c9bf
00000360: 458f 2a4b 2bba debf 6bf5 87aa 010f b2bf
00000370: 1067 0fb8 ee29 a53f f296 c531 d363 c13f
00000380: c690 4210 e0a2 b03f ee09 43a6 5429 b2bf
00000390: 1b82 c73d 224e cebf bc2e 24c1 f077 adbf
000003a0: c36c d908 93f1 d33f 704d 5090 2654 7dbf
000003b0: 011a 4d2d cc89 90bf 4155 8931 3379 b83f
000003c0: 9cdc 447b 3eef c93f 4e3d 1270 c77e aebf
000003d0: 2240 b7fe 34db c4bf 5b39 f900 fb0e a1bf
000003e0: 99f5 83c9 10c3 b63f 5425 2e1b 1729 8cbf
000003f0: 9990 a230 7dd9 c43f 7a8a 6ff3 ca7b b4bf
00000400: 478d 4641 2257 d5bf 7cd5 ed3a 89eb 903f
00000410: 081d 14bf 98ac 963f c8bd 1e34 c845 d7bf
00000420: 63b1 992d 5b8f c83f 0a55 ea1b 62ff cdbf
00000430: 1806 90b0 d970 c03f a4d3 e566 f82d d53f
00000440: ce71 41cd 8371 b03f 12a8 a29d 316f cf3f
00000450: b0c5 74b0 f110 623f 7d18 77e9 d8a7 bebf
00000460: c8de f4fb ea0b bcbf 0516 cccb 4461 ad3f
00000470: 76a6 87cf 041d cc3f ae4a 45d3 17de ce3f
00000480: 8e8f 662f 25d1 d23f 9bdc 3387 bc3f c73f
00000490: 5f23 f40e 3f28 97bf d866 4d41 de02 bdbf
000004a0: 6056 dd35 0fdb c6bf 09ac 0ae1 c3c7 aebf
000004b0: 6746 cc28 8d7c ca3f 8e25 a2a0 d981 60bf
000004c0: 7ad6 8ffc ec3d c1bf dcb6 6e92 37c2 a53f
000004d0: 72d8 aa12 0fd0 b3bf c60f 035e ca78 b5bf
000004e0: 7a56 a902 213d c1bf 0451 6584 a6cd b2bf
000004f0: a7ef 0814 5523 abbf 90b7 7d1e 2370 c73f
00000500: 238c ca8f 16b6 b3bf f568 6813 47b5 c03f
00000510: 7e46 f373 cdda c2bf a690 4f3a 51df c6bf
00000520: dc88 f92e 10f7 b5bf 3a5c abd6 06b9 c8bf
00000530: 1706 9813 04bc b5bf d8dc bce8 2e12 a6bf
00000540: 732b 4438 278e b2bf 30fa 62ca 0a18 bd3f
00000550: d302 33b9 84ff c2bf 77ad 1624 73af abbf
00000560: 747b 005d 730b abbf d47b a4dc 269e c0bf
00000570: a442 0c8d 960e a83f 3573 3d4b 1581 ccbf
00000580: 82ea c46d 86a8 a5bf ac42 44e0 6ac5 69bf
00000590: 6e55 f722 8908 b8bf 160e 6d45 99d5 93bf
000005a0: 0578 0f37 bca1 c33f 1010 d0fe 8d9b d13f
000005b0: ac20 d7dc 4232 be3f fa21 8ed2 8294 aabf
000005c0: 54b3 f813 1e23 c3bf 0008 3484 37c1 50bf
000005d0: 9fa3 367b 5f6b 8ebf de12 a1c0 e3ca acbf
000005e0: f62b 45f5 e5d0 c03f f107 6d80 53dc bc3f
000005f0: 7cb6 be14 ea3e c23f 6d9d 953d 7b38 c3bf
00000600: aa3c 1bb0 94fe a53f e7f3 5523 539a d03f
00000610: a0a0 1ff7 5b0b b13f 6db5 c158 c1f5 c23f
00000620: 3e07 b900 355f c0bf 13b2 1a6d ad60 a9bf
00000630: d028 76c8 d7b1 c4bf 0076 e8d2 8023 423f
00000640: abab 8611 da46 d6bf a1b1 9369 9dc8 c0bf
00000650: 681c 23d3 3af7 c03f f5cf 661e ea34 e03f
00000660: aea7 66d2 2c28 d6bf 92dd c875 9bfa 993f
00000670: 2657 b4dd 67d9 a73f 3e07 d029 dec6 c7bf
00000680: aafb a516 ca7f b43f c463 7445 61a0 d53f
00000690: 2412 312a 080f b4bf 7ecd 24ae eb3c d13f
000006a0: 866e 4a0e 5088 95bf 1453 62a8 bdfa c9bf
000006b0: 4f21 1290 0ac7 ba3f 7d48 bbc3 6a92 c9bf
000006c0: fec4 9e5b 62e6 c53f da5c de51 217d c43f
000006d0: 00d0 74cc 0b94 113f 84ed 3e1d 1477 93bf
000006e0: 9c1b 7d6e aa17 d7bf 20c6 6fb7 1955 df3f
000006f0: 43e2 335a df52 d9bf aa24 bb05 22d3 d2bf
00000700: 19b8 8aa5 5931 be3f b017 c915 ad44 cebf
00000710: 8968 07e7 3e0e d73f 5a8c fc26 9fdb 8f3f
00000720: 66e4 0c62 a9d4 c03f a216 89f8 3cc8 a6bf
00000730: 20cf 9221 7333 783f b9ef 87ba 9863 c7bf
00000740: f21e dec3 55d2 a73f 7ce4 f453 f66f c63f
00000750: 2ded f291 441d dd3f 50e9 ee0e e75f d1bf
00000760: 10fd 6e4c 1681 c63f f0db 3414 6cb0 a43f
00000770: ff05 343c a1f4 c7bf 9a85 7a9c 50bf ca3f
00000780: 7d28 2550 5fe7 c9bf 4ccb 37ab 12fa b63f
00000790: 32a2 73c0 649f c8bf a83f 2ed9 a4d5 c03f
000007a0: 54a1 8c3b 99ed c83f 32cf 901a 5b4a cb3f
000007b0: c749 f3fc 2727 c9bf 2bf5 9176 cfcd b9bf
000007c0: 2c30 0424 f09f d83f 7eec faf5 5378 b43f
000007d0: 58a6 8fff 2f3d 803f c606 bd5a 78cd aa3f
000007e0: ba79 16c8 8635 b53f ddca 15b6 fa61 c9bf
000007f0: 4ceb b2d3 c6ac cd3f 8e0f 6528 72c7 d0bf

ubias f8 [942]
0.04596300700550079 0.021838350114976493 -0.2742034952783321 -0.594392085444306 0.014687339366642424 0.2585173541307669 0.22574077768170478 -0.7812213227275583
0.06183630441781851 0.7706105846012976 -0.042465449422591194 0.059003636155572345 -0.35514374264214493 -0.37872333375826994 -0.2658362404142817 0.42215095346776954
0.2799381001902594 0.12347225403316989 0.2291393759413633 0.09188049005764176 -0.3593948126142284 0.1130724457935443 -0.45872637525797927 0.1025551050312457
-0.038817266729612644 -0.16671013067151239 0.25209539729558506 0.5543376695717444 -0.1974832237661955 -0.013943885533158385 0.058578164655974305 0.23181131359555301
-0.053621288946828605 0.1750489532721759 -0.2742374204293373 -0.03743808928153849 -0.26059187276922346 0.33877604140498385 0.0880128064477104 -0.3996687030379052
-0.22674865594377996 -0.14485441850205086 0.2921908060927327 -0.23132440482838826 0.0696889173606334 0.028405140031344884 -0.359100877122516 -0.04328750395720023
-1.4397598688214504 0.05591976782563419 0.09306878201483704 0.6474331308679098 0.09932568165109915 -0.6585851176246863 -0.6081563442785888 -0.5118691683634179
0.63001797913743 0.05921354612772261 0.6640312930104362 0.06273835623133636 -0.029095798883518823 -0.08250877761050532 0.611844843840269 0.4050762885475522
-0.2659049214280525 0.4085546361150336 -0.24608096855319736 -0.3222865632072143 -0.32520016047488626 0.2957085269460257 0.15795279782845803 0.32720990528049293
-0.03661667383469207 -0.09339995907259002 -0.5265351749363905 0.27954366347356513 0.10619463781161563 0.02869091789233327 -0.13805861049241747 0.10233964761639536
0.09484533672330711 -0.3175685314066925 -0.12992249184604454 0.385325134170332 0.10469293283594718 0.25543638952042896 0.2602414646235744 -0.3076104437370084
0.46232393925261017 -1.568237957116628 -0.003472190846924175 0.5395409569970698 0.3705009380513839 0.9629163185043309 0.2244785655690332 0.03213897428527152
0.34160763650422415 0.265107292471739 0.35182664078190196 0.43862616192604437 -0.1950521846615726 -0.015618778549059938 0.8614894166948853 -0.17314834912866153
0.0718273667535023 -0.2821618939761131 -0.5204248430038704 -0.275594481033029 -0.19622393946464642 -1.2404154715764164 0.12124882220435443 0.2003066535578
-0.3920629432423207 0.3797695703152594 -0.1285608105497546 0.04262558656631263 0.467978960398653 0.06289746097649908 -0.05556548652421907 -0.38835990836189976
-0.21416319832847466 -0.07052825539620004 -0.020334817588287937 0.22893955023903392 0.0166048901894136 -0.5613794048291668 -0.2503127371261462 -0.0780010576260128
-0.08335467158098689 -0.35668140742563964 -0.17068283011473082 0.1254947664985084 0.2993273655739363 0.09792662377118994 0.28404989312899526 -0.4694726813614206
-0.1060566961650582 -0.5148095716858481 0.17474861391013077 -0.40974287561990397 0.8711608498148716 -0.1174193496419518 -0.2214876005488265 0.2483283982706538
0.06833210775062769 0.01904061447517892 -0.404387391001991 0.06677145427841409 0.17246025443250057 0.20441755192776223 0.011163680346251467 -0.1812645670264259
-0.814358281717598 0.17876795342996407 0.15662244639178247 -0.2255268771352674 -0.4892432742177972 -0.012901363382045046 0.2197741481635847 -0.5373823704706129
-0.005539514555582277 -0.3118405344182687 -0.02130194770070303 -0.17501984527944484 -0.28313700603152914 0.5171015495067767 0.19558477926714754 0.03778751256160507
0.08298612854476266 -0.1860909047898523 0.15256513182736822 -0.03713452775987928 0.04534316286894586 0.14460837007877125 -0.06545115640731589 -0.4684771070428419
-0.18437973559078008 -0.02792845189805745 0.2112293479408108 -0.38009864333179944 -0.25273799609589326 -0.6399830559574078 -0.21790908886974866 -0.1381144830531131
-0.015059930562470304 0.17066174353791558 -0.7234704974038993 0.7988186622118374 -0.5467889494609425 -0.15461097359215165 0.43351225811103394 0.8026670902338553
-0.01300455858826975 -0.1909633344386006 0.4628808634636286 0.22502002244129082 0.14555630096514086 0.6041611536182734 -0.20435034694664345 -0.20715267375539081
0.16814181892437652 0.5310223595991824 -0.40398917351282354 -0.2626555391663125 -0.35676541120719935 0.25778630056704344 -0.10430563714510557 0.28963674913275156
0.19487535603931289 0.27232922865296 -0.10733252613618748 0.38409703023115965 0.23679367582323527 -0.15514534959989065 -0.2461516183676919 0.2769343593681929
-0.29305044748463366 0.22544293397218307 -0.21531141685566368 0.14362520061060782 -0.006170703318915732 -0.16633923295703917 -0.3704770853974975 0.23800861046544838
0.34840279674299274 0.21714520065571324 0.17268078774516576 -0.08897149631743778 0.06605205487502341 0.5207546734709475 -0.34163241537826955 -0.12822069455118165
-0.44453196829344366 -0.12971732115800194 0.4515648512172038 0.13157819898205492 -0.598442428077406 0.0913907534206974 0.26409056068224634 0.3103167227245499
0.15002704097119976 -0.03978793533693866 0.2800852219021515 0.2880315801953166 -0.030732945666303114 -0.43011686237849006 0.29483583553090653 0.06888015801051912
-0.1744514951282844 0.32814313801433365 0.1425963138109048 0.3382596838267373 -0.5543547174908326 -0.5699060471250377 -0.042345520961826866 0.020403752204834327
00000000: 1b32 d497 7688 a73f a470 2bde ca5c 963f
00000010: 40d6 2ad1 8c8c d1bf 4981 ff8c 4205 e3bf
00000020: 6bb9 f551 6514 8e3f 812a 5c5f 8c8b d03f
00000030: 9d1d c2e4 12e5 cc3f ebaf 01dc c3ff e8bf
00000040: 002d 5c12 02a9 af3f 680c 5a87 d7a8 e83f
00000050: cbbe f508 08be a5bf 7e3b 447f b935 ae3f
00000060: 3dbb 01d2 acba d6bf c253 2ecb 003d d8bf
00000070: 93f0 aa01 7603 d1bf 6aa2 c76e 8504 db3f
00000080: a32d 4e7e 81ea d13f b22e 09ad e09b bf3f
00000090: be6e f266 7054 cd3f 6022 f0d3 7a85 b73f
000000a0: 21ee a119 5300 d7bf cb12 c3d8 50f2 bc3f
000000b0: d7eb e2de c55b ddbf c3a4 2526 0d41 ba3f
000000c0: 1562 3f56 dbdf a3bf 2fb1 92ef c156 c5bf
000000d0: 98d3 b6bb 5422 d03f 420c 385a 22bd e13f
000000e0: 93cf ca59 2147 c9bf 7aae c0a2 9c8e 8cbf
000000f0: ae0a ea0a f5fd ad3f 6e2b 5e3d feab cd3f
00000100: e0bf cae4 3f74 abbf 3663 c00c 0168 c63f
00000110: 8656 051c 1b8d d1bf 0389 2dd2 152b a3bf
00000120: da6b c988 89ad d0bf 042d a0b4 81ae d53f
00000130: c274 52dd 0188 b63f 1d15 320a 2c94 d9bf
00000140: 0262 d896 1906 cdbf 31de 12ef 968a c2bf
00000150: ef0c 1711 41b3 d23f 7996 c0c0 099c cdbf
00000160: 1e23 f504 22d7 b13f e546 e4ad 3c16 9d3f
00000170: 1531 cd3e 82fb d6bf baae a49b c729 a6bf
00000180: eee6 eaa4 4109 f7bf 59a3 050c 84a1 ac3f
00000190: 6043 080f 5bd3 b73f 0096 6daf c5b7 e43f
000001a0: 2a29 586a 686d b93f 2792 ba18 2113 e5bf
000001b0: af01 314b 0476 e3bf 7d73 3e73 3b61 e0bf
000001c0: 5531 0977 1b29 e43f 2790 32e8 3c51 ae3f
000001d0: 6a03 e08d be3f e53f 3ee8 37f4 9e0f b03f
000001e0: 9171 9f02 4acb 9dbf ae55 7895 4b1f b5bf
000001f0: 56a5 50a3 3b94 e33f 4e98 ec18 c5ec d93f
00000200: 7940 5813 9604 d1bf 6891 2f58 c225 da3f
00000210: 734f 0dc8 947f cfbf 0193 3ad2 57a0 d4bf
00000220: 8d30 7955 14d0 d4bf be6a 1875 e3ec d23f
00000230: 1712 7e1a cc37 c43f add8 86d0 01f1 d43f
00000240: 4673 37b1 6bbf a2bf 801d aa49 0fe9 b7bf
00000250: 3674 914b 60d9 e0bf 4d12 1b1b 0be4 d13f
00000260: 0f55 6960 922f bb3f 67bf 28e8 2661 9d3f
00000270: 5e81 7f90 e7ab c1bf a0b9 985f ee32 ba3f
00000280: 329b 67b3 c847 b83f 005a 28f6 0a53 d4bf
00000290: e42d bfda 4ca1 c0bf 26a8 65c0 2aa9 d83f
000002a0: 8118 a7f2 27cd ba3f 33b5 ccde 1159 d03f
000002b0: e7c4 e7d0 cba7 d03f 408b f0b6 e3af d3bf
000002c0: ccdc cf25 b796 dd3f 9a96 22af 8017 f9bf
000002d0: ec9d 4144 b671 6cbf 69f5 a465 eb43 e13f
000002e0: 5f5a 0491 49b6 d73f a558 18e2 35d0 ee3f
000002f0: 8bd0 e2b0 b6bb cc3f 59e6 f606 8574 a03f
00000300: 2f5e b646 e6dc d53f f338 c693 84f7 d03f
00000310: 8c44 01e3 5384 d63f 711c 2977 7312 dc3f
00000320: 5c41 1151 78f7 c8bf 51cc 92f8 bcfc 8fbf
00000330: afbf d140 5291 eb3f 4597 6ea0 b929 c6bf
00000340: cf01 2a3f 4763 b23f 4182 b3c2 f00e d2bf
00000350: 2748 1700 52a7 e0bf 4bad bf08 57a3 d1bf
00000360: 43b2 58b5 dd1d c9bf 53f8 bde4 bdd8 f3bf
00000370: 22d5 0bae 290a bf3f 99d9 19ff a5a3 c93f
00000380: dec0 cc2b 8f17 d9bf de47 2107 254e d83f
00000390: 9ee1 6d3e ae74 c0bf ccdd 8c58 05d3 a53f
000003a0: f735 8806 5ef3 dd3f 793f e549 0c1a b03f
000003b0: aad1 d056 1473 acbf 8f7b 5f84 e3da d8bf
000003c0: 81ed 691e b369 cbbf 9be0 5ec6 230e b2bf
000003d0: 241b 0c82 a6d2 94bf 11d0 8424 e44d cd3f
000003e0: c6d0 4451 df00 913f 7574 0cf1 d1f6 e1bf
000003f0: a4a8 eeb6 1f05 d0bf 7da0 8e97 e0f7 b3bf
00000400: aabe 6854 bb56 b5bf fbff fe40 ded3 d6bf
00000410: 5b6e aa5a efd8 c5bf 6f12 f766 3610 c03f
00000420: 6f06 7cf7 2d28 d33f dc44 811e b811 b93f
00000430: 11f7 5a9a df2d d23f c603 3425 d70b debf
00000440: e0fc 8c19 8826 bbbf 1cdf 41ec 5179 e0bf
00000450: bdf6 e19e 295e c63f 6c9d a32e 3a39 dabf
00000460: 8955 f0b7 8ce0 eb3f c238 a1ca 310f bebf
00000470: 02d2 69a8 b459 ccbf 65c9 9e96 39c9 cf3f
00000480: f741 0e88 367e b13f 44d6 dd01 627f 933f
00000490: 172c d1a6 7be1 d9bf 3da1 6e1c ef17 b13f
000004a0: f4de 5278 2d13 c63f 180a 21b6 5a2a ca3f
000004b0: b8d2 ebcf fbdc 863f 30ab a665 ad33 c7bf
000004c0: d885 6619 390f eabf 63fb c648 dee1 c63f
000004d0: 783e 894e 340c c43f 2f1e d590 10de ccbf
000004e0: e36a a305 c34f dfbf b7c6 65ae 076c 8abf
000004f0: a236 6f2d 8f21 cc3f 9cc8 5383 3c32 e1bf
00000500: c88d a11d 9ab0 76bf 2d31 3900 32f5 d3bf
00000510: fdcb dc82 2dd0 95bf 2d27 d0df 0c67 c6bf
00000520: 6256 4cad ea1e d2bf 03f6 7a8c 188c e03f
00000530: 931d 460b ec08 c93f d16e 4c85 e258 a33f
00000540: 9314 1f34 943e b53f 4ae6 13a7 d3d1 c7bf
00000550: 51af da15 4187 c33f 75ea 8ffc 4b03 a3bf
00000560: 0918 3d13 3837 a73f 08ac 1bee 8682 c23f
00000570: be3a 4130 68c1 b0bf db1d 6b67 87fb ddbf
00000580: de29 3453 c199 c7bf 97c9 1eae 4699 9cbf
00000590: 633b ae32 9009 cb3f 8c4c 9742 8953 d8bf
000005a0: 5b0f ecfc db2c d0bf 3a99 eabe bd7a e4bf
000005b0: 632e 19ed 71e4 cbbf a795 e841 bcad c1bf
000005c0: 677b f7a9 bdd7 8ebf 5e3b 9677 3ed8 c53f
000005d0: 290f bf99 ab26 e7bf 4a4c b427 ec8f e93f
000005e0: 5bf7 f789 4b7f e1bf 5e2b 97d9 4aca c3bf
000005f0: cb20 c032 aabe db3f 0e28 c4e4 72af e93f
00000600: b72c af4e 22a2 8abf 290f 138e 7c71 c8bf
00000610: 4d50 a10e d79f dd3f d04e aac2 74cd cc3f
00000620: 219e 2fc0 96a1 c23f 52bb 89c5 4955 e33f
00000630: 78f2 87f4 2628 cabf 6078 8793 fa83 cabf
00000640: 1c61 afce ab85 c53f 2f8b 7d9a 22fe e03f
00000650: cb3d 0b68 f5da d9bf a748 b52d 59cf d0bf
00000660: 83a6 5e97 3ed5 d6bf aeb4 921c 927f d03f
00000670: baa0 5334 c6b3 babf d7ac 4f93 6889 d23f
00000680: 321b 7ef8 acf1 c83f b5cc b392 d76d d13f
00000690: 3f4f 8df9 247a bbbf f358 d5b5 0b95 d83f
000006a0: e3bb c752 414f ce3f e739 5485 cddb c3bf
000006b0: 2e94 5f6f e581 cfbf a201 28e4 4ab9 d13f
000006c0: 2594 01aa 56c1 d2bf 182d 4366 50db cc3f
000006d0: 24dd ec12 538f cbbf 1183 c081 4f62 c23f
000006e0: c642 2b8f 7346 79bf 7ecd cb9e 9a4a c5bf
000006f0: 15c7 6c85 e5b5 d7bf d7c8 0eef 1077 ce3f
00000700: 5326 763e 3b4c d63f ce5a a6f7 69cb cb3f
00000710: 22aa 0170 671a c63f 04a7 f502 d6c6 b6bf
00000720: 3096 8597 c9e8 b03f 0780 79b4 05aa e03f
00000730: e566 d334 4edd d5bf ff44 e224 8969 c0bf
00000740: c832 7636 3673 dcbf a496 0cc2 939a c0bf
00000750: 5210 0043 70e6 dc3f fc4b bfee 8dd7 c03f
00000760: 8933 24bc 7026 e3bf 1b44 1969 6265 b73f
00000770: d800 5418 dce6 d03f f23e e0ab 3adc d33f
00000780: 8b54 3e09 1634 c33f cb53 1892 155f a4bf
00000790: c168 0a91 eaec d13f 8cdc 4902 1c6f d23f
000007a0: 1aa2 2f12 7578 9fbf 7beb 57e0 0887 dbbf
000007b0: 2ed2 d21f 97de d23f 2d9d ff49 21a2 b13f
000007c0: 7c3a 2835 6d54 c6bf 896a 8b13 4c00 d53f
000007d0: e98a 2c94 9840 c23f 30d5 e5f1 0ba6 d53f
000007e0: cd34 c01a 46bd e1bf c03a 469b ab3c e2bf
000007f0: a085 53e7 4fae a5bf f4e6 bda1 b8e4 943f
